best_models/default/dqn.pth (torch, 22824 bytes, 4 tensors)

linear1.weight f4 [256, 16]
00000000: 7aed 4e3f 5bdd 9cbc 4c2a be3e 46a1 ca3e
00000010: 5319 8abe c28c edbe c9c3 35be 949b f43e
00000020: b914 8f3e 66a8 b5be 42b8 efbb feb9 47be
00000030: 305b 563e c1f0 443d 6158 1f3e e45d 823e
00000040: 791a acbd be03 543f e8c8 08bf 8a52 493f
00000050: eed3 1440 1d26 e63d d90b 783e 3b0c 393e
00000060: e1b1 8bbe b45d 8abe feb1 0fbe cd25 1dbe
00000070: de7e 2cbe 242a f0be 6a23 7e3e 1166 8f3e
00000080: 07b2 883e dbd7 df3e 096f 283f 8e05 303f
00000090: 146b 583f 078c c93e 1233 88bf 0bdf bcbf
000000a0: 3a17 d5be a84c 05be 2e33 8d3d 87e8 273d
000000b0: 9618 623e 5e4c cc3e 597f 483f 67f7 70be
000000c0: 14a8 313f e1fd cc3e 3698 1fbf 6c3d 5c3e
000000d0: c2e8 0940 348c 693f e1f3 b93e b336 113f
000000e0: 00b5 033f 529b d23e fd33 fe3e 8b1b 903d
000000f0: 6b25 2f3e 9fcf 1bbe 3cac 2b3e efd3 623e
00000100: 043f 193f b635 2dbe efc6 b4bc b6dc bdbc
00000110: edd3 58bc 43af 923f 8ee5 8e3f 2221 5a3f
00000120: e28c 433f f39c 043e f22d 4d3e 4cf9 033e
00000130: 3838 543e f7c7 dc3e 4d6d 183f ad17 733f
00000140: 6649 0dbf e236 3ebf 2dd1 a2be 6bd2 b6be
00000150: 4924 9e3f 398a 99be cfff 5e3e f9b5 a4be
00000160: 6aa6 4dbe 4295 a43d fc2a 803d 2a3e 5e3d
00000170: 0f95 d03d 79c2 823e fcca fc3b c825 48bd
00000180: f3df 653f 34bb 063f c168 1abe e057 843d
00000190: d0de d83f f711 aa3f 0268 e93e 2f83 ca3e
000001a0: 69fc 0c3f 077e 9e3e 9968 673e 4189 8f3e
000001b0: 8e72 b93e f128 b23e d7c8 613f c25a 363f
000001c0: 1cc7 9d3d 66c4 6ebe 5422 28be 146c aabd
000001d0: c01f 203d 8642 61be 649b dcbd 5842 19be
000001e0: 009e 353a 5084 bebd f0ea 8dbc 2479 2dbe
000001f0: 98b7 2fbe d259 15be 9c41 afbd 500e 4abe
00000200: a2e3 263f 2fbb 0f3f 41a6 713e ac22 023f
00000210: ac90 0140 e811 8a3f 1d24 8a3e b687 b13e
00000220: ee92 743e d2db 123e 6b86 da3e 5125 a43e
00000230: bc03 0c3f 3d7d 363e a403 313f 9cb8 913e
00000240: 8502 0c3f 9c08 33bf 12b9 663e d78f 2e3f
00000250: fd93 243f 9f94 20bf b9e4 f33d 4e60 3dbd
00000260: 5530 ed3d f468 35be 0583 233e 576d a8bd
00000270: e868 743e 9554 833e ae05 9f3e 670e b03d
00000280: cda4 b93e ffc2 acbe 57e2 f13e 2856 183e
00000290: 562a 3a3f f362 e8be 3f08 00bf 91e7 723e
000002a0: 507c 4d3e de80 94bd a65c f4bd 921d 73bd
000002b0: 3155 d73e 3543 2e3c cdb4 47bd 565a acbc
000002c0: fd6f 8bbf 4acf 003e 04ce 2e3e 5609 d6be
000002d0: 92d1 893f f6c4 1cbe 4993 64bd 3930 d43d
000002e0: 2521 da3e b94f 813e 2671 be3d 438b 873c
000002f0: 7972 89bd 1bef 42bd b315 d0be 1e05 dbbe
00000300: 0aeb 913e 3b6c 803f ca4a 3b3e b316 ca3c
00000310: 8ce4 61bf ad44 9cbe adb4 003e 1b42 9a3e
00000320: 18a8 f53d 3907 4c3e 0e34 503e ec95 383e
00000330: d40f 383e a694 9c3d 1a9b 0d3d f090 1f3c
00000340: 690c f63d c927 763f 1f3b 633e 8811 8d3d
00000350: 337d 75bf ddb0 cfbe 7934 923c 92aa e53e
00000360: ee58 933e 65af 613d 021f f73d 72db e93d
00000370: 597d f63d 6dee c73e 84f4 123e 56d1 823d
00000380: 9f96 10bd fc55 1f3e b283 333f d2a2 dfbe
00000390: cc0e 17be 9d11 2abf 37f8 33be cdfe 123f
000003a0: a2f9 4e3e c122 793c 6dff 3abe c714 16bd
000003b0: 645b 853e c186 b93d a378 0e3e 442b db3b
000003c0: 6109 db3e 9156 33bd 7ba5 f53e c2d4 013e
000003d0: 1f3a 3e3f fdff 19bf 73a5 12bf 78a1 953d
000003e0: 87aa d03d 279c 7f3e a9d4 bcbd 21bc 17be
000003f0: 26e3 e53d 2d50 27be 92ea bd3d d7bb 30be
0.8083111 -0.01914852 0.37141645 0.39576167 -0.26972446 -0.46396452 -0.17750467 0.47774947
0.27945498 -0.3548004 -0.0073156664 -0.19504544 0.20933223 0.048081163 0.15561058 0.25462258
-0.08403487 0.8281821 -0.5343156 0.7864157 2.3254352 0.11237738 0.2422327 0.18071072
-0.27284148 -0.27024615 -0.14032742 -0.15346451 -0.16845271 -0.4690715 0.24818197 0.28007558
0.26698324 0.43719372 0.65794426 0.68758476 0.8453839 0.39364645 -1.0640585 -1.4755567
-0.41619283 -0.13017523 0.068945274 0.04099324 0.22079691 0.39902014 0.7831932 -0.23531877
0.6939709 0.40037444 -0.6234163 0.21507806 2.1548314 0.9122956 0.36318877 0.5672409
0.5144806 0.41134125 0.4964904 0.070365034 0.17104118 -0.1521592 0.16764921 0.22151159
0.5986178 -0.1691502 -0.022067515 -0.023176532 -0.013234121 1.1459736 1.1163805 0.85206807
0.76386845 0.12950496 0.20037058 0.12888068 0.20724571 0.4312131 0.5954178 0.94958
-0.5519012 -0.74302495 -0.31800213 -0.3570741 1.2354823 -0.29988268 0.2177727 -0.32170084
-0.20083013 0.08036281 0.062581986 0.054258503 0.10184681 0.25538996 0.0077146273 -0.048864156
0.89794844 0.526294 -0.15079023 0.06462073 1.6942997 1.3286732 0.45587164 0.3955321
0.5507265 0.30955526 0.22598495 0.28034404 0.3622021 0.3479686 0.8819708 0.71232235
0.07703993 -0.23317108 -0.16419345 -0.083213955 0.03909278 -0.21998033 -0.10771826 -0.14966714
0.0006928146 -0.0930258 -0.017323941 -0.16940743 -0.17159879 -0.14585045 -0.08557436 -0.19732022
0.6519109 0.56144994 0.23598577 0.50834155 2.024455 1.0786715 0.26980677 0.34673852
0.23884174 0.14341667 0.42680678 0.3205972 0.546932 0.17821212 0.6914618 0.28461158
0.54691344 -0.6993501 0.22531536 0.6818823 0.6428831 -0.6272678 0.1190886 -0.04623442
0.11581484 -0.17715818 0.15967949 -0.0822398 0.23868144 0.25650468 0.3105902 0.08596497
0.36258546 -0.3374252 0.47242996 0.14876616 0.7272085 -0.45387992 -0.5001258 0.23721148
0.20066953 -0.07251142 -0.11931734 -0.059354372 0.42057183 0.010636141 -0.04875641 -0.02103917
-1.0893551 0.12579075 0.17070776 -0.41803998 1.0767081 -0.1530951 -0.055804525 0.1036076
0.42603412 0.25256136 0.09298925 0.016545897 -0.06711287 -0.04759131 -0.40641555 -0.42777342
0.28499633 1.0033029 0.18290249 0.024669027 -0.8823936 -0.30521145 0.12568922 0.3012856
0.11994952 0.1992463 0.20332357 0.1802594 0.17974788 0.0764554 0.034571745 0.009739146
0.12014086 0.9615446 0.22190522 0.068881094 -0.95894164 -0.40564623 0.017847287 0.44856697
0.28778785 0.05509891 0.12066461 0.11418809 0.12035627 0.39049092 0.14351088 0.06387584
-0.035299893 0.15560144 0.70122826 -0.4367891 -0.14751738 -0.66433126 -0.17575155 0.57420045
0.20212415 0.01520604 -0.182615 -0.03664091 0.26046288 0.090589054 0.13913207 0.0066885073
0.42780593 -0.043783728 0.47977814 0.12678817 0.74307436 -0.6015623 -0.57283705 0.07306188
0.101887755 0.24961911 -0.09220249 -0.14817859 0.11224966 -0.16339178 0.09273256 -0.17259155

linear1.bias f4 [256]
00000000: 3709 31bf 7b93 af3e 9114 ce3e 106b 673f
00000010: 7b92 9a3f e213 aebd ad58 873f 24ed ea3d
00000020: 47f0 5f3f 11df 22bf c0e5 1dbf ab1b 04bf
00000030: 6949 79be a902 b1be 9961 08bf 55af 40be
00000040: 1416 efbe 4d02 8f3f 8844 34bd 456d d53e
00000050: 2c5c 2fbe cb61 43be 34b5 82be 4063 a9be
00000060: 7502 8bbd 63a0 a3be 185d aebe 602e 64be
00000070: 9a06 263f fb31 8b3f 402d 523f af56 983f
00000080: 24e9 8e3f 6a09 f33e 20d6 09bf e703 993e
00000090: 0d63 a63f 6963 523e 6865 0bbf f2cc 173f
000000a0: 54cb a73f d05a 16be ed35 8e3e e7e1 a4be
000000b0: 65cb 0e3f 2d16 1abf e30d 1d3f 1953 0e3f
000000c0: b20e 34be d962 ad3f be88 03be 66d6 dabe
000000d0: 5672 27be 679e fcbe 8799 b83f 4b5d 8d3f
000000e0: b090 8d3f 9353 573e 6d5d 32be dde8 babe
000000f0: 689c b5be b268 8a3f dfc5 b7bd d5dc a9bc
00000100: 9079 533d 8eec debe bb45 043f 71aa 01bf
00000110: 1a81 a93e c3ec be3b 8d25 38be 4c51 b33e
00000120: d8ab 9dbd 71d0 f5be 8643 18be 49f4 d6be
00000130: bed5 fdbe 4d4d 02bf e2c3 ddbe 67ca a83f
00000140: 9bff 17bf 34ce b43f 26a7 883f 01a4 24bc
00000150: fc90 573f 72ac e23d c97d b0be ec19 59be
00000160: 0f4a 4cbe 5a82 cb3f f193 9f3f 5d8f febe
00000170: 4b28 be3f 8a0d bb3c d432 c83f 80f8 72be
00000180: 48e3 803f 918e 9abe 3ebe dabe ea43 e9bd
00000190: 27cb 02bf 567a 02bf 3c8b edbe 666d 41bf
000001a0: ba4c 0bbf 8503 0bbe bacf 893f e197 fdbe
000001b0: 4714 cdbe f48d 01bf f7e9 20bf e465 083d
000001c0: f226 60be 8313 4a3d 1c06 26bf 1f77 8a3f
000001d0: 36be 953f f448 a8bd 5c7e b2be 0cd0 983f
000001e0: 336c 753d 02f5 24bf 7d23 9e3f 2471 20be
000001f0: aa0b 2cbf 4a2e 44be d836 c2be 49cc ba3f
00000200: f39b 30bf c725 debe 4ab5 49bd 0db9 90be
00000210: 0339 8abe d013 e7be ccbc 62be f0ed 08bf
00000220: 30bc 273f 96f8 9a3f 213c a5be d4a0 bbbd
00000230: d4fd 97bd c433 a63f 187b ba3f 1002 4ebe
00000240: 4f6c f4bd 1049 b3be b93a b7be 356b a23f
00000250: 61bc 8cbe fb28 a2be cc1f af3d 91dc dabe
00000260: ede9 4e3f 748e 04bf 8167 f63b 8817 b5be
00000270: 4271 d3be c324 a7be 451e edbe 337d 2ebf
00000280: 88e5 203f 7e8d b53f 771b 03bf 4f9f 1bbe
00000290: b076 b7be e361 5c3f bcd4 e4be 814e 93bc
000002a0: 9f9e 33bf b13b 29be f228 0fbf 62ff f7be
000002b0: 94ea 05bf 01b2 0b3e 8085 98bd 5756 69be
000002c0: 2c4d 0fbf a864 813f 3fec 923f efc4 8b3f
000002d0: 0940 f83d 446c e23d dd0c c13f be51 1cbe
000002e0: 2fa6 ae3f 36a4 60be f352 b1be e5f5 e03e
000002f0: b00b 3ebd eaa0 913f a237 0cbf 3afd a6bd
00000300: 507c 953e 7b83 0ebe 3204 21bf 68b5 d73c
00000310: 8f38 67be 1b3d b0be 48e2 f4be ea79 07bf
00000320: 9480 85bd dc72 793f 5c10 1fbf 1b24 5b3e
00000330: f888 07bd 9c59 90bd 8eb2 12be f60b babe
00000340: 109c c2be f06c b53f 8a47 f5be 5b8a f0be
00000350: 3f4c ab3f e8cd 1dbf 04af 05bf bdf9 38be
00000360: e07e 9a3f 5ba8 25be 2c0d 1dbf 516a 26be
00000370: 7858 8e3f afd7 2cbe 9583 9a3f 6735 51bf
00000380: 87eb 3abe 68b7 d33f 6cef 13be 6844 c6bd
00000390: 7dd5 903f 553c 053f 7d92 6a3f 937b f1be
000003a0: cf20 a93f 69d2 003d 135c 80be 4fa7 ab3f
000003b0: bc5a 753f 32b2 99be 5c21 2abf 49b7 8c3f
000003c0: 0d3d 8fbe c929 59be 38cc 03bf 6f06 37be
000003d0: ffac b23f 501d 49be e6d1 99be 9ade 6e3f
000003e0: d379 b83f da11 f9bd 8950 b83e 3d5c 1fbe
000003f0: 8e6b 2bbf 89c2 893f 71cd d6be adab 5abe
-0.69154686 0.34292206 0.40250066 0.9039774 1.2075952 -0.08499886 1.0573937 0.11471012
0.8747601 -0.6362162 -0.61678696 -0.5160472 -0.2434441 -0.34572342 -0.5327392 -0.18816884
-0.46696532 1.1172577 -0.04401067 0.4168493 -0.17125005 -0.19080274 -0.25528872 -0.33083534
-0.06787578 -0.31958303 -0.340554 -0.22283316 0.64853823 1.0874628 0.82100296 1.1901454
1.1164899 0.4746812 -0.53842354 0.2988579 1.2998978 0.20545734 -0.5445161 0.59297097
1.3108926 -0.1468308 0.27775517 -0.322036 0.55779105 -0.6019009 0.61349314 0.55595547
-0.17583731 1.3545791 -0.12845132 -0.42741698 -0.1635221 -0.493396 1.4421853 1.1044096
1.105978 0.21027975 -0.17418452 -0.36505786 -0.3547089 1.08132 -0.08973288 -0.020735184
0.051629603 -0.43539852 0.516689 -0.506507 0.3310631 0.005826564 -0.17983074 0.35022962
-0.07698792 -0.4801059 -0.14869508 -0.4198325 -0.49577135 -0.508992 -0.4331351 1.3186768
-0.593744 1.4125428 1.067601 -0.010048867 0.84205604 0.110680476 -0.34470966 -0.21201295
-0.19950126 1.5899155 1.2467023 -0.49718753 1.4856046 0.022833604 1.5640512 -0.23727608
1.0069361 -0.30186895 -0.42723268 -0.11389907 -0.51091236 -0.5096792 -0.4639529 -0.75557554
-0.5441395 -0.13575561 1.0766518 -0.49529937 -0.40054533 -0.5060723 -0.62857 0.033300295
-0.21889856 0.049335014 -0.6485307 1.0817603 1.1698673 -0.0821704 -0.3486203 1.1938491
0.05991764 -0.6443635 1.235458 -0.1566816 -0.672053 -0.19158283 -0.37932467 1.4593593
-0.6898796 -0.43388197 -0.049245156 -0.28266183 -0.2699662 -0.45132303 -0.22142333 -0.53488064
0.65521526 1.2107112 -0.32272437 -0.09161535 -0.07421461 1.2984548 1.4568815 -0.20117974
-0.11934721 -0.3501668 -0.3578699 1.2688967 -0.27487472 -0.3167189 0.08550987 -0.42746404
0.8082569 -0.51779866 0.007519663 -0.35369515 -0.41297346 -0.32645234 -0.46312156 -0.6815979
0.62850237 1.4183805 -0.51213783 -0.1519749 -0.3583274 0.86086863 -0.44693553 -0.01798177
-0.7016391 -0.16526677 -0.5592185 -0.4843703 -0.5231106 0.13642122 -0.07447338 -0.22786842
-0.5597713 1.0108843 1.1478347 1.0919474 0.12121589 0.11055806 1.508205 -0.15265557
1.3644465 -0.21937642 -0.34633598 0.43937603 -0.046397865 1.1377232 -0.5477239 -0.08153768
0.29196405 -0.13917343 -0.62897027 0.026331618 -0.22580169 -0.3442162 -0.4782889 -0.529204
-0.06518665 0.97440886 -0.6213434 0.21400492 -0.033089608 -0.07048342 -0.14325926 -0.3633725
-0.3800969 1.417387 -0.47906142 -0.46980557 1.3382643 -0.61642313 -0.5222018 -0.18064018
1.2069969 -0.16177504 -0.61348224 -0.16251494 1.1120749 -0.16879152 1.2071406 -0.8172211
-0.18253909 1.6540346 -0.14446801 -0.09681016 1.1315151 0.52045184 0.91629773 -0.47164592
1.3213137 0.031450663 -0.25070247 1.3410434 0.95841575 -0.30018765 -0.6645715 1.0993434
-0.27976266 -0.21207346 -0.5148349 -0.17873548 1.3959044 -0.19640088 -0.30042952 0.93308413
1.4412178 -0.12161608 0.35998943 -0.1556253 -0.6696099 1.0762492 -0.41953614 -0.21354552

linear2.weight f4 [3, 256]
00000000: 6e39 1ac0 bb2b 153f b34d 0c40 dd2b f33e
00000010: 06b1 393f 471e 7bc0 3bdd 143f a411 26bd
00000020: f7e7 093f 6669 70bf 2cbb a6bf 4e81 40c0
00000030: 508d d9bf f19a 9ebf a554 8cbf 6a9e 11bf
00000040: d79c efbf f03f 3a3f e682 16bd a9f2 f73f
00000050: 28af 413d c571 d5bf 6d7e 60bf 8c6b 69bf
00000060: 4018 c5bf f979 4abf 5656 eebf 9c2a 39c0
00000070: b7af 4b3e 4bf3 3f3f c812 2f40 74c2 433f
00000080: 6f84 4a3f 9554 f83f 14c5 b0bf ba95 5f3f
00000090: 34bf 2b3f dbcf 3ac0 0f22 9bbf 2238 843f
000000a0: dc5d 143f bd00 3ebf 2255 803f d5a8 82c0
000000b0: 4d2a 143f e51b 4bbf 3b7b e33e 76e5 2d3f
000000c0: d733 6bbf 7445 3b3f 01ff 68bf 1278 c7bf
000000d0: 5abb 27bd f303 64c0 1790 3e3f 52ae 593f
000000e0: c58e 3e3f 50c8 ea3e 9b49 eabe 9bf6 b5bf
000000f0: 2555 abc0 80ac 443f f091 6bbf 338a fabf
00000100: 7232 12c0 bdca 78c0 ed93 50bf 39d3 c1bf
00000110: dd84 063f 510d 123f 9847 8dbf d01f 7f40
00000120: 0374 40c0 06ac 2fc0 547b 6fc0 5951 f5bf
00000130: 14ca 2ec1 2556 b8bf e652 91c0 b5bd 223f
00000140: 0d5c 3ec0 5b60 463f b9d3 283f 43bd 78c0
00000150: 22ab 0e3f 8ce3 59c0 75a9 c1bf eec8 573d
00000160: a98b 44bf cb47 eb3e 572a 483f eea6 37bf
00000170: 734e bf3f 0030 9440 360f 2d3f 2278 5abf
00000180: bf92 123d b659 bfbf a0c1 b3bf 8215 02c0
00000190: 03f4 8ebf c243 45bf b330 25c0 ed08 29bf
000001a0: 2249 c1bf 8541 97bf 6f62 3a3f 1d1e 5bbf
000001b0: e111 d5bf 84ec 863e ee74 b9bf bde4 48c0
000001c0: 7abf 37bd 680a 6ebf 3a3f 2bbf c402 243f
000001d0: 77ac 353f b563 4cc0 8802 dabf 5d18 243f
000001e0: 9c87 91c0 03e1 d4bf 1ef5 293f 0f47 1ac0
000001f0: b1fe 9fbf e247 77bd e0e6 2ec0 3044 0140
00000200: 881b 39c0 30d9 95bf 648a 9cc0 0dcc 1ac0
00000210: 7a1f 91c0 bce2 26c1 608d 8abf 5b80 fcbe
00000220: 6bc3 693f 64b9 3e3f 4405 d1bf a701 0bc0
00000230: f57a 04bd 1049 2c3f 31b2 1c3f 23bc afbc
00000240: 7c12 21c0 ff87 053e d3e8 13c0 0f35 553f
00000250: 8159 a53f 24bc d33e 4140 1ac0 a3d1 61c0
00000260: 2f11 0240 7476 35c0 531c 223f 7396 dbbe
00000270: 6d6d abbf bf5f 9bbf 938e d5bf eb65 23c0
00000280: 0532 1540 a6e1 403f 462c 27c0 c4e6 acbf
00000290: 1723 bebc 1baa 253f 0804 c4bf 90bf 22c0
000002a0: 67f8 be3e 3c10 00c0 4b0b 2bbf afdb 5bbf
000002b0: a246 d0be dade b5be f928 18c0 730c 3abf
000002c0: 3b90 c1c0 8b4c 333f 471a 223f 1cf5 503f
000002d0: 2c81 1dbf fb13 c33f d9da 133f 9d8b 03c1
000002e0: 227f 3e3f 9471 2bbd 46f1 48c0 242e 6c3f
000002f0: a81e 05c0 0778 493f 033d 313e 744d 55c0
00000300: 0ef5 ccbf a6b4 edbf 9e24 1fc0 4da2 3bc0
00000310: bd86 59c0 fa81 00c0 cead 46c0 ea02 00c0
00000320: d55c b7bf 4428 363f 1c61 babf 3442 e23e
00000330: 6477 42c0 a30d 58bf 18c4 5bbf 2523 9abf
00000340: 5968 70bf 5b5a 3b3f 9c28 90bf 9ce2 cdbf
00000350: 12e4 4c3f eea4 fdbf c25e 9fbf fac5 37c0
00000360: 252f 383f 5b59 18bf 2ad9 49c0 0179 2dc0
00000370: 1943 313f a1d3 3fc0 f5da 0f3f a1e5 49bf
00000380: 8e99 69c0 b810 c63f 30b9 cebf 601f d0bd
00000390: e90c 023f eee8 d4be adcb 1e40 97ee e4bf
000003a0: 7a34 373f 1306 28c1 328b e0ba 6fa9 f83f
000003b0: eece 143f 58fd 32c0 0fb5 08c0 6d68 4b3f
000003c0: efce a3be 4fdb f1bf bd81 78c0 f88b 19c0
000003d0: c6e8 383f ebca a5be 1b9d 5ec0 95e4 1f3f
000003e0: fbeb 153f b20e 8ec0 7145 6ec0 5df8 44c0
000003f0: 5ec7 3dc0 0fa6 2d3f a1fb 05c0 d468 2fc0
-2.4097552 0.5826985 2.1922424 0.47494403 0.7253574 -3.923723 0.5815007 -0.040544167
0.53869575 -0.93910825 -1.302587 -3.0078921 -1.699625 -1.2391034 -1.0963331 -0.56882346
-1.8719739 0.7275381 -0.03674593 1.9370929 0.047286183 -1.6675345 -0.8769291 -0.9117973
-1.5398026 -0.79092366 -1.8620098 -2.8932257 0.19891249 0.7498061 2.7355213 0.76468587
0.7910833 1.9400812 -1.3810143 0.8733784 0.6708863 -2.9189365 -1.2119769 1.032963
0.5795572 -0.74219877 1.002598 -4.0831094 0.57877046 -0.7933944 0.44429955 0.67928255
-0.91875976 0.7315285 -0.91014105 -1.5583518 -0.040950157 -3.562741 0.74438614 0.85031617
0.744366 0.4585595 -0.45759282 -1.4215883 -5.3541436 0.76825714 -0.9201956 -1.9573425
-2.284329 -3.8873742 -0.81475717 -1.5142585 0.52546483 0.5705157 -1.1037474 3.9863167
-3.0070808 -2.7448745 -3.7419024 -1.916545 -10.9243355 -1.4401289 -4.5413694 0.6357072
-2.9743683 0.77490777 0.65948063 -3.8865516 0.5572988 -3.4045134 -1.5129839 0.052681856
-0.76775604 0.4595321 0.78189605 -0.7173909 1.4945816 4.6308594 0.67601335 -0.8533956
0.03578448 -1.4949253 -1.4043465 -2.0325627 -1.1168216 -0.77056515 -2.5810974 -0.66029245
-1.5100443 -1.181687 0.7280645 -0.85592824 -1.6646081 0.26352322 -1.4488809 -3.138961
-0.04486034 -0.9298463 -0.6689335 0.6406672 0.70966285 -3.1935856 -1.7032022 0.64099675
-4.547804 -1.6631168 0.66389644 -2.410587 -1.2499601 -0.060371287 -2.7328415 2.0197868
-2.8923054 -1.1706905 -4.8918934 -2.4187043 -4.5350924 -10.430355 -1.0824394 -0.49316677
0.9131381 0.74501634 -1.6329732 -2.1719759 -0.032343823 0.67298985 0.612094 -0.021452015
-2.5167532 0.1304016 -2.3110855 0.83284086 1.291794 0.41354477 -2.4101717 -3.5284202
2.0322988 -2.8353548 0.6332447 -0.4288822 -1.3392769 -1.2138594 -1.6684135 -2.5530956
2.331178 0.7534431 -2.6120772 -1.3507924 -0.023210092 0.64712685 -1.531373 -2.542942
0.3729889 -2.0009909 -0.66814107 -0.85882086 -0.4067889 -0.35521585 -2.3775008 -0.72675246
-6.0488563 0.7003867 0.63321346 0.8162401 -0.61525226 1.5240473 0.5775581 -8.221585
0.7441274 -0.041856363 -3.1397262 0.92257905 -2.079996 0.7869877 0.1730843 -3.3328524
-1.6012285 -1.8570755 -2.48661 -2.931781 -3.3988488 -2.0079331 -3.1043582 -2.0001779
-1.4325205 0.7115519 -1.4560885 0.44191134 -3.038537 -0.8439581 -0.8584609 -1.2041975
-0.9390922 0.73184747 -1.1262393 -1.6084781 0.8003551 -1.9815958 -1.2450793 -2.8714585
0.71946937 -0.59511346 -3.1538796 -2.7105105 0.6924301 -2.9972918 0.56193477 -0.7886601
-3.6499972 1.5473852 -1.6150265 -0.10162234 0.5080095 -0.4158396 2.4811814 -1.7885312
0.7156445 -10.501483 -0.0017131327 1.9426707 0.5812825 -2.7967129 -2.136051 0.79456216
-0.31993815 -1.8895053 -3.8829186 -2.399168 0.72230184 -0.32381377 -3.478339 0.62458163
0.585632 -4.439294 -3.7229884 -3.077659 -2.9652934 0.6783151 -2.0934832 -2.7407732

linear2.bias f4 [3]
00000000: 70da 813f 2df3 8a3f ada6 843f
1.0144787 1.0855461 1.0363365
