best_models_ablation/inside/dqn.pth (torch, 13608 bytes, 4 tensors)

linear1.weight f4 [256, 7]
000000 66 07 ff 3e 8b 6e da 3e 8b ff 79 bf 58 b3 c7 3e
       0.49810332 0.42662463 -0.9765555 0.39004016
000010 02 68 0c 3f 43 e1 06 3d 26 a0 af 3e 3d 3e 78 3e
       0.54846203 0.03292967 0.3430187 0.24242492
000020 6c e8 dd 3d 35 21 c6 3d c6 8c 22 3e fb 30 90 3f
       0.108353466 0.096743025 0.15874013 1.1264948
000030 e0 8a d5 3e be 2c 12 bc b3 88 97 3e ea 86 4a be
       0.41707516 -0.0089218 0.2959648 -0.19778028
000040 c0 89 0e bc 4e 77 8c 3c 05 14 bd 3e 59 45 90 3d
       -0.008699834 0.017146733 0.36929336 0.07044477
000050 1e fa 82 bd 76 17 54 bd 28 ca 32 be 74 cb 62 3e
       -0.06395362 -0.051780187 -0.17459929 0.22147924
000060 97 c8 89 be 6b 6d 32 be 45 eb 0b be 29 25 80 be
       -0.2691085 -0.17424552 -0.13663967 -0.2502835
000070 fa 4b 0c bd 66 da 92 be e4 45 d8 bd 12 6a 06 bf
       -0.034252144 -0.2868225 -0.105602056 -0.525056
000080 b7 98 4b 3f e0 62 85 3e 8e 59 0e 3e dd 37 ce 3e
       0.795299 0.26051998 0.1390135 0.40276995
000090 d1 8e e0 3d fe 89 ea 3e 19 ff ae bd ef dc b8 3e
       0.1096474 0.45808405 -0.0854475 0.3610606
0000a0 7f e8 4d 3e 65 14 5a 3e 35 3e 88 bf d1 68 7e bc
       0.20108221 0.21296842 -1.0643984 -0.01552792
0000b0 8e 74 9c bb 52 14 d5 bd 32 81 75 3f 76 3e 45 3e
       -0.0047746366 -0.104042664 0.9590026 0.19262108
0000c0 df ac 00 bd a5 0d 36 3e 8b 58 db be 4d be 86 3d
       -0.031414863 0.17778642 -0.4284099 0.06579266
0000d0 f7 0f 33 bf ff 4e 24 3f 2e 4b ef 3d 8e 00 25 3f
       -0.69946235 0.6418304 0.11684261 0.6445397
0000e0 b5 df 15 3f 96 aa 80 3e 45 bf 82 3e a8 2e 4d be
       0.58544475 0.25130147 0.25536552 -0.20037329
0000f0 19 7b 0e 3c b0 9a 4c be 22 b5 4a 3e c8 49 05 be
       0.008696341 -0.19980884 0.19795659 -0.13016427
000100 24 30 ed 3d 68 45 a1 bd 89 80 a0 3e 91 65 65 be
       0.11581448 -0.07874566 0.31348065 -0.22402026
000110 c8 d3 66 be 59 d7 66 be 2e 26 10 3f 73 e2 b2 3d
       -0.22541726 -0.22543086 0.5630826 0.08734598
000120 50 78 ed bb b3 e5 e6 bb bb ce b4 3e 8c 14 f4 be
       -0.0072470084 -0.0070464252 0.35313973 -0.47671926
000130 f3 98 7b 3d 61 cc ad 3e 76 f2 ae 3e 7b 8a 8e 3c
       0.06142516 0.3394499 0.34169358 0.017400017
000140 35 11 73 3e 35 c4 88 3e 7a 5f cc 3e 80 15 40 3e
       0.23737033 0.26712194 0.39916593 0.18758202
000150 b5 6f b6 3e 85 ab 2f be ba 95 1d 3b a9 45 e2 bd
       0.356321 -0.17155273 0.0024045543 -0.11048443
000160 2f 3f 1b 3f e2 9c 96 3c ef 27 1a 3e 25 15 80 bf
       0.60643286 0.018385354 0.15054296 -1.0006453
000170 96 f5 0c 3e f8 74 2e 3d 68 f2 0d be ff 42 28 3f
       0.13765559 0.04259202 -0.13862002 0.6572723
000180 f2 b8 e2 3e f5 ec a1 3d e1 35 09 be 2e 3f bb be
       0.44281727 0.07906524 -0.1339946 -0.3657164
000190 ce a4 5d be a8 5d c1 3d 20 58 4c bd cc 78 8c be
       -0.21644899 0.09441692 -0.04988873 -0.2743591
0001a0 e0 41 11 3c 89 05 4b bf ff 75 e6 be 9b e3 63 bd
       0.0088658035 -0.7930532 -0.450119 -0.055636983
0001b0 8a 57 43 bd 41 a4 c9 bd a8 7d f4 3e b2 91 9a 3d
       -0.047690906 -0.09845782 0.47752118 0.075473204
0001c0 23 60 aa 3e b9 a8 b2 be a2 8c 7a bf e3 21 69 be
       0.33276471 -0.3489435 -0.9787084 -0.22766833
0001d0 96 bf fe 3e 89 71 ed bd 73 42 0f 3e c0 b4 67 be
       0.49755543 -0.11593921 0.13990192 -0.22627544
0001e0 00 4a 89 3a 67 04 10 be 30 8f d6 bc 28 22 83 be
       0.0010474324 -0.1406418 -0.026191324 -0.25611997
0001f0 66 d4 84 be 1a cc 61 be aa 66 2c be a0 59 cf be
       -0.25943297 -0.22050515 -0.16836038 -0.40498066
000200 0a 85 0a bd 7b f3 00 bc 8e 47 72 3f 28 41 92 3e
       -0.033818282 -0.00787055 0.94640434 0.28565335
000210 b1 df 0a be 42 7a 82 3e 00 12 70 be 46 ac 94 bf
       -0.13561894 0.254839 -0.23444366 -1.1615074
000220 0b 93 4b bf 4a a2 70 3e a0 63 d9 3d f2 be df 3e
       -0.79521245 0.23499408 0.10614705 0.43700367
000230 3e 68 59 3e 17 4f 94 be 23 8d 84 3e 3b 71 81 be
       0.21231171 -0.2896659 0.2588893 -0.252817
000240 ae 1b 2e be ef f5 f2 3d 2b 2f f5 3e 41 2e af 3e
       -0.17002746 0.11863314 0.4788755 0.34214976
000250 d1 d1 b8 bd 5f 79 6d ba 97 c4 8f 3c a1 3c 7c 3e
       -0.09024394 -0.0009058918 0.017549796 0.24632503
000260 84 31 2a be a8 c6 30 be ef 9f 49 3f 2c 90 1e be
       -0.16620451 -0.17263281 0.78759664 -0.15484685
000270 0a b9 d4 3e ce f9 7d bd c3 53 35 3f fc a0 86 be
       0.41547424 -0.06200581 0.70830935 -0.26294696
000280 4f ea 0b 3f e5 b8 8d 3e c3 ce f9 3d 9e 71 5f bf
       0.546544 0.27680126 0.1219764 -0.8728274
000290 2f 33 11 3e b0 f3 ff 3d 7d a5 ad be d8 0b 9e 3e
       0.14179681 0.124976516 -0.3391532 0.3086841
0002a0 fe 79 9a 3c 94 c9 ff be 63 bd 98 3c e4 fe 48 3d
       0.018856999 -0.4995848 0.018644994 0.049071208
0002b0 8e 07 6d 3f e8 08 1b 3e 8f 96 38 3c b9 e3 1f 3e
       0.9258965 0.15140116 0.011266365 0.15614213
0002c0 ce 35 15 be 91 73 68 bc bb e0 8b 3f 00 d4 51 be
       -0.14571306 -0.014187709 1.0927957 -0.20491028
0002d0 de 6a b8 3e 6b 1c 29 3f 9d a4 12 3f 5c d0 55 3c
       0.36019033 0.6605899 0.5728243 0.013050165
0002e0 79 2a e1 3e d1 47 41 3c 8b 38 20 3f b9 81 8f 3d
       0.43977717 0.0117969075 0.6258628 0.070071645
0002f0 37 c1 2a 3e cd a0 26 be 2d a4 3b bf 82 ba e5 3b
       0.16675268 -0.16272278 -0.7329739 0.007010759
000300 1d f1 a7 3d 35 3b 80 3f bf 7d c0 3d 6e 82 0d 3d
       0.082002856 1.0018069 0.09398984 0.034548216
000310 c4 16 ad bb 9c 0b e4 bc 14 24 a7 3d 88 3c c6 3d
       -0.005282255 -0.027837567 0.08161178 0.09679514
000320 8c c3 af be ba 3f 18 be 76 42 9e 3e 4c 59 e0 3d
       -0.34328878 -0.1486806 0.3091008 0.10954532
000330 fd 2e 9e be be 8d 94 bf 4d be 06 be f5 84 d3 3e
       -0.30895224 -1.1605756 -0.13158531 0.41312376
000340 ec 40 6d bd 3e 80 96 3e 7c 0b 9d 3d ff 1c c6 be
       -0.057923242 0.29394716 0.07668206 -0.38693997
000350 6f 35 43 bd 2e d0 65 3b e5 9f f3 3e 3c 40 9d 3e
       -0.04765838 0.0035066712 0.47582927 0.3071307
000360 47 1b 0a be 09 79 5e bf 23 22 4f 3e 0b 03 8e 3e
       -0.13486968 -0.86903435 0.20227866 0.27736697
000370 42 ba cb 3d 98 8b 6c 3f 8b cc c7 3d f4 29 05 3e
       0.09947635 0.92400503 0.0975581 0.13004285
000380 a6 3d e5 be 49 f5 cc 3e ae c1 58 3d 0b f0 8a be
       -0.44773597 0.40030888 0.052919082 -0.27136263
000390 86 58 bf 3e 88 6a 0f be 82 38 91 be f0 42 c9 3e
       0.37372226 -0.14005482 -0.28363425 0.39308882
0003a0 84 02 f3 3e 9c 90 eb 3d 81 9f 3f 3e 84 dc 29 3f
       0.47462857 0.115021914 0.1871319 0.66352105
0003b0 83 2f 1e 3c 7f 9b 87 be c9 b3 52 bf 26 4d b8 be
       0.009654882 -0.26485822 -0.8230558 -0.3599636
0003c0 df b7 48 bd af 8c 78 bd 09 88 30 3f 86 47 a4 3d
       -0.04900348 -0.06068104 0.68957573 0.080214545
0003d0 b3 1d 96 3d 60 34 88 be 28 e5 7c be 46 62 00 3e
       0.073298834 -0.2660246 -0.24696791 0.12537488
0003e0 18 0d e6 bd 0e ef 6e 3e 30 54 f8 bd 55 f5 8d be
       -0.11232966 0.2333338 -0.121254325 -0.27726236
0003f0 0e 98 e3 3e 3f cf 14 3e b3 24 cf be 60 8e 36 bf
       0.44451946 0.14532183 -0.40457687 -0.71310997

linear1.bias f4 [256]
000000 cc 0d c6 be 0c 6d f1 3e cd d0 5f bd f1 f9 5d be
       -0.386824 0.4715351 -0.054642487 -0.21677376
000010 ee 63 8b 3d 67 40 48 be bd 0a d7 3e fa 79 97 bd
       0.068061695 -0.19555818 0.4200038 -0.07396312
000020 2c 06 1e be 32 c4 92 be 37 60 23 3d 83 ed 15 3e
       -0.15432042 -0.2866531 0.03988668 0.14641385
000030 e6 d8 0b be 0b e9 e5 ba b9 d4 3a be 52 db 2a 3e
       -0.13656959 -0.0017540766 -0.1824521 0.16685227
000040 ae e0 01 3f 74 51 60 be 63 68 3e 3e 5b 35 94 be
       0.5073346 -0.21906072 0.18594508 -0.28946957
000050 11 d6 0c be 06 fc 53 3e ad 04 5f bd 79 df 4a 3e
       -0.13753535 0.20701608 -0.05444782 0.1981181
000060 7e 1b 3a 3e 7f 34 88 3d a5 f5 b6 bd c8 cf ee 3e
       0.1817455 0.06650638 -0.08933572 0.466429
000070 8c 85 99 be 4f e9 86 3e c6 43 11 3d 5d 10 c3 3e
       -0.299847 0.26349875 0.035465024 0.38098422
000080 ee 7f e4 3e 7c 2e af bd e4 0d 08 3f 14 2e 9a be
       0.44628853 -0.08553788 0.53146195 -0.3011328
000090 c7 5e 4a be 02 9a bc 3e db 72 2f 3d 94 18 13 3c
       -0.19762717 0.3683625 0.042834144 0.008978028
0000a0 f4 c4 b4 bd 04 c4 f6 be 0d f5 91 3e aa d2 2f 3e
       -0.08826628 -0.48196423 0.2850727 0.17170206
0000b0 69 42 b9 bc 98 9d 92 3e 01 28 bf 3e 93 f8 0e be
       -0.022614675 0.2863586 0.37335208 -0.13962011
0000c0 17 b1 06 be bc c9 af 3e 10 ff 4c 3e 9d 65 3e be
       -0.13153492 0.343336 0.20019174 -0.1859345
0000d0 30 a4 7f 3d fc d1 90 3d 9a 04 f1 3d b4 eb 86 3c
       0.06241244 0.07071301 0.11768456 0.016469814
0000e0 70 38 06 3d 26 8d 99 be 90 dd 19 3f 6c 24 85 3f
       0.032768667 -0.299905 0.601037 1.040174
0000f0 d8 1c 9d 3e 5a 0f d4 3e 87 af 89 3e c7 9a f6 3d
       0.3068607 0.41417962 0.2689173 0.1204124
000100 62 b5 29 be a2 02 6a be 46 2e 54 be 67 b0 59 3d
       -0.16573098 -0.22852567 -0.20720777 0.053146746
000110 c9 f9 cb 3e 72 cd a1 3c 2a ef 8c 3e 8e 22 49 3e
       0.39839008 0.019751284 0.27526218 0.19642088
000120 3d 96 ce be f9 dd 8b 3e b0 f2 a7 3e 75 c6 c6 3e
       -0.40348998 0.2731779 0.32802343 0.38823286
000130 d9 f4 91 3e 26 cb 36 3e 5c 9a 0c 3e 72 67 10 3f
       0.28507116 0.17850932 0.13730758 0.56407845
000140 21 e3 40 3e 63 aa 1e 3e a7 40 c4 be ae be 8e 3e
       0.18836643 0.15494685 -0.38330576 0.27879852
000150 a6 16 e3 bd a4 cf 1a 3e e2 fc 56 3e 33 32 98 be
       -0.11088304 0.15118271 0.20994905 -0.297258
000160 ea 5e 48 be b3 9e 6a be e6 c8 e8 3e f6 5a 34 3e
       -0.19567457 -0.22912101 0.45465773 0.17612824
000170 1a 0a 8c 3e 83 1b b8 3c 2c 26 2b be 72 d9 f1 3e
       0.27351457 0.022474056 -0.1671378 0.4723621
000180 96 ee 32 3e ce 7f b4 bd b8 5c 8f 3e b9 1d 8b 3e
       0.17473826 -0.08813439 0.28000426 0.27171114
000190 5e 71 c1 be 45 73 b0 3e 7f 87 0e be 8f 7b 14 be
       -0.37781805 0.34462944 -0.13918875 -0.14500259
0001a0 a9 b9 60 3e e7 b6 1c be 18 cd b8 3e 94 65 92 3e
       0.21945824 -0.15304147 0.36093974 0.28593123
0001b0 96 39 d9 3e e8 c5 aa be 1e 49 18 be a5 7c b4 3e
       0.42426747 -0.33354115 -0.14871642 0.35251346
0001c0 c1 a8 9b 3e 14 5f 26 3e e4 ea 0a be 47 16 19 3e
       0.30402187 0.16247207 -0.13566166 0.14949904
0001d0 ae a9 31 3d 25 35 0a 3d ca 40 04 be 34 49 40 3e
       0.04337471 0.03374209 -0.1291534 0.18777925
0001e0 c4 f7 8c 3e 41 8f b1 be e6 6a 76 be 4e 50 36 3e
       0.2753278 -0.34679607 -0.24064216 0.17804071
0001f0 c2 88 1a 3e 7a 46 4c be f2 f7 fd 3e d4 77 0f 3e
       0.15091231 -0.1994876 0.4960323 0.14010555
000200 08 ea 70 be a9 66 e1 bc 60 6a 23 3e 22 a8 b5 bd
       -0.23526776 -0.027514772 0.15958548 -0.088699594
000210 77 8f 16 3e 98 4e 11 3e c9 5b 83 3e 89 27 04 bd
       0.14703165 0.14190137 0.25655964 -0.032264266
000220 03 7d 97 bb 39 3c 8c 3e 34 7f 9b be 7e ca 90 3e
       -0.004623057 0.27389696 -0.30370486 0.2827949
000230 35 40 21 bd d3 b7 08 3f c1 12 a9 be b9 fe 36 be
       -0.039367873 0.53405493 -0.3302212 -0.17870606
000240 87 53 f1 3e 3b cb b8 be 78 94 e1 3e 84 65 52 bd
       0.4713404 -0.36092553 0.44058585 -0.051366344
000250 8e e4 47 3e b8 36 bb bc fe a0 b7 3d 73 32 be 3e
       0.1952078 -0.02285324 0.08966254 0.37147865
000260 37 b3 15 be d9 5f 6f bd a6 f1 b7 be 08 22 e0 be
       -0.14619146 -0.058441017 -0.3592655 -0.43775964
000270 d0 f4 9e 3e 07 b3 23 be 37 7d 8b be 7c 46 14 bf
       0.31046152 -0.15986262 -0.2724397 -0.5792005
000280 50 6a fa bd 2a 32 62 3d 48 19 c1 3d c2 8f 9e 3e
       -0.12227309 0.05522362 0.0942865 0.30969054
000290 46 ac a6 be 19 66 b8 3e ac d9 e6 3d c9 02 18 3e
       -0.3255331 0.36015394 0.11271986 0.14844812
0002a0 ac fd 3a 3c ee d9 86 3e 79 bb ef 3d de 3d 04 be
       0.011413019 0.26338142 0.117056794 -0.12914225
0002b0 91 c0 4c be fa 39 d1 bc 30 7e 4e be 85 c9 bd 3e
       -0.19995333 -0.02554034 -0.20165324 0.3706781
0002c0 b8 09 f9 3c 10 8a d8 bb 78 2c d8 3e 29 48 5c 3e
       0.030400142 -0.006608255 0.42221427 0.21511902
0002d0 f9 9e de bc 7b 4a 6a be 19 ea 58 3d 64 f0 25 3e
       -0.027175413 -0.22879975 0.052957628 0.16204983
0002e0 d4 da 4f be 5a 9d dc 3c 93 a6 dc 3d 3b e9 cb 3e
       -0.2029832 0.0269305 0.10773959 0.39826378
0002f0 ac 1e b2 3d 77 d7 21 3e 23 6f 42 3e 29 fa 7f 3e
       0.086972564 0.1580485 0.18987708 0.24997772
000300 ad 36 86 3e 5c 53 b2 bd 0a b4 b5 be 34 f7 9b 3e
       0.2621359 -0.08707306 -0.3548892 0.3046204
000310 8b a3 55 bb 33 42 8e 3e 5c c7 4d 3d 07 4a 1e 3f
       -0.00325987 0.2778488 0.050238952 0.61831707
000320 11 a7 f0 3e 7d 45 27 be a4 9d c3 be 9c de 55 be
       0.47002462 -0.16335101 -0.38206208 -0.208857
000330 b7 ee a8 bd 78 a5 1c 3f 1c b5 01 3d d3 87 66 3e
       -0.08248656 0.61189985 0.03166686 0.2251275
000340 99 60 08 bd 6c 75 3d be 9d d4 04 3e 31 35 55 be
       -0.033295248 -0.18501824 0.1297173 -0.20821072
000350 88 7c 64 3c 36 0f 88 be da c4 db 3e 84 53 6f 3e
       0.013945706 -0.26574105 0.42923623 0.23371702
000360 34 f5 fb 3d 9d ea 69 bd 7c 06 a2 3e 5c 8f c8 bd
       0.12302628 -0.05710851 0.31645572 -0.09792969
000370 32 00 88 be d6 86 62 be a6 1c 72 be e3 3b 2b 3e
       -0.2656265 -0.22121748 -0.23643741 0.16722064
000380 af 33 61 3e cd e5 38 be c1 89 04 be 3c 08 a5 3d
       0.21992372 -0.18056412 -0.12943174 0.08058211
000390 60 24 50 3e b5 03 bf 3d 0c 8f 11 3f bc 13 fa be
       0.20326376 0.09326879 0.568589 -0.4884318
0003a0 55 fc 84 3d 00 76 5f ba 42 f9 83 be 91 6e 93 be
       0.06493441 -0.0008524358 -0.25776106 -0.28795293
0003b0 ca 53 42 3e 11 6d e8 3d 83 0c f2 3e 8b 80 45 3e
       0.18977275 0.11348928 0.4727517 0.19287317
0003c0 b9 bb 58 bd 4f a1 49 be 98 22 a4 bd e5 f8 83 3d
       -0.0529134 -0.1969044 -0.08014411 0.06443957
0003d0 8b 5a 87 be 9a 19 1d be ca 33 c6 3e c3 a7 5f 3e
       -0.26436266 -0.15341797 0.38711387 0.2184134
0003e0 26 b6 80 3d b6 78 2a be 5e 94 f6 be 7e 98 3e 3e
       0.06284742 -0.1664761 -0.4816007 0.18612859
0003f0 b1 e5 a9 3e 1b e9 1e 3e e2 64 69 3e 39 ea b1 3e
       0.33183053 0.1551861 0.2279239 0.3474901

linear2.weight f4 [3, 256]
000000 f1 3a 37 bf 18 f7 08 3f b1 18 65 be 02 55 d5 3b
       -0.7157431 0.53502035 -0.223727 0.006510378
000010 00 4e 11 bf bb a5 a5 bf 91 56 24 bf 20 81 0b bf
       -0.56759644 -1.2941202 -0.6419459 -0.54493904
000020 6d c3 a1 bf e8 16 f9 3c 26 70 6e be fb b0 6a 3e
       -1.2637764 0.03040643 -0.23284969 0.22919075
000030 16 f0 28 bf cb 81 ae bf 78 92 94 3c 3b 05 68 c0
       -0.6599134 -1.363336 0.018136248 -3.6253192
000040 52 df 2b be b0 a6 88 3b d5 ed 24 bf 13 48 59 bf
       -0.16784409 0.0041702613 -0.644254 -0.848756
000050 b1 49 c5 bf 82 60 87 be bb 35 87 bf 13 9d 4f be
       -1.5413114 -0.26440817 -1.0563272 -0.20274763
000060 35 59 ad bd de 63 af bf 9f 2d 7b bf e0 de b5 be
       -0.084642805 -1.3702352 -0.9811649 -0.35521603
000070 1f c8 d2 3c b0 88 b7 be df 04 3f bf 98 4b af be
       0.02573019 -0.35846472 -0.7461681 -0.3423736
000080 ab eb 8d bf 82 6b f0 be 96 5b dd bf 58 21 6e bc
       -1.1087545 -0.46957022 -1.7293575 -0.014534317
000090 17 15 8d bf 00 88 09 3f 5c dd 0d bf cf 18 82 3e
       -1.1022061 0.53723145 -0.5541589 0.25409552
0000a0 1e e0 1e 3d bb 27 b9 3f de b6 5b bf 68 bc 9b bd
       0.038787954 1.446525 -0.8582591 -0.07604295
0000b0 6d 93 ac bf d7 14 47 bf b4 6b f2 be ac 22 ac c0
       -1.3482491 -0.77766174 -0.47347796 -5.3792324
0000c0 32 03 89 be 05 a5 36 bf df 48 ba bf 0c de 60 bd
       -0.2676025 -0.7134555 -1.4553488 -0.05489926
0000d0 29 9f 08 3f 0c 85 44 bf fc 3d 42 bf ce 7b 0f c0
       0.5336786 -0.76765513 -0.7587583 -2.2419314
0000e0 ca b7 d0 bd 7c d9 f8 3c 68 09 16 3f 6d f6 bf 40
       -0.10191305 0.030377142 0.586081 5.9988313
0000f0 0d fe 65 be 28 8d cd be 7d b2 17 c0 fe 57 b4 bf
       -0.22460194 -0.40146756 -2.370269 -1.4089353
000100 1b 93 e4 bf a8 a4 9e bf c0 b3 9c bf 83 8e e0 bf
       -1.7857393 -1.2393999 -1.2242355 -1.7543491
000110 1a f9 3e bf 8d 83 17 3f ab 3c d1 be a1 d4 2c bf
       -0.7459885 0.59185106 -0.40866598 -0.67511946
000120 39 44 f5 be f4 13 06 c0 37 28 ff 3e 02 67 85 c0
       -0.47903612 -2.0949678 0.4983537 -4.168824
000130 06 2c 14 c0 f6 74 86 bf 36 7d f9 be b2 c9 33 3f
       -2.315187 -1.0504444 -0.4872834 0.7022964
000140 5e 4f 1c c0 84 be e1 be d6 1f 08 bf 33 c0 98 bf
       -2.4423442 -0.44090664 -0.5317358 -1.1933655
000150 55 b9 89 bf 46 b9 93 be a3 bb 04 bf 7e 47 9a 3f
       -1.0759684 -0.2885229 -0.5184881 1.2053068
000160 1c 4f 55 bf 12 3d 6f bd 4f 21 79 bf 8b b5 e1 bf
       -0.83323836 -0.05840785 -0.9731645 -1.7633528
000170 86 f1 6f bf 3e ca 55 bf da 8e 68 bf c6 ed c8 3e
       -0.9372791 -0.8351172 -0.90842974 0.39243907
000180 36 99 ab be 3a e6 44 3f 82 1e b2 bf bf 26 6c bf
       -0.33515328 0.769138 -1.391556 -0.9224662
000190 2f c0 e5 3c 41 f3 81 c0 27 f2 b3 bf 7e 3f 0a bf
       0.028045742 -4.060944 -1.4058274 -0.5400313
0001a0 98 86 de bf 56 5a e5 be 18 01 b5 be b8 43 3f c0
       -1.7384825 -0.44795483 -0.35352397 -2.9885082
0001b0 bb fa d0 3d 01 c9 11 3d 58 94 23 bf c0 d8 22 3f
       0.10204073 0.035592083 -0.6389823 0.63611984
0001c0 87 70 6e c0 63 37 4a bf c2 9e aa bf fb 32 a9 bf
       -3.7256181 -0.78990763 -1.3329699 -1.3218683
0001d0 f5 a1 ad be 20 87 24 bf 3c 1c b0 bf 83 14 4a bf
       -0.33912626 -0.64268684 -1.3758616 -0.7893755
0001e0 12 13 15 bf ae da 1b 3d 8f c7 a4 be 2c b5 2c bf
       -0.58232224 0.038050346 -0.321835 -0.67463946
0001f0 83 64 d4 be 5a 3a eb 3e 7e b9 cd 3e fe b3 ed 3e
       -0.41482934 0.45942956 0.40180582 0.46426386
000200 1f c4 9c 3f 63 31 46 bf 6c e5 24 bf 4b c0 0a c0
       1.2247351 -0.7741911 -0.6441257 -2.1679866
000210 ef 56 b9 be 63 77 6a be 37 54 f6 be 35 bd e7 be
       -0.36199138 -0.22897105 -0.48111126 -0.4526154
000220 da be 71 bf 01 36 19 bf f1 de 04 bf 46 fb 0e 3f
       -0.9443184 -0.5984803 -0.5190268 0.5585216
000230 50 af 9a bf 13 a4 86 c0 3e 1e 1e bd 20 f3 b0 bc
       -1.2084751 -4.2075286 -0.03860306 -0.021600306
000240 11 42 cc bf c0 e2 45 bc f3 2e 9e bf 07 ad c5 be
       -1.5957662 -0.012077987 -1.2358078 -0.38608572
000250 4b 73 e2 bf 16 51 0e be f3 84 04 3d 41 06 1d 3f
       -1.7691435 -0.1389812 0.032353353 0.6133767
000260 51 7b 32 bf 0e 6b 39 3d a4 c7 51 bd ff c3 9d bf
       -0.69719416 0.04526811 -0.051215783 -1.2325438
000270 be c1 f4 bf 6f 24 96 bf 00 31 16 3a eb 7b f5 be
       -1.9121625 -1.1729869 0.00057293475 -0.47946104
000280 69 8c 31 37 a6 a5 a1 be de 82 8e bf 9a 17 e3 be
       1.0582714e-05 -0.31571692 -1.1133687 -0.44353944
000290 03 9e 51 be 99 5b ee 3e b0 13 de be c5 8e 63 bf
       -0.20470433 0.46554258 -0.43374395 -0.88889724
0002a0 bb d0 05 bf 28 19 b9 3e b0 5b 98 bf 67 e7 99 3f
       -0.5227162 0.36152005 -1.1902981 1.2023743
0002b0 08 3c 1d bf d6 82 08 bf da 1d f7 be 11 ce cd bf
       -0.61419725 -0.5332464 -0.48264962 -1.6078511
0002c0 fa 5e 0c bf a6 7b 64 bf bc 74 0c bf a4 72 01 bf
       -0.5483242 -0.8925117 -0.5486562 -0.5056555
0002d0 25 22 fa be fb 88 22 be 55 44 95 be d3 35 a0 be
       -0.48854175 -0.15872566 -0.29153696 -0.31291065
0002e0 b6 4b 55 bf 23 a9 fe 3e c0 97 73 3f b5 e5 72 be
       -0.8331865 0.49738416 0.9515343 -0.23720439
0002f0 2b 9b b1 be 3e a5 24 be 72 ea 57 bf 47 b1 9b be
       -0.34688696 -0.1607866 -0.8434211 -0.3040869
000300 b1 b7 90 c0 7b 67 c1 bf ff 16 fd bc 0a be 88 3e
       -4.5224233 -1.5109705 -0.030894754 0.26707488
000310 b8 d9 84 3f 7c b9 9e 3e 69 ec 08 bf 2a 29 8c c0
       1.0378942 0.31000888 -0.53485733 -4.380025
000320 94 4b b3 c0 93 80 97 bc 8c 81 52 bd bd 8a bf be
       -5.602976 -0.018493926 -0.051393077 -0.37410536
000330 57 b6 bb be 07 30 31 ba 61 1c 2f bf bd f8 c9 be
       -0.36662552 -0.0006759171 -0.6840268 -0.39447585
000340 2b 1a 85 bf 96 bd bd be db d9 69 bf 2f 83 1f 3f
       -1.0398611 -0.37058705 -0.91348046 0.62309545
000350 b3 b4 0a bf 40 d4 ba ba 20 e0 c7 3e fc 02 49 bf
       -0.54181975 -0.0014253929 0.3903818 -0.7852018
000360 04 51 07 3f c1 89 89 be 4d a5 95 3e a2 b2 73 bd
       0.52857995 -0.2686291 0.29227677 -0.05949653
000370 85 fc 31 bf 48 3b 2e be 37 f6 11 bf 6a c5 c5 3e
       -0.6952594 -0.17014802 -0.5701632 0.38627177
000380 04 94 2a bf c4 51 fe 3c c4 b8 67 bf 14 11 ab c0
       -0.66632104 0.031044848 -0.90516305 -5.3458347
000390 7c 31 10 c0 40 af 49 bf 3c 9f 20 3f 8c c3 54 bf
       -2.2530203 -0.78783035 0.6274297 -0.8311088
0003a0 69 ac 5a be f8 2a f8 bc d9 38 b6 bf ef 38 e1 3d
       -0.21354832 -0.030293927 -1.4236099 0.10997187
0003b0 df 5d 90 bf 04 23 7a 3f 4a ae 4d c0 81 2f bc bf
       -1.1278647 0.9770968 -3.2137628 -1.4701997
0003c0 09 f2 14 be 98 db 81 bf 0a ca 5b 3d ab 56 9f 3e
       -0.14545454 -1.014514 0.053659476 0.3112081
0003d0 2c e0 52 bf a6 94 17 bf 20 8b 86 3d f6 2c 09 bf
       -0.8237331 -0.59211195 0.06569505 -0.5358423
0003e0 56 b1 95 be 80 32 38 bf be 04 79 bf 78 d0 9c bf
       -0.2923686 -0.71952057 -0.9727286 -1.225112
0003f0 7e 26 34 bf 84 ef dd be 46 08 ba bf 68 b3 53 bf
       -0.70371234 -0.43346798 -1.4533775 -0.8269563

linear2.bias f4 [3]
000000 83 50 0b 3f 48 2b be bf 68 9b b3 bf
       0.54419726 -1.4856958 -1.4031801
