best_models_ablation/inside/ppo.pth (torch, 189354 bytes, 33 tensors)

backbone.0.weight f4 [64, 7]
000000 54 61 c6 3e 9f 2f 2e bf c6 1a 73 3f 7f 6b 28 3f
       0.3874613 -0.68041414 0.9496273 0.65789026
000010 79 ee 3d 3d 6b ed 3f bf 6c 16 6c be ed 1a 88 bf
       0.046370003 -0.74971646 -0.23055428 -1.0633217
000020 cf f0 8c 3f a5 47 92 be 7d 41 05 3f dc be 91 be
       1.1010989 -0.28570285 0.5205305 -0.28465927
000030 a1 35 24 3e b5 e8 f7 3e 30 27 21 3e 22 f2 bd 3f
       0.16036083 0.4841973 0.15737605 1.4839518
000040 59 93 a6 bf 11 85 85 bf 4c a5 72 be f0 c8 ed 3e
       -1.3013717 -1.0431234 -0.23695868 0.46442366
000050 00 96 85 be 0d 7b c7 3f 55 91 0e 3e be 47 c1 bd
       -0.26091003 1.5584427 0.13922627 -0.09437512
000060 f7 f3 20 be 87 f8 84 bd fb 37 7d be c2 79 98 be
       -0.15718065 -0.06492715 -0.24728386 -0.29780394
000070 cf e5 81 3f db 34 2c bf 9f e3 2b 3d 78 b7 d3 3e
       1.0148257 -0.6726815 0.041965123 0.41350913
000080 63 42 53 bf 6e 6e 55 bd f2 09 e4 3e 25 cf ed be
       -0.82523173 -0.052107267 0.44538838 -0.464471
000090 2a 0a fa 3d 43 bf d9 bb e0 e6 9f 3d 80 c7 f2 3e
       0.1220897 -0.0066451146 0.07807708 0.4741783
0000a0 43 f1 e0 be 20 7b 82 3e 8c 40 9c bf 83 88 08 be
       -0.43934068 0.25484562 -1.2207198 -0.13333325
0000b0 27 ad 6e be 50 92 22 3e 03 60 a4 3d ed c1 07 3f
       -0.2330824 0.15876126 0.08026125 0.5303028
0000c0 27 09 a4 be 99 32 b6 bf 77 02 04 3f ce c4 16 bc
       -0.32038233 -1.4234191 0.5156626 -0.009202195
0000d0 07 cd 26 be 79 53 3c 3f 88 cb 66 3e 3d 9d 0a be
       -0.16289149 0.7356487 0.22538579 -0.13536544
0000e0 98 53 a4 3d 40 aa 1e 3f 44 6f 1c 3f da a1 3f be
       0.08023757 0.6197853 0.6110728 -0.18714085
0000f0 e7 de 04 bd d6 19 47 be e6 1e 5b bf 48 47 13 3e
       -0.03243914 -0.1944345 -0.8559402 0.1438266
000100 a5 ee ed bf 90 9d 8c bd 57 6a bb be b8 3b 2f bf
       -1.8588454 -0.0686599 -0.36604568 -0.684505
000110 c4 94 ee 3e fd 77 5b be 61 5a c9 3d 43 7e 3c bf
       0.46597874 -0.2143249 0.098316915 -0.7363016
000120 1d 61 60 bf ad ec 96 bd 8e 8b 0e be cd 16 2f 3e
       -0.87648183 -0.07369361 -0.13920423 0.17098542
000130 24 5b 84 3f d3 7f 89 3f 08 6d 49 3f fb 08 79 bf
       1.0340314 1.0742134 0.78681993 -0.9727933
000140 e9 b4 91 3f 33 a6 cf 3e ab de 8e be be e1 85 bf
       1.1383334 0.40556487 -0.27904257 -1.0459516
000150 9b 48 b1 3d e9 46 01 3f 6c 81 cc 3e 07 73 a3 be
       0.086564265 0.50498825 0.3994249 -0.31923696
000160 dc e0 1c 3d d7 13 3c 3e ea 02 a2 bf ae b4 83 3e
       0.03830038 0.18366943 -1.2657139 0.25723785
000170 30 79 9b 3f 44 2a a0 bf da c7 c1 3f 69 f2 fd be
       1.2146358 -1.2512898 1.5139115 -0.49599007
000180 f4 7b 03 3e fa 27 55 bf 25 8b 88 3f 45 07 8e 3e
       0.12840253 -0.83264124 1.0667464 0.2773992
000190 14 11 1a 3f de 1d ce 3e f9 a1 e2 be d9 75 f8 3d
       0.6018231 0.40257162 -0.442642 0.12131853
0001a0 a5 a6 97 bf 99 c8 50 3f 63 aa 87 3f a3 15 a6 3e
       -1.1847731 0.8155609 1.0598873 0.32438383
0001b0 6d 67 86 be 50 f0 cd bd ee 65 10 bf a5 ee 35 3e
       -0.26250783 -0.100556016 -0.5640553 0.17766817
0001c0 39 14 cb bf 64 3b 2c 3f a3 8e 46 bd 72 16 0c be
       -1.5865546 0.6727812 -0.048475873 -0.13680437
0001d0 15 c8 e2 3e 37 2f 97 3e 56 5b 49 be df c1 9d 3f
       0.44293275 0.2952821 -0.19663748 1.232479
0001e0 5b fc 74 bf 31 a8 c4 bc dc da 9d 3e e2 a5 e1 3c
       -0.95697564 -0.024005981 0.3083104 0.02754492
0001f0 51 28 96 3e 98 8e c8 be 1c a3 a3 3f 04 5c 56 bf
       0.29327634 -0.3917129 1.2784152 -0.83734155
000200 31 f7 91 3d 51 77 d9 3e 79 42 3e bf 55 90 23 3e
       0.07127226 0.42473844 -0.7432018 0.15973027
000210 48 46 15 bd cc d8 17 bf cb 01 68 3f 2c 13 46 be
       -0.03644398 -0.5931518 0.90627736 -0.19343251
000220 fd 4a a3 bf fe df d2 3e 95 fa 99 bd 64 b0 31 be
       -1.275726 0.41186517 -0.07518498 -0.17352444
000230 60 40 fe bc 74 2b 56 3f 1c 94 22 bf 72 22 16 bf
       -0.031036556 0.83660054 -0.63507247 -0.5864631
000240 ee f6 6b bf af 96 6f be 47 06 33 3f ae 59 c5 be
       -0.9217366 -0.23397325 0.69931453 -0.38544983
000250 12 84 e6 be 41 65 36 bf 8b d5 c5 3d a8 b9 7c bf
       -0.45022637 -0.7124825 0.09659871 -0.9872079
000260 16 9d 2d 3f 73 f3 96 3f 73 33 5f 3f bc e3 4e be
       0.6781782 1.1793045 0.8718788 -0.20204061
000270 99 6c 52 3c 32 cb 9a bf 38 9a 4d 3f bd ee 06 bf
       0.0128432745 -1.209326 0.80313444 -0.52708036
000280 8e 46 1f 3e 59 e1 1e bf b3 f0 60 bf 86 a1 10 bf
       0.15554258 -0.62062603 -0.8786728 -0.56496465
000290 af d2 45 be 5e 68 d0 bf de 68 2f be 7b a8 22 bf
       -0.1931865 -1.628185 -0.17129847 -0.6353833
0002a0 2e 4f d5 3e 54 76 bd 3f 87 2d df 3d 5d c4 2a bf
       0.41661972 1.4801736 0.108973555 -0.66705877
0002b0 a4 33 5b be 24 a4 19 bd 64 12 2f bf dc a6 1c bf
       -0.21406418 -0.037510052 -0.68387437 -0.6119211
0002c0 09 da 59 be a6 b4 2c bf 47 65 d1 be 0f 15 3b 3f
       -0.2127458 -0.6746315 -0.4089758 0.7307901
0002d0 be 40 7d 3f 3f 56 b9 be 45 7f 77 bf 5c 78 8a 3e
       0.98926914 -0.36198613 -0.9667857 0.27044952
0002e0 c8 28 2a be 96 12 ca be e3 90 81 3d 87 0c b0 3e
       -0.1661712 -0.39467305 0.06326463 0.34384558
0002f0 ac 0b 00 be 4c c3 b8 3e 72 2d 32 3f df a9 78 bc
       -0.12504452 0.360865 0.69600594 -0.015177219
000300 8b e1 75 be 7b a1 00 bf 0d 3a 16 bf 01 c7 4b 3f
       -0.24011819 -0.502464 -0.5868233 0.7960053
000310 ed 5f b7 be 05 fa d4 bf ec 69 99 3e e1 30 89 bf
       -0.35815373 -1.66388 0.29963624 -1.0718042
000320 15 ed a3 bf 94 39 cd 3e 27 6d c8 be 2c 3a 6b 3d
       -1.2806727 0.4008299 -0.39145777 0.057428524
000330 3d 87 6a bf db 58 5f 3d 67 30 f9 3e ae 3f 84 3d
       -0.9161261 0.0545281 0.4866974 0.064574584
000340 db 41 25 bd 00 18 19 3f d1 db 8f bd e3 7b c2 3c
       -0.040346008 0.59802246 -0.070243485 0.023740714
000350 99 47 be be c9 81 51 be 2f 5f 5e 3f ab 14 61 3f
       -0.37164 -0.20459665 0.8686399 0.8792216
000360 b0 9e 5b bf 9d e5 12 3c d3 a6 8a 3e ee 19 0e bf
       -0.8578901 0.008965877 0.27080402 -0.55508316
000370 af ef 18 c0 a1 61 61 3e 52 5a 47 bc 2b 1f 25 3f
       -2.3896291 0.22009899 -0.01216753 0.64500684
000380 d0 48 b7 3f 56 e4 d7 bf ab 94 cc be d4 0d 73 bf
       1.4319096 -1.6866558 -0.39957175 -0.94942975
000390 94 f1 1e 3f eb 96 92 3d 97 bd 6e be ff 8d b6 3f
       0.6208737 0.071576916 -0.2331451 1.4262084
0003a0 09 28 0b bf e6 ad 41 3e e3 2d fe 3e 32 5d 77 bf
       -0.54357964 0.18913993 0.49644384 -0.9662658
0003b0 b3 08 89 be 1b a3 29 3d 95 8b c7 be 9f 8e 87 bf
       -0.2676445 0.041415315 -0.3897368 -1.05904
0003c0 da 5d 82 3e 47 5f 5a be bd 40 31 3f ef 26 51 3e
       0.25462228 -0.21325408 0.6923941 0.20425008
0003d0 ce 33 58 3f 04 28 99 3e c9 b0 39 3f 58 ae 92 3e
       0.8445405 0.29913342 0.7253538 0.2864864
0003e0 8c f7 49 3d ee 98 1f be ac 55 41 bf b1 48 86 3f
       0.049308345 -0.15585682 -0.7552135 1.0490934
0003f0 a9 c2 8f bf e5 ac 21 bf 51 49 53 3e 8b dd df 3f
       -1.123128 -0.6315444 0.20633437 1.7489485

backbone.0.bias f4 [64]
000000 48 d4 9a be 00 f0 a6 3c ab 99 94 3e 82 70 17 bf
       -0.30240083 0.020378113 0.2902349 -0.5915605
000010 ee fc bb 3d d3 78 f9 3d 99 29 b9 3e 04 0e 20 3e
       0.09179102 0.121812485 0.3616455 0.15630347
000020 7a 27 e6 3d fc a3 e7 3e d2 a9 9a be ca 63 0e bf
       0.11237998 0.45242298 -0.30207688 -0.55621016
000030 77 cc ee 3d 56 67 4c 3d e0 c0 1d 3e be 1f f2 be
       0.11660092 0.049903236 0.15405607 -0.47289842
000040 a6 33 7c 3e 7d 9c 25 3e 7a 51 b0 3d c2 1f fe bc
       0.24629077 0.16172977 0.086092904 -0.031021003
000050 5c e1 f6 be dd f0 bb 3e 55 88 b0 be d8 f7 58 bd
       -0.4821881 0.36707202 -0.34479013 -0.052970737
000060 5d 68 21 be 88 03 10 3f 88 c1 78 3e 8e 40 c6 be
       -0.15762468 0.5625539 0.24292576 -0.38721126
000070 c8 b3 31 3f 3b db 95 bb 96 48 6f 3e b9 c4 de 3d
       0.6941495 -0.0045732534 0.23367533 0.108773656
000080 bc ac 92 be e7 46 d5 3d 43 78 eb 3d e4 16 b1 be
       -0.2864741 0.10413914 0.114975475 -0.34587777
000090 4c 11 04 3e 5c 30 b6 bc d4 6e b1 3e c6 d3 3d be
       0.12897223 -0.022239856 0.34654868 -0.18537816
0000a0 b5 e8 00 be 04 2c 2b bd 4d 1c 34 3e 4e e5 20 be
       -0.1258877 -0.041790023 0.17588921 -0.15712473
0000b0 0c 25 88 3d 06 21 4e 3e 90 b1 ad 3e 60 44 bb bd
       0.06647691 0.20129785 0.33924532 -0.09143901
0000c0 1e d3 8a 3e 22 ed 0a 3e 59 c5 9e be 05 7e a8 3d
       0.27114195 0.13567021 -0.3100994 0.08227161
0000d0 4e e9 49 3e 67 f2 0e bf 1b 73 0e 3f af 21 c2 3e
       0.19717905 -0.55838627 0.55644387 0.37916324
0000e0 44 b3 b6 bd 10 45 74 3e c7 e5 ad 3e 13 1f 0e be
       -0.08920911 0.2385447 0.3396437 -0.13879041
0000f0 d8 16 84 3c 0d a5 fe 3e 92 6d 2c bf 86 d4 01 3f
       0.016124174 0.497353 -0.6735469 0.5071491

backbone.2.weight f4 [64, 64]
000000 c9 5a 55 3c 9c 8f b5 bc 3a 01 e0 3c 5c 4c c1 3d
       0.013022133 -0.022163205 0.027344335 0.094383925
000010 9f 3d e9 3c db dd a9 3c f0 bf 6d bb b5 24 75 3d
       0.028471766 0.020735672 -0.0036277734 0.05984946
000020 a8 ef 6b be 08 dc ac bc 7e 1d b5 3c e0 8e 4f 3d
       -0.2304064 -0.021101013 0.02210879 0.050673366
000030 1e d3 84 3e 91 4c 43 bd 34 9a fa bd 5e 83 b3 3d
       0.2594232 -0.04768044 -0.12236443 0.08765291
000040 92 02 cc 3d a7 5b 22 be eb 39 3a 3e 1f de 8d bd
       0.09961428 -0.15855275 0.18186156 -0.06927132
000050 28 c1 9c 3d 4b 29 9b bd 5b 62 3d be 88 6b 0d 3e
       0.07654029 -0.075762354 -0.18494551 0.13810551
000060 66 15 51 3d 37 20 4d be 28 b0 53 be 94 e2 a5 3d
       0.051045798 -0.2003182 -0.20672667 0.08099857
000070 00 ba 07 be 3a 3a be 3e f5 d9 3d 3d 1c 16 94 3d
       -0.13254547 0.37153798 0.04635044 0.072307795
000080 3e 71 47 3d e5 47 6a bc 16 42 8e 3c 26 fd 05 bd
       0.04869198 -0.014299368 0.017365497 -0.032712124
000090 c8 ae b2 bb 4b 2a 2c 3e 92 e7 d3 3d 59 ae ba 3d
       -0.0054529645 0.16813008 0.10346903 0.091152854
0000a0 6d 8d 0d 3c f2 20 9e 3d 0c b2 de 3c 0e 1a 0f 3d
       0.008639676 0.077211276 0.027184509 0.034936957
0000b0 26 ae a9 3e f5 1e b0 bd 9d 72 21 be 7a bd 10 bd
       0.33140677 -0.085996546 -0.15766378 -0.03533695
0000c0 38 f6 3b 3d 0f ba 91 be b3 23 78 be 2f bf 82 be
       0.04588911 -0.28462264 -0.24232368 -0.25536487
0000d0 46 de 0c 3e 08 7a 78 3c da ed 52 3d 40 dd 0d 3e
       0.13756666 0.015165813 0.051496364 0.13853931
0000e0 37 09 13 be 5c 7e 22 be 66 c4 ca 3d ea 6b 85 3e
       -0.14358984 -0.15868515 0.09900741 0.26058894
0000f0 2d 52 32 be 8c f0 d8 bd 26 cc 22 be d1 1d 57 3d
       -0.1741416 -0.10592756 -0.15898189 0.05251867
000100 d4 e3 9c be 37 1e 63 be 85 8c 68 bd 4c 53 92 be
       -0.3064257 -0.22179495 -0.056774635 -0.28579175
000110 a4 91 e4 3d c5 23 f0 bd 5c 61 48 3f f1 ae 45 3e
       0.11160591 -0.117255725 0.7827356 0.19305016
000120 11 4b 6a 3e 20 fb da 3e b7 11 ec be 6d f8 95 3e
       0.22880198 0.42769718 -0.46107265 0.29291096
000130 50 aa 91 3f 30 f0 9c bd 6e 4d 57 3f 41 dc 97 bf
       1.13801 -0.07663 0.84102523 -1.1864091
000140 c1 63 1a 3f 12 78 0a 3f 92 48 f3 3e 81 97 90 be
       0.6030846 0.5408946 0.47516304 -0.28240588
000150 6c f4 9c be 74 cf f5 3d 05 0f 00 be 32 4b 99 3e
       -0.3065523 0.12002459 -0.1250573 0.29940182
000160 ea 7b 03 3c a7 77 44 3e 37 46 34 3e 2b 23 86 bf
       0.008025149 0.19186269 0.1760491 -1.0479482
000170 0d 52 1d 3f 1f 7d 56 3d 85 73 05 3f 43 e4 42 bf
       0.61453325 0.05236542 0.52129394 -0.7612955
000180 06 45 3f be a6 4d c4 be af 0b 24 3e bb f6 22 c0
       -0.18678674 -0.3834049 0.16020082 -2.5463092
000190 98 22 18 3f a0 8f ec be c3 fd c2 3f 1c c9 3a bc
       0.59427786 -0.46203327 1.5233692 -0.011400487
0001a0 62 b0 0a 3f 74 8b 49 3c de 54 a3 3e 5e 31 bf 3d
       0.5417539 0.012301315 0.31900686 0.09335588
0001b0 e4 94 0d be c4 fa 5f bd d8 2b 54 3f d0 d6 3d be
       -0.13826329 -0.054682508 0.828794 -0.18538976
0001c0 ac e4 d8 3d 11 d7 95 3c 73 99 0e bf c2 8f fb bd
       0.10590491 0.018291028 -0.55702895 -0.12283279
0001d0 2b 6d 05 3e 00 d0 08 bf bc 66 96 3f bf d0 21 3f
       0.13029926 -0.5344238 1.1750102 0.63209146
0001e0 09 1e 2d bd 80 dc 4b 3f d3 a9 e7 3c 55 2b 1e 3e
       -0.042264972 0.7963333 0.02827922 0.15446217
0001f0 11 b7 99 bd 94 15 d4 3f 5f c2 80 bf f7 f9 ea 3f
       -0.0750562 1.6569085 -1.0059317 1.8357533
000200 12 c8 90 3c ad 2a d1 bd 86 97 78 be df 50 21 bd
       0.017673526 -0.10213218 -0.24276552 -0.039383765
000210 98 38 50 bd 3b 26 ef bd e0 10 01 be 04 93 3b 3b
       -0.050835222 -0.11677214 -0.12604094 0.0028621564
000220 ce fc 69 3d 7d 3a 99 3d 91 ea 53 bd 2c 67 84 3d
       0.05712586 0.07481859 -0.05173737 0.06464991
000230 eb 64 35 bd 10 33 f2 ba 76 a4 44 3a 52 b3 09 3d
       -0.044285696 -0.0018478353 0.0007501313 0.03361828
000240 d7 03 28 3e e7 60 b4 bd 4b 2b ca ba 0a 53 95 3c
       0.16407715 -0.08807545 -0.0015424279 0.018228073
000250 ec 5c 61 3e 2a 01 d6 3b fb 01 b7 3d 04 de 27 be
       0.22008103 0.0065309005 0.089359246 -0.16393286
000260 7b dc 40 3e 38 55 30 bc ff 5a d6 3d 8f 57 26 bd
       0.18834107 -0.010762505 0.10466575 -0.040610846
000270 2e cb 26 bc b7 14 1f 3e 1b 3e 11 be f4 cd 19 bd
       -0.010180278 0.15535246 -0.14183848 -0.037549928
000280 30 72 92 3c d2 65 f8 3b d3 00 4b be 7e ba de bd
       0.017876714 0.0075804973 -0.19824533 -0.10875414
000290 d0 7e 54 bd 52 3d cd 3e 37 fc 87 be 86 13 3a 3e
       -0.05187875 0.40085846 -0.26559612 0.1817151
0002a0 bd b5 92 3d e6 80 6b bb 7c 60 02 3e 93 81 5b 3e
       0.0716357 -0.0035934984 0.12732118 0.21436147
0002b0 a7 a9 ec bd ca d7 35 3d 8a 50 f5 3e 87 f7 89 bd
       -0.11555796 0.044395246 0.4791301 -0.06736665
0002c0 37 6b 1e bd 00 4d b1 be e3 02 06 bd 93 92 81 3d
       -0.038676467 -0.3462906 -0.032717597 0.06326785
0002d0 38 1c 12 bd 78 dc a7 3d ae a3 9c 3d 20 aa cf bd
       -0.035671443 0.08196348 0.07648407 -0.10139871
0002e0 cc 26 20 bd 3f 50 d4 3d 18 76 06 3d 1e 5f 76 bd
       -0.0390995 0.10366868 0.032827467 -0.060149305
0002f0 85 d3 36 3d 3d 69 31 3e 47 0b 07 3e 89 ea fa 3d
       0.044635314 0.17325301 0.13187896 0.12251765
000300 69 4e ea bd 77 a8 46 be 79 e8 20 3e 3f ef 06 be
       -0.11440737 -0.19400202 0.15713681 -0.13177203
000310 02 bb 6a bd 8a 19 10 3e 24 f3 a2 be 61 7e b0 bc
       -0.05730725 0.14072242 -0.31826127 -0.021544637
000320 ac 37 30 3e 80 dc fb 3d d5 0f 11 be ca eb 55 be
       0.17208737 0.122979164 -0.14166196 -0.20890728
000330 c1 66 0a be 1c 8d 57 3e f9 fa cd bd 77 93 58 bc
       -0.1351576 0.21049923 -0.10057635 -0.013218752
000340 b1 0d 84 3e 05 f4 cf be 84 25 b3 3e 83 da e3 bd
       0.25791696 -0.4061586 0.3498956 -0.11125662
000350 22 3b bb bd 64 c9 a0 3d 03 f2 a0 bd 69 a2 8e 39
       -0.09142138 0.07850912 -0.0785866 0.00027205356
000360 b9 26 30 be 60 d9 14 3e 21 aa 81 3d 0e 6b 05 be
       -0.17202272 0.14536047 0.06331278 -0.1302912
000370 bb 79 b1 bc f4 77 a2 bd 13 c9 c1 bc b5 6b 01 3e
       -0.02166449 -0.079330355 -0.02365545 0.12638743
000380 1d 92 62 3d 27 53 39 bd 71 0d 3f bd a7 ef cc 3d
       0.055315126 -0.045245316 -0.046643678 0.100066476
000390 9f 85 8f 3d 0b 6e 91 be 53 30 25 3e 49 6d fb 3a
       0.07007908 -0.2840427 0.16131715 0.001918235
0003a0 88 f3 10 3d 0e 4b a8 bc bf 69 03 be 93 0e 1a 3c
       0.0353885 -0.020543601 -0.12833308 0.009402889
0003b0 5e 22 8a 3e 27 f4 df 3d 51 85 09 bc 2b 95 9c 3d
       0.26979345 0.1093524 -0.0083936015 0.07645639
0003c0 0a 64 7f 3c 87 88 e6 bd c5 03 4b bd ea 58 58 bd
       0.015587816 -0.11256509 -0.04956414 -0.05281917
0003d0 e9 09 11 be 6b 01 12 3e f1 9f aa be fa b2 f1 3b
       -0.14163937 0.14258353 -0.3332515 0.007376072
0003e0 7f e4 85 3b da 2d 69 3e c7 21 c8 3d 0f 5a 56 3d
       0.0040860767 0.22771397 0.097720675 0.05233198
0003f0 35 5e 96 bc 42 81 d4 bd 10 aa d7 bc 00 68 6a bd
       -0.018355468 -0.103762165 -0.02632621 -0.05722809

backbone.2.bias f4 [64]
000000 50 a3 3a 3d b9 11 be 3d 6c b6 08 be 09 b9 a5 3c
       0.045565903 0.09280724 -0.13350838 0.020229833
000010 5e de c2 3e c2 c8 82 3d e0 ec 5e bd c4 b0 65 3f
       0.38060278 0.06385948 -0.05442512 0.8972285
000020 7a 24 67 3e 33 4e 5c be 60 f9 12 bc 36 72 1b 3c
       0.22572508 -0.21514206 -0.008970588 0.009487679
000030 14 af 1c 3e 13 50 1f bd 8b ab 72 3c ec 06 96 bd
       0.15301162 -0.038894724 0.014811407 -0.07325539
000040 ac bc 15 3f 7f a5 23 bd a7 38 23 3d 17 00 0e bf
       0.58491015 -0.03995275 0.03984895 -0.5546889
000050 db 5f 64 bc 83 85 14 3d 26 0e ea 3d fd 5c fa 3e
       -0.013938869 0.03626014 0.1142848 0.4889907
000060 5f d6 8b 3e 06 e2 08 be 47 d1 a2 bd 85 2c a9 3d
       0.2731199 -0.13367471 -0.07950073 0.082604446
000070 2a 94 2b 3e dd e2 91 bc ee 4b 51 bd 1f ce e3 3e
       0.16755739 -0.017808372 -0.051097803 0.44493195
000080 9e de c7 bd f7 7e 45 bd d6 dc 0d 3d 42 f1 09 be
       -0.09759258 -0.048216786 0.034634434 -0.13470939
000090 10 75 af 3d 6d bb 97 3d 92 c6 44 3d d3 01 77 3c
       0.0856725 0.074087955 0.048040934 0.0150761185
0000a0 9b f9 6f bc ad 7e 81 3e 6e 7c 8f 3d 57 fd 59 bd
       -0.014646913 0.25291958 0.07006155 -0.05322012
0000b0 84 66 6a 3d 8b e8 14 3e d1 df 79 3c 33 7c 0d 3f
       0.057226673 0.14541833 0.015251116 0.5526764
0000c0 6b c3 ea bc d2 06 52 bf a6 89 0e be e1 62 5a be
       -0.028657636 -0.82041657 -0.13919696 -0.21326782
0000d0 d9 88 2d be 5a 98 e9 bd b3 bc 60 3c 35 99 ef be
       -0.16946734 -0.11406012 0.013716864 -0.46796575
0000e0 b4 f2 b8 bd 63 51 ae bc 49 61 0d be 2f 85 4c 3d
       -0.09030667 -0.021279043 -0.13806643 0.0499317
0000f0 e3 e9 81 bd 8f 91 f2 bc 42 94 18 bb a5 e7 5e bd
       -0.063434385 -0.029610423 -0.0023281728 -0.054420132

logits_head.weight f4 [3, 64]
000000 4d be 96 3a 47 f5 8c bf b7 ad 8a 3b c5 62 b9 ba
       0.0011500806 -1.1012353 0.004232134 -0.0014143815
000010 e0 81 cf be 84 62 8c bb 4b c9 9a 3b 28 b9 0e 3f
       -0.40528774 -0.004284205 0.004723703 0.55751276
000020 06 c8 8c be d9 2f 88 3e 8d 67 11 bb 03 ad 95 3b
       -0.27496356 0.26599005 -0.0022186965 0.0045677437
000030 74 7e 8c bf 87 d2 2a 3b cd b0 90 bb 61 73 f8 39
       -1.097609 0.0026065425 -0.0044156075 0.0004738821
000040 f4 c2 aa bf ba 0d 81 3b c3 68 d1 3b 9f d8 35 3f
       -1.3340745 0.003938404 0.0063906624 0.7103366
000050 ee 88 8d ba db 1d 97 39 f7 6f 5e bf 8a d3 94 3f
       -0.0010798255 0.00028823208 -0.86889595 1.1627057
000060 7d 4f 09 c0 d7 ba 6b 3b 0d 51 00 bc 38 0c 15 3b
       -2.1454766 0.003596952 -0.007831824 0.0022742879
000070 03 56 2b bb f8 5e c8 bb 93 11 e5 3d 4b c2 bc 3e
       -0.0026143796 -0.006114837 0.11184993 0.36866984
000080 99 75 aa 3a a7 d5 17 3c 01 63 01 3c 10 aa ee 3f
       0.0013005018 0.009267247 0.0078971395 1.8645649
000090 b9 26 f9 3a fe 03 a9 38 6b 9a c7 b9 45 f9 f5 bb
       0.0019008733 8.0592916e-05 -0.00038071288 -0.007506522
0000a0 66 ad 44 3b be f0 c0 3e e6 65 c5 3a ea b2 e9 bb
       0.003001058 0.37683672 0.0015060275 -0.007131924
0000b0 ed a3 c5 b9 c0 15 b0 3b d9 95 fb 3a 58 f4 a8 bf
       -0.00037696902 0.0053736866 0.0019194438 -1.3199568
0000c0 1b 0c 35 3b 8a 43 7b 3f 80 93 fb 3a 69 51 13 3c
       0.0027625624 0.9814993 0.0019193739 0.008991578
0000d0 b3 69 5f bb d2 2c c0 3a 9d 30 19 bb 53 80 fa 3e
       -0.0034090101 0.0014661795 -0.0023374923 0.4892603
0000e0 9c b8 15 3c fa 36 98 bf 3a 67 c1 bf d9 97 c0 3b
       0.009138253 -1.1891778 -1.5109627 0.0058774767
0000f0 d5 4f 14 3b 0e 99 40 bb 77 94 09 bb d1 0b 05 3c
       0.0022630591 -0.0029388103 -0.0020993033 0.008120493
000100 34 be 1c 3c e3 f7 85 3f d4 55 4a 3b c6 62 07 bb
       0.009566832 1.0466274 0.0030873911 -0.0020658239
000110 83 8e e7 3d 36 89 c5 ba 23 5d 09 3c b2 cb b1 bf
       0.11306479 -0.0015070799 0.008384022 -1.3890288
000120 5d 61 84 bf 7f c8 00 3f a8 90 f5 ba e3 a5 b2 ba
       -1.0342213 0.5030593 -0.0018735128 -0.001362976
000130 35 af 22 3f 56 dd c7 3a b9 c5 be bb 1d 61 35 3a
       0.63548595 0.0015248458 -0.00582191 0.0006919073
000140 eb ab 74 bf c2 25 8f 3b 19 a1 cb 3a 04 9e 5c 3f
       -0.95574826 0.0043685148 0.0015535682 0.8617861
000150 17 81 0e bb d5 4c c0 bb 02 1c ce 3e 2f 4f 02 3f
       -0.0021744424 -0.005868534 0.40255743 0.50902075
000160 6b 1b 2c 3f 7a 56 04 3c a0 83 c0 bb ed e7 83 bb
       0.67229337 0.008077258 -0.005875066 -0.0040254504
000170 6c 73 11 bc 8b 8f 3e bb 74 38 22 3f 58 e9 7f 3f
       -0.008877616 -0.0029077257 0.6336739 0.9996543
000180 4d b5 29 bb 09 44 d1 3b 35 b5 af 3b b2 0e d4 bf
       -0.0025895417 0.0063862843 0.0053621777 -1.6566985
000190 09 1a 86 3a 49 c3 f9 ba 98 03 23 bc de a0 78 bb
       0.0010231148 -0.0019055392 -0.009949587 -0.0037937681
0001a0 ee b6 5d 3b 91 c5 d2 bf dc 66 56 3b 01 9e 11 bc
       0.0033830958 -1.6466542 0.0032715118 -0.008887769
0001b0 5a ba ca 3a ca bd 1d 3b 69 95 57 3b 29 f3 da be
       0.0015466914 0.0024069422 0.0032895452 -0.4276364
0001c0 df 86 22 3b ae 89 0c 3f 66 29 18 39 bb a4 9e 3b
       0.0024799628 0.5489758 0.00014511272 0.0048414147
0001d0 a9 a2 b8 ba 99 1c f7 3b 68 81 84 ba 91 04 0a 3f
       -0.0014086562 0.007541251 -0.0010109367 0.5391322
0001e0 ce d2 06 3c 4f 20 25 3f c6 a7 f8 be d2 10 c1 3b
       0.008228971 0.64502424 -0.485655 0.0058918977
0001f0 0a cf 0d 3b 4a 5b e8 bb 40 80 ad bb 94 b2 44 3c
       0.0021638297 -0.0070909606 -0.0052948296 0.012005467
000200 cb 0d 88 3b 5e 95 2f bd 8f 40 2a b9 e2 10 e4 ba
       0.004152035 -0.042867057 -0.00016236513 -0.0017400051
000210 eb aa a8 3e e0 07 05 bb 8b 22 b4 3b d4 df 17 3f
       0.329429 -0.0020298883 0.005497282 0.5932591
000220 c2 43 6c 3f 7f 22 35 bf 0a c3 12 bc a9 e2 98 3b
       0.9229089 -0.7075576 -0.008957634 0.004665692
000230 c5 4d 9c 3e e3 72 a2 ba c2 40 7f bb 83 cf 0a ba
       0.30528083 -0.0012393858 -0.003894851 -0.0005295204
000240 5a d1 ef 3f 11 a5 6a 3a f4 a9 60 3b 37 66 9b bf
       1.8735764 0.00089509884 0.0034280987 -1.2140568
000250 55 42 4f 3b b6 c3 d0 bb 71 64 df 3e 50 96 b8 bf
       0.003162523 -0.006370987 0.43631318 -1.4420872
000260 64 7c 9e 3f b4 5d d6 3b 85 55 1c bc a1 ad ce ba
       1.2381711 0.006541932 -0.009541874 -0.0015768298
000270 88 45 4e bb ce aa 82 bb 3c 11 18 bf 12 65 9f bf
       -0.003147455 -0.0039876467 -0.594013 -1.2452719
000280 51 d2 bf ba 2b ac ec 3b bf fa 2e 3c 74 cd 47 be
       -0.0014634823 0.0072226725 0.0106799 -0.19511968
000290 11 54 03 b9 7a a2 1d 3b 19 5b 11 bb 90 95 ed ba
       -0.0001252445 0.0024053142 -0.0022179543 -0.0018126238
0002a0 31 51 6c 3b e4 36 8c 3f 13 c8 10 ba 58 eb 14 bc
       0.0036059136 1.0954251 -0.00055229774 -0.009089313
0002b0 ee 5f 04 3b 92 10 12 3b 2c bc 80 ba 54 0f a7 3f
       0.002019878 0.0022287709 -0.0009821705 1.3051553
0002c0 db 98 b2 3b 77 d7 92 bf 15 8f 56 3b a6 77 ad 3b
       0.0054503507 -1.1472005 0.0032739092 0.005293804
0002d0 f4 69 7e ba b7 de 1f 3b 1f 8c bb bb 42 fd 55 bf
       -0.00097051193 0.0024394223 -0.005723491 -0.83589566
0002e0 d7 92 dd 3b 5b 05 0f 3f 03 c7 ca 3f 8f d5 c4 3b
       0.0067618894 0.55867547 1.5841984 0.0060069035
0002f0 6b 86 58 3b b9 23 9c b7 e8 d5 94 bb dd e1 fd 3b
       0.0033039104 -1.8613284e-05 -0.004542101 0.0077478723

logits_head.bias f4 [3]
000000 b5 34 32 bf db f7 79 be 8c 06 2d 3f
       -0.69611675 -0.24410956 0.67588115

net.0.weight f4 [64, 7]
000000 3a ff 8a 3f b3 90 b1 be 1f 8e 8b be ef da 79 3f
       1.0859139 -0.3468071 -0.27256867 0.9759969
000010 f8 a4 be be 18 97 47 be 87 16 c6 3f f4 28 34 bf
       -0.37235236 -0.19491231 1.5475625 -0.7037499
000020 fa ce 9d bf 25 b0 28 bf c1 bc ad bc 01 99 e0 bf
       -1.2328789 -0.65893775 -0.021208169 -1.7546693
000030 7f ee 16 3f d6 ef b3 3d ed 80 50 3d ec 5f 02 bc
       0.58957666 0.087859794 0.050904203 -0.00795744
000040 e8 ec f8 3b 9b 02 06 3f 74 ef a5 bf ed 66 e2 3e
       0.007596601 0.52347726 -1.29637 0.4421915
000050 94 2a 56 3f 87 12 34 40 e1 9b 6c be e4 a5 cf be
       0.8365872 2.8136308 -0.23106338 -0.40556252
000060 f8 f2 9c 3e e4 91 8a be 3c a9 18 bf 1d 14 bf be
       0.3065412 -0.2706443 -0.5963323 -0.37320033
000070 59 c8 22 3f 3e 61 bf 3e ac 56 05 3e 85 da bf be
       0.63586956 0.37378877 0.13021344 -0.37471405
000080 b7 e5 06 40 03 21 4f bf 63 00 10 3f 80 e4 dc 3f
       2.1077707 -0.80909747 0.5625059 1.7257233
000090 26 c8 04 bf 36 0d 9e 3e e8 68 d8 be 82 12 e7 bf
       -0.518679 0.30869454 -0.42267537 -1.8052523
0000a0 0d e5 a7 be 34 ac 52 bf c7 6d 9f bf 8c 08 fb 3e
       -0.3279194 -0.8229401 -1.2455376 0.49029958
0000b0 14 bd d8 3e d6 e3 31 bf ae 57 b2 3f 00 45 4e bd
       0.42331755 -0.69488275 1.3933008 -0.050358772
0000c0 0b da b5 3d be f0 be be 52 5d 45 bf 72 b1 f2 be
       0.08879479 -0.37293047 -0.7709552 -0.47401005
0000d0 f0 59 3a bf b3 16 59 bf 99 61 b5 bf d0 6d 4a bf
       -0.72793484 -0.8480026 -1.417041 -0.7907381
0000e0 09 47 25 3f cb cb 1a 3f 7b 25 70 be 03 52 b8 bf
       0.64561516 0.60467213 -0.23451798 -1.4400028
0000f0 28 2e 91 bf e7 e0 c7 be 98 01 b5 3f e5 d9 4e c0
       -1.1342211 -0.39038774 1.4141111 -3.2320492
000100 84 ba 6c c0 d4 33 90 be 00 9d ad 3e 54 f1 f7 3e
       -3.698884 -0.28164542 0.33908844 0.48426306
000110 8b 6c 72 3f a5 5e d9 3e 30 4e cf 3e 3e 18 73 3e
       0.94696873 0.4245502 0.4048934 0.23739716
000120 19 95 3c 3f 62 fe e1 3e ec 5b 2c bf 89 76 65 3f
       0.73665005 0.4413939 -0.6732776 0.89633995
000130 bc 3b d2 3f a3 7b 44 40 f2 8e ea be 62 39 f4 be
       1.642448 3.0700462 -0.45812184 -0.4770003
000140 01 ed b3 3d 0d a0 67 bf 11 b9 84 bf a5 54 b2 3e
       0.08785439 -0.90478593 -1.0368978 0.34830204
000150 74 fc 6e 3e 21 a7 9e 3e 48 e3 ac 3d a5 11 9f bf
       0.2333849 0.30986884 0.08441788 -1.242726
000160 1b 5b 32 3f a3 35 01 bf fc 03 a8 bf d3 f4 6f 3f
       0.69670266 -0.5047247 -1.3126216 0.9373295
000170 0d a2 e6 3e 4c fb d4 be 61 a7 94 be 08 b1 df 3f
       0.4504551 -0.41597974 -0.2903395 1.7475901
000180 e1 3e 8c bf 0b 53 31 3f 5f 07 e0 3f a7 47 a3 be
       -1.0956689 0.6926734 1.750225 -0.31890604
000190 83 41 b5 3f a9 64 09 3e 75 b3 80 bf e2 b2 a1 bf
       1.4160618 0.13417305 -1.0054766 -1.2632716
0001a0 fb 51 5c 3e c6 0d 9d bf 37 5a c1 3f b2 08 c5 3d
       0.21515648 -1.2269828 1.5105656 0.09620799
0001b0 e1 36 46 be 79 70 91 be 2e 38 9e be 1b 8a 88 bf
       -0.19356872 -0.28406122 -0.30902237 -1.0667146
0001c0 71 2c 27 be 54 d2 bd bf 0d 3b cc 3e db 85 e6 be
       -0.16325547 -1.4829812 0.39888802 -0.45024
0001d0 cd a4 c6 3f fe 84 0b bf 18 47 5b bf 4a bb f9 bf
       1.5519043 -0.54499805 -0.85655355 -1.9510281
0001e0 77 7b 97 3f 5b 9c fd be fa 89 b2 3c d2 2a ed bd
       1.1834553 -0.49533352 0.021794308 -0.11580433
0001f0 6c 83 4a 3e d5 db 22 be 8a f8 fd 3f a9 09 90 3f
       0.19776696 -0.15904172 1.9841473 1.1252948
000200 be 37 70 3f 67 a0 d9 3e 08 e1 c5 bf 23 a5 a2 be
       0.93835056 0.4250519 -1.5459299 -0.31766614
000210 e1 86 dd be 97 87 20 bf 45 f0 a7 3d 2e 09 b0 be
       -0.43266967 -0.62706894 0.08200125 -0.34382004
000220 92 58 66 3e 0a 0d c6 3e 4b 85 37 3f d6 f5 a0 40
       0.22494724 0.38681823 0.71687764 5.0300093
000230 48 a7 10 3f 68 c4 8a 3f ce 5e 5a 3d 54 c0 a4 3e
       0.5650525 1.0841188 0.05331307 0.32177985
000240 3e 18 21 3e 6d 13 78 bf eb 45 e9 3e 0d 1d 6e 3f
       0.15731904 -0.9690464 0.45561156 0.9301308
000250 e1 8d 8b 3f 48 42 1f bf 3c ad 9f 3d 6a 5e 87 3f
       1.0902673 -0.6221051 0.07796714 1.0575688
000260 f6 b9 6b be 35 3b 77 3f ae e6 0c 40 c6 00 89 bf
       -0.23020157 0.9657472 2.2015796 -1.0703361
000270 f6 94 77 3f 8c a6 4e 3f e3 52 21 40 c3 5c 8c 3f
       0.9671167 0.8072288 2.520684 1.0965809
000280 35 74 6c bd 38 74 de 3f c4 68 9a be fc c5 f9 3e
       -0.05772801 1.7379217 -0.30158055 0.48783863
000290 b4 cc cb bf e0 52 1f 3f b1 61 9e 3d 7f 15 cc 3f
       -1.5921845 0.6223583 0.07733477 1.594406
0002a0 2b 36 42 c0 5d 52 69 c0 fb 17 30 3e 33 e2 1f be
       -3.0345562 -3.645652 0.17196648 -0.15613632
0002b0 49 ca 64 bf 8a 58 df 3f 5f 15 d2 3e 8d ff b0 be
       -0.8937116 1.7448895 0.4103193 -0.3456997
0002c0 f8 b5 28 c0 59 98 d0 3d 63 6b 86 bf c1 ea f9 be
       -2.6361065 0.10185308 -1.0501522 -0.48811916
0002d0 91 58 85 3e 57 98 c0 be 49 2e cb 3f ce 62 ec 3f
       0.26044133 -0.37616226 1.58735 1.8467653
0002e0 8d 23 15 3d 12 4d f2 be 57 e9 83 3f 0c 69 85 bf
       0.036410857 -0.47324425 1.0305585 -1.0422683
0002f0 fc 0f 68 bf 6c 43 8f be 72 61 a7 3f 5c 5d 6a 3f
       -0.9064939 -0.27981126 1.3076613 0.91548705
000300 ab 0b ce be 22 f7 a1 be f3 c8 e1 be 56 b9 f3 3e
       -0.40243277 -0.3163386 -0.44098625 0.47602338
000310 7d ac 65 bf 97 d4 ef 3d 84 e3 de be ad 4a 0d bf
       -0.8971632 0.1171047 -0.43532956 -0.5519207
000320 04 76 bf 3f b4 e8 83 be de 4c 1c bf cd 29 e6 bf
       1.495789 -0.25763476 -0.6105479 -1.7981507
000330 b1 24 70 3f 53 1c b8 3d 05 13 07 3f 71 31 1e 3f
       0.93805987 0.089897774 0.52763397 0.6179419
000340 1a 09 e2 3e 67 6f 8c 3e 61 80 97 3f c2 58 6e bf
       0.4414757 0.27428743 1.1836053 -0.93104184
000350 21 61 01 bf 7a 26 98 3e d7 ea 52 bf 32 1b 15 3f
       -0.5053883 0.29716855 -0.8238959 0.5824462
000360 a2 7f 48 be ec 68 a0 bf 46 a2 c5 3f 92 88 04 bf
       -0.19579938 -1.253202 1.5440147 -0.5177089
000370 11 b3 81 3e 92 ee b1 bf 50 80 a0 3e 5a a1 2e bf
       0.2533193 -1.3900931 0.31347895 -0.6821495
000380 68 b5 9b bf 9c 6d a2 bf 61 df c7 be 7c 0d 0d 3e
       -1.2164736 -1.26897 -0.39037612 0.13774675
000390 01 65 8e bf 52 a1 11 3f ef e9 18 be 11 59 50 c0
       -1.1124574 0.5688678 -0.14932989 -3.2554362
0003a0 7c af 51 3f cb 6f 1c 3d 1b ec 84 3d 7b 67 6c 3f
       0.8190839 0.03819255 0.06490346 0.923454
0003b0 79 73 c7 3d b6 ac 25 3e c9 f8 bf 3f 70 6a 4d 3f
       0.097388215 0.16179165 1.4997798 0.80240536
0003c0 8c 71 39 3f d8 c0 58 3f c6 77 1a 40 62 3e 17 bc
       0.72438884 0.84669256 2.4135604 -0.009231182
0003d0 bd f5 3b bf 34 f7 7b 3f df 43 28 40 80 9c b7 be
       -0.7342184 0.9842408 2.6291425 -0.35861588
0003e0 e8 7c 0e 3f 31 ba 5a bf 11 4b ce be 2d 5a 99 bc
       0.5565934 -0.85440356 -0.40291646 -0.018719757
0003f0 76 1e 71 3f e5 fa 82 bf de 28 96 be 1e 21 b2 bf
       0.94187105 -1.0232817 -0.29328054 -1.3916357

net.0.bias f4 [64]
000000 65 8d de bd e7 d0 2c 3f ee d3 f2 3e 30 2e 5a bf
       -0.108668126 0.6750626 0.47427315 -0.85226727
000010 07 5d f1 be 78 fe 9c be 08 03 98 3e d9 5b b1 bf
       -0.47141287 -0.30662894 0.29689813 -1.3856155
000020 43 2e 16 bd e2 2f 65 3f 02 45 19 3f 22 8e 7b bf
       -0.036665212 0.8952619 0.5987092 -0.9826375
000030 96 a4 ef be 33 3e 87 bf 1d ed a0 bf be f4 0a 3e
       -0.46805257 -1.0565857 -1.2572361 0.13569924
000040 8d a6 79 be c0 52 b4 3d e1 e7 14 be 8e 62 4d 3f
       -0.2437994 0.08804846 -0.1454158 0.8022851
000050 a5 4a 80 bf 43 b4 ae be cb 51 21 3f 40 36 cb be
       -1.002278 -0.34121904 0.6301543 -0.39689827
000060 45 68 cc 3f 34 2b 30 3e e1 bd 32 bf b4 c0 0e bf
       1.596932 0.1720398 -0.6982098 -0.5576279
000070 86 31 8d 3c 7a 47 00 3f f7 99 8f 3e dc b9 8c 3e
       0.017235529 0.50109065 0.28047153 0.2748555
000080 af 14 04 3f fa b7 a9 3e 6c 65 5d bd 1c 85 07 be
       0.5159406 0.33148175 -0.0540518 -0.13234371
000090 78 9f 8e 3e 3b 84 83 be c9 c7 03 3f 29 d0 d2 3e
       0.2785604 -0.2568682 0.5147672 0.4117444
0000a0 30 c5 bf bd 24 54 11 bf 6b 97 c6 3e 9e b9 73 be
       -0.093637824 -0.56769013 0.38787398 -0.23801276
0000b0 c1 69 71 3f f1 a2 1a be c5 d1 3f be af be 5c bd
       0.9430199 -0.1510122 -0.18732364 -0.053892788
0000c0 d9 13 52 3e c2 db 15 bd e3 ea 4c bf d4 5f 4a 3f
       0.20515384 -0.03658653 -0.8004591 0.7905247
0000d0 46 88 28 3f fc a8 f4 be 5f 9a a8 be 8f 82 6c 3f
       0.65832937 -0.47785175 -0.32930276 0.92386717
0000e0 33 24 a1 be 0f 66 8b bc 3d 22 53 3f 4b cf cc be
       -0.3147293 -0.017016439 0.8247412 -0.40001902
0000f0 ce 02 30 bf 1f 0b c2 bf 30 24 fd be e9 16 3a bf
       -0.6875428 -1.5159644 -0.4944167 -0.7269121

net.2.weight f4 [64, 64]
000000 e3 d3 c0 3e a0 38 e7 3e a8 2d ce bd b3 01 9e bf
       0.37661657 0.4516039 -0.10067302 -1.2344269
000010 8f 9c f6 3d 1b 5a 83 bf e9 49 69 3f 5d 4e 11 be
       0.1204158 -1.0261873 0.911284 -0.1419005
000020 bd 93 bb bf ba 63 33 3f 02 e2 fc be 39 b0 43 bd
       -1.4654461 0.70074046 -0.4939118 -0.04777548
000030 47 ad e1 3d 13 78 22 be e5 36 30 bd f7 b5 14 bf
       0.11019378 -0.15866117 -0.0430211 -0.58090156
000040 8a e6 72 3f 20 4c 71 bf 40 c8 38 bf d6 6a bd bd
       0.94883025 -0.9425678 -0.7218056 -0.09248893
000050 0d 04 7a bf 08 c2 45 be db 86 7d bf aa cc 3d bf
       -0.9766243 -0.19312298 -0.990339 -0.7414042
000060 a9 58 87 3f 6a 22 cd bc 51 5b ba be 92 01 30 bf
       1.0573932 -0.025040824 -0.36397794 -0.68752396
000070 d7 be 22 bf cb e4 ac 3e f2 88 b5 3f 36 32 4f 3e
       -0.6357245 0.33768305 1.4182417 0.20233998
000080 ed 4c 8f 3f 0d e6 81 3e c5 d3 e5 be 5b 7b 96 bf
       1.1195351 0.25370827 -0.4488813 -1.1756395
000090 43 61 25 3b 26 c6 38 bf fa 55 5d bc 84 28 a3 3e
       0.0025234974 -0.7217735 -0.013509268 0.31866848
0000a0 a1 cb 0c 40 81 11 56 be 8f eb f6 3e cf 76 a5 bf
       2.1999285 -0.20905115 0.48226592 -1.2926883
0000b0 72 72 82 3f 6d 73 8b 3f 25 8f 1b bd 42 63 e9 be
       1.0191176 1.08946 -0.03797831 -0.4558354
0000c0 90 09 93 bf 0b 51 0e 3f ab c8 95 bf 6d 03 9d 3d
       -1.1487293 0.5559241 -1.1701864 0.07666669
0000d0 65 02 31 3f a5 d8 c6 3e 89 6b b7 be 42 b6 38 3f
       0.6914428 0.38837162 -0.3582423 0.72153103
0000e0 2d 18 e7 bf b4 87 62 3f a3 2c d8 3d 2a f4 cd 3d
       -1.8054253 0.88488317 0.10555389 0.10056336
0000f0 8f 13 96 bf 52 d6 19 bf 1f ef 49 be 37 cc 35 be
       -1.1724719 -0.6009265 -0.19720124 -0.17753683
000100 75 51 da be 07 55 f2 3e eb 2c 20 3e 3d b7 5c be
       -0.42640272 0.47330496 0.15642135 -0.21554275
000110 36 88 04 bf 8d c0 53 3e fb 73 98 3f 24 5d 44 be
       -0.5177034 0.20678921 1.1910394 -0.19176155
000120 9f 9f 55 3d 27 f5 86 bf 21 0d bc be 49 2c 7a bf
       0.05215418 -1.0543565 -0.36728767 -0.97723824
000130 f9 81 4a 3d 61 e8 a9 be c8 f5 da bf 45 54 f2 3d
       0.049440358 -0.33185104 -1.7106256 0.118324794
000140 a1 17 0b bf 94 2e 1a 3f 28 fc ad bf 5e 09 57 3f
       -0.5433293 0.6022732 -1.3592577 0.8399867
000150 b1 81 1b bf 4a 16 9c be 33 b6 07 bf 6c 9b cd be
       -0.6074477 -0.30485755 -0.5301239 -0.4015764
000160 a1 48 0f 3e 93 ce ce 3e 8e 64 82 bf 19 b7 89 be
       0.1399255 0.4039198 -1.0186937 -0.26897505
000170 28 6f d3 3c fe 1b bf 3f 1a 08 d0 3e 3a 1f 98 3e
       0.02580984 1.4930418 0.4063118 0.29711324
000180 d6 21 04 3f 5a 8f 8b 3f a4 2c 4c bf e9 bf 75 bd
       0.5161413 1.0903122 -0.79755616 -0.059997473
000190 c7 85 38 bf fc c4 82 3e c3 cb 33 3f 96 90 20 3f
       -0.7207913 0.25540912 0.7023279 0.6272062
0001a0 d1 77 23 be 4f 15 88 3f 2e 31 9f 3e ae 39 c2 3e
       -0.15963675 1.0631503 0.3109221 0.3793463
0001b0 50 ca 82 3f eb 06 00 be 24 a9 d7 3b 7a 03 dc 3d
       1.0217991 -0.12502639 0.0065814424 0.107428506
0001c0 85 41 d4 3d 9e 20 b0 3d 86 b5 9b 3c f4 a0 2a bd
       0.10364059 0.08599971 0.019007456 -0.041657403
0001d0 11 bf bb be 7e 37 1c bf 7f 54 09 bf b2 44 87 3f
       -0.3666921 -0.61022174 -0.53644556 1.0567839
0001e0 11 eb 9f be 1d 33 3a bf 7d 28 de 3d 2a d4 dc be
       -0.3123403 -0.7273424 0.10847566 -0.43130618
0001f0 ff c1 eb be 86 8b 29 bf 65 dc c6 bf d0 1d db bd
       -0.46046445 -0.6622852 -1.5536009 -0.10699046
000200 30 5f 06 3e 4f ca ae 3e 2f 15 1f 3f 71 7b 91 3f
       0.13122249 0.34138724 0.621417 1.1365796
000210 e8 0f 3a bf a5 94 08 3f cc ba 33 3f 70 cf d8 be
       -0.7268052 0.53351814 0.70206904 -0.42345762
000220 26 28 61 3f 35 f9 39 3e 83 b9 12 3f d5 bb d3 be
       0.87951887 0.18161471 0.5731432 -0.41354242
000230 34 83 6a bf 96 8b 16 bf 64 90 52 c0 3e b4 34 3d
       -0.9160645 -0.5880674 -3.290063 0.044117205
000240 ab aa e2 bf 5d 77 7c 3f 5d 54 c0 bf f7 55 cd 3d
       -1.7708334 0.98619634 -1.5025746 0.10026162
000250 42 cc ac bf 35 8e 9c 3e 76 d7 f4 be 8f dd 06 3f
       -1.3499835 0.30577245 -0.47820634 0.5268182
000260 d9 fa 01 3f 40 ac ad bf fa b8 08 bf 5c ae 80 bf
       0.5077339 -1.3568192 -0.5340725 -1.005321
000270 c9 35 e9 3e 16 d2 f0 3e b1 29 40 3f 8c 5b 62 3f
       0.45548847 0.47035283 0.75063616 0.8842094
000280 65 3a 51 3e 7b b1 9d 3f 49 57 1f be 3f bd 0c 3f
       0.20432432 1.2319788 -0.1556064 0.54976267
000290 38 c6 8d bf 04 97 d9 3e 8e 55 8f be 6c 21 e1 bd
       -1.1076117 0.42498028 -0.2799496 -0.10992703
0002a0 0e 3e b5 3f d0 b9 95 3f ef e3 14 3e be 03 9d 3e
       1.4159563 1.169733 0.14540075 0.30666918
0002b0 29 a0 30 3e c8 e7 ab bf e2 06 30 3f ef a1 2e bf
       0.17248596 -1.3430109 0.687605 -0.6821584
0002c0 cb cf b0 bc 17 12 9b be b1 f0 d6 bf e8 d9 89 3e
       -0.021583458 -0.3028724 -1.6792203 0.26924062
0002d0 ac f4 c7 be 34 bc 37 bf 54 29 12 be 1b cd 53 3f
       -0.39053857 -0.7177155 -0.14273578 0.8273484
0002e0 c7 56 d8 be b0 ef 60 3f b1 83 d4 3e bd a5 a9 bf
       -0.42253706 0.87865734 0.41506723 -1.3253704
0002f0 74 f8 8c bf e1 a2 fb bf 6f a4 9f bf 6a cd ca be
       -1.1013322 -1.9659082 -1.2472056 -0.39609843
000300 54 26 79 3e 2d 56 01 be fc a4 48 bf 0a dd 94 bf
       0.24331027 -0.1263053 -0.78376746 -1.1629956
000310 fb d2 53 bf 3b f1 83 be 2f 3e 71 3f 4d c9 53 3d
       -0.82743806 -0.25769982 0.9423551 0.051705647
000320 db 86 0c bf 0b 2c ae bf a8 fd 76 bf d3 b7 8c bf
       -0.54893273 -1.3607191 -0.964808 -1.0993599
000330 3e 34 99 3e cf 2f 12 3f 44 15 fb 3e 58 54 bf be
       0.2992267 0.571042 0.49039662 -0.37369037
000340 0c 29 52 3f ae 0e eb be 7f f3 d5 be 66 88 fc bd
       0.8209388 -0.45909637 -0.41787335 -0.123307034
000350 74 06 85 be 1c 07 83 3f 2a fb 50 bf 96 c9 b8 bf
       -0.25981486 1.0236545 -0.81633246 -1.4436519
000360 4c 4c 11 c0 77 80 7a bf 4a 91 c9 3b 97 81 1b be
       -2.2702818 -0.9785227 0.006151353 -0.15186153
000370 c7 d4 07 3f 4f 90 3e 3f 54 72 c5 be 60 54 fd 3e
       0.5305905 0.7443895 -0.38563788 0.49478436
000380 b1 35 07 bf 74 c2 25 3f a9 05 60 bf 39 6b 72 3f
       -0.528163 0.64749837 -0.87508637 0.9469486
000390 17 bc ad be 5e ae 9b bd 30 d4 b5 be b0 1b 65 bf
       -0.33932564 -0.07601617 -0.3551345 -0.8949537
0003a0 0c 21 85 3f 62 f0 d9 3e a4 c8 72 3f c8 0a 90 bd
       1.040071 0.4256621 0.94837403 -0.07033306
0003b0 bb 42 a4 be e6 c4 5f bc 68 f7 b5 3d 5c 0b 3a bf
       -0.3208216 -0.013657784 0.088850796 -0.72673583
0003c0 63 c9 5b bf c2 76 1a be b1 54 d1 3f ca 95 bc be
       -0.85854167 -0.15084365 1.6353971 -0.3683303
0003d0 8f 0c 02 c0 af 14 e2 be c9 ac 2a 3f 3b 54 86 3f
       -2.0320165 -0.44156405 0.666699 1.0494455
0003e0 d6 65 5c bf c6 aa 3d bf cc 59 fb bf 9a ba 95 be
       -0.8609289 -0.74088705 -1.9636779 -0.29243928
0003f0 3b 2a 6a bf a9 51 0b bd 1a e9 af bf dd f8 19 3f
       -0.9147069 -0.034013424 -1.3743012 0.6014536

net.2.bias f4 [64]
000000 89 56 4f 3d 20 bf 32 bc 55 21 f6 3e 29 34 29 bf
       0.050619636 -0.010909826 0.48072305 -0.66095215
000010 28 ed 3b 3d 6f 02 2f 3e 04 1b 08 3f 0a ed 91 bf
       0.045880467 0.17090772 0.5316622 -1.1400464
000020 c1 b2 c8 3c 28 90 01 3f 91 60 2c 3e 18 d0 28 3f
       0.024499299 0.5061059 0.16833712 0.65942526
000030 5a fc 68 3f 59 00 ec bc f6 9c d8 be 47 00 bc 3e
       0.9101006 -0.02880876 -0.42307252 0.36718962
000040 13 50 a5 3d 2f a0 82 be fd 6b 48 bf a3 b7 de 3e
       0.080719136 -0.25512835 -0.7828978 0.4349948
000050 67 ff 10 3f ca b6 2f 3f 72 a2 20 3f cb 61 9c 3d
       0.56639713 0.6863829 0.6274787 0.0763584
000060 09 91 97 3e 93 97 84 3e 99 54 19 bf cc d0 c2 bd
       0.2960284 0.25896892 -0.5989471 -0.09512481
000070 f3 1b 2c bf 28 9c d3 be 71 e2 e3 be 9e 6e b8 3d
       -0.6723015 -0.41330075 -0.445087 0.090054736
000080 46 bc 10 bf 49 ec a1 be 5e 8a ae 3d 3b 23 81 3d
       -0.5653728 -0.31625584 0.08522485 0.06305548
000090 b3 6e 45 bf 35 f6 86 be b0 89 02 3e 05 7d 80 be
       -0.7712204 -0.26359716 0.12747836 -0.25095382
0000a0 8c 77 19 be a9 f8 56 3f 58 3b be bc 7e f5 f2 3e
       -0.1498701 0.83973175 -0.023221657 0.4745292
0000b0 f1 3f 12 3f dc d7 33 3f 27 f4 61 bf f8 c4 72 3e
       0.57128817 0.7025125 -0.8826317 0.2370795
0000c0 c8 bd cb 3e 05 1c fd bd a2 41 35 be c6 ba 37 3f
       0.3979323 -0.1235886 -0.17700818 0.7176937
0000d0 12 94 87 3e a2 06 94 3e 6b 5b 93 3d 42 37 5b be
       0.26480156 0.2891131 0.07195171 -0.21407798
0000e0 43 e4 ea 3e 30 9f fc 3e 24 ac ea be 47 ff 88 3f
       0.45877275 0.493402 -0.45834458 1.0702904
0000f0 ae 8b ff 3b 80 3e b0 be 55 f8 c6 be ef 33 36 bf
       0.0077986335 -0.34422684 -0.38861337 -0.71172994

value_head.weight f4 [1, 64]
000000 ee 08 da c0 35 3f 0c 41 3b 68 a1 40 3b 62 7f c0
       -6.81359 8.765431 5.0439734 -3.9903705
000010 3e e5 65 c0 cb e3 8a 40 03 c5 a8 40 5d c5 90 c0
       -3.5921168 4.3403068 5.2740493 -4.524092
000020 55 9e 4f 41 97 83 93 40 8c 6a 05 41 f9 e7 75 40
       12.976155 4.609813 8.338512 3.8422835
000030 60 3e a6 40 71 45 5b 40 c3 07 3b c1 86 f5 91 40
       5.195114 3.4261134 -11.689395 4.561221
000040 4c a6 39 41 05 cc dc 40 8b cf 8b c1 5b da fa 40
       11.6031 6.8999047 -17.47634 7.8391547
000050 9e 50 88 40 22 26 a4 40 28 47 b8 40 ae 68 32 40
       4.259841 5.129655 5.758686 2.7876391
000060 22 b3 a1 c0 37 f9 3a 40 78 bb 3d c1 91 2d 95 c0
       -5.053117 2.9214609 -11.858269 -4.6618123
000070 a6 97 7e c0 78 8d a1 40 4c 40 82 c0 8c 17 bd 40
       -3.978006 5.048519 -4.0703487 5.9091244
000080 a2 34 86 c0 8d 3d 85 c0 2d 4b a8 bf 83 ce 18 c1
       -4.193925 -4.1637635 -1.3147942 -9.550418
000090 a4 56 bc c0 c6 ca 88 c0 f9 ee 17 c1 69 2f 81 c0
       -5.8855762 -4.2747526 -9.495843 -4.0370374
0000a0 fc ac 1d c1 63 27 74 40 61 ce 07 c1 97 86 34 41
       -9.8547325 3.814904 -8.487885 11.282859
0000b0 92 fe 75 40 5d 15 b4 40 55 56 96 c0 41 56 86 c0
       3.8436627 5.627608 -4.6980386 -4.198029
0000c0 88 11 75 40 bf 2f 6f c0 df b5 3c c1 c2 0a aa 40
       3.829195 -3.7372892 -11.794402 5.313813
0000d0 64 ab bb c0 80 fd 6a 41 b1 0a 55 41 cb 08 4d c0
       -5.8646717 14.68689 13.31511 -3.2036617
0000e0 7c 07 bf 40 1a 1d 4a c1 cc a4 4c c0 1e 5f ce 40
       5.9696636 -12.632105 -3.1975584 6.449111
0000f0 59 d5 ec c0 8b dc 04 c1 82 20 8f c0 9e 24 86 c0
       -7.4010434 -8.3038435 -4.4727182 -4.19197

exp_avg f4 [64, 7]
000000 24 f4 c0 ba ea 05 2b bb 3d 0b 22 bb 5d 06 96 bb
       -0.0014721197 -0.0026096054 -0.0024725937 -0.0045783953
000010 b1 3c e2 39 9a 7d 5c bb 37 54 89 bb 66 43 33 ba
       0.00043151298 -0.00336442 -0.0041909474 -0.0006838351
000020 15 93 1f 39 9e ce 96 ba 84 38 2c 3a 04 5f d0 ba
       0.00015218214 -0.0011505669 0.0006569701 -0.0015897457
000030 38 3e d5 ba 8e 1c b9 b9 f0 20 af 3b 1e 73 ec 3b
       -0.0016269153 -0.00035307225 0.0053445026 0.0072158715
000040 e1 fc 00 3c 84 54 37 3c d4 71 79 3a 7d 5c 38 3c
       0.007872791 0.011189584 0.0009515558 0.01125252
000050 9e f3 41 3c 18 15 84 3b 24 77 32 39 03 b3 30 3b
       0.011837868 0.004030835 0.00017019786 0.0026962168
000060 57 64 7b bb b2 74 9e 3b 5c fd c6 3b dd 26 50 3b
       -0.0038359368 0.0048356885 0.0060726833 0.0031761446
000070 c8 b0 07 3a d5 42 f2 b8 ef 89 38 bb ef 04 12 ba
       0.0005176184 -0.00011551908 -0.0028158387 -0.0005570193
000080 60 48 0c bb 56 23 98 3a 57 6d b0 3a b4 d6 0b ba
       -0.0021405444 0.0011607211 0.001346032 -0.00053344225
000090 64 24 11 ba c7 c0 95 38 6f 2c b4 b8 01 4c 86 b9
       -0.00055367337 7.140781e-05 -8.591345e-05 -0.000256151
0000a0 47 8f 50 ba e6 06 63 ba a0 65 b0 bb 09 01 01 bb
       -0.00079559203 -0.0008660391 -0.0053832084 -0.0019684455
0000b0 59 7a 87 bb 9b 4a 56 3b a1 57 94 bb f6 7f 1c bc
       -0.004134458 0.0032698277 -0.0045270477 -0.009551993
0000c0 e7 df e3 bb 10 42 cb ba 79 2a b8 3a b2 bf 5a 3b
       -0.0069541815 -0.0015507359 0.0014050744 0.003337842
0000d0 35 4a 99 3b 39 7e e2 ba 9c 8e c7 ba 49 c5 19 ba
       0.0046780356 -0.0017280049 -0.0015224996 -0.00058658846
0000e0 de 5b 04 3b b9 b5 18 3b 3d 6f 5c 3b 4c ed 75 3b
       0.0020196359 0.0023301675 0.003363564 0.0037525473
0000f0 e1 17 c6 3a 73 f3 79 3b d2 61 8e 3b 9a 4c 85 bb
       0.0015113318 0.0038139492 0.004345157 -0.0040679695
000100 a1 d7 28 ba 38 d2 09 bb 5f af b0 3b 59 54 9c bb
       -0.00064408226 -0.002102984 0.0053919996 -0.004770797
000110 fe 47 b5 bb 7e 7b 68 bb 79 e2 f0 ba 54 9a f7 ba
       -0.005532264 -0.0035473998 -0.0018378041 -0.0018890598
000120 9b 2e 31 bb 71 47 27 bb 15 15 2a bb 34 66 38 bb
       -0.0027035836 -0.002552476 -0.0025952507 -0.002813709
000130 b3 cd 4a bb 01 10 fd b5 ea f1 96 ba 92 51 0a 3b
       -0.003094536 -1.8854627e-06 -0.0011516188 0.0021105749
000140 dd 77 ed ba 5b a7 e1 39 7b bb 94 ba bb 8b 19 bb
       -0.0018117387 0.00043040034 -0.0011347377 -0.0023429233
000150 f7 3d eb b7 b7 6c 19 3a 8c 28 71 3b 5b 31 8c 3b
       -2.8043038e-05 0.00058526866 0.003679785 0.0042783446
000160 9e 80 94 3a f1 a4 95 37 d9 8d f8 39 2f b6 92 3b
       0.0011329835 1.7838991e-05 0.0004740793 0.0044772844
000170 f9 c3 91 3b f5 3b b8 3b f9 70 68 3b d2 27 46 3a
       0.0044484106 0.005622382 0.0035467728 0.0007559034
000180 b4 88 ec 3b 0f 34 c2 3b c8 95 ef 3a a8 43 18 3b
       0.0072184447 0.005926616 0.0018278891 0.0023233686
000190 ed 70 3c 3b f4 ce 9a 3b 58 63 01 3b d1 34 42 3b
       0.0028753832 0.0047243778 0.0019743051 0.0029633532
0001a0 ad 2a 5a 3b c1 3b 07 3c aa 6b b1 3b c2 9d 0b 3c
       0.0033289597 0.008253993 0.005414446 0.008521499
0001b0 93 01 a1 3a 91 fe a6 3b fa 21 62 3c 69 e7 43 3c
       0.0012283794 0.0050962646 0.013802046 0.011957028
0001c0 0c 89 38 bb 2a e8 5e 39 94 6b 0f 3b 0d 4a 54 3b
       -0.0028157858 0.00021258058 0.002188419 0.003239277
0001d0 ad 11 b2 b9 97 cd 9e bb e6 4d 6e bb db 29 81 bb
       -0.00033963975 -0.0048462856 -0.003636235 -0.003941757
0001e0 d6 a3 43 bb 31 3f 44 bb 62 e0 9d ba 02 4b d7 ba
       -0.0029852293 -0.0029944892 -0.0012045021 -0.0016425552
0001f0 73 ee ac bb 42 af af bb eb b9 6d ba 54 cb ae ba
       -0.005277449 -0.0053614685 -0.00090685365 -0.0013335743
000200 6e c2 8c bb 67 44 1d ba 39 a2 42 bb 22 2d 66 ba
       -0.0042956388 -0.00059992675 -0.0029698743 -0.0008780529
000210 c0 be bc 37 af 56 45 3b 43 5b 32 3b f2 31 8f 3b
       2.2500171e-05 0.0030111482 0.002721504 0.0043699676
000220 1e 99 2b b8 60 b5 7b 3b 9d 74 92 3b cf 88 82 3b
       -4.091218e-05 0.0038407668 0.004469468 0.003983594
000230 4a ed cc 3a 45 a8 06 ba 0e ca e9 b9 0f 64 41 bb
       0.0015634682 -0.00051367685 -0.00044591766 -0.0029509102
000240 86 f0 59 3a 29 d6 d4 3a 8d 9f b9 3a 50 03 a6 bb
       0.0008313734 0.0016238141 0.001416193 -0.005066313
000250 5a fe 0b ba 7e f9 4f bb 63 45 ce 3b 8b a7 f2 bb
       -0.00053403305 -0.0031734402 0.0062948926 -0.0074052266
000260 9e c9 de bb 43 89 3f bb a1 26 27 3a 47 03 16 ba
       -0.006798937 -0.0029226101 0.00063763006 -0.0005722534
000270 21 23 72 3a 27 f5 d3 ba 26 6f 3d 3a 71 fe 81 3a
       0.0009236802 -0.0016171084 0.000722634 0.0009917748
000280 97 b4 2f ba af 4f 21 39 5f 85 e2 38 a6 d4 02 ba
       -0.000670263 0.00015383841 0.00010801362 -0.00049907935
000290 94 9c 98 b9 f5 e8 5e 38 76 43 9c 39 1a 74 dc 39
       -0.0002910836 5.3145883e-05 0.000298049 0.00042048172
0002a0 b5 a0 0b 3c 65 44 00 3c 08 6c 33 3c 22 c7 b6 3b
       0.008522202 0.0078288065 0.01095105 0.0055779377
0002b0 93 90 b3 3b ed 1d 75 3c a8 07 67 3c c6 c5 f0 ba
       0.005479881 0.014960748 0.0141009465 -0.0018369488
0002c0 57 87 8d ba 08 43 02 bb cc 96 cd b8 5d fd 50 ba
       -0.0010797781 -0.001987638 -9.80325e-05 -0.00079723244
0002d0 05 8e 22 bb f9 16 16 bb 14 af bc 39 a3 62 07 3b
       -0.0024803889 -0.0022901876 0.00035988598 0.0020658157
0002e0 d3 de f7 3a 7d c4 4f 3b 6f c9 83 b9 ab 56 c8 3a
       0.0018911011 0.003170281 -0.00025136347 0.0015284618
0002f0 a4 5d 20 3b e5 76 9c 3b db d3 32 3b 19 56 0f 3b
       0.0024469877 0.0047749155 0.002728692 0.0021871387
000300 f1 a3 9e b8 c8 c2 ca 3a 87 b9 fe 3b 3d bf dc 3b
       -7.5645636e-05 0.0015469426 0.0077735814 0.0067366646
000310 4a 0b 90 bb 86 1f 50 3a c4 2b b9 3a f5 f4 1e 3c
       -0.004395877 0.00079392677 0.0014127423 0.009701957
000320 73 55 d8 bb f1 41 98 bb fe c7 12 bb 01 09 38 bb
       -0.006601983 -0.0046465327 -0.0022397037 -0.0028081539
000330 2e e6 49 bb 0d cd 83 bb 35 63 5c bb 50 e4 d5 ba
       -0.0030807364 -0.0040222467 -0.0033628468 -0.0016318653
000340 dc 33 a1 bb 9e f0 ac bb 79 f4 ab 39 80 ce 92 3a
       -0.004919512 -0.0052777072 0.00032797808 0.0011200458
000350 39 60 0b 3b 8c a3 38 3b 94 d8 0c ba 26 d4 9d 3a
       0.002126707 0.0028173653 -0.0005372849 0.0012041375
000360 71 40 42 3a 9a 1d 19 ba 42 94 0f 3a da f0 6c 3a
       0.0007410115 -0.0005840898 0.0005477109 0.0009038575
000370 22 b5 51 3a de b3 9b 3a a7 ea 0f 38 0f 1f b6 3a
       0.0007999708 0.0011879166 3.4312394e-05 0.0013894754
000380 95 b4 bd ba 91 24 d4 ba 17 ab 68 ba 39 3d c8 39
       -0.0014473373 -0.0016185214 -0.0008875592 0.00038192587
000390 09 1d a3 b9 2c e7 91 ba b2 d8 0c bb ca f9 52 3a
       -0.00031111416 -0.0011131517 -0.0021491465 0.0008048086
0003a0 d1 32 3f ba e7 0f 4c bb ba b7 db ba ef 7e 0d ba
       -0.0007293644 -0.0031137408 -0.0016763129 -0.0005397638
0003b0 44 57 9f 3a f9 6f bb 3a ce bf 90 bb ae 4b 7b bb
       0.0012156744 0.0014300338 -0.004417396 -0.003834467
0003c0 c4 c7 a7 bb 12 aa 8b bb 17 46 74 ba fd cd cb bb
       -0.0051202495 -0.0042622173 -0.00093183055 -0.006219624
0003d0 25 27 be bb 78 00 e8 3b b3 3f 3b 3b 95 ff a5 3a
       -0.0058030062 0.007080134 0.0028571903 0.001266467
0003e0 b4 b5 98 bb 5d c1 8c 3b ac 3d 35 3c 9f 69 1d 3c
       -0.0046603326 0.0042955116 0.011062067 0.009607702
0003f0 1c 91 b9 bb 78 91 01 bc 1c ce 44 bc f0 e1 31 bc
       -0.0056630503 -0.007908218 -0.012012031 -0.01085709
