checkpoints_dqn/model_final_model_qdpcxtvy.pth (torch, 23259 bytes, 4 tensors)

linear1.weight f4 [256, 16]
0	0xbe831f5d	-0.25609866
1	0x3b6c4946	0.0036054417
2	0xbde1d6b0	-0.110272765
3	0x3de329d3	0.11091962
4	0xbe628e78	-0.2212466
5	0x3c8e7b4f	0.017392782
6	0xbea14f10	-0.31505632
7	0xbeac76e1	-0.33684447
8	0xbea27ec2	-0.31737334
9	0xbd76c06a	-0.060242094
10	0xbe6df03a	-0.2323617
11	0x3d47b8a1	0.04876006
12	0xbe8e5ebc	-0.27806652
13	0xbe6fa16d	-0.23401423
14	0xbe848bd7	-0.2588794
15	0xbe51ccc3	-0.20488267
16	0xc1106be3	-9.02634
17	0x3f5ba6aa	0.85801184
18	0xbdf3412b	-0.11877664
19	0x3fd6bbde	1.6776083
20	0x4044b111	3.0733073
21	0x4088d6f3	4.276239
22	0xbd7f1112	-0.06227214
23	0xbf95b751	-1.1696569
24	0xbfa1987c	-1.262466
25	0xbf6e43ed	-0.93072397
26	0xbebb76fb	-0.36614212
27	0xbe74cd3a	-0.23906413
28	0xbf4042f3	-0.75102156
29	0xbf4ebb2a	-0.8075434
30	0xbf0182a8	-0.5058999
31	0xbf4f997b	-0.8109357
32	0x3d6a3848	0.05718258
33	0x3d7bcbc4	0.061473623
34	0x3e8c15c8	0.27360368
35	0xbcbde6e5	-0.023181388
36	0xbe8e5420	-0.27798557
37	0xbe10630d	-0.14100285
38	0xbf3420ba	-0.70362437
39	0x3bbfc7a8	0.0058526583
40	0xbbfc5f76	-0.0077018095
41	0xbe37c510	-0.17946267
42	0xbde3198f	-0.11088859
43	0xbc901961	-0.017590227
44	0xbeaf63f4	-0.34255946
45	0xbed316e5	-0.41228405
46	0xbeb28eb8	-0.3487451
47	0xbdf4f214	-0.11960235
48	0x4026121f	2.594856
49	0x3f1cf6d5	0.61314136
50	0x3fe5f2c7	1.7964715
51	0x40063d62	2.0974965
52	0x408652ce	4.197608
53	0xc0383cfc	-2.8787222
54	0xc085b0d5	-4.177836
55	0x3fd01325	1.6255842
56	0x3f8122ea	1.008878
57	0x3ea6536d	0.32485524
58	0x3eb46d36	0.3523957
59	0xbf0b8f67	-0.5451569
60	0x3f2d97ca	0.67809737
61	0xbf1b4f00	-0.6066742
62	0xbecd478d	-0.4009365
63	0x401b22a2	2.4239888
64	0xbd73570f	-0.059409197
65	0x3f0a7f4f	0.5410051
66	0x3f8d723c	1.1050487
67	0x3eb9481b	0.36187825
68	0x3f365a26	0.71231306
69	0xbf70181c	-0.9378679
70	0x3f33035d	0.69927007
71	0xbf19befb	-0.6005704
72	0xbf95b5a1	-1.1696054
73	0xbf5fd2f1	-0.87431246
74	0xbee065fc	-0.43827808
75	0x3cbfe238	0.0234233
76	0xbdc304e0	-0.09522414
77	0xbf167d81	-0.58785254
78	0xbf2cedbc	-0.67550254
79	0xbf691e40	-0.9106178
80	0x3ca0b43f	0.019617198
81	0xbdce7d14	-0.100824505
82	0x3d6cc87f	0.057808395
83	0xbba0463c	-0.004891185
84	0xbe0cc1e4	-0.13745838
85	0xbe447822	-0.19186452
86	0xbe3648e3	-0.17801242
87	0x3dcac3bc	0.099006146
88	0x3ce630c8	0.028099433
89	0xbcaa95c2	-0.020823363
90	0xbe8e42a0	-0.27785206
91	0x3dcda892	0.10041918
92	0xbbdfc3ca	-0.00682876
93	0x3dd4838a	0.103766516
94	0xbe100e59	-0.14067973
95	0x3c52ae31	0.012858913
96	0x3d82599a	0.063647464
97	0xbce70dc8	-0.028204814
98	0x3dfc1a86	0.123097464
99	0xbd558889	-0.052132163
100	0x3eb66739	0.35625628
101	0xbea5ffb2	-0.32421643
102	0xbe8b4ba2	-0.2720614
103	0xbe4f73ec	-0.20259064
104	0xbde94ec2	-0.11391975
105	0xbe4d4f93	-0.20049886
106	0xbe0dc158	-0.13843286
107	0xbbe991ab	-0.0071279607
108	0xbd86c61f	-0.06580757
109	0xbe487b4f	-0.19578288
110	0x3de96c83	0.1139765
111	0xbe00c854	-0.12576419
112	0x3fb125b8	1.3839636
113	0xc129a6fa	-10.603266
114	0x3f9aab3d	1.2083508
115	0xc05608b4	-3.3442812
116	0xc041e1e2	-3.0294118
117	0xbdf9f642	-0.12205173
118	0xbee62beb	-0.44955382
119	0x3f910abd	1.1331402
120	0xbf30649b	-0.6890351
121	0xbeb93aa0	-0.3617754
122	0xbf1da434	-0.6157868
123	0xbf85736c	-1.0425849
124	0xbfc4278d	-1.532457
125	0xbef54996	-0.47907704
126	0xbea23bee	-0.31686348
127	0xbf115383	-0.56768054
128	0xbcd42464	-0.025896259
129	0x3d804670	0.06263435
130	0xbd5c6135	-0.05380364
131	0xbd072c1f	-0.03300106
132	0xbd8e8def	-0.069606654
133	0xbeaaba44	-0.33345234
134	0xbd14475b	-0.036200862
135	0xbe483775	-0.19552405
136	0x3cc13555	0.023585001
137	0xbdb3deb1	-0.087827094
138	0xbd7e8160	-0.0621351
139	0xbe14c2ea	-0.14527479
140	0xbdc09bee	-0.09404741
141	0xbe4ff009	-0.2030641
142	0x3b99f5d4	0.0046984944
143	0x3e6087ce	0.21926805
144	0x3aec1f85	0.0018014765
145	0xbe033121	-0.1281171
146	0xbe72bbf7	-0.23704515
147	0x3d9e185d	0.07719491
148	0xbef738c3	-0.48285493
149	0xbe5d1795	-0.21591027
150	0xbfc1eb6b	-1.5149969
151	0xbe4bc2a3	-0.19898467
152	0xbe55713d	-0.20843978
153	0xbcd3425e	-0.025788482
154	0xbdfabb36	-0.12242739
155	0x3ca23896	0.019802373
156	0xbdcb62e6	-0.09930973
157	0x3ca42737	0.02003823
158	0xbe904d6e	-0.28184074
159	0xbe15c3ba	-0.14625445
160	0xbe57fa2a	-0.21091524
161	0xbe88878d	-0.26665917
162	0xbe7b1510	-0.24519753
163	0x3e1e09f7	0.15433489
164	0x3eb25fec	0.34838808
165	0xbe2a399d	-0.1662354
166	0xbd9f87a5	-0.07789544
167	0x3dbd047f	0.09229373
168	0xbd68e724	-0.056861058
169	0xbe1fc25c	-0.15601486
170	0xbeab5a15	-0.33467165
171	0xbf193960	-0.5985317
172	0xbe80fff7	-0.25195286
173	0xbdc10906	-0.09425549
174	0xbe128189	-0.14307226
175	0xbe67f483	-0.22651868
176	0xbeb7d781	-0.35906604
177	0xbe3775e1	-0.17916061
178	0x3e1a893c	0.15091413
179	0x3e1a566b	0.15072028
180	0xbcee1d62	-0.029066745
181	0xbd96c772	-0.0736226
182	0x3dbb17d5	0.09135405
183	0xbe964f74	-0.29357493
184	0xbe8d988e	-0.27655452
185	0xbe2f7d05	-0.17137535
186	0xbeac8ab6	-0.33699578
187	0x3c4ec14c	0.012619328
188	0x3dbd39c5	0.09239534
189	0xbe8819de	-0.26582235
190	0xbe83423c	-0.2563647
191	0xbe990ce9	-0.29892662
192	0xc0da5431	-6.8227773
193	0xc1102dfb	-9.011226
194	0x3f37e9b1	0.7184096
195	0x4012ff76	2.296842
196	0xc0573ff9	-3.3632796
197	0x3faa8657	1.3322247
198	0xc010f2c8	-2.2648182
199	0xc009a0f8	-2.1504498
200	0xbe127d14	-0.14305526
201	0x3f47108e	0.77759635
202	0x3f22c474	0.63581014
203	0x3fa8501c	1.3149447
204	0x3f308a67	0.68961185
205	0x3da24105	0.07922558
206	0xbe2da406	-0.16957101
207	0x3f033f71	0.5126868
208	0xbfbcd024	-1.475102
209	0xc01d8ab0	-2.4615898
210	0xbf34d264	-0.7063353
211	0xbea91911	-0.33026937
212	0xbffc0c72	-1.9691298
213	0xbf0cd091	-0.5500575
214	0x3faab299	1.3335754
215	0x3e3da663	0.18520503
216	0xbf160aee	-0.5861043
217	0xbf870626	-1.0548751
218	0xbf006df9	-0.50167805
219	0xbf05e799	-0.52306515
220	0xbf175755	-0.59117633
221	0xbf72737f	-0.94707483
222	0xbf253b05	-0.6454318
223	0x3d2d9ab1	0.042383853
224	0x3db3681e	0.08760093
225	0xbe9dc354	-0.30813086
226	0xbd86c163	-0.06579854
227	0xbe145780	-0.14486504
228	0x3d8b79aa	0.06810315
229	0xbd8b7f1a	-0.06811352
230	0xbdde0c4c	-0.10842189
231	0xbdb9e60d	-0.09077082
232	0xbe75ec19	-0.24015845
233	0x3cdc4234	0.026887037
234	0xbd203289	-0.039110694
235	0xbe6c84b7	-0.23097502
236	0x3d0fa7d2	0.035072155
237	0xbd86f194	-0.06589046
238	0xbe9af0dd	-0.3026189
239	0x3d96f92b	0.07371744
240	0xb9f1f024	-0.0004614602
241	0xbe533351	-0.20625044
242	0x3d460ea0	0.04835379
243	0x3a9d128b	0.0011983676
244	0x3db1baa0	0.08678174
245	0x3d80e433	0.062935255
246	0xbf45e450	-0.773015
247	0xbd86f28c	-0.06589231
248	0x3e047d55	0.12938435
249	0xbd3fe132	-0.046845622
250	0xbdb0f4fb	-0.08640476
251	0xbeefbb06	-0.46822375
252	0xbe11c82b	-0.14236514
253	0xbf192990	-0.59829044
254	0xbe988b03	-0.29793558
255	0xbe72a5bd	-0.23696037

linear1.bias f4 [256]
0	0xbc1d2098	-0.0095902905
1	0x408287b5	4.079066
2	0xbe5bfa9b	-0.21482317
3	0xc044637e	-3.0685725
4	0xbf8c5101	-1.096222
5	0xbe1da89c	-0.1539635
6	0xbeaf136d	-0.34194508
7	0x3da010a7	0.07815676
8	0xbda0d420	-0.0785296
9	0xbd5bf523	-0.053700577
10	0xbef2e756	-0.4744212
11	0x3c206e14	0.00979187
12	0x3fdee073	1.7412246
13	0xbe825732	-0.2545715
14	0xbe99006d	-0.29883137
15	0xbe962b51	-0.29329923
16	0xbeb5b87f	-0.35492322
17	0xbe100a5f	-0.14066456
18	0xbe050939	-0.129918
19	0xbe805c28	-0.2507031
20	0xbe7e5970	-0.24838805
21	0xbffa6a92	-1.9563773
22	0x3d27e3df	0.0409888
23	0xbebeefae	-0.37292236
24	0xbf8ddfe3	-1.108395
25	0xc06b35b4	-3.6751528
26	0xbe888eb9	-0.2667139
27	0xbe9ae066	-0.30249327
28	0xc0281ed6	-2.626882
29	0xbeb449b6	-0.35212487
30	0xbd59a6e4	-0.053137675
31	0xbb4db273	-0.0031386882
32	0xbe6d440a	-0.23170486
33	0xbe85de1e	-0.26146024
34	0xbe30baf6	-0.1725882
35	0xbff2640b	-1.8936781
36	0x400ff48e	2.2493014
37	0xbeba7965	-0.36420742
38	0xbfa7bdfa	-1.3104851
39	0xc02fc06f	-2.7461202
40	0xbe88b4a1	-0.2670031
41	0xbe51212c	-0.2042281
42	0x40374e43	2.8641517
43	0x3d75eebe	0.060042135
44	0xbf369181	-0.7131577
45	0x3f09ae87	0.5378193
46	0xbe548d68	-0.20757067
47	0xbf0371de	-0.5134562
48	0xbef06f2c	-0.46959817
49	0xbe562b00	-0.2091484
50	0xbea9e60a	-0.33183318
51	0xbe0efd80	-0.1396389
52	0x3e8d9530	0.27652884
53	0xbe58a080	-0.21154976
54	0x3e0d6eaf	0.13811754
55	0xbe96d616	-0.2946021
56	0xbe6a98c8	-0.22909844
57	0xbf462013	-0.7739269
58	0xbe54b665	-0.20772703
59	0xbd8d809c	-0.06909296
60	0xbe90983c	-0.28241146
61	0xbed5d064	-0.41760552
62	0xbe65d803	-0.22445683
63	0xbe9164ce	-0.2839722
64	0xbd97a8c0	-0.074052334
65	0xbdc5e2a4	-0.09662369
66	0x3e0520ad	0.13000746
67	0xbf0b875e	-0.5450343
68	0xbf90c67e	-1.1310575
69	0xbd987635	-0.07444421
70	0xbf30284e	-0.688115
71	0xbd82fdf7	-0.06396096
72	0xbcf16cb2	-0.029470775
73	0xbe95ec88	-0.29282022
74	0xbe1e1649	-0.15438189
75	0xbd80b706	-0.06284909
76	0xbe6b9232	-0.23004988
77	0xbf2c0f48	-0.6721082
78	0xbd246f6b	-0.04014532
79	0xbe32af27	-0.17449628
80	0xbee4fbb1	-0.44723275
81	0xbef547e6	-0.47906417
82	0xc014fd82	-2.327973
83	0xbdb468ba	-0.088090375
84	0xbeb12497	-0.34598228
85	0x3c8a6dc9	0.016898053
86	0xbd0bed7e	-0.034162037
87	0xbe73f23b	-0.23822872
88	0x3eb8cc22	0.3609324
89	0xbe028772	-0.12746981
90	0xbe6ac5ee	-0.22927067
91	0x39b0a2e8	0.0003369071
92	0xbe2d1226	-0.16901454
93	0xbe39d5c4	-0.18147951
94	0xbe2eb9dc	-0.17063087
95	0xbff7231e	-1.9307592
96	0xbdd79d4c	-0.10528049
97	0xbd873049	-0.066010065
98	0xbd0304aa	-0.03198687
99	0xbd56ef28	-0.05247417
100	0xbe8b4788	-0.27203012
101	0xbe1ea00a	-0.15490738
102	0xbec493a1	-0.38393882
103	0xbe99849c	-0.29983985
104	0xbe49b957	-0.19699608
105	0xbcc1a041	-0.023635985
106	0xbfd86d35	-1.6908327
107	0x40280b2f	2.6256826
108	0xbe7165cb	-0.23573987
109	0x3ce7b9c5	0.028286824
110	0xbe151551	-0.14558913
111	0xbe98e022	-0.298585
112	0xbbc1275f	-0.005894586
113	0xbe435cc1	-0.19078352
114	0x3e51ff97	0.20507656
115	0xbe21f7f6	-0.15817246
116	0x3fec7c7d	1.8475491
117	0xbeddd67d	-0.43327704
118	0xbdfbf187	-0.12301927
119	0xbecc9502	-0.39957434
120	0x40179190	2.3682594
121	0x3cc63af9	0.024198042
122	0x3dd1c137	0.10241931
123	0xbef5747e	-0.4794044
124	0xbe57e255	-0.21082433
125	0xbe9aa4d8	-0.3020389
126	0xbe4b0038	-0.19824302
127	0xbe01bbc5	-0.12669285
128	0xbd32f3ae	-0.043689422
129	0xbf01ab9a	-0.5065247
130	0xbff3138d	-1.8990341
131	0xbff25e4d	-1.8935028
132	0xbdd02d5d	-0.10164902
133	0xbe918468	-0.2842133
134	0xbfe3b065	-1.7788206
135	0x40de8598	6.953808
136	0xbec495e2	-0.38395602
137	0x3fa15384	1.2603612
138	0x3e118ce4	0.14213902
139	0xbe63e7a0	-0.22256327
140	0xbe97aef8	-0.29625678
141	0xbe8ef001	-0.27917483
142	0x40397828	2.8979588
143	0xbe13eddd	-0.14446206
144	0xbe80ee0f	-0.25181624
145	0xbe451f7e	-0.19250295
146	0xbe0c2273	-0.13685016
147	0x40d84797	6.758739
148	0xbeaf8e36	-0.34288186
149	0xbde263c6	-0.110541865
150	0xbee5f114	-0.4491049
151	0xbe734d34	-0.2375992
152	0xc032ad94	-2.7918444
153	0xc041e911	-3.0298502
154	0xbe6ba13a	-0.23010722
155	0xbf0e099b	-0.55483407
156	0xbe4d3693	-0.2004035
157	0xc010c361	-2.261925
158	0xbe49feca	-0.197261
159	0xbe70d92f	-0.23520349
160	0xbf9c5280	-1.2212677
161	0x3fc11735	1.5085207
162	0x3e1b3f4a	0.15160862
163	0xbea55de5	-0.32298198
164	0xbf03202c	-0.51220965
165	0xbe1f8a5a	-0.1558012
166	0x3e4156f3	0.18880825
167	0xbe904d0b	-0.2818378
168	0xbd0ea2f5	-0.034823377
169	0xbe462665	-0.19350584
170	0xbfacd219	-1.3501617
171	0xbe18994f	-0.14902233
172	0xbde9b4a2	-0.11411406
173	0xbc6263e7	-0.013817764
174	0xbd46d222	-0.048540242
175	0xbea7729a	-0.32704622
176	0xbdffcb0f	-0.12489902
177	0xbdca3966	-0.09874229
178	0xbe8297d8	-0.25506473
179	0xc05aac38	-3.4167614
180	0xbe8bafd6	-0.2728259
181	0xbffc1d39	-1.9696418
182	0xbea9b732	-0.3314758
183	0x3bb293c1	0.0054497425
184	0xbe006482	-0.1253834
185	0xbe05d2b1	-0.13068654
186	0xbe8b3f28	-0.27196622
187	0x3d07aa52	0.033121414
188	0xbea88470	-0.32913542
189	0xbfcaeda9	-1.5853778
190	0x3d1b6453	0.037937474
191	0xbeba7e89	-0.36424664
192	0xbeab5e17	-0.33470222
193	0xbe2abfc1	-0.16674711
194	0xbdfe8ce8	-0.124292195
195	0xbe874367	-0.2641861
196	0xbec13d8d	-0.37742272
197	0xbe1ea9f2	-0.15494516
198	0x3d4905ae	0.049077682
199	0xbeb16a17	-0.34651253
200	0xc04e6da7	-3.2254426
201	0xbd2e7450	-0.042591393
202	0x408a31aa	4.3185625
203	0x400f6db0	2.2410698
204	0xbdc4e287	-0.09613519
205	0xbe4d53bc	-0.20051473
206	0xbff375ba	-1.9020302
207	0x40d49c76	6.644099
208	0xbe6cd254	-0.23127109
209	0xbe1822dc	-0.14857048
210	0xbe6e7463	-0.23286586
211	0xbdec37e2	-0.11534096
212	0xbe72bc14	-0.23704559
213	0xc0281488	-2.6262531
214	0x3be73b72	0.007056647
215	0xbd82cb1b	-0.063863955
216	0xbe73a5ae	-0.2379367
217	0x4049440c	3.1447783
218	0xbdf25c31	-0.1183399
219	0xbb7f525e	-0.0038959007
220	0xbe038c0f	-0.12846397
221	0xbff384f3	-1.9024948
222	0xbe5ab57d	-0.21358295
223	0xbf2b3ca5	-0.6688941
224	0xbe50c114	-0.20386153
225	0xbe78a558	-0.24281824
226	0xbe53ac0c	-0.206711
227	0xbdcaec0b	-0.09908303
228	0xbe130429	-0.14357056
229	0x40867062	4.2012186
230	0x3ea2ce7f	0.3179817
231	0xbe4aa9a3	-0.19791274
232	0xbea9b734	-0.33147585
233	0x4014b98d	2.3238251
234	0xc00a5d9a	-2.161963
235	0xbe88aae6	-0.26692885
236	0xbe5e51dc	-0.21710914
237	0xbc8aef8a	-0.016959924
238	0xbea27bf6	-0.317352
239	0x3df0dbcd	0.11760674
240	0x402d7437	2.7102182
241	0xbe8ca7e8	-0.27471852
242	0x3f82b8a3	1.0212597
243	0x3d3eacc3	0.046551477
244	0xbea782bb	-0.32716927
245	0xbea8a336	-0.3293702
246	0x3e19aa1f	0.15006302
247	0xbe6d4d76	-0.2317408
248	0xbe753207	-0.23944865
249	0xbe695335	-0.22785647
250	0xbe97c2ae	-0.29640716
251	0x4090c95e	4.524581
252	0xbebb845e	-0.36624426
253	0x3ce979bf	0.028500436
254	0x3dc12554	0.09430948
255	0xbeb95af8	-0.36202216

linear2.weight f4 [3, 256]
0	0x3d4f2c84	0.050579563
1	0x401c8327	2.445505
2	0xbe116774	-0.1419962
3	0xc0000162	-2.0000844
4	0x3f89d053	1.07667
5	0x3d80de3e	0.06292389
6	0xbcab9ea7	-0.020949675
7	0x3f71c6d4	0.9444401
8	0x3d04ab66	0.03239002
9	0x3d5f4dad	0.054517437
10	0x3d546c86	0.05186131
11	0x3b3bf1f1	0.0028678144
12	0x3ff4dc1b	1.9129671
13	0x3ecbb7b3	0.3978859
14	0xbc31a068	-0.0108414665
15	0xbd6fea24	-0.058572903
16	0x3bf31eca	0.007419442
17	0x3d096a11	0.03354842
18	0x3c277591	0.010220901
19	0xbd03d2a1	-0.032183293
20	0x3cfb7d84	0.030699499
21	0xbf5c7262	-0.86112034
22	0x3b8a3643	0.0042178943
23	0x3ce87198	0.028374478
24	0xbd493e21	-0.049131516
25	0x40041a9d	2.0641243
26	0xbcfe8113	-0.031067407
27	0x3d394ae7	0.045237448
28	0xbcd7abc1	-0.026327016
29	0xbd86bda1	-0.065791376
30	0xbd2084b6	-0.039189063
31	0x3cab3d68	0.020903304
32	0x3bef0587	0.00729436
33	0x3d826823	0.06367519
34	0xbc40d737	-0.011770061
35	0xc0293c86	-2.644319
36	0xc019ad30	-2.4011955
37	0x3ce8a3e5	0.028398464
38	0x3ce3000a	0.02770998
39	0xbfb74abf	-1.4319686
40	0xbd87ba58	-0.06627339
41	0xbc970aaf	-0.018437712
42	0xc0fcf7b0	-7.9052353
43	0x3bab55f4	0.0052287523
44	0x3fe51b6b	1.7898992
45	0x405ad838	3.419447
46	0x3d384d5a	0.044995643
47	0x3d89327f	0.066990845
48	0x3d89401a	0.067016795
49	0x3c0bbb2c	0.008528512
50	0x3c10c96c	0.008837085
51	0xbd029909	-0.031884227
52	0x3fb00401	1.3751222
53	0x3e07adb7	0.1324986
54	0xbd28e3e4	-0.04123296
55	0xbc6e109b	-0.014530326
56	0x3c711679	0.014714831
57	0x4019699f	2.3970716
58	0x3c9ee843	0.01939786
59	0x3c69650f	0.014245286
60	0xbd7b5e07	-0.06136897
61	0x3cbe0c2d	0.023199165
62	0xbc82a3f2	-0.015947316
63	0x3e3972de	0.18110225
64	0x3c19382f	0.009351774
65	0xbc638839	-0.0138874585
66	0x3d44f94a	0.048089303
67	0x3e5ae036	0.21374592
68	0xbe13731a	-0.14399377
69	0x3c80205b	0.015640428
70	0x3c8e009c	0.017334275
71	0xbe13b056	-0.14422736
72	0xbd273446	-0.040821336
73	0xbea4d533	-0.32193908
74	0x3aac3c75	0.0013140576
75	0xbc799a6e	-0.015234573
76	0xbd0eab9d	-0.034831632
77	0x3e888fc9	0.266722
78	0x3c2180d9	0.00985738
79	0x3e340961	0.17581703
80	0xbe082180	-0.13294029
81	0x3d065893	0.032799315
82	0xbd410ad3	-0.047129463
83	0x3c6a207b	0.0142899705
84	0xbcaec124	-0.021332331
85	0x3c838a4a	0.016057152
86	0xbc84d15f	-0.016213117
87	0x3c874394	0.016511716
88	0xc08103cd	-4.031714
89	0xbc372804	-0.011178974
90	0x3ce3198e	0.027722146
91	0x3d044d81	0.032300476
92	0xbc021f41	-0.007942022
93	0x3c62c5d8	0.013841115
94	0xbe08ca1c	-0.13358349
95	0xc09eb8f3	-4.960077
96	0x3b184a25	0.0023237553
97	0x3d9a05d6	0.07520644
98	0xba435235	-0.00074509095
99	0x3d041fd2	0.03225691
100	0xba9800d6	-0.0011596929
101	0xbbf76732	-0.0075501436
102	0x3d912cc4	0.070886165
103	0x3c2fddad	0.010734004
104	0x3c97a6f7	0.018512232
105	0xbcb22290	-0.021744996
106	0xbed19b2a	-0.40938693
107	0x3fedc1ac	1.8574729
108	0xbd59cdc4	-0.05317475
109	0xbd2517ac	-0.04030578
110	0x3fb97203	1.4487919
111	0x3bb489cd	0.005509591
112	0x3c33be0e	0.010970606
113	0x3d405900	0.046959877
114	0x3fefbc43	1.8729328
115	0x3ce8a003	0.028396612
116	0x3fe74777	1.8068684
117	0x3d035b82	0.03206969
118	0xbbb98b2c	-0.0056623425
119	0xbe394497	-0.18092571
120	0x401180c8	2.2734852
121	0x3d0f97cd	0.035056878
122	0x3a871293	0.0010305218
123	0x3e852ae7	0.26009294
124	0xbced4db3	-0.028967714
125	0xbc6c0ec9	-0.014407822
126	0x3c0195ac	0.00790922
127	0xbd78ff2c	-0.060790226
128	0xbc9aef6d	-0.018912995
129	0x3cfed8db	0.031109264
130	0xc07cc35c	-3.9494238
131	0xc0847737	-4.1395526
132	0xbccfc1a9	-0.025360899
133	0x3d697937	0.057000365
134	0xc1121926	-9.13114
135	0x403e3acd	2.972339
136	0xbc452165	-0.012031888
137	0xbffcbf1c	-1.9745822
138	0xbfe807fd	-1.8127438
139	0x3cb8a8e3	0.022541469
140	0xbda12a5d	-0.07869408
141	0x3ccdca0e	0.025120761
142	0x3f48f545	0.7849925
143	0xbc1c429d	-0.009537366
144	0xbc83fe64	-0.016112514
145	0x3c90b8ec	0.017666303
146	0xbc2f0e41	-0.010684551
147	0x4048e318	3.1388607
148	0x3da07004	0.07833865
149	0x3d84b9d2	0.06480755
150	0xbc8f8f49	-0.017524378
151	0x3b360ef8	0.0027779918
152	0xbf5c2dbc	-0.86007285
153	0x3f268a35	0.6505464
154	0xbc83a04f	-0.016067652
155	0xbe0ef733	-0.13961487
156	0xbdcde44e	-0.10053311
157	0xc023df0a	-2.5604882
158	0x3e291a69	0.16513981
159	0xbd1477aa	-0.036246933
160	0x3fe224a3	1.7667431
161	0x3f8844fa	1.064605
162	0xbd18ef9a	-0.037337877
163	0x406de257	3.7169397
164	0xbd9e0386	-0.07715516
165	0xbd80bdae	-0.062861785
166	0xc13c99a0	-11.787506
167	0x3cbc20e3	0.0229649
168	0xbca5ef92	-0.020255838
169	0x3fea542a	1.8306935
170	0xbfe9a132	-1.8252318
171	0x3cc0a5cd	0.02351656
172	0xbc9c3bcf	-0.019071488
173	0xbc61ad3d	-0.013774213
174	0xbc09ae75	-0.00840341
175	0x3c357f1c	0.0110776685
176	0x3d001653	0.03127129
177	0x3d84d56c	0.064860195
178	0x3cb0efa3	0.021598643
179	0xbf223cd4	-0.63374066
180	0xbd66597c	-0.056237683
181	0x3f4a8980	0.7911606
182	0x3ed18882	0.4092446
183	0xbd3ceb72	-0.046122976
184	0x3ccc5dc5	0.024947057
185	0xbc5b06f9	-0.013368362
186	0x3a2d92a2	0.0006621276
187	0xbcd67b7d	-0.02618193
188	0x3c940cb8	0.018072471
189	0xc089401c	-4.289076
190	0x3ce7d354	0.028299011
191	0xbd44a683	-0.04801036
192	0x3c9084f6	0.017641526
193	0xbd0e0637	-0.034673896
194	0x3ca8a8da	0.020588327
195	0xbca93b38	-0.02065812
196	0xbc6822bd	-0.0141684385
197	0x3c7d278a	0.015451321
198	0x3d0c85af	0.034307178
199	0xbc02eaa7	-0.007990516
200	0xbec66b23	-0.38753614
201	0xbe9d40ee	-0.307136
202	0x3fc3264d	1.5246063
203	0x4004c6f7	2.0746439
204	0x3d05d53e	0.032674067
205	0x3d0b5e73	0.03402562
206	0xc12bb3a5	-10.731359
207	0x40712b68	3.7682743
208	0xbd51adf2	-0.051191278
209	0x3ce60b2e	0.028081503
210	0x3c3b3ec9	0.011428543
211	0x3c595520	0.013264924
212	0x3d4921c2	0.04910446
213	0xc070c26a	-3.761866
214	0x3cb32399	0.02186756
215	0xbc95d976	-0.01829217
216	0xbd3b0349	-0.04565743
217	0x3ff031f0	1.876524
218	0x3cb32c08	0.021871582
219	0xbc9cc051	-0.019134672
220	0x3c9de7e8	0.01927562
221	0xc00cbed0	-2.1991463
222	0xbc9baa26	-0.019002032
223	0xbdcc5224	-0.099766046
224	0x3c780a3f	0.015139162
225	0x3bd2802b	0.00642397
226	0xbc8f1184	-0.017464407
227	0xbd5bf1a3	-0.05369724
228	0x3f1dd272	0.6164924
229	0x3f97583f	1.1823806
230	0xc08db69b	-4.4285407
231	0xbd0b8d02	-0.034070022
232	0x3e581c3a	0.21104518
233	0xbd3f833f	-0.046756025
234	0x3e53e508	0.20692837
235	0x3cc1fa11	0.023678811
236	0xbcbbbe98	-0.02291803
237	0xbd45cee6	-0.048293017
238	0x3ccae2af	0.024766294
239	0x3cb1d04b	0.021705767
240	0x403663c7	2.84984
241	0xc101094e	-8.064772
242	0xc013ccf1	-2.3093836
243	0xbd0e0032	-0.034668155
244	0x3c895c81	0.016767742
245	0xbc32e8b9	-0.010919743
246	0x3f40a7df	0.7525615
247	0xbcbe7100	-0.023247242
248	0x3d8df9ac	0.06932387
249	0x3d1b0fd5	0.037856895
250	0xbccba730	-0.024859995
251	0x40838038	4.1094017
252	0xbcfe6fa5	-0.031059096
253	0xbd83f974	-0.06444064
254	0x3d2aeeca	0.041731633
255	0x3e4af0e0	0.19818449

linear2.bias f4 [3]
0	0x40c6aa4b	6.2082877
1	0x40a98521	5.297501
2	0x40aaa30d	5.3324037
