checkpoints_dqn/model_final_model_73rx4wps.pth (torch, 23259 bytes, 4 tensors)

linear1.weight f4 [256, 16]
0.5808306 0.34699884 -0.14438438 0.24849364 1.4431525 1.390275 0.3261326 0.28028873
0.23502712 0.41286728 0.26255918 0.37816253 0.24919978 0.34603643 0.41947508 0.51686656
-0.94187623 -0.005775866 0.103105955 -0.614647 1.1115792 -0.3469142 -0.25392583 0.55944175
0.18203688 0.29608604 -0.07028819 0.12544966 0.032270968 -0.61405325 -0.16437705 -0.22549462
0.19257094 1.2017726 0.6110231 0.123936296 -0.5918519 -0.2797192 -0.33472458 -0.033679884
0.20944227 0.055962555 0.07015477 0.21178922 0.16585205 0.2540473 0.17542292 -0.0065714708
0.19132248 0.76589864 0.2708413 -0.13035505 1.9479982 -0.18548152 -0.08017738 -0.1202143
-0.10879698 0.18549778 0.019534398 -0.11519361 0.14520296 0.32029927 -0.27118734 -0.20348558
-1.5247197 -3.9939554 -0.6972269 -0.10392941 -0.7700743 1.0942312 0.593482 0.45201975
-0.25564712 -0.38261193 0.012867074 0.0047530145 -0.03976248 -0.3410024 0.108184084 0.7243956
0.54718184 -0.16482274 -0.1958718 0.13999577 0.25681603 1.077096 0.61592823 0.8044742
0.46135455 0.3455681 0.09556643 0.39574203 0.3425822 0.4595968 0.29387814 0.7159561
0.69773877 0.206782 0.46110246 0.2299753 0.3583038 -0.58147144 -0.13174608 -0.032647554
0.2451906 0.060619257 -0.063526504 0.15025873 0.22676891 0.060318507 0.116907954 -0.45737627
0.68923515 0.38792568 -0.07697439 0.065666474 1.503281 1.0158141 0.21536864 0.42322206
0.20237984 0.2470769 0.46584278 0.038064465 0.48142624 0.0949053 0.37821835 0.4010027
0.41390708 -0.05757193 -0.35390818 0.19058509 0.3508201 0.8147638 0.65869063 0.37406424
0.33641523 0.21275942 0.1947112 0.06957687 0.20891172 0.12198345 0.33352223 0.8019838
1.1575466 0.1677918 -0.5550024 -0.45219943 2.38067 -0.13721018 0.032921974 0.24336277
0.025236327 -0.01921275 -0.15717447 -0.0065473556 -0.25660318 -0.10970064 -0.25870118 0.19856025
-0.57817996 -0.41544467 0.16169062 0.04985582 1.0920802 0.0055982065 -0.19894789 0.35176125
0.10105081 0.16691968 -0.053736825 -0.09200806 -0.05397507 -0.21974416 -0.099900514 0.0023260268
-0.44163284 0.8811603 1.2207521 -0.60243434 0.15139936 -0.15013875 0.30846742 -0.24359134
-0.0038145322 0.0018511369 -0.041269664 0.3163551 0.4447307 0.19611238 0.068178065 -0.011831396
0.43206614 -0.060965586 -0.42397714 0.08745713 0.51696134 0.8149926 0.9408132 0.56944025
0.13689528 0.1809349 0.22292128 0.035585932 -0.0025910614 0.19326614 0.27167326 0.59532297
-0.63448805 0.129584 0.096080974 -0.43838298 0.6716882 -0.5672606 -0.0028682344 0.008941917
0.33150262 0.16236013 0.1783828 0.06438464 -0.32282686 -0.2728474 0.09270033 -0.07481025
0.9572516 -0.46418434 -0.6481335 -0.54853576 0.23616545 -0.32843438 0.3232402 0.028242195
0.2373507 0.42340446 0.33284068 -0.15701753 -0.07173053 -0.17829187 -0.026024908 0.17318779
0.44030032 -0.49003252 0.09911768 0.26003873 0.92365706 -0.20652097 -0.4964936 0.03543522
0.23130962 -0.009777392 0.034004267 -0.2716251 0.3014045 -0.220226 0.102181256 0.42435774
00000000: 50b1 143f d5a9 b13e 80d9 13be 1e75 7e3e
00000010: 39b9 b83f 88f4 b13f dafa a63e 0182 8f3e
00000020: f3aa 703e 5763 d33e 286e 863e 859e c13e
00000030: 3a2e 7f3e b02b b13e 70c5 d63e 5e51 043f
00000040: cd1e 71bf 7a43 bdbb 3729 d33d 8159 1dbf
00000050: 3a48 8e3f bd9e b1be 9102 82be 9337 0f3f
00000060: e067 3a3e 9798 973e 41f3 8fbd e075 003e
00000070: 902e 043d 9832 1dbf 7552 28be 10e8 66be
00000080: 5131 453e afd3 993f 036c 1c3f 50d2 fd3d
00000090: 9b83 17bf 5b37 8fbe 0561 abbe ebf3 09bd
000000a0: 0978 563e fe38 653d 4ead 8f3d 46df 583e
000000b0: 1fd5 293e 7d12 823e 11a2 333e 7e55 d7bb
000000c0: 0aea 433e ef11 443f b6ab 8a3e cb7b 05be
000000d0: 0158 f93f deee 3dbe 0a34 a4bd ea32 f6bd
000000e0: f3d0 debd 21f3 3d3e 9a06 a03c a1ea ebbd
000000f0: 16b0 143e 44fe a33e 11d9 8abe 865e 50be
00000100: 042a c3bf f79c 7fc0 767d 32bf f1d8 d4bd
00000110: 9723 45bf c50f 8c3f 70ee 173f 226f e73e
00000120: 2ee4 82be b6e5 c3be 6cd0 523c 2dbf 9b3b
00000130: fbdd 22bd de97 aebe 9e8f dd3d fd71 393f
00000140: 1c14 0c3f 4bc7 28be 9e92 48be 0d5b 0f3e
00000150: 647d 833e 48de 893f 79ad 1d3f 05f2 4d3f
00000160: aa36 ec3e 4dee b03e 55b8 c33d b39e ca3e
00000170: ef66 af3e 4650 eb3e 3277 963e e648 373f
00000180: 029f 323f a9be 533e 9f15 ec3e a57e 6b3e
00000190: 9873 b73e 50db 14bf 72e8 06be 71b9 05bd
000001a0: 3f13 7b3e e64b 783d 2f1a 82bd 6ddd 193e
000001b0: 1c36 683e 8a10 773d 706d ef3d 392d eabe
000001c0: b771 303f 329e c63e c0a4 9dbd 257c 863d
000001d0: 836b c03f 3206 823f 9989 5c3e 90b0 d83e
000001e0: a93c 4f3e ba01 7d3e f282 ee3e 7ce9 1b3d
000001f0: 807d f63e b65d c23d d6a5 c13e 3a50 cd3e
00000200: a1eb d33e 8bd0 6bbd 7433 b5be bd28 433e
00000210: b19e b33e 5c94 503f f39f 283f 5985 bf3e
00000220: 9e3e ac3e 9bdd 593e 5f62 473e 517e 8e3d
00000230: f4ec 553e 76d2 f93d 6dc3 aa3e cf4e 4d3f
00000240: 7d2a 943f 9dd1 2b3e a314 0ebf af86 e7be
00000250: e65c 1840 d380 0cbe 31d9 063d 1734 793e
00000260: 6abc ce3c 0f64 9dbc 58f2 20be 338b d6bb
00000270: 7e61 83be bbaa e0bd 7b74 84be 6153 4b3e
00000280: 9a03 14bf 2ab5 d4be 3a92 253e 9e35 4c3d
00000290: 49c9 8b3f 2971 b73b ffb8 4bbe 0d1a b43e
000002a0: baf3 ce3d feec 2a3e 251b 5cbd b96e bcbd
000002b0: f714 5dbd 9d04 61be a498 ccbd 4170 183b
000002c0: b31d e2be b993 613f 9b41 9c3f 2339 1abf
000002d0: 6f08 1b3e f9bd 19be 71ef 9d3e 0270 79be
000002e0: 3bfd 79bb d9a1 f23a 610a 29bd 4cf9 a13e
000002f0: beb3 e33e afd1 483e f1a0 8b3d 79d8 41bc
00000300: c637 dd3e 0db7 79bd 8813 d9be b91c b33d
00000310: 9457 043f 5ba3 503f 22d9 703f d6c6 113f
00000320: 472e 0c3e 0047 393e 7a45 643e 8ec2 113d
00000330: ccce 29bb 8fe7 453e c218 8b3e 1667 183f
00000340: cf6d 22bf abb1 043e 1ac6 c43d bc73 e0be
00000350: c2f3 2b3f fe37 11bf fdf8 3bbb 1e81 123c
00000360: b6ba a93e bc41 263e fba9 363e 18dc 833d
00000370: 9049 a5be a8b2 8bbe acd9 bd3d 1e36 99bd
00000380: 710e 753f 92a9 edbe 14ec 25bf d76c 0cbf
00000390: 5bd5 713e 8d28 a8be bd7f a53e 2d5c e73c
000003a0: 100c 733e 78c8 d83e 186a aa3e 34c9 20be
000003b0: 75e7 92bd 2592 36be 3032 d5bc 2458 313e
000003c0: 0b6f e13e 8be5 fabe 36fe ca3d cc23 853e
000003d0: ca74 6c3f 3c7a 53be 6934 febe 8524 113d
000003e0: 6edc 6c3e 5b31 20bc 0f48 0b3d 7212 8bbe
000003f0: b151 9a3e ed82 61be 6844 d13d 6b45 d93e

linear1.bias f4 [256]
1.3633015 -0.5438981 -0.35354057 -0.37548378 0.93619925 1.1150079 -0.59919786 1.215982
1.0696998 0.024999227 -0.30224344 -0.06671106 1.2238412 -0.27206504 -0.5592013 -0.5624947
-0.58889896 0.31333235 -0.015528197 -0.5064188 -0.77497095 0.24211647 1.6327411 -0.53065985
-0.068116754 0.42280412 0.81119746 0.27250314 -0.1516838 -0.6261488 -0.33393937 1.4934466
1.0800055 0.98425186 1.039815 0.976699 1.0552577 0.75997657 -0.08006908 0.828173
-0.3886784 -0.2461635 0.19795923 0.0043406547 -0.23000598 -0.27187768 -0.20757067 -0.57792544
0.9168184 -0.4265874 -0.5415841 -0.40493655 0.91785806 -0.05748661 1.1794649 -0.58660996
-0.31974074 -0.16490763 -0.33444855 0.07531151 -0.64579517 0.8328485 1.1406026 -0.7185579
0.63607424 0.7847001 0.80776834 0.94728035 0.87869936 1.0450064 0.95334035 1.1424251
-0.36502567 0.9203863 0.0036246413 1.1669679 -0.55197847 -0.0068322658 1.0447183 -0.48036173
-0.098806486 0.6579348 -0.38795716 -0.09351452 -0.33062255 1.4288015 1.4602182 -0.15940775
-0.17226364 1.431288 1.5838033 -0.31520852 1.1135316 -0.18147951 -0.42691594 1.1885458
0.47700384 -0.06936055 -0.04117889 -0.25585008 -0.4764699 0.010971929 0.15204835 -0.1782714
0.52983487 1.4764507 1.0725422 1.1480957 -0.21468528 0.14030194 -0.1316925 -0.39817548
1.3592379 -0.27255034 1.0526593 -0.32922438 -0.4750878 -0.74884677 0.05757239 -0.5358139
0.9631291 0.10181934 1.3970783 -0.2401388 1.3857567 0.809176 -0.35368124 1.1162184
-0.1084534 -0.45330003 0.58236295 0.071054734 -0.49477416 -0.17529333 -0.41780147 0.050614566
-0.48770782 0.32124987 -0.5202936 -0.33144358 -0.37418827 -0.45981365 -0.0494077 1.277271
-0.7460932 -0.53158474 0.11487965 -0.17548841 1.0880206 1.2048295 0.8340232 -0.1142164
1.4111814 0.94774306 0.54011476 -0.45713484 0.02764932 -0.6088984 -0.3682819 -0.5287612
-0.3200833 1.2459121 -0.21945675 1.0757941 -0.6250348 -0.4147726 1.3801562 -0.5039625
-0.0053297156 0.7713917 -0.27113098 -0.30471474 0.38006735 -0.21815442 -0.14026354 0.8396857
-0.24454977 1.1068825 -0.7003006 -0.26495963 0.038005237 0.35391006 1.187638 -0.05077266
0.30438206 -0.36465466 0.84876674 1.3407823 0.7272387 -0.39015374 -0.29473191 0.6800644
-0.41714078 0.779454 -0.14554715 -0.5027442 1.0197942 -0.5883429 -0.21414632 -0.52012324
0.89623034 0.05346514 1.0916158 1.1228772 1.0655302 1.0269465 -0.48562476 0.92292786
-0.23127109 -0.12123115 -0.6908993 -0.20318416 0.03003259 0.140925 0.42769265 -0.0536666
0.33586973 0.7864136 1.2716017 1.392515 0.010065949 -0.19333059 -0.45989588 1.1595063
-0.3701357 -0.1796355 -0.51847386 -0.32452217 1.0316344 1.1740777 0.740008 -0.47338665
-0.6453883 -0.25034449 1.1770495 1.1203678 -0.18600722 -0.017081581 0.91285366 0.75893116
0.7925496 -0.35964462 -0.55881596 -0.11898552 -0.5963548 -0.546464 0.86582154 -0.2317408
-0.07709304 -0.4781326 0.5747048 1.4222903 0.79990894 0.5851526 -0.06562478 -0.55471325
00000000: aa80 ae3f e83c 0bbf 4503 b5be 693f c0be
00000010: c1aa 6f3f 94b8 8e3f 0865 19bf 4ca5 9b3f
00000020: eceb 883f 2ecb cc3c a7bf 9abe cf9f 88bd
00000030: d4a6 9c3f 1c4c 8bbe d127 0fbf a7ff 0fbf
00000040: 15c2 16bf 196d a03e fb69 7ebc aaa4 01bf
00000050: 7f64 46bf 61ed 773e a9fd d03f 53d9 07bf
00000060: cc80 8bbd c879 d83e a3aa 4f3f 8885 8b3e
00000070: 0053 1bbe 4a4b 20bf 1afa aabe 4229 bf3f
00000080: 9f3d 8a3f eef7 7b3f a818 853f f208 7a3f
00000090: af12 873f d38d 423f 42fb a3bd 2503 543f
000000a0: db00 c7be 4912 7cbe d3b5 4a3e 0d3c 8e3b
000000b0: b086 6bbe 8d33 8bbe 688d 54be ecf2 13bf
000000c0: 9cb4 6a3f aa69 dabe 41a5 0abf d853 cfbe
000000d0: bff8 6a3f 1477 6bbd b5f8 963f 122c 16bf
000000e0: 0fb5 a3be 8cdd 28be d73c abbe ec3c 9a3d
000000f0: d552 25bf 8f35 553f 44ff 913f 69f3 37bf
00000100: c3d5 223f 1be2 483f e8c9 4e3f f780 723f
00000110: 71f2 603f c5c2 853f 1d0e 743f fc3a 923f
00000120: a5e4 babe 709e 6b3f 648b 6d3b 345f 953f
00000130: 764e 0dbf 33e1 dfbb 54b9 853f f9f1 f5be
00000140: 0e5b cabd 6a6e 283f 52a2 c6be 8a84 bfbd
00000150: 5c47 a9be f8e2 b63f 6ee8 ba3f c93b 23be
00000160: e165 30be 7234 b73f 11ba ca3f 0363 a1be
00000170: 3488 8e3f c4d5 39be ba94 dabe 4522 983f
00000180: d939 f43e e70c 8ebd 32ab 28bd c8fe 82be
00000190: ddf3 f3be 9bc3 333c 90b2 1b3e c78c 36be
000001a0: 42a3 073f 56fc bc3f 1049 893f cdf4 923f
000001b0: 75d6 5bbe 50ab 0f3e 66da 06be a8dd cbbe
000001c0: 82fb ad3f b88b 8bbe 8abd 863f 1990 a8be
000001d0: b53e f3be 6cb4 3fbf 07d1 6b3d 1a2b 09bf
000001e0: a18f 763f a886 d03d 76d3 b23f f2e6 75be
000001f0: 7a60 b13f 2926 4f3f b515 b5be 3fe0 8e3f
00000200: d11c debd f116 e8be bd15 153f 2585 913d
00000210: 0a53 fdbe 1880 33be 13ea d5be 3851 4f3d
00000220: d7b4 f9be dd7a a43e f631 05bf f9b2 a9be
00000230: 9b95 bfbe b26c ebbe ba5f 4abd 9e7d a33f
00000240: f7ff 3ebf f015 08bf 0646 eb3d 3cb3 33be
00000250: 4244 8b3f da37 9a3f 8b82 553f 4aea e9bd
00000260: 98a1 b43f 4a9f 723f f644 0a3f 940d eabe
00000270: d480 e23c c4e0 1bbf 728f bcbe e55c 07bf
00000280: f5e1 a3be 0c7a 9f3f 45b9 60be 9fb3 893f
00000290: 4802 20bf 135d d4be f5a8 b03f b003 01bf
000002a0: e5a4 aebb ed79 453f aed1 8abe 9203 9cbe
000002b0: 3098 c23e df63 5fbe 3fa1 0fbe a4f5 563f
000002c0: 416b 7abe 53ae 8d3f e646 33bf caa8 87be
000002d0: 61ab 1b3d b333 b53e 8604 983f fef6 4fbd
000002e0: f7d7 9b3e 04b4 babe c748 593f c19e ab3f
000002f0: 512c 3a3f 3bc2 c7be 1ae7 96be b318 2e3f
00000300: 7a93 d5be 4c8a 473f 500a 15be d8b3 00bf
00000310: 9e88 823f a49d 16bf 2c49 5bbe cc26 05bf
00000320: 5a6f 653f 43fe 5a3d 11ba 8b3f 71ba 8f3f
00000330: 4b63 883f fc72 833f cfa3 f8be 0045 6c3f
00000340: 54d2 6cbe 0a48 f8bd c7de 30bf 820f 50be
00000350: e806 f63c a54e 103e 88fa da3e 82d1 5bbd
00000360: 1ef7 ab3e 6752 493f d8c3 a23f ee3d b23f
00000370: a6eb 243c 74f8 45be 7977 ebbe b46a 943f
00000380: 6d82 bdbe 5ef2 37be b4ba 04bf c527 a6be
00000390: 990c 843f 2e48 963f 2a71 3d3f bc5f f2be
000003a0: 2b38 25bf 272d 80be 8fa9 963f 3668 8f3f
000003b0: ad78 3ebe acee 8bbc c7b0 693f 5049 423f
000003c0: 88e4 4a3f 5723 b8be 900e 0fbf aeae f3bd
000003d0: b5aa 18bf 11e5 0bbf 7ba6 5d3f 764d 6dbe
000003e0: f5e2 9dbd cccd f4be db1f 133f 9c0d b63f
000003f0: d5c6 4c3f 90cc 153f 4966 86bd b001 0ebf

linear2.weight f4 [3, 256]
0.6274529 -2.2516398 -1.241212 0.7749846 2.3590503 0.4962637 -0.1217714 0.5767842
0.566217 0.83492285 -0.27050033 -0.44727656 0.67610544 -2.5052667 -0.3790461 -1.8085992
-1.0043175 4.021571 -5.2635036 -2.4338212 0.40301698 0.52501726 0.5190991 -1.3063959
-5.696398 1.3235532 0.770363 3.2828228 -7.452251 -1.5964439 -1.605317 0.42736143
0.63884336 0.6171376 0.5112084 1.0763336 0.65892154 0.5810244 0.43063787 0.7150071
-2.9936726 0.9613945 1.3068482 -1.240878 -11.016379 0.8797549 0.044995643 -2.0901794
0.48049015 -0.8925492 -2.770103 -1.5762999 0.711257 -4.07327 0.74110955 -3.4807
-2.4693975 -1.655776 -0.72024596 1.0501989 -1.4732087 0.6665927 0.5694637 -2.7974133
2.6936696 0.47648296 -2.595638 0.5161901 0.7035149 0.4310909 0.6481243 0.58219475
-1.5643852 0.6627766 -2.8796961 0.76436573 -2.5728915 0.34905016 0.5914527 -1.7180784
-3.3013928 0.2600097 -0.18600187 0.007707326 -3.576338 1.7278601 0.5692886 -1.1617546
-3.1756575 1.9175476 0.56444395 -1.5407497 0.4500124 0.013841115 -3.9481833 0.6357071
2.7780664 -1.4643213 0.9270068 -4.0068817 -4.860495 -5.6586747 0.46156654 -2.961117
2.3783302 0.5545538 0.7089643 0.6639295 -0.046824373 0.99438757 -4.0095053 -1.1182965
0.59206903 -1.1880375 0.6732894 -1.2097543 -0.7538293 -2.4548738 -4.327669 -1.5578558
2.0933523 -4.4568152 0.59079564 -1.5327483 0.4376384 0.61837345 -1.4090421 0.63763416
-4.163104 -2.3936722 0.55729896 -4.035973 -2.8715281 -0.29125157 -2.4854202 1.1103085
-1.6440251 0.4659294 -2.3077793 -4.240214 3.6540167 -1.3000855 -3.0092669 0.96365094
0.71298176 -4.1317697 1.8279889 -1.4342009 0.2132669 1.4010864 0.35519534 -3.579334
0.64001554 0.6798134 1.7691308 -2.090668 -4.324304 -1.9039121 -2.2838097 0.38858944
-3.7655356 0.50943154 -1.7381144 0.688891 -1.2766844 -0.4844066 0.50245965 -4.550259
0.26650152 0.69690716 -2.832599 -1.6056827 -0.9407289 -1.5703592 -0.81227565 0.5083558
-11.594001 0.6529462 -3.2779126 0.721262 0.62573117 2.1214638 0.6143831 -2.1936193
1.2596704 -5.1593904 0.39820647 -0.38265592 -2.0157933 -1.1918004 -1.3433769 0.24478404
-2.116881 1.2608733 -0.8980343 -1.0513324 0.6285587 -2.4439507 -4.22991 -1.3051729
0.60311633 0.67311084 0.4224378 0.6244472 0.65583867 0.6447192 -0.03523574 1.1521167
-0.051191278 -0.00680959 -4.026514 -5.671024 -1.0834694 -4.4274993 3.8303611 0.011771207
0.6148068 0.614391 0.50595355 0.68872124 0.8206412 -1.8372272 -2.8575149 0.8209131
-2.6349418 -2.6927285 -1.5351572 -1.1257744 -0.6817513 0.5495412 1.9643605 -1.2013471
-1.6344677 0.9469477 0.73543924 0.334746 -0.005078045 -4.1317883 0.49614742 0.82321286
0.6085404 -0.6286363 -1.2130845 -3.1979373 -0.14884822 -1.3333579 0.21881258 -0.023247242
0.6577381 0.17131363 0.3527556 1.363354 0.63333565 2.6178849 -1.0323466 -3.8394406
00000000: c1a0 203f de1a 10c0 09e0 9ebf 6465 463f
00000010: aefa 1640 4716 fe3e 4963 f9bd 21a8 133f
00000020: 99f3 103f 81bd 553f 057f 8abe 6f01 e5be
00000030: 3f15 2d3f 4a56 20c0 5512 c2be 2e80 e7bf
00000040: 7a8d 80bf b6b0 8040 9f6e a8c0 bac3 1bc0
00000050: 3e58 ce3e 8867 063f aee3 043f fb37 a7bf
00000060: e448 b6c0 316a a93f 8236 453f c519 5240
00000070: d778 eec0 4658 ccbf 077b cdbf 1ecf da3e
00000080: 3d8b 233f bbfc 1d3f 8ede 023f 4dc5 893f
00000090: 15af 283f 04be 143f 917c dc3e b50a 373f
000000a0: 5598 3fc0 f31d 763f cd46 a73f 17d5 9ebf
000000b0: 1743 30c1 9e37 613f 5a4d 383d 80c5 05c0
000000c0: ce02 f63e 1b7e 64bf 5e49 31c0 32c4 c9bf
000000d0: f014 363f 3a58 82c0 5bb9 3d3f cac3 5ec0
000000e0: 9c0a 1ec0 78f0 d3bf 0a62 38bf eb6c 863f
000000f0: 1a92 bcbf d2a5 2a3f 5fc8 113f d208 33c0
00000100: 1565 2c40 93f5 f33e ef1e 26c0 0925 043f
00000110: 8d19 343f f2b7 dc3e 79eb 253f b70a 153f
00000120: c63d c8bf baab 293f f14c 38c0 79ad 433f
00000130: 41aa 24c0 b4b6 b23e 7269 173f fee9 dbbf
00000140: 054a 53c0 fe1f 853e 4677 3ebe bd8d fc3b
00000150: b9e2 64c0 852a dd3f e6bc 113f 60b4 94bf
00000160: f93d 4bc0 3372 f53f 667f 103f 4937 c5bf
00000170: 0668 e63e d8c5 623c 09af 7cc0 b3bd 223f
00000180: d7cb 3140 e16e bbbf 5150 6d3f 6038 80c0
00000190: 2d89 9bc0 dd13 b5c0 7352 ec3e f182 3dc0
000001a0: 9036 1840 3df7 0d3f af7e 353f 49f7 293f
000001b0: eaca 3fbd 2f90 7e3f de4d 80c0 5724 8fbf
000001c0: d691 173f 9d11 98bf b25c 2c3f 3bd9 9abf
000001d0: f5fa 40bf a71c 1dc0 447c 8ac0 d267 c7bf
000001e0: 7cf9 0540 3b9e 8ec0 623e 173f 1931 c4bf
000001f0: 2412 e03e b94d 1e3f 7e5b b4bf fe3b 233f
00000200: 2638 85c0 ed31 19c0 25ab 0e3f b126 81c0
00000210: 1ec7 37c0 ed1e 95be 2011 1fc0 971e 8e3f
00000220: 6a6f d2bf 4c8e ee3e a8b2 13c0 d5af 87c0
00000230: 69db 6940 3469 a6bf d497 40c0 d4b1 763f
00000240: f985 363f 7537 84c0 8afb e93f e593 b7bf
00000250: a362 5a3e cd56 b33f 2adc b53e cf13 65c0
00000260: 0fd8 233f 4008 2e3f e172 e23f 81cd 05c0
00000270: b360 8ac0 64b3 f3bf f029 12c0 32f5 c63e
00000280: 89fe 70c0 1b6a 023f 887a debf 295b 303f
00000290: 656a a3bf 2404 f8be 32a1 003f b99b 91c0
000002a0: e372 883e 8268 323f 4d49 35c0 0387 cdbf
000002b0: 9cd3 70bf 8801 c9bf 4cf1 4fbf 9b23 023f
000002c0: 0781 39c1 7b27 273f 52c9 51c0 a0a4 383f
000002d0: eb2f 203f 10c6 0740 3648 1d3f 4264 0cc0
000002e0: e13c a13f ba19 a5c0 b8e1 cb3e 7aeb c3be
000002f0: c202 01c0 ea8c 98bf c6f3 abbf aba8 7a3e
00000300: fa7a 07c0 4c64 a13f 93e5 65bf 0f92 86bf
00000310: 39e9 203f b069 1cc0 6c5b 87c0 e80f a7bf
00000320: d565 1a3f fe50 2c3f c449 d83e c6db 1f3f
00000330: 0be5 273f 510c 253f 5a53 10bd 8f78 933f
00000340: f2ad 51bd fb22 dfbb 34d9 80c0 0779 b5c0
00000350: 20af 8abf 13ae 8dc0 a324 7540 05dc 403c
00000360: fa63 1d3f bb48 1d3f 2c86 013f 0950 303f
00000370: 8b15 523f 432a ebbf 86e1 36c0 5c27 523f
00000380: e3a2 28c0 aa55 2cc0 0880 c4bf 6019 90bf
00000390: 4187 2ebf bbae 0c3f 2a70 fb3f bec5 99bf
000003a0: 3d36 d1bf 2a6b 723f bf45 3c3f d463 ab3e
000003b0: bb65 a6bb 9c37 84c0 0907 fe3e 14be 523f
000003c0: 4ec9 1b3f 4fee 20bf 5a46 9bbf 01ab 4cc0
000003d0: ab6b 18be 79ab aabf 6810 603e 0071 bebc
000003e0: 8661 283f d76c 2f3e 629c b43e 6282 ae3f
000003f0: 4922 223f 6d8b 2740 ef23 84bf 65b9 75c0

linear2.bias f4 [3]
0.8994677 0.92230433 0.91570896
00000000: 8443 663f 231c 6c3f e76b 6a3f
