checkpoints_dqn/model_final_model_hkox1st0.pth (torch, 23259 bytes, 4 tensors)

linear1.weight f4 [256, 16]
0.06009131 0.8152021 0.39723206 0.23151577 -1.309617 0.035570815 -0.2474365 -0.3510597
-0.14026292 0.1512535 0.051754437 0.20058838 0.0641185 0.12819177 0.09585809 0.006716662
-1.3917538 -0.4435529 -0.1227409 -0.109406225 1.0411863 -0.01864383 0.08261904 0.31035563
-0.13327114 0.16369829 -0.045419406 0.076828524 0.1956967 -0.31234252 0.21743205 0.11684714
0.4503594 0.79966205 0.39926314 0.23995923 -0.53872377 -0.14636669 -0.2500641 0.083364666
0.23297994 0.048934653 0.16165544 0.43517214 0.31150004 0.28968978 0.22960001 0.17260869
0.38237166 0.5896439 0.43925855 0.27085078 1.2202885 0.2906994 -0.6404023 -0.69152117
-0.24505636 0.22522028 -0.04807978 -0.22266914 0.089572504 0.41732335 -0.119443655 -0.39338678
0.089430235 -0.11893239 -0.2562579 0.14749317 0.079175934 1.0183613 0.9923498 0.76882416
0.18272667 0.10252218 0.37039107 0.17750107 0.33784997 0.0478345 0.33296657 0.7569237
0.37157175 -0.08486954 -0.17053242 0.16196716 0.3124771 0.8430747 0.62276626 0.7883009
0.46418768 0.39690113 0.120571755 0.42257032 0.37426686 0.4975307 0.2963828 0.6717188
0.74942285 -0.0028751767 0.2842826 0.86171883 0.08223371 -0.474176 0.008812558 0.06483517
0.18931597 -0.037787843 0.033377305 0.29629344 0.23902428 0.13803019 0.248461 -0.06498505
0.25627628 0.07263651 -0.13723196 0.20091738 1.1191392 0.94483596 0.32044205 0.48699552
0.16763653 0.30978793 0.45665306 0.039909936 0.4717238 0.10495785 0.3814856 0.45121375
0.30905622 0.107071035 -0.3017244 0.23274131 0.49523056 0.7036185 0.72060156 0.4421887
0.4289001 0.33266464 0.30759934 0.1489308 0.29396656 0.23474436 0.42108628 0.83402157
0.5933512 0.93350244 -0.25494516 0.24400796 -1.1430815 -0.44020796 -0.3118512 -0.07030635
0.16744268 0.27642342 0.17181161 0.16467002 0.08424784 0.37288174 -0.015716719 0.10929658
-0.011776514 -0.0040580975 -0.4281136 0.008688629 1.1250902 0.39344388 0.04709216 0.5568832
0.28251052 0.2660566 -0.08837039 -0.21931487 0.1926155 0.37319392 0.056970347 -0.071063794
-0.7768581 0.6795878 0.9434599 -0.28925475 0.17502576 -0.00757014 0.38229474 -0.16873068
-0.23772633 -0.093514785 -0.104290456 0.31327072 0.35792404 -0.2148166 -0.21616794 -0.08376021
0.3057858 0.08718251 -0.3855377 0.098264046 0.6043716 0.6912023 0.9767685 0.6212517
0.22555341 0.30268827 0.32990557 0.10907956 0.08930038 0.31225663 0.34690428 0.59664214
-1.231438 -0.31401902 -0.071810566 -0.09130517 0.72630364 -0.17743944 0.1106255 0.10566484
0.13634926 -0.0021001291 0.015790373 0.04500961 0.025851667 -0.07485675 0.052659456 0.053648226
1.2503339 -0.9980217 -0.5884577 0.21105336 -0.19766288 -0.27041492 0.14886208 -0.20114183
-0.35757062 0.19189478 0.26271498 0.11544442 0.06387593 -0.2813125 0.13567919 0.27684402
-0.6143309 -0.76736844 -0.1464768 0.05610961 1.0136976 0.034791335 -0.08066803 0.05483878
-0.064303175 -0.1034374 -0.061012525 -0.09944879 0.3438769 0.0054834094 0.26888958 0.36702368
00000000: 4e22 763d 16b1 503f 0062 cb3e 7812 6d3e
00000010: 88a1 a7bf b4b2 113d fe5f 7dbe 19be b3be
00000020: 15a1 0fbe 33e2 1a3e 76fc 533d 0a67 4d3e
00000030: 8f50 833d b444 033e 3f51 c43d 7217 dc3b
00000040: fd24 b2bf 5e19 e3be 955f fbbd 5f10 e0bd
00000050: 9845 853f f2ba 98bc 2c34 a93d efe6 9e3e
00000060: 3b78 08be 86a0 273e b309 3abd 4658 9d3d
00000070: b764 483e 5ceb 9fbe 82a6 5e3e 8e4d ef3d
00000080: 8295 e63e a7b6 4c3f 386c cc3e dfb7 753e
00000090: cde9 09bf 26e1 15be 6708 80be 18bb aa3d
000000a0: 4b92 6e3e b46f 483d 0189 253e e2ce de3e
000000b0: ef7c 9f3e 3852 943e 441c 6b3e 55c0 303e
000000c0: 38c6 c33e e7f2 163f 7fe6 e03e f4ac 8a3e
000000d0: 6a32 9c3f 8dd6 943e 68f1 23bf 8807 31bf
000000e0: 0ef0 7abe 25a0 663e 4eef 44bd 6103 64be
000000f0: ca71 b73d 68ab d53e e09e f4bd fe69 c9be
00000100: 3327 b73d d392 f3bd 3c34 83be 7308 173e
00000110: fe26 a23d aa59 823f a30a 7e3f a9d1 443f
00000120: b31c 3b3e 26f7 d13d e6a3 bd3e d7c2 353e
00000130: acfa ac3e 1cee 433d 987a aa3e c0c5 413f
00000140: a73e be3e 15d0 adbd 0da0 2ebe b8da 253e
00000150: 00fd 9f3e bed3 573f 9c6d 1f3f 16ce 493f
00000160: 02aa ed3e a036 cb3e 53ee f63d 235b d83e
00000170: e89f bf3e 58bc fe3e 7dbf 973e c3f5 2b3f
00000180: 2dda 3f3f 766d 3cbb 7d8d 913e 9b99 5c3f
00000190: 266a a83d 32c7 f2be 8c62 103c 4dc8 843d
000001a0: 0cdc 413e 6dc7 1abd a4b6 083d c6b3 973e
000001b0: c8c2 743e c957 0d3e 8f6c 7e3e e216 85bd
000001c0: a536 833e 73c2 943d 8986 0cbe 49bd 4d3e
000001d0: f43f 8f3f c5e0 713f fb10 a43e 7a57 f93e
000001e0: e9a8 2b3e 869c 9e3e 6ece e93e 9a78 233d
000001f0: c885 f13e 24f4 d63d 1552 c33e 7d05 e73e
00000200: 9e3c 9e3e 0f48 db3d 9f7b 9abe bd53 6e3e
00000210: dc8e fd3e 5820 343f 5879 383f 8f66 e23e
00000220: cb98 db3e 0553 aa3e a97d 9d3e 5181 183e
00000230: c982 963e d360 703e 9f98 d73e 7082 553f
00000240: dde5 173f 04fa 6e3f 2c88 82be 39dd 793e
00000250: 7f50 92bf f062 e1be f6aa 9fbe c7fc 8fbd
00000260: 1876 2b3e 5f87 8d3e 62ef 2f3e 429f 283e
00000270: 228a ac3d 5bea be3e 59c0 80bc e3d6 df3d
00000280: 48f2 40bc caf9 84bb b531 dbbe c05a 0e3c
00000290: f502 903f 7a71 c93e b5e3 403d e68f 0e3f
000002a0: 38a5 903e 9238 883e 89fb b4bd 1494 60be
000002b0: ff3c 453e 4613 bf3e bd59 693d e589 91bd
000002c0: 2ce0 46bf 77f9 2d3f 9786 713f 3319 94be
000002d0: f439 333e f00e f8bb 23bc c33e bcc7 2cbe
000002e0: 886e 73be ae84 bfbd 3c96 d5bd 0565 a03e
000002f0: d241 b73e e2f8 5bbe 215b 5dbe 798a abbd
00000300: f58f 9c3e be8c b23d 3365 c5be a93e c93d
00000310: 19b8 1a3f a2f2 303f 800d 7a3f 5a0a 1f3f
00000320: 79f7 663e f5f9 9a3e 62e9 a83e 1b65 df3d
00000330: 1ee3 b63d 1ae0 9f3e 709d b13e 8abd 183f
00000340: c39f 9dbf 1ac7 a0be 6b11 93bd 34fe babd
00000350: 09ef 393f afb2 35be 9f8f e23d cf66 d83d
00000360: 249f 0b3e 52a2 09bb d05a 813c ff5b 383d
00000370: e0c6 d33c 7f4e 99bd 71b1 573d 3ebe 5b3d
00000380: f10a a03f 5a7e 7fbf 2aa5 16bf 5f1e 583e
00000390: 2368 4abe d373 8abe 4d6f 183e 20f8 4dbe
000003a0: 7f13 b7be 1180 443e 9482 863e 206e ec3d
000003b0: 62d1 823d 3108 90be 7cef 0a3e 80be 8d3e
000003c0: ca44 1dbf 4272 44bf 04fe 15be 31d3 653d
000003d0: d8c0 813f 5c81 0e3d 4835 a5bd a19e 603d
000003e0: 62b1 83bd fdd6 d3bd 45e8 79bd cfab cbbd
000003f0: a210 b03e 2cae b33b e5ab 893e 87ea bb3e

linear1.bias f4 [256]
0.0085871965 -0.21582063 -0.22018316 0.100895435 0.85995495 0.8809643 -0.49189863 1.1451529
0.95852494 -0.27800602 0.085235454 0.07585131 1.1001549 0.11806834 -0.5011133 -0.32141957
-0.59382427 0.4595009 -0.06929266 -0.45870122 -0.54294115 0.07254011 0.11664795 -0.50999177
-0.035738867 0.019847361 -0.3056021 -0.0030558563 -0.20337664 -0.5841741 -0.23201703 1.6580439
0.5187264 0.87166864 0.8324843 0.9287042 0.11581272 0.63712066 -0.061733965 0.7413739
-0.03985523 -0.43102744 0.790193 0.10779332 -0.09798523 0.39519423 -0.20757067 -0.5876291
0.7250956 -0.1509039 -0.62528646 -0.3440425 0.47210607 -0.26063865 0.7565222 0.34990224
0.49188647 -0.117452085 -0.3083941 0.33852935 -0.6576774 0.65017515 0.92738205 0.65786827
0.026300918 -0.29234263 1.5444759 0.76759154 0.74643147 -0.25814125 0.9137217 -0.0037547606
-0.29653946 0.285418 0.1149288 1.07638 -0.42212203 0.025315711 0.7402661 -0.4712745
-0.094704196 0.5997106 -0.6096432 -0.65936166 -0.39729804 1.5494369 1.1748612 0.3217486
-0.4389928 1.6256044 0.9910106 0.04386042 0.8586613 -0.18147951 -0.47695038 0.2971333
0.5599681 0.050739884 0.71928144 -0.21032137 -0.26370987 -0.08918272 -0.1783553 -0.26522663
0.60374486 0.7614034 0.9057344 0.21889819 -0.53497857 0.002715588 -0.024438351 -0.40946075
0.9650597 -0.17720556 0.92629826 -0.20571147 0.19762541 -0.56022716 -0.044729583 -0.38699582
0.68423676 0.15663242 1.2443229 -0.18433201 1.0803779 0.7328195 -0.09861444 0.96060467
-0.026895143 -0.36955616 0.121315435 0.15830193 -0.39289895 -0.14498325 -0.24698634 0.5367865
-0.4493271 -0.4681498 1.3688741 -0.1805488 -0.101766594 0.3766082 -0.09666973 1.2274854
-0.1784259 -0.3984757 0.37468272 -0.18513098 0.87219554 1.085505 0.6929739 -0.1980003
1.121835 0.78907263 0.24570848 -0.36394894 -0.0054831486 -0.46757987 -0.10870312 -0.22709675
-0.266968 1.0695678 0.03780131 1.1954864 -0.6106502 -0.07629817 0.6629385 -0.5175528
-0.14036137 0.652425 0.5283392 -0.19982406 -0.16671693 -0.09622542 -0.043327708 0.7423518
-0.21018004 0.046560284 1.2936108 0.19496797 -0.46135753 0.8451421 1.0176202 0.6782283
-0.08830079 -0.31063476 0.6998313 0.06866161 0.8055282 0.13885175 0.16011272 1.0879843
-0.39064023 -0.114443116 -0.23927017 -0.45855808 0.8867331 -0.44230783 -0.08796395 -0.6311766
0.0658131 -0.02934334 0.98713976 0.9599224 0.6656438 0.88397664 -0.31243193 0.93904024
-0.23127109 -0.3120015 -0.45442635 -0.031576984 -0.07524972 0.17634441 0.6133677 0.49146605
-0.13436571 0.7040477 0.3341225 -0.22616448 0.41740662 -0.36360237 -0.4577225 0.80442506
0.43222493 -0.048319448 -0.5008207 -0.2200925 -0.09969997 0.9628139 0.82936984 0.38942564
-0.28477418 -0.0015199922 0.7837523 0.8272034 -0.31431392 -0.19027689 0.5724443 0.23508535
-0.20976877 0.03485881 -0.1563535 -0.042606324 -0.5590096 -0.45838302 0.77996635 -0.2317408
-0.21659541 -0.21365906 0.1725834 1.2293757 0.6958261 0.56263053 0.09110976 0.9185199
00000000: 50b1 0c3c 1500 5dbe b277 61be 44a2 ce3d
00000010: 0226 5c3f e086 613f 23da fbbe 5f94 923f
00000020: e461 753f ce56 8ebe ed8f ae3d ee57 9b3d
00000030: e0d1 8c3f d0cd f13d f648 00bf 1b91 a4be
00000040: de04 18bf b443 eb3e 4fe9 8dbd e3da eabe
00000050: 31fe 0abf e98f 943d 1fe5 ee3d d28e 02bf
00000060: eb62 12bd ef96 a23c e177 9cbe c344 48bb
00000070: f741 50be 6f8c 15bf df95 6dbe c83a d43f
00000080: 41cb 043f ad25 5f3f b11d 553f 8fbf 6d3f
00000090: 382f ed3d 571a 233f c1dc 7cbd aeca 3d3f
000000a0: 3d3f 23bd a1af dcbe 174a 4a3f bfc2 dc3d
000000b0: 7bac c8bd e656 ca3e 688d 54be dc6e 16bf
000000c0: de9f 393f 8d86 1abe c612 20bf 5726 b0be
000000d0: e3b7 f13e 6e72 85be 70ab 413f 6326 b33e
000000e0: 8bd8 fb3e b88a f0bd d5e5 9dbe b853 ad3e
000000f0: 8c5d 28bf e171 263f e968 6d3f 0e6a 283f
00000100: 0675 d73c efad 95be 63b1 c53f e180 443f
00000110: 2216 3f3f 172b 84be aae9 693f 6e12 76bb
00000120: 05d4 97be 4f22 923e ca5f eb3d d2c6 893f
00000130: 6120 d8be e562 cf3c 1482 3d3f e44a f1be
00000140: 46f4 c1bd a286 193f 9411 1cbf edcb 28bf
00000150: a66a cbbe f353 c63f da61 963f 3cbc a43e
00000160: aac3 e0be ce13 d03f dfb2 7d3f fca6 333d
00000170: 3ad1 5b3f c4d5 39be d732 f4be db21 983e
00000180: 125a 0f3f a0d4 4f3d d422 383f 7c5e 57be
00000190: fb04 87be 6ea5 b6bd c6a2 36be c9cb 87be
000001a0: 068f 1a3f 55eb 423f 36de 673f d926 603e
000001b0: 5bf4 08bf 02f8 313b f032 c8bc d7a4 d1be
000001c0: 270e 773f 6075 35be e221 6d3f 07a6 52be
000001d0: 515e 4a3e 0c6b 0fbf 5e36 37bd 5124 c6be
000001e0: 242a 2f3f 4064 203e f945 9f3f 88c1 3cbe
000001f0: d349 8a3f 0f9a 3b3f 5ef6 c9bd 30ea 753f
00000200: 3453 dcbc 7736 bdbe 3a74 f83d e719 223e
00000210: 0d2a c9be 7d76 14be fde9 7cbe d76a 093f
00000220: 340e e6be 55b1 efbe 4437 af3f c9e1 38be
00000230: 016b d0bd cad2 c03e c8fa c5bd 3e1e 9d3f
00000240: 47b5 36be 0205 ccbe 6ad6 bf3e fa92 3dbe
00000250: 3548 5f3f d4f1 8a3f bd66 313f 97c0 4abe
00000260: 4a98 8f3f aa00 4a3f 019b 7b3e 8457 babe
00000270: fcab b3bb a166 efbe be9f debd 0d8c 68be
00000280: 08b0 88be 99e7 883f 8cd5 1a3d b305 993f
00000290: 9253 1cbf 3742 9cbd 56b6 293f 577e 04bf
000002a0: e4ba 0fbe 5305 273f 3d41 073f ae9e 4cbe
000002b0: d8b7 2abe d511 c5bd 6578 31bd c40a 3e3f
000002c0: 7039 57be ffb5 3e3d 0a95 a53f afa5 473e
000002d0: 0e37 ecbe 3c5b 583f 6141 823f 5fa0 2d3f
000002e0: 0bd7 b4bd 850b 9fbe 2528 333f 759e 8c3d
000002f0: 1937 4e3f 272f 0e3e 97f4 233e 1243 8b3f
00000300: ff01 c8be 2761 eabd 3d03 75be 20c8 eabe
00000310: f100 633f 2c76 e2be 7226 b4bd ca94 21bf
00000320: 05c9 863d 7261 f0bc 31b5 7c3f 79bd 753f
00000330: a267 2a3f 4b4c 623f 14f7 9fbe f164 703f
00000340: 54d2 6cbe a9be 9fbe 92aa e8be de56 01bd
00000350: 861c 9abd a193 343e aa05 1d3f 70a1 fb3e
00000360: 2a97 09be 783c 343f 1b12 ab3e a997 67be
00000370: 52b6 d53e 172a babe 9b5a eabe cdee 4d3f
00000380: 964c dd3e 9dea 45bd c935 00bf ee5f 61be
00000390: 7f2f ccbd f97a 763f 9551 543f cc62 c73e
000003a0: eccd 91be 7a3a c7ba fea3 483f 9ac3 533f
000003b0: c1ed a0be f2d7 42be b68b 123f 37ba 703e
000003c0: a0cd 56be 1dc8 0e3d 221b 20be f883 2ebd
000003d0: 411b 0fbf 2eb1 eabe e0ab 473f 764d 6dbe
000003e0: 30cb 5dbe 71c9 5abe b4b9 303e 2f5c 9d3f
000003f0: a921 323f 8e08 103f c197 ba3d 1f24 6b3f

linear2.weight f4 [3, 256]
-2.8036017 -5.5584044 -1.0852361 1.4599482 0.49196932 0.55111593 -1.1115518 0.6019972
0.66460735 -1.8111532 0.58863795 -1.2136204 0.7065614 -4.219054 0.13752054 -3.567713
-1.3007476 1.6154681 -5.561813 -3.1933615 -0.77783376 0.8126125 -0.8650151 -1.5076035
-2.0897453 -0.16848074 -2.2391305 0.5599303 -5.374167 -1.5958604 -1.9605308 1.6090492
0.77241576 0.6664785 0.5940236 0.60003966 -3.7616706 0.6590882 0.51818025 0.72891307
0.48435718 -1.427728 0.60417974 -2.7633312 -8.405229 0.39436388 0.044995643 -2.2926557
0.5928201 -0.5347288 -0.8859011 -2.0740213 1.4938793 -1.0813287 0.77937406 1.2624627
0.39776412 -4.26811 -0.4620196 1.6072005 -1.8461314 0.74006736 0.6496061 0.44038886
-5.121107 -4.9710946 0.37339678 0.5658812 0.7540514 -0.65794206 0.66174245 0.0050522545
-2.0516126 1.2917145 -5.087724 0.60254526 -3.052482 -2.5234845 0.41315588 -4.0806313
-5.4428105 0.5810318 -0.039373778 0.35373813 -5.2108345 1.9380993 0.58808243 0.026761353
-1.507846 1.7466817 0.47052896 0.22609372 0.56803495 0.013841115 -3.028203 -0.50818676
1.0327305 -3.5213501 0.51839083 -1.7878926 -5.3629136 -5.008651 -2.5999725 -2.3375423
2.593989 0.9821472 0.7309621 0.18854041 -4.7019773 -2.6186674 -4.0002294 -3.0981462
0.47611824 -1.0235294 0.7061734 -1.1119097 1.7349885 -3.4253714 -5.026878 -1.1262066
1.078185 -3.9207716 2.4990966 -1.5131016 0.49386707 0.6402533 -1.6101309 0.667031
-4.1277795 -4.3822384 -0.27737626 -4.634484 -2.9832098 -3.942096 -4.225612 0.35264334
-1.1240306 -1.071047 1.7052426 -7.3251824 2.279426 0.37492552 -3.294556 0.60602915
0.24934584 -4.024269 1.6608828 -1.4183342 0.6089689 0.63314295 0.50458795 -4.566001
0.6671765 0.6876958 2.2698905 -3.2969449 -3.8520358 -2.0376794 -0.5780739 0.6167594
-3.1454916 0.61770135 -1.2121447 0.5788636 -3.4766736 0.65231055 1.6344498 -2.5824354
-1.7276146 0.75332457 3.310044 -0.30464873 -3.6266053 -0.9181264 -0.94133264 0.5825834
-10.599992 -2.405091 1.6468858 1.1262276 -1.1429195 0.6250743 0.6777859 1.7795779
-0.54346365 -5.312655 0.5885712 -0.62348676 0.55839306 -2.7657847 -1.7937782 0.43298295
0.5651964 0.02464885 -5.958697 -1.72878 0.7084571 0.21819484 -6.4890604 -3.2621524
-0.721086 -1.2016188 0.61908424 0.60323876 3.063865 0.71204454 0.23388901 0.7834351
-0.051191278 -0.64117855 -5.9715705 -4.699673 -3.0767586 -5.2742186 0.5905391 -1.150267
-0.894354 0.6772193 0.28903615 -2.662183 0.8537236 -1.1412877 -3.3039045 0.38475028
1.4703814 -2.111974 -2.1722987 -0.2982386 -1.7220343 0.6495106 0.4712608 1.6964029
0.63358384 0.31038162 1.0071075 0.5359986 -1.2275918 -2.4877877 0.36593822 0.6416304
0.31635305 -1.1367805 -3.8819118 -4.0342293 -1.158348 -1.4042428 0.5230167 -0.023247242
0.09551065 -0.00016503167 0.41217667 2.1150272 0.6622722 2.0156267 -4.1102576 0.6575555
00000000: 366e 33c0 73de b1c0 04e9 8abf 95df ba3f
00000010: 67e3 fb3e ef15 0d3f 5447 8ebf 7d1c 1a3f
00000020: b523 2a3f ded3 e7bf fab0 163f ea57 9bbf
00000030: 35e1 343f 7e02 87c0 2fd2 0c3e 6955 64c0
00000040: e67e a6bf a9c7 ce3f 5ffa b1c0 0960 4cc0
00000050: 1d20 47bf 5f07 503f a171 5dbf 27f9 c0bf
00000060: 63be 05c0 3786 2cbe ea4d 0fc0 9857 0f3f
00000070: 2df9 abc0 2745 ccbf acf2 fabf 53f5 cd3f
00000080: 0abd 453f 569e 2a3f ee11 183f 339c 193f
00000090: 36bf 70c0 01ba 283f 76a7 043f 0c9a 3a3f
000000a0: aafd f73e cbbf b6bf 86ab 1a3f 6bda 30c0
000000b0: d17b 06c1 10ea c93e 5a4d 383d dfba 12c0
000000c0: 0fc3 173f fde3 08bf 6aca 62bf c4bc 04c0
000000d0: 7037 bf3f fb68 8abf 0f85 473f 6198 a13f
000000e0: bda7 cb3e 5b94 88c0 d58d ecbe bfb8 cd3f
000000f0: 094e ecbf 0e75 3d3f 964c 263f a67a e13e
00000100: 1ce0 a3c0 3513 9fc0 dd2d bf3e 97dd 103f
00000110: 8309 413f e46e 28bf f467 293f 628d a53b
00000120: 9f4d 03c0 e756 a53f a3ce a2c0 6840 1a3f
00000130: dd5b 43c0 c580 21c0 2b89 d33e 8894 82c0
00000140: 812b aec0 80be 143f 6646 21bd 2a1d b53e
00000150: 28bf a6c0 a313 f83f 928c 163f a03a db3c
00000160: 1901 c1bf 4493 df3f 2ce9 f03e 1d85 673e
00000170: bd6a 113f d8c5 623c 14ce 41c0 8718 02bf
00000180: 8330 843f cd5d 61c0 43b5 043f aad9 e4bf
00000190: fd9c abc0 de46 a0c0 f365 26c0 4b9a 15c0
000001a0: ea03 2640 006e 7b3f 5520 3b3f bd10 413e
000001b0: 9976 96c0 3f98 27c0 e101 80c0 0748 46c0
000001c0: c5c5 f33e 0303 83bf c8c7 343f 0f53 8ebf
000001d0: 1a14 de3f 4939 5bc0 2fdc a0c0 8a27 90bf
000001e0: f701 8a3f eced 7ac0 33f1 1f40 50ad c1bf
000001f0: 25dc fc3e a4e7 233f c518 cebf 8bc2 2a3f
00000200: c516 84c0 4c3b 8cc0 4304 8ebe b14d 94c0
00000210: e9ec 3ec0 4d4b 7cc0 3738 87c0 ab8d b43e
00000220: 3ce0 8fbf 1118 89bf 6445 da3f e567 eac0
00000230: 1ee2 1140 3df6 bf3e 01da 52c0 ba24 1b3f
00000240: 8454 7f3e d0c6 80c0 cf97 d43f fa8b b5bf
00000250: 63e5 1b3f a815 223f ad2c 013f ae1c 92c0
00000260: 14cc 2a3f d50c 303f e345 1140 2501 53c0
00000270: c187 76c0 5769 02c0 a7fc 13bf f2e3 1d3f
00000280: bc4f 49c0 ad21 1e3f 8f27 9bbf 6830 143f
00000290: d281 5ec0 d3fd 263f a735 d13f 9f46 25c0
000002a0: 7a22 ddbf e1d9 403f c3d7 5340 ebfa 9bbe
000002b0: 4d1a 68c0 550a 6bbf 2dfb 70bf 3024 153f
000002c0: 9199 29c1 03ed 19c0 27cd d23f 3a28 903f
000002d0: 304b 92bf df04 203f 6083 2d3f 35c9 e33f
000002e0: 6f20 0bbf 4501 aac0 9aac 163f d49c 1fbf
000002f0: d9f2 0e3f 9e02 31c0 869a e5bf f1af dd3e
00000300: b6b0 103f 63ec c93c a5ad bec0 aa48 ddbf
00000310: 725d 353f 786e 5f3e 62a6 cfc0 1bc7 50c0
00000320: 1899 38bf a5ce 99bf 4e7c 1e3f db6d 1a3f
00000330: 5d16 4440 8d48 363f 9a80 6f3e 348f 483f
00000340: f2ad 51bd 4724 24bf 1b17 bfc0 b963 96c0
00000350: 9de9 44c0 66c6 a8c0 922d 173f f33b 93bf
00000360: 62f4 64bf 3e5e 2d3f 8cfc 933e 3561 2ac0
00000370: a18d 5a3f b715 92bf 2c73 53c0 fdfd c43e
00000380: 7535 bc3f 952a 07c0 f106 0bc0 bbb2 98be
00000390: 9f6b dcbf 5446 263f 1849 f13e bb23 d93f
000003a0: 8d32 223f 57ea 9e3e e6e8 803f 3437 093f
000003b0: ba21 9dbf ea37 1fc0 415c bb3e e441 243f
000003c0: 07f9 a13e 0682 91bf 3e71 78c0 6818 81c0
000003d0: bf44 94bf 3abe b3bf 6ce4 053f 0071 bebc
000003e0: 169b c33d 5a0c 2db9 d208 d33e 9b5c 0740
000003f0: ac8a 293f 0700 0140 3b87 83c0 8f55 283f

linear2.bias f4 [3]
0.799498 0.79291296 0.7984013
00000000: e7ab 4c3f 58fc 4a3f 0764 4c3f
