checkpoints_dqn/model_final_model_asemcndk.pth (torch, 13019 bytes, 4 tensors)

linear1.weight f4 [128, 16]
000000 f8 d9 13 c0 67 6a 82 c0 6f 6e 1a bf eb c2 70 be
       -2.3101788 -4.0754886 -0.6032476 -0.23511855
000010 c1 c8 3c c0 c2 3f be 3f 8a a5 a0 3e f4 1f 29 bc
       -2.949753 1.4863207 0.31376296 -0.01032256
000020 ff ae f9 be a5 2c 59 be 91 99 81 bd be f8 de bd
       -0.48766324 -0.21208437 -0.063281186 -0.108872876
000030 83 11 d6 be 2f d3 01 bf f1 d8 20 be 3a 25 a0 3e
       -0.41810235 -0.50712866 -0.15707757 0.31278402
000040 8a ea ba 3f ef 73 5f 3d 4a 40 48 bf 6a a1 0e bf
       1.4602826 0.054553922 -0.782231 -0.5571505
000050 01 bc f0 3e 95 16 3f bf 8a 63 f0 3e f8 c8 28 3f
       0.47018436 -0.7464383 0.46950942 0.65931654
000060 e9 2c 15 3f 39 0f 1c 3f ad 96 15 3f ce fb 14 3c
       0.5827165 0.6096073 0.5843304 0.009093238
000070 6a 12 4d be 53 a0 19 bf ad b7 20 bf 21 c1 61 3e
       -0.20026556 -0.6001026 -0.62780267 0.22046329
000080 83 fe 88 3f 3c 3d 7d 3e 5f 05 41 bf cc d7 bc 3e
       1.0702671 0.2473039 -0.7539882 0.3688339
000090 12 80 86 3f a2 a7 41 40 d1 f6 ee 3f a7 44 bd 3f
       1.0507834 3.0258565 1.8669072 1.4786576
0000a0 37 71 98 3f cf f5 6d 3f 4c b9 79 3f 01 e4 1b 3f
       1.190955 0.929532 0.97548366 0.6089478
0000b0 c3 59 40 3f 88 76 5c 3f 6c 67 c1 3f 82 ca f9 3f
       0.75136966 0.86118364 1.5109687 1.9514925
0000c0 f0 c9 4e be 1e bc e7 3e 70 b1 11 40 79 04 bb 3f
       -0.2019422 0.4526071 2.276455 1.461074
0000d0 27 d7 2e 40 43 72 d0 3d 2c e6 0e 3f 27 4b e2 be
       2.7318819 0.10178044 0.55819964 -0.44197962
0000e0 e2 53 50 3e b9 86 e0 3e 5d 2c f4 3e 9c cd db be
       0.20344499 0.43852785 0.47690096 -0.42930305
0000f0 87 f3 72 be 71 43 8a 3e 6c e1 39 3f 61 0a f2 3e
       -0.23725711 0.2700458 0.7260959 0.47273543
000100 2b b8 3d 3f 86 71 25 3f 76 54 a3 3f 45 7a 59 3f
       0.74109143 0.6462635 1.276015 0.84952193
000110 8e 31 5b 3f 84 87 8f 3e 05 9f 50 c0 20 4f 2b 3f
       0.8562249 0.28033078 -3.2597058 0.6691761
000120 cc aa cd bd 95 5d f8 3d 27 8d 3b 3e a0 1d 89 be
       -0.100423425 0.12127224 0.18315564 -0.26780415
000130 1a 53 1e 3f a0 de 54 3e d2 dd 30 bc c8 5d bb 3e
       0.6184555 0.2078805 -0.010795074 0.36594987
000140 d9 25 01 c0 49 86 13 3f 14 13 21 3e c5 ed 99 be
       -2.017935 0.5762678 0.15729934 -0.30064216
000150 18 07 d5 3f f4 48 25 be ef 34 a5 3d 92 e0 5d 3e
       1.664279 -0.1614111 0.08066737 0.21667698
000160 8f a7 6f 3e 15 b9 7d 3d 7d 56 bb 3d c7 6e 91 bd
       0.23403762 0.061944086 0.09147356 -0.07101207
000170 d0 fe 28 3e 1f 51 12 3e 25 84 02 be 3d bc 88 3e
       0.16503453 0.14288758 -0.12745722 0.26706114
000180 2e 6d a4 3f f9 c7 8d bf 3d 97 43 3e a1 14 2d 3f
       1.2845819 -1.1076652 0.19100662 0.676096
000190 c0 d8 3f 3f 1e fe 6c bf 54 0e 9f 3e 0f 62 b2 3e
       0.7494011 -0.9257525 0.3106562 0.34840438
0001a0 9e 83 9e bd 18 64 5f be 96 ea 26 be c4 93 49 bd
       -0.07739948 -0.21815526 -0.16300425 -0.049213186
0001b0 e2 39 7a 3e 52 97 5a 3e 47 09 77 3d 7c a2 4f 3f
       0.24436143 0.21346787 0.060311582 0.81107306
0001c0 59 64 f1 bf a8 98 aa 3f 5f c8 6f bf cc d1 3a 3d
       -1.8858749 1.3327837 -0.9366512 0.045610234
0001d0 23 9f 38 3e f1 4c 06 bf 84 64 2f bc f3 44 dc 3d
       0.18029456 -0.52461153 -0.010705117 0.107553385
0001e0 7d 12 d5 3e 67 be f8 3e c7 04 1e 3e c3 14 91 3e
       0.41615668 0.48582765 0.1543151 0.28336152
0001f0 af 99 07 be 5a bd 7b 3e 3d 8f c1 3e 44 02 95 3c
       -0.1324222 0.2458395 0.37804595 0.018189557
000200 0a c9 02 40 4a 59 ed 3f f7 da fc 3f c7 e6 e4 3e
       2.0435205 1.8542874 1.9754323 0.4470732
000210 e4 14 85 c0 d7 a8 5b 3e 76 2a 0d c0 ac 8f a3 bf
       -4.1588 0.21451126 -2.2057166 -1.277822
000220 ad f3 a1 3e 6c bd 2d be f0 5e 96 be 56 a3 c0 3e
       0.31631222 -0.1696679 -0.29369307 0.37624615
000230 23 e5 2e be c3 52 ad bc ce d2 32 3e c6 63 1d bf
       -0.17079596 -0.021157628 0.17463228 -0.6148037
000240 da 69 94 3f b2 26 f7 3f cf a3 f5 be b2 0b 80 bd
       1.1594803 1.9308684 -0.4797654 -0.06252231
000250 fe b2 e8 3f 58 ed 59 be af 76 04 c1 dc d1 40 be
       1.8179624 -0.21281946 -8.2789755 -0.18830055
000260 a1 fe d1 3e 6a 1a 21 be 68 fc 68 3e a3 64 b2 be
       0.4101458 -0.15732732 0.22752535 -0.34842405
000270 c2 54 6e be 62 5d 59 be b8 39 94 3d 97 87 1e bd
       -0.2327452 -0.21227029 0.072375715 -0.038703527
000280 c5 41 4c bf 50 7e 88 bf c9 27 83 bf 82 84 4f 3e
       -0.79787856 -1.0663548 -1.0246516 0.20265391
000290 ee 07 ea 3f a7 26 ba be 40 66 5e be 2a d9 06 3f
       1.828367 -0.36357614 -0.21718693 0.52675116
0002a0 27 bf b6 3d a5 c6 44 3d 1e 15 88 3e 55 53 94 be
       0.08923178 0.048041005 0.2657861 -0.28969827
0002b0 95 38 9f 3e 31 27 72 3e 1d 20 c5 3d e4 38 03 3f
       0.31097856 0.23647763 0.09625266 0.51258683
0002c0 b5 7f 6d bf 7e 4b e8 bf 4c af 6b 3f 2f ae 59 be
       -0.9277299 -1.8148038 0.92064357 -0.21257852
0002d0 52 23 b1 c0 1a be ba 3f c4 ce 10 3f 82 3b c5 3d
       -5.5355616 1.4589264 0.565655 0.09630491
0002e0 ee f2 f2 bd 38 58 70 3e 84 cc 2c 3f 59 ff 2e 3f
       -0.118627414 0.23471153 0.67499566 0.6835838
0002f0 e5 d9 b3 3e 3f 72 c9 3e 6e 6e 80 3e 35 21 b5 3e
       0.35127178 0.39344975 0.2508425 0.35376897
000300 c5 4a da bf 02 34 b0 be 0e 30 ff 3e 1e ef 7b bf
       -1.7054068 -0.3441468 0.4984135 -0.9841174
000310 76 01 ff 3e 7c 6e e8 be 46 eb 53 be 57 39 bd 3e
       0.49805802 -0.45396793 -0.20695218 0.3695781
000320 2d 92 23 3f 67 89 3d 3f a8 7e 1d 3e 96 97 c2 3d
       0.6389492 0.74037784 0.15380347 0.09501569
000330 2d bf 34 be 2a 66 78 3e cd 86 e6 be 61 47 49 be
       -0.17651053 0.24257722 -0.4502472 -0.19656135
000340 df 81 49 be d3 bd a6 3f 99 16 07 3f ef 28 0f 3f
       -0.19678448 1.302668 0.52768856 0.55921835
000350 a6 14 2e 40 0f 57 3f 3f f8 73 06 c0 80 8f 32 bf
       2.7200103 0.74742216 -2.1008282 -0.69750214
000360 7a 1c ae be 4f 18 af be 12 43 97 be 5c 0e 88 be
       -0.340061 -0.34198233 -0.29543358 -0.26573455
000370 45 5e 3b be 66 e3 48 3e 29 bb 91 bd 07 53 ba be
       -0.1829768 0.19617996 -0.07115776 -0.3639147
000380 4f 59 e3 bf 55 70 58 3f 88 2c 81 bf a0 c1 9e 3e
       -1.776163 0.84546405 -1.0091715 0.310071
000390 65 5e e5 3f 68 9d 62 bf e9 6d b6 be 84 9e bb 3e
       1.7919432 -0.8852143 -0.3563073 0.36644375
0003a0 3a 00 c1 3e 3a 47 ae 3e e4 1f e9 bc f6 9a 3f 3c
       0.37695485 0.34038717 -0.02845759 0.01169466
0003b0 4c 8c 1b 3d ae 81 ec bd 93 97 3d 3d dc cc 8b be
       0.037975594 -0.11548172 0.04628713 -0.27304733
0003c0 97 65 0f 3f 58 44 c8 be be 75 17 bf 6a 21 d8 3e
       0.5601439 -0.39114642 -0.59164035 0.42212993
0003d0 9c fe 75 3f 64 84 e7 3f f3 87 e7 3f 7b ec 4c 3f
       0.9609163 1.8087277 1.8088363 0.8004834
0003e0 df b8 12 3f f5 76 cc 3e 08 27 b5 3e 6e 9c 94 3e
       0.5731334 0.39934507 0.3538134 0.29025596
0003f0 78 c6 1a 3f de 55 b5 3e 05 e1 17 3f 90 0c 98 3f
       0.6045909 0.35417074 0.5932773 1.1878834

linear1.bias f4 [128]
000000 2c f2 a4 3f 2c 5f 83 bf 9e 8a 29 40 76 b9 33 3e
       1.2886405 -1.0263419 2.6490855 0.17551216
000010 d8 0a 83 3d 14 be 51 be 59 51 8f bf 7d 75 0a bf
       0.06398553 -0.20482665 -1.11967 -0.5408552
000020 e1 1c e2 3e e4 bb 4e 3e 99 2a 0f bf fe 2b cd 3f
       0.44162658 0.20188862 -0.55924374 1.602905
000030 b2 bf e2 be 3f 6e 66 3f 8e dc 61 bf e1 39 07 40
       -0.44286877 0.9001197 -0.88227165 2.1129076
000040 a1 19 13 bf 08 77 1a 3d 88 fc 84 be 40 73 73 bf
       -0.5746098 0.037711173 -0.25973916 -0.9509773
000050 16 1c 66 bf 86 b1 86 bf aa bd d0 be 04 6b 4c bf
       -0.89886606 -1.0522926 -0.40769702 -0.7985079
000060 9b af 01 40 a6 0a 80 bf 82 8d e8 3f a3 09 6d bf
       2.026343 -1.000325 1.8168185 -0.9259283
000070 50 dd 5d 3e 54 6c 0d 40 8d c7 8f be a8 4b a1 3f
       0.21666455 2.2097368 -0.28081933 1.2601213
000080 4f 2f 9d 3d e2 5e 2b be 33 7a 49 3f 89 66 21 bf
       0.07675039 -0.16735414 0.78702086 -0.6304708
000090 91 40 d8 3e ee ed ab be 7f e9 04 40 4d 6d f6 3f
       0.4223676 -0.33579963 2.0767515 1.9252106
0000a0 2f c2 62 be 06 c6 d8 3f 0a 4d 9f bf 13 71 16 bf
       -0.22144388 1.6935432 -1.2445385 -0.5876629
0000b0 28 31 19 bf 06 c5 03 3f 71 8f e9 be 20 30 50 bf
       -0.5984063 0.5147251 -0.4561725 -0.8132343
0000c0 c4 5e 94 3d 7b d5 62 3d 05 41 17 40 cd b5 ec 3e
       0.072446376 0.055379372 2.3633435 0.46232453
0000d0 e5 c3 06 40 b6 44 22 bf 0a 5f bb 3f d1 ee ae be
       2.1057065 -0.63386095 1.4638379 -0.34166577
0000e0 c2 4f c7 3f f7 aa 74 3f 75 3b 63 3f bc a3 0f 3e
       1.5571215 0.9557337 0.887626 0.14027303
0000f0 44 8f 24 40 0c 9f ee 3f 84 b6 b5 bb 89 de 8f bf
       2.5712442 1.8642287 -0.005545439 -1.1239787
000100 c1 95 fa 3f 19 8f 07 3f 9d 31 4c bf 0d 76 2b bf
       1.9576951 0.52952725 -0.79763204 -0.66977006
000110 35 98 25 bf 41 47 36 be 8c 61 c2 3e 32 66 c0 3f
       -0.64685374 -0.17800619 0.37965047 1.5031188
000120 c8 c7 54 be 21 df 6f be 52 2a 49 bf cf b7 3b 3f
       -0.20779335 -0.2342496 -0.785802 0.73327345
000130 82 29 0b 40 e7 99 57 bf 21 d4 0d bf 97 34 e5 be
       2.1744084 -0.8421921 -0.5540181 -0.44766685
000140 20 1b 38 bf 9e 2c 33 3f dd 3e ed bd 7c 21 71 bf
       -0.7191639 0.69989955 -0.11584256 -0.9419172
000150 c6 61 95 3f 20 ce 0e bf 76 af 02 40 7b 5b 09 bf
       1.1670463 -0.5578327 2.0419593 -0.53655213
000160 43 fb 77 be b6 fe 5a be 71 39 38 be b0 26 bd 3e
       -0.24216942 -0.21386227 -0.17990662 0.3694358
000170 7f 19 aa 3f 50 3f 25 bf 27 bd 6f be a3 9b f3 bd
       1.3289031 -0.6454973 -0.23412 -0.1189492
000180 aa 30 b0 3f 6c 9b 3a bf d7 ec 5c 3e 2a 7c 7b bf
       1.3764851 -0.72893405 0.21574722 -0.98236334
000190 41 ab 81 be d2 b3 09 3f d7 76 eb 3f 8e 6b 61 3f
       -0.2532597 0.5379001 1.8395642 0.8805474
0001a0 1b ae b5 be b7 68 04 bf 4a ea b8 3f 30 1b 63 bf
       -0.35484394 -0.5172228 1.4446499 -0.8871336
0001b0 a3 33 b1 be ce f1 81 be 94 fd 4d bf ac fd 11 40
       -0.34609708 -0.25379795 -0.80465055 2.281108
0001c0 88 4b 00 bf ab d3 1c be 23 bb 7a bf 62 97 4c 40
       -0.5011525 -0.1531512 -0.979418 3.1967397
0001d0 c8 7c fc 3f 78 12 9b bd 7b fa 0e bf 04 07 02 bf
       1.972558 -0.07571882 -0.5585095 -0.50791955
0001e0 6d 1b cd be e9 cf cc be 0c 92 92 be 1d 96 20 bf
       -0.40059987 -0.40002373 -0.2862705 -0.62729055
0001f0 7f da a4 3f 9b 3f 60 bf cf 28 ae be 35 32 05 bf
       1.287918 -0.87597054 -0.3401551 -0.52029735

linear2.weight f4 [3, 128]
000000 11 98 17 40 40 59 48 c0 3a e1 9e 3f 89 49 2d 3f
       2.3686564 -3.1304474 1.2412484 0.6769033
000010 c8 f4 cc bf 56 76 65 c0 99 07 b4 c0 f4 06 11 c0
       -1.6012201 -3.5853477 -5.6259274 -2.2660494
000020 79 30 a2 40 df 47 15 40 3c 5d d9 c0 fc f0 89 bf
       5.068417 2.3325117 -6.792631 -1.0776668
000030 71 44 4e c0 4a 84 58 40 6c 76 58 bf 62 8a b7 3f
       -3.2229273 3.3830743 -0.845557 1.4339106
000040 81 f5 5d c0 f8 92 b2 c0 05 46 08 3b 55 53 14 bf
       -3.4681094 -5.5804405 0.0020793688 -0.57939655
000050 35 a2 a7 c0 51 3f 19 c0 8c e7 2b 3f 98 59 f2 c0
       -5.2385507 -2.3944895 0.6715019 -7.5734367
000060 12 37 95 3f df 61 c1 bd d5 c7 28 40 5c b6 21 c0
       1.1657431 -0.094424956 2.6371968 -2.5267553
000070 09 64 a9 3f 67 82 bf 3f f1 13 bf bf 45 68 8e 40
       1.3233653 1.4961671 -1.4927961 4.450228
000080 cd ad 16 c0 f9 b9 9b bd 20 2a 8a c0 e5 58 16 c0
       -2.354358 -0.07603831 -4.317642 -2.3491757
000090 ed e9 5b 40 68 1b b3 bf 86 17 bf 3f 26 dd d0 3f
       3.4361527 -1.3992739 1.4929054 1.6317489
0000a0 58 c9 39 3c b2 ed e9 40 0c 64 bf bb 5b c8 b8 bf
       0.011339508 7.3102655 -0.005840784 -1.4436144
0000b0 ef fe 5d c0 3f 74 50 3f 9a 4a 83 bf f3 2a 16 c1
       -3.468685 0.8142738 -1.0257142 -9.385486
0000c0 aa cb 1d c1 5d 95 85 c0 8e 2e b0 3f 58 6e 83 3f
       -9.862223 -4.174483 1.3764207 1.0268049
0000d0 57 13 a2 3f 15 8f 20 be 0d f4 59 3f 12 3c cc c0
       1.2662152 -0.15679581 0.85138017 -6.382333
0000e0 35 74 7f c0 29 22 8e bf fa 7d a2 40 bc 66 1c c1
       -3.9914677 -1.1104175 5.077878 -9.775082
0000f0 c5 f6 8c 3f e9 b3 f6 3f 97 29 28 3d 0a 9c b2 bf
       1.1012808 1.9273654 0.04105529 -1.3953869
000100 05 7c 8b 3f 5e d3 9f 3f a7 6f 02 c0 10 0f 93 bf
       1.0897223 1.2486379 -2.0380647 -1.1488972
000110 b3 ab e9 bf 64 49 c2 3c 70 15 60 bf fc ae 79 3f
       -1.8255523 0.023716636 -0.8753271 0.9753263
000120 e6 ff dd bf 2a b4 98 bf 0b 8b 18 c0 a7 12 2e 40
       -1.7343719 -1.1929982 -2.3834865 2.7198884
000130 6d 85 b4 3f 30 29 a2 c0 3a 2b 06 c0 40 bf 9f c0
       1.4103218 -5.067528 -2.0963883 -4.992096
000140 f9 6d ca bf de fc 05 c0 f7 08 e6 bc b5 bc 6a c0
       -1.5814811 -2.0935588 -0.028080447 -3.6677678
000150 eb e0 ae 3f de 6a eb bf fd bf c1 3f 6c 82 11 be
       1.366239 -1.8391988 1.5136715 -0.14209908
000160 7f 54 6a c0 95 37 9d bd 40 3b ba c0 68 a5 1a 3f
       -3.6614072 -0.07676617 -5.8197327 0.6040864
000170 8d 23 06 40 95 2e d2 bf ff 6e a5 3d 6f 4e 8c 3f
       2.0959198 -1.6420466 0.080778114 1.0961436
000180 3e 2e 3e 40 69 43 05 c1 fc ad 80 3f 6e d7 08 c1
       2.9715724 -8.328958 1.0053096 -8.552595
000190 56 55 3d bb c6 fd 00 40 b5 65 a5 3f 92 c8 dd 3d
       -0.0028889976 2.015489 1.2921664 0.108292714
0001a0 df 12 3d c0 95 20 61 c0 7e d6 35 3f 66 08 8a bf
       -2.9542768 -3.5176136 0.71030414 -1.0783813
0001b0 4a ff 14 c1 7c 13 74 bd 14 4a 71 c0 1e e0 a8 3f
       -9.312326 -0.059588894 -3.7701464 1.3193395
0001c0 7a 9e c0 3f 5a 02 a1 c0 dd c6 bb bf 75 ed 29 3f
       1.5048363 -5.031537 -1.4670063 0.66377956
0001d0 2a 05 a2 3f 5d e2 06 3b 7d fd 3b c0 97 b5 da c0
       1.2657826 0.00205817 -2.9373467 -6.8346667
0001e0 e5 74 4c c0 da 25 e0 bf 04 d5 ab 39 aa 23 ab c0
       -3.1946347 -1.7511551 0.0003277437 -5.3481035
0001f0 c3 35 9b 3f 07 b5 5f c0 5f b8 d8 bf 94 c7 dd c0
       1.2125782 -3.495424 -1.6931266 -6.9306126
000200 9d 5a c4 3f 20 f6 08 bf 88 e4 59 3f 7e 44 a9 3f
       1.5340153 -0.53500557 0.85114336 1.3224027
000210 0a 8a 99 bf 1e 57 19 c0 02 8a a1 bf 59 a6 ac 3e
       -1.1995251 -2.3959422 -1.2620242 0.33720663
000220 2e a4 11 40 b5 cc 92 bf 82 08 89 c0 4a 10 9a 3f
       2.2756457 -1.1468722 -4.2822886 1.2036221
000230 32 f1 e7 bf 7a d8 19 40 2e 3f 86 40 3f 49 17 3f
       -1.8120482 2.4038377 4.1952124 0.5909614
000240 87 0c 70 c0 2e ab 85 c0 f0 8a 69 3d 4d e4 1a 3f
       -3.7507646 -4.177146 0.057017267 0.6050461
000250 1d 09 48 c0 d0 39 32 bf 3e 4e bb 3f 5d 71 b2 c0
       -3.1255562 -0.69619465 1.4633253 -5.5763383
000260 c3 7f 01 3f 68 0e 7b 3f 9b 56 e1 3f b1 1a 0d bf
       0.50585574 0.9806886 1.7604555 -0.5511885
000270 13 c6 29 3f de e6 26 3f ca 56 6e 3f f5 fb d3 3f
       0.6631786 0.65196025 0.9310118 1.6561266
000280 59 70 e3 bf 97 b5 af 3d a2 c7 80 bf 5f d0 3d bf
       -1.7768661 0.085795574 -1.0060923 -0.74146074
000290 00 a8 19 40 e3 f3 39 be b9 17 1b 3f fb 52 13 40
       2.400879 -0.18159442 0.6058307 2.3019397
0002a0 dc c3 7e bc 5d f6 a5 40 fb fc 83 40 75 d5 50 c0
       -0.015549626 5.1863236 4.1246314 -3.2630284
0002b0 65 85 8d bf cc 4f 2a 40 c6 ec ab 3f 75 95 03 c1
       -1.1056334 2.6611204 1.3431633 -8.223989
0002c0 8b 15 d4 c0 1a b4 98 c0 fc 57 58 3f 2a 08 01 3f
       -6.6276298 -4.771985 0.84509254 0.5040308
0002d0 49 e6 21 3f 33 2b 08 bf 3f 92 cd 3f 5c 6a 7a c0
       0.6324201 -0.53190917 1.6060256 -3.9127417
0002e0 ec a8 40 bf e3 7b 32 3f 83 95 46 40 b8 44 b3 c0
       -0.75257754 0.69720286 3.1028755 -5.6021385
0002f0 fb 1d 23 3f 9a ca ac 3f 8c 31 25 bd b5 b1 2c 3f
       0.6371762 1.3499329 -0.040330455 0.6745866
000300 e5 c3 0d 40 b4 75 ca 3f 84 22 90 bf 82 93 22 3f
       2.2150815 1.581717 -1.1260533 0.6350633
000310 fe 69 87 bf ab a7 8f 3b a7 4b 75 3f 03 c6 e3 3f
       -1.0579221 0.0043840013 0.9581856 1.7794803
000320 a6 47 b2 be d2 53 d9 3e 62 ac e4 bf c8 84 93 3f
       -0.34820288 0.42446762 -1.7865107 1.1524897
000330 fa 9e 24 3f 4b 5c d1 bf c2 94 de bf 3e 52 8c c0
       0.6430508 -1.635629 -1.7389147 -4.3850393
000340 dc 43 34 40 ce 9e c9 3e 6e a0 e3 3b 06 5b 31 c0
       2.8166418 0.3937897 0.006946615 -2.7711806
000350 ed 17 5d 40 47 61 4f c0 9b 9b 0c 3f 4a ca 01 bf
       3.4545853 -3.2403123 0.54924935 -0.50699294
000360 fa 71 6b c0 e6 18 66 3d 4b b3 44 c0 c1 0b 00 3f
       -3.6788316 0.05617609 -3.0734432 0.50017935
000370 ec 56 ce 3f 20 d3 ca 3b 8d 36 8d bd 54 70 81 3f
       1.6120276 0.006189719 -0.0689517 1.0112405
000380 f6 86 0b 40 5e 9f a6 c0 97 95 7b 3e 9a f8 81 c0
       2.1801124 -5.206954 0.24568783 -4.061597
000390 a3 fc e1 bc d1 ac ee 3f c4 57 8b 3f 2d 1c c6 3f
       -0.027586287 1.8646489 1.0886159 1.5477349
0003a0 0f 16 26 c0 0b d0 1a c0 d9 0d 12 40 53 5c 89 c0
       -2.5950963 -2.418948 2.2820952 -4.29252
0003b0 ae cb c8 c0 94 99 0a bd 62 f7 36 c0 6b 6a 1b 3f
       -6.2748632 -0.03383787 -2.858849 0.60709256
0003c0 bd 41 de 3f 13 67 26 c0 ef 28 6f 3d c6 8b 70 40
       1.7363812 -2.6000412 0.058388647 3.758531
0003d0 da d6 fc 3e 6b ef 96 bd 64 ce 2d c0 c1 31 da c0
       0.4938267 -0.07369884 -2.715722 -6.8185735
0003e0 7a 13 65 bf 2a 91 d9 3d 39 2a e3 bc d6 40 47 c0
       -0.89482844 0.10623391 -0.027730094 -3.1133323
0003f0 18 bd d9 3f ea 52 50 bd 94 82 fc bf 2e f9 8f c0
       1.7010832 -0.050860323 -1.9727349 -4.4991674

linear2.bias f4 [3]
000000 98 c0 00 40 45 c4 ce 3f 17 7a f9 3f
       2.011755 1.6153647 1.9490384
