checkpoints_dqn/model_final_model_eujcv2gl.pth (torch, 23259 bytes, 4 tensors)

linear1.weight f4 [256, 16]
0.51045746 0.46662188 -0.3297658 0.42736137 1.203558 0.9753703 0.33611548 0.40016145
0.44006747 0.5870008 0.3476502 0.61204886 0.35646737 0.36048168 0.5237622 0.6691432
-1.7750031 -0.32859203 -0.121842675 -0.1374914 1.0053788 0.06704886 0.06808259 0.29985273
-0.090638675 0.14374536 -0.007548702 0.005278141 0.14737079 -0.20544472 0.21753526 0.12168118
0.12937826 0.49698624 0.92851955 0.2342809 0.94507843 -0.28168342 -0.343356 -0.07996436
0.14934355 -0.030227147 -0.11941627 0.18084674 -0.06813485 0.0031782733 -0.057950065 0.00886242
0.830264 0.016401624 -0.04520235 0.66001385 0.36288452 0.02179266 -0.25661516 0.14318423
0.26101628 0.39521548 -0.094874755 -0.21718994 -0.10000116 0.044391774 -0.35356256 -0.5005202
0.4034883 0.025781848 -0.3435173 0.23571922 0.24991645 0.96823883 1.0273229 0.8539476
0.30891213 0.26235244 0.4849758 0.37364385 0.54487616 0.21585092 0.48203307 0.8914398
0.56359744 -0.02636595 -0.29263046 0.2226009 0.31657597 0.7026764 0.6069471 0.83061993
0.527381 0.47881535 0.15329663 0.4975346 0.46727082 0.59013397 0.37295368 0.73449266
1.0065624 -0.69699275 1.3962415 0.19191262 0.11331598 -0.56293887 0.14700192 0.10815043
0.27593565 -0.052484173 0.1591736 0.3171292 0.03581422 -0.12394515 0.32944494 0.10487765
0.822251 1.4093608 0.30097857 0.32044575 -1.6364844 -0.17585549 -0.15405269 0.19981404
0.049267218 -0.055000618 0.1458232 -0.06841176 0.18243831 -0.22099243 0.074735 0.08555119
0.51459044 0.15675673 -0.4109915 0.27331087 0.39931992 0.55245316 0.6713907 0.4630147
0.4705254 0.38935575 0.32162187 0.19010788 0.3681662 0.3097924 0.4757545 0.84974414
0.22615805 -0.0030692616 -0.0032547435 -0.6819852 0.336626 -0.2252762 -0.30065158 -0.2440283
0.04811404 0.12887213 0.061285935 0.38343132 0.024868315 0.08617454 -0.039579924 0.33135977
0.6981047 -0.69861794 0.30661702 0.4478087 0.7366386 0.043138444 -0.12440324 0.20057681
0.19821422 0.10352595 -0.079834394 -0.06746689 -0.055343393 -0.021291818 -0.04628778 -0.105382174
0.4255828 0.75135857 0.67089933 -0.10124283 0.89502496 0.192939 -0.8589869 -0.46927017
0.584309 0.62243813 0.17872651 0.048218224 0.057291977 -0.16215146 -0.31499815 -0.96521276
0.52837986 0.15380843 -0.4866527 0.1370572 0.49724644 0.55291384 0.94339365 0.6555168
0.2757768 0.36427566 0.35676706 0.15451777 0.16265611 0.37930572 0.39746556 0.61629415
-0.2256289 0.33974335 0.09682177 -0.90627384 0.118736975 -0.3787113 0.15882376 -0.15113991
0.10720258 -0.18750778 0.14624822 0.23778255 -0.06330251 -0.237173 0.22023794 0.18076791
0.5690268 -0.6868902 -0.536525 0.68603855 0.5196263 -0.29407316 0.06614942 0.1463029
0.005664835 0.19492371 0.09519856 -0.06519616 0.12620543 0.19991113 0.16966315 0.21730264
0.16035558 -0.31042057 -0.31768388 0.443169 0.80295724 -0.050867103 -0.45952892 -0.09018805
0.1387382 -0.040904805 0.048899278 -0.18481958 0.41212487 0.121347636 0.16196397 0.038128253
00000000: 57ad 023f 10e9 ee3e 10d7 a8be 1ccf da3e
00000010: 300e 9a3f deb1 793f 5417 ac3e f6e1 cc3e
00000020: 8650 e13e af45 163f 35ff b13e 3caf 1c3f
00000030: e482 b63e 0e91 b83e 4815 063f f84c 2b3f
00000040: 4d33 e3bf 373d a8be a788 f9bd 8cca 0cbe
00000050: 41b0 803f ea50 893d e36e 8b3d 4c86 993e
00000060: c5a0 b9bd fc31 133e 1a5b f7bb 41f4 ac3b
00000070: 5ee8 163e 1a60 52be 90c1 5e3e fc33 f93d
00000080: bc7b 043e fb74 fe3e 75b3 6d3f 55e7 6f3e
00000090: a9f0 713f cf38 90be 5ccc afbe 5bc4 a3bd
000000a0: 84ed 183e ec9e f7bc 8490 f4bd e32f 393e
000000b0: 498a 8bbd 944a 503b 0c5d 6dbd af33 113c
000000c0: 2e8c 543f b35c 863c 1926 39bd abf6 283f
000000d0: 00cc b93e 8586 b23c 1063 83be e39e 123e
000000e0: eda3 853e af59 ca3e b24d c2bd 0a67 5ebe
000000f0: 68cd ccbd 26d4 353d 2706 b5be 1822 00bf
00000100: 0596 ce3e 7434 d33c 80e1 afbe 6160 713e
00000110: 19ea 7f3e 80de 773f 517f 833f 4f9c 5a3f
00000120: bb29 9e3e 0f53 863e c04e f83e 3f4e bf3e
00000130: 017d 0b3f 0608 5d3e 0acd f63e 6635 643f
00000140: ec47 103f 68fd d7bc a9d3 95be 7ef1 633e
00000150: 3f16 a23e 9ae2 333f e360 1b3f 82a3 543f
00000160: 7102 073f 4927 f53e cbf9 1c3e dbbc fe3e
00000170: 1f3e ef3e 0513 173f c9f3 be3e b607 3c3f
00000180: 09d7 803f 1e6e 32bf 0bb8 b23f be84 443e
00000190: 3512 e83d c31c 10bf ac87 163e f97d dd3d
000001a0: 7047 8d3e a5f9 56bd 67fe 223e c25e a23e
000001b0: eeb1 123d f4d6 fdbd 02ad a83e 18ca d63d
000001c0: 0b7f 523f ef65 b43f dd19 9a3e 7711 a43e
000001d0: 5278 d1bf 7613 34be fdbf 1dbe 0d9c 4c3e
000001e0: 6ccc 493d 5448 61bd ad52 153e 771b 8cbd
000001f0: 1cd1 3a3e d74b 62be aa0e 993d 7635 af3d
00000200: 33bc 033f d684 203e 7a6d d2be 67ef 8b3e
00000210: a973 cc3e 926d 0d3f 43e0 2b3f 4310 ed3e
00000220: b5e8 f03e a359 c73e 9fab a43e a4ab 423e
00000230: 4880 bc3e 1c9d 9e3e 1896 f33e d588 593f
00000240: fa95 673e aa25 49bb 894d 55bb 9596 2ebf
00000250: 3e5a ac3e ceae 66be 01ef 99be 8ee2 79be
00000260: 3a13 453d 0ef7 033e f606 7b3d 1c51 c43e
00000270: a3b8 cb3c 477c b03d 8f1e 22bd fda7 a93e
00000280: fdb6 323f a0d8 32bf e8fc 9c3e 2f47 e53e
00000290: 5994 3c3f f0b1 303d 20c7 febd 0264 4d3e
000002a0: abf8 4a3e 6a05 d43d 3780 a3bd 152c 8abd
000002b0: c1af 62bd 2e6c aebc 4198 3dbd 9cd2 d7bd
000002c0: fde5 d93e 0959 403f 0fc0 2b3f 6758 cfbd
000002d0: 5b20 653f cd91 453e 91e6 5bbf 2e44 f0be
000002e0: 4695 153f 1b58 1f3f 1504 373e 7980 453d
000002f0: feaa 6a3d 080b 26be 7047 a1be 2f18 77bf
00000300: e743 073f f57f 1d3e 8b2a f9be b958 0c3e
00000310: 1697 fe3e c38b 0d3f 3f82 713f f3cf 273f
00000320: 9e32 8d3e 5782 ba3e 2caa b63e e839 1e3e
00000330: 538f 263e 5c34 c23e 9b80 cb3e 74c5 1d3f
00000340: 430b 67be d7f2 ad3e 7e4a c63d 9001 68bf
00000350: 5f2c f33d 73e6 c1be b2a2 223e 6cc4 1abe
00000360: 078d db3d 0a02 40be 18c2 153e 457d 733e
00000370: bfa4 81bd 7bdd 72be 0e86 613e 391b 393e
00000380: beab 113f 09d8 2fbf b459 09bf 39a0 2f3f
00000390: 3b06 053f c290 96be 5979 873d 6dd0 153e
000003a0: 15a0 b93b 159a 473e 76f7 c23d 9085 85bd
000003b0: ff3b 013e 81b5 4c3e 2dbc 2d3e 9584 5e3e
000003c0: 4134 243e 72ef 9ebe 76a7 a2be 0ce7 e23e
000003d0: 9b8e 4d3f 065a 50bd 6047 ebbe 83b4 b8bd
000003e0: 6311 0e3e cc8b 27bd 9c4a 483d 5841 3dbe
000003f0: 0802 d33e 1c85 f83d e2d9 253e 5f2c 1c3d

linear1.bias f4 [256]
0.9483774 -0.13014787 -0.3555427 -0.16808929 0.8099079 0.74057686 -0.58065456 0.024358347
0.8073741 -0.063066356 -0.26495898 0.2763152 0.9618954 -0.083150804 -0.52486795 -0.40705064
-0.5800524 0.19942477 -0.099111296 -0.31682757 -0.5072844 0.07377776 0.10852445 -0.44552806
0.07161926 -0.36107752 -0.017789679 -0.6545838 -0.121694475 -0.3964285 -0.16517186 1.0523407
0.02047123 0.74973357 0.7284319 0.887661 0.21757999 0.5253813 -0.112184666 0.6213981
-0.18385327 -0.24039096 -0.04930809 0.15244037 0.0125174 -0.20637165 -0.20757067 -0.51976424
0.6295362 -0.40081272 -0.5556512 -0.37339768 0.71110415 -0.24445106 0.37643477 -0.33631736
0.28354588 -0.14842992 -0.1764225 0.1480323 -0.6109256 0.54010063 0.7991879 -0.55421793
-0.011668593 -0.2760249 0.042064827 0.537416 0.644794 -0.22127423 0.74073106 -0.069203235
-0.18852451 -0.12792245 0.42352897 0.7793755 -0.43444338 -0.064825796 0.67849964 -0.3560004
-0.086279035 0.4883504 -0.23946449 -0.8862147 -0.31902468 0.88868386 0.093882635 -0.34790924
-0.52791494 1.0811133 1.0836661 0.12488809 0.76003057 -0.18147951 -0.33045948 0.87112546
0.38621137 0.0940343 -0.10608662 -0.12325501 -0.22757052 -0.12488076 -0.026790328 -0.22054337
0.29455343 0.59614295 0.7838406 0.16219954 -0.5019931 0.019698776 -0.0104928715 -0.312917
0.28531292 -0.2323593 0.7969702 -0.09254735 -0.1236267 -0.5850692 0.041487437 -0.38667268
0.011718058 0.23894198 1.0762056 0.39916247 -0.253685 0.5858033 -0.12918364 0.8209351
-0.13490136 -0.46905613 0.13881981 0.06878013 -0.2551252 -0.15998451 -0.20477413 0.09049848
-0.35326174 -0.26153082 -0.08593846 -0.15214872 -0.5216878 -0.16057943 -0.14379294 -0.005842015
-0.26406285 -0.34793723 0.52723444 -0.034907054 0.7033817 0.99312216 0.5616668 -0.05309302
0.45595238 0.6714589 0.17228752 -0.21495177 -0.05193254 -0.42471227 -0.16987246 0.019828353
-0.17656268 0.91314715 0.1636461 0.0123589365 -0.7009274 -0.41739476 0.35252655 -0.23301728
0.007525773 0.5599369 0.35787326 -0.12681445 -0.2007248 -0.10699025 -0.06708596 0.58721143
-0.06597422 0.87859803 -0.003922613 -0.061006825 -0.31530863 -0.06725897 0.9140414 0.10415355
-0.057125397 -0.20715699 0.5987349 0.107136294 -0.36607575 0.011704605 0.035230856 0.19291042
-0.24689868 -0.11275535 -0.13529284 -0.30389136 0.7891755 -0.37757847 -0.013879083 -0.272347
0.47806793 0.051843017 0.84982055 0.82834697 0.69194466 0.79095167 -0.089137174 0.85742086
-0.23127109 -0.11688745 -0.4223771 0.01760519 -0.0077880807 0.2383278 0.025903024 -0.16276422
-0.042784784 0.572345 0.95773286 -0.043640487 0.5822326 -0.23291883 -0.5200747 0.1529012
0.41095063 -0.052325338 -0.39536402 -0.1463769 -0.17744635 0.8302237 1.6850947 0.13343093
-0.4680973 0.58561146 0.15788223 0.73105466 -0.38277376 0.057003517 -0.17841463 0.86828434
-0.35613886 0.083247304 -0.13511908 0.12955405 -0.4510906 -0.3863148 0.60930485 -0.2317408
-0.047618177 0.21350643 0.676054 0.91750336 0.5507358 -0.06931463 0.07125583 0.14685604
00000000: dcc8 723f 7c45 05be b109 b6be 991f 2cbe
00000010: 2056 4f3f 7296 3d3f c7a5 14bf 288b c73c
00000020: 12b0 4e3f ef28 81bd b4a8 87be 3079 8d3e
00000030: c73e 763f f84a aabd bf5d 06bf f168 d0be
00000040: 507e 14bf 0236 4c3e ddfa cabd 3937 a2be
00000050: 64dd 01bf cb18 973d 1142 de3d 411c e4be
00000060: 1ead 923d 27df b8be a9bb 91bc ce92 27bf
00000070: f43a f9bd adf8 cabe d022 29be 1ab3 863f
00000080: 48b3 a73c 8aee 3f3f 837a 3a3f c03d 633f
00000090: 4acd 5e3e 647f 063f 13c1 e5bd f213 1f3f
000000a0: 0844 3cbe 0c29 76be 48f7 49bd 5419 1c3e
000000b0: c815 4d3c 1753 53be 688d 54be 450f 05bf
000000c0: 4929 213f 5337 cdbe 283f 0ebf fb2d bfbe
000000d0: ec0a 363f 6151 7abe 0fbc c03e ca31 acbe
000000e0: ed2c 913e 03fe 17be 1aa8 34be c795 173e
000000f0: 9f65 1cbf 0944 0a3f 9497 4c3f 3ae1 0dbf
00000100: a02d 3fbc 2353 8dbe 2b4c 2c3d 1894 093f
00000110: 3811 253f b695 62be 8da0 3d3f 6dba 8dbd
00000120: 920c 41be 1afe 02be cad8 d83e 2785 473f
00000130: 5d6f debe 63c3 84bd 27b2 2d3f af45 b6be
00000140: 10b3 b0bd 1009 fa3e 2e36 75be f7de 62bf
00000150: 3457 a3be c980 633f 8a45 c03d 2921 b2be
00000160: 6f25 07bf ec61 8a3f 92b5 8a3f 54c5 ff3d
00000170: 5d91 423f c4d5 39be fc31 a9be 1402 5f3f
00000180: 7fbd c53e 0e95 c03d f143 d9bd 1f6d fcbd
00000190: 3f08 69be 7cc1 ffbd 6477 dbbc 1fd6 61be
000001a0: b5cf 963e d39c 183f c7a9 483f a317 263e
000001b0: 9f82 00bf 545f a13c 4bea 2bbc a836 a0be
000001c0: 8914 923e 99ef 6dbe 3d06 4c3f 7789 bdbd
000001d0: ff2f fdbd 18c7 15bf bbee 293d f6f9 c5be
000001e0: 19fd 3f3c 35ad 743e 1bc1 893f 065f cc3e
000001f0: 00e3 81be 34f7 153f b748 04be cd28 523f
00000200: 9523 0abe 2028 f0be c826 0e3e 99dc 8c3d
00000210: c59f 82be fbd2 23be 4fb0 51be 4457 b93d
00000220: b9de b4be 5ee7 85be 8100 b0bd e0cc 1bbe
00000230: 558d 05bf ef6e 24be 753e 13be 606e bfbb
00000240: 3f33 87be d424 b2be d6f8 063f b3fa 0ebd
00000250: d310 343f 413d 7e3f 65c9 0f3f 1178 59bd
00000260: 9772 e93e bbe4 2b3f 246c 303e 511c 5cbe
00000270: 37b7 54bd e373 d9be 0cf3 2dbe 126f a23c
00000280: d9cc 34be 03c4 693f d892 273e 237d 4a3c
00000290: fa6f 33bf c4b4 d5be 5c7e b43e 159c 6ebe
000002a0: c29a f63b 0658 0f3f 2a3b b73e a6db 01be
000002b0: cd8a 4dbe b41d dbbd 5d64 89bd 7d53 163f
000002c0: 7e1d 87bd cdeb 603f 4389 80bb 4be2 79bd
000002d0: 2270 a1be 12bf 89bd 9efe 693f 754e d53d
000002e0: 52fc 69bd f620 54be b146 193f 466a db3d
000002f0: 486e bbbe acc4 3f3c 3b4e 103d 4f8a 453e
00000300: 02d3 7cbe 47ec e6bd 358a 0abe a697 9bbe
00000310: 6807 4a3f f751 c1be 1865 63bc 1171 8bbe
00000320: 52c5 f43e 5859 543d d78d 593f 8c0e 543f
00000330: 4923 313f cf7b 4a3f 8d8d b6bd ef7f 5b3f
00000340: 54d2 6cbe b062 efbd d041 d8be c238 903c
00000350: 2833 ffbb 340c 743e 9432 d43c aaab 26be
00000360: 193f 2fbd 3485 123f fb2d 753f 5ec0 32bd
00000370: 320d 153f 4682 6ebe 9e23 05bf 2292 1c3e
00000380: 1f68 d23e 1853 56bd 276d cabe d3e3 15be
00000390: 7fb4 35be 8a89 543f 2fb1 d73f 1ea2 083e
000003a0: 73aa efbe a2ea 153f e1ab 213e 6626 3b3f
000003b0: ecfa c3be 857c 693d 53b2 36be e247 5e3f
000003c0: d557 b6be 907d aa3d a85c 0abe d1a9 043e
000003d0: 59f5 e6be 0ecb c5be 67fb 1b3f 764d 6dbe
000003e0: 470b 43bd 6ea1 5a3e e011 2d3f 80e1 6a3f
000003f0: 05fd 0c3f d4f4 8dbd 94ee 913d 6e61 163e

linear2.weight f4 [3, 256]
0.53619576 -6.803253 0.46385214 -2.7683344 0.46754965 0.5564584 -0.04294864 -10.5713
0.6353341 -0.5711532 -0.68074363 1.2609748 0.6988455 -1.1291223 -3.0060358 -2.8932304
-1.2419152 3.1379054 -5.699509 -0.75672287 -1.0810415 -1.4240321 -1.6922653 -1.7816741
-2.1871033 -3.4992197 2.0822773 -3.3466597 -6.2120886 -1.8228388 -1.9385116 0.5136832
0.74537575 0.6895355 0.5820843 0.62527174 -8.208458 0.6351239 -0.57660115 0.69679
-1.4005705 -0.585997 1.2040242 -1.3724607 -12.454561 0.78344613 0.044995643 -3.4699886
0.56867874 -0.4420071 -1.926013 -2.2739928 0.58302367 -2.2609355 0.54529107 -3.8095956
0.48028347 -3.7693133 -0.007222913 2.029071 -2.468686 0.7145607 0.57743 -2.707058
-4.83501 -1.7178502 0.5456184 0.42393157 0.738949 -1.4695034 0.66310346 -0.6425727
-3.337335 -0.40982723 0.8023972 0.52901495 -2.6989362 -2.0549998 0.49608058 -7.128559
-7.4804873 0.5509561 -1.2339753 0.5960412 -5.6381855 0.4179858 -0.9667291 -4.066861
-3.3045835 0.44939184 0.42251977 -2.4232478 0.5561178 0.013841115 -2.977208 0.6882246
0.46457347 -3.3497095 0.9109266 -3.9671996 -3.8690193 -6.814059 -0.7348069 -2.9751616
1.5004044 0.2802574 0.7115534 0.9946369 -4.9866214 -3.7570446 -2.759204 -0.8413945
0.8334983 -3.1349695 0.6971068 -2.8434815 -1.6101637 -1.0932689 -5.8276186 -0.99659604
-1.5759481 -8.549347 0.6101435 0.60991687 -3.0146904 0.72427636 -0.50043374 0.6685235
-6.6339297 -6.24206 -1.61516 -5.390949 -3.6155212 -2.775034 -4.278341 -0.49687883
-3.251186 0.16794105 0.010689302 -5.716141 -7.115579 0.33892792 -4.386497 -0.58419585
0.3125795 -4.6688085 0.6127627 -1.2421781 0.59192175 0.5982439 0.4816113 -1.4890815
0.8849739 0.7158484 2.1816406 -2.1510665 -4.0933003 -3.6600733 -1.2304306 0.4321392
-3.3265932 0.59644955 -0.81315565 -0.63008314 0.55846417 0.6077636 1.9394029 0.053397503
-1.4003835 0.7732688 3.1935422 -0.35686505 -1.3796456 -2.1654015 -0.47797558 0.5547544
-9.617019 0.6548781 3.9169357 0.75408965 -1.7193766 1.6026973 0.6705711 -1.4788384
-0.5527889 -5.8793187 0.58332556 -0.89847636 -4.465742 -2.076072 -3.1078322 1.3753277
-0.86949486 0.040917896 -1.7294835 -1.3278556 0.7065731 -1.6807479 -5.6602416 -0.904551
0.47252634 -0.6995013 0.58051884 0.6681097 0.5569743 0.7043379 -0.2600607 0.7945106
-0.051191278 -0.0036333054 -5.42203 -6.0230284 -3.456445 -6.6368136 -0.8368225 -4.7847157
-1.0285532 0.70321923 0.591572 -1.7047987 0.47642887 -0.8008857 -2.2801995 -0.98034436
4.744846 -4.481243 -1.244029 -1.3833424 -1.9787447 0.571851 0.37680766 1.3379658
-1.746842 0.43254346 0.8481646 0.49349195 -1.6435605 -8.569179 -1.5792073 0.77630335
-0.6651175 -1.371285 -0.8585509 -2.7495759 -1.0883863 0.18416923 0.5173089 -0.023247242
0.24810927 2.6534135 0.5107831 0.61835945 0.6837014 -8.768728 -2.1791074 -0.6284323
00000000: 2044 093f 40b4 d9c0 077e ed3e 642c 31c0
00000010: ab62 ef3e 0f74 0e3f eaea 2fbd 0b24 29c1
00000020: 41a5 223f 1937 12bf 3745 2ebf 9f67 a13f
00000030: 8ae7 323f 1487 90bf e462 40c0 b02a 39c0
00000040: 14f7 9ebf 71d3 4840 6162 b6c0 97b8 41bf
00000050: 915f 8abf af46 b6bf 269c d8bf e60d e4bf
00000060: 80f9 0bc0 37f3 5fc0 0844 0540 ac2f 56c0
00000070: 6ec9 c6c0 c852 e9bf 2621 f8bf be80 033f
00000080: f2d0 3e3f 6685 303f 7a03 153f cf11 203f
00000090: d855 03c1 7b97 223f 229c 13bf d460 323f
000000a0: e545 b3bf e603 16bf 771d 9a3f cbac afbf
000000b0: e245 47c1 ed8f 483f 5a4d 383d 4b14 5ec0
000000c0: ee94 113f c14e e2be 9887 f6bf 1989 11c0
000000d0: 0a41 153f 2bb3 10c0 3298 0b3f 6ad0 73c0
000000e0: b7e7 f53e 6e3c 71c0 30ae ecbb 4ddc 0140
000000f0: f4fe 1dc0 73ed 363f 74d2 133f 7040 2dc0
00000100: 67b8 9ac0 84e2 dbbf a6ad 0b3f 8f0d d93e
00000110: c32b 3d3f b018 bcbf 26c1 293f a57f 24bf
00000120: e696 55c0 e0d4 d1be e769 4d3f 866d 073f
00000130: 5fbb 2cc0 1e85 03c0 46fe fd3e 281d e4c0
00000140: 2760 efc0 750b 0d3f e7f2 9dbf 2896 183f
00000150: 046c b4c0 3c02 d63e 8f7b 77bf ba23 82c0
00000160: 4c7e 53c0 b016 e63e 8354 d83e 7e16 1bc0
00000170: bc5d 0e3f d8c5 623c 938a 3ec0 7d2f 303f
00000180: 93dc ed3e a461 56c0 7c32 693f 99e6 7dc0
00000190: 039e 77c0 c50c dac0 4e1c 3cbf 0c69 3ec0
000001a0: 400d c03f e67d 8f3e 5d28 363f 86a0 7e3f
000001b0: 6792 9fc0 6b73 70c0 cc96 30c0 a165 57bf
000001c0: 2560 553f 57a3 48c0 9775 323f 9afb 35c0
000001d0: d819 cebf 3cf0 8bbf da7b bac0 eb20 7fbf
000001e0: abb8 c9bf 20ca 08c1 5d32 1c3f 8323 1c3f
000001f0: b0f0 40c0 2d6a 393f 6d1c 00bf 5b24 2b3f
00000200: 2749 d4c0 f5be c7c0 90bd cebf a782 acc0
00000210: b364 67c0 289a 31c0 2be8 88c0 e766 febe
00000220: 6e13 50c0 bdf8 2b3e 2f22 2f3c a1ea b6c0
00000230: d3b2 e3c0 f687 ad3e 2f5e 8cc0 dc8d 15bf
00000240: 6c0a a03e e166 95c0 04de 1c3f b1ff 9ebf
00000250: 2f88 173f 8326 193f c295 f63e 399a bebf
00000260: a68d 623f d741 373f 00a0 0b40 13ab 09c0
00000270: 51fc 82c0 a43e 6ac0 c07e 9dbf 5941 dd3e
00000280: e7e6 54c0 ebb0 183f f82a 50bf 214d 21bf
00000290: 82f7 0e3f 6596 1b3f 5b3e f83f 57b7 5a3d
000002a0: c43f b3bf f2f4 453f ff62 4c40 04b7 b6be
000002b0: 3a98 b0bf f095 0ac0 37b9 f4be 6204 0e3f
000002c0: 4fdf 19c1 17a6 273f 13af 7a40 050c 413f
000002d0: 8814 dcbf 2f25 cd3f 8caa 2b3f 944a bdbf
000002e0: 9383 0dbf 6123 bcc0 d354 153f 8c02 66bf
000002f0: 5ce7 8ec0 5dde 04c0 b9e6 46c0 bd0a b03f
00000300: 3797 5ebf 8699 273d b75f ddbf 2cf7 a9bf
00000310: fae1 343f bf22 d7bf b320 b5c0 a890 67bf
00000320: f9ee f13e 8412 33bf e29c 143f 3d09 2b3f
00000330: de95 0e3f 7d4f 343f ad26 85be 0c65 4b3f
00000340: f2ad 51bd c01c 6ebb 4581 adc0 a6bc c0c0
00000350: 6536 5dc0 c760 d4c0 003a 56bf 641c 99c0
00000360: a2a7 83bf 2d06 343f 4371 173f d836 dabf
00000370: 7cee f33e d806 4dbf caee 11c0 d9f7 7abf
00000380: c7d5 9740 5866 8fc0 583c 9fbf 5d11 b1bf
00000390: 8247 fdbf d464 123f efec c03e 7742 ab3f
000003a0: 8598 dfbf 5676 dd3e 5121 593f faaa fc3e
000003b0: 3160 d2bf 5b1b 09c1 7723 cabf d1bb 463f
000003c0: 2445 2abf 4486 afbf fec9 5bbf 0df9 2fc0
000003d0: 3e50 8bbf dc96 3c3e 5b6e 043f 0071 bebc
000003e0: 5b10 7e3e 87d1 2940 aec2 023f ce4c 1e3f
000003f0: 0e07 2f3f b64c 0cc1 7f76 0bc0 f0e0 20bf

linear2.bias f4 [3]
0.6933791 0.55047816 0.40386155
00000000: 4b81 313f 23ec 0c3f f1c6 ce3e
