checkpoints_dqn/model_final_model_tj82tmjl.pth (torch, 22824 bytes, 4 tensors)

linear1.weight f4 [256, 16]
0.30836868 0.2511946 -0.14776783 0.2741658 1.4607852 0.8306044 -0.6200051 0.14149046
0.33250976 0.22101639 0.14489478 0.3196342 0.17266358 0.21507289 0.43133995 0.2701854
-0.66847706 -0.13536544 0.26339447 -0.43314403 0.8405354 -0.33363628 -0.14427046 0.4114496
0.26844037 0.34857038 -0.029442953 0.19917172 0.23670188 -0.31797495 -0.23082018 -0.59551734
0.4379914 1.094841 0.117735125 0.25851986 -1.2450702 -0.32978928 -0.17177667 0.22560613
0.24637058 0.058488935 0.13099313 0.17785513 0.14164725 0.072172746 0.02046037 0.1492211
0.19866098 0.6166499 0.3070796 -0.04342203 1.7623557 -0.15543024 -0.089345515 -0.23941581
-0.13670492 0.16728409 -0.029117726 -0.12021154 0.16793452 0.3292673 -0.18005796 -0.11229697
0.38198733 -0.044225898 -0.29360604 0.13497357 0.19892013 1.4172583 1.0609983 0.8151289
0.2154699 0.15113373 0.45183414 0.3465638 0.4827308 0.17481548 0.5231733 0.8685103
0.5650033 -0.12776414 -0.24272226 0.118002124 0.19037777 1.1425287 0.6774485 0.81416065
0.43758953 0.39081728 0.14158371 0.51308656 0.43189514 0.5599949 0.42628634 0.7536126
0.20556004 0.5410602 0.023174543 -0.18295546 0.8082936 -0.6701999 0.041568853 -0.18221039
0.008384749 -0.10747621 -0.064973645 0.14664514 0.2021855 0.18064572 0.33636248 0.03314782
-0.10390171 -0.7042412 0.06292457 0.2548287 0.5966166 -0.2776833 -0.5240033 0.282143
-0.8023084 0.0569002 0.37269405 -0.21309945 0.29421553 -0.1460804 0.11600369 0.24767004
0.47642598 -0.03249209 -0.34997022 0.1789898 0.40211853 0.919321 0.7323831 0.42960054
0.3562559 0.26460615 0.25424564 0.1790138 0.28303412 0.22184086 0.48881978 0.8737633
0.6472194 0.875765 -0.22495995 0.18722388 -1.1465185 -0.4056526 -0.46512842 0.040950723
0.22247158 0.17825139 0.16321021 0.020476045 0.12343273 0.31553817 -0.00894477 0.22805919
0.39470416 0.2003542 0.44280562 0.1993189 0.83835405 -0.21707772 -0.45966616 0.07351538
0.016529845 0.13267939 -0.03223884 -0.07256224 0.047268126 0.008743018 -0.18258181 -0.37099206
-0.9897638 0.36822984 0.7684766 -0.58656764 0.33216986 -0.07677865 0.43831766 -0.1411831
-0.11775289 -0.093893394 -0.019462002 0.3891308 0.40410545 -0.14884473 -0.1453435 -0.11993635
0.4723084 -0.0524772 -0.4014822 0.034984328 0.63859516 0.90033597 0.9735382 0.59598887
0.14033924 0.2458452 0.28266156 0.14562094 0.07278847 0.29202095 0.40097308 0.6320156
-0.03322793 0.5343926 0.1293866 -0.11466279 1.9405024 -0.4647151 0.014956714 -0.027180728
0.17159875 -0.1834038 -0.07178539 -0.021275064 0.00046531766 -0.0030044008 0.162211 0.032866545
0.80730045 -0.6371535 -0.63453275 -0.17197771 0.5781172 -0.37468615 0.19422884 0.17428078
0.15910551 0.34291747 0.17611319 -0.090737134 -0.14162655 -0.20747839 0.0016301303 0.42551485
0.49564767 -0.77993995 0.01969332 0.5152287 0.8606178 -0.16862419 -0.38210738 0.0491901
0.26190832 0.07244816 0.1091666 -0.2418373 0.41925135 -0.11160552 -0.023096167 0.28498584
00000000: 80e2 9d3e 949c 803e 7350 17be 765f 8c3e
00000010: 02fb ba3f 7da2 543f a7b8 1ebf e0e2 103e
00000020: b83e aa3e 1f52 623e 4c5f 143e 18a7 a33e
00000030: b9ce 303e 113c 5c3e 97d8 dc3e be55 8a3e
00000040: 5021 2bbf 3d9d 0abe a4db 863e 0ec5 ddbe
00000050: 542d 573f 60d2 aabe a3bb 13be 86a9 d23e
00000060: 0471 893e d177 b23e 5932 f1bc acf3 4b3e
00000070: fa61 723e 9dcd a2be 205c 6cbe d373 18bf
00000080: 6940 e03e c023 8c3f 1d1f f13d b75c 843e
00000090: 765e 9fbf 24da a8be 39e6 2fbe 4b05 673e
000000a0: 9248 7c3e 1892 6f3d 1023 063e a81f 363e
000000b0: fa0b 113e 4ecf 933d 829c a73c 6bcd 183e
000000c0: c96d 4b3e c5dc 1d3f 8a39 9d3e 4cdb 31bd
000000d0: df94 e13f 1b29 1fbe c8fa b6bd 6b29 75be
000000e0: 60fc 0bbe 854c 2b3e 4c88 eebc 7831 f6bd
000000f0: 07f7 2b3e b995 a83e 1d61 38be f4fb e5bd
00000100: d893 c33e 3726 35bd 8853 96be 8336 0a3e
00000110: b8b1 4b3e b868 b53f cbce 873f 4aac 503f
00000120: 24a4 5c3e cdc2 1a3e ce56 e73e cf70 b13e
00000130: 7e28 f73e d402 333e afee 053f b156 5e3f
00000140: 0ea4 103f 9ad4 02be 2f8c 78be 19ab f13d
00000150: 64f2 423e 613e 923f 446d 2d3f d56c 503f
00000160: bc0b e03e 3419 c83e 52fb 103e a459 033f
00000170: 5c21 dd3e d35b 0f3f 3442 da3e c1ec 403f
00000180: 557e 523e ec82 0a3f 8ad8 bd3c ad58 3bbe
00000190: 54ec 4e3f 3892 2bbf 1a44 2a3d 5c95 3abe
000001a0: 3060 093c 7d1c dcbd e710 85bd 252a 163e
000001b0: b709 4f3e 31fb 383e b437 ac3e 02c6 073d
000001c0: 6bca d4bd 2749 34bf 99de 803d e878 823e
000001d0: debb 183f 812c 8ebe 1525 06bf 0c75 903e
000001e0: 1564 4dbf 2f10 693d c1d1 be3e be36 5abe
000001f0: 6ba3 963e 1a96 15be 5893 ed3d 379d 7d3e
00000200: 1bee f33e 6d16 05bd 4c2f b3be 1a49 373e
00000210: 7be2 cd3e 9f58 6b3f 757d 3b3f 9af4 db3e
00000220: 2c67 b63e 757a 873e 7c2c 823e 654f 373e
00000230: d9e9 903e 402a 633e 9646 fa3e f4ae 5f3f
00000240: 2cb0 253f 2332 603f e75b 66be 9eb7 3f3e
00000250: 1ec1 92bf b3b1 cfbe 5025 eebe f2bb 273d
00000260: 97cf 633e 8887 363e 9420 273e 61bd a73c
00000270: 4dca fc3d 388e a13e 168d 12bc 5988 693e
00000280: aa16 ca3e a729 4d3e 6bb7 e23e 411a 4c3e
00000290: 5f9e 563f 9f49 5ebe 5d59 ebbe 3b8f 963d
000002a0: 9969 873c 1bdd 073e e00c 04bd 839b 94bd
000002b0: 399c 413d e03e 0f3c baf6 3abe acf2 bdbe
000002c0: 2961 7dbf 9f88 bc3e e2ba 443f 4c29 16bf
000002d0: 2b12 aa3e 203e 9dbd 2c6b e03e 4d92 10be
000002e0: 6d28 f1bd 2e4b c0bd c76e 9fbc 273c c73e
000002f0: e9e6 ce3e c16a 18be edd4 14be 30a1 f5bd
00000300: 68d2 f13e 55f2 56bd 138f cdbe ba4b 0f3d
00000310: f97a 233f 6b7c 663f cd39 793f ba92 183f
00000320: 17b5 0f3e d8be 7b3e 04b9 903e a81d 153e
00000330: 1f12 953d c583 953e 584c cd3e c6cb 213f
00000340: 031a 08bd f4cd 083f ec7d 043e 53d4 eabd
00000350: 6262 f83f 23ef edbe 010d 753c 1eaa debc
00000360: 95b7 2f3e 35ce 3bbe 3804 93bd 0b49 aebc
00000370: e1f5 f339 7be5 44bb a41a 263e 129f 063d
00000380: 3eab 4e3f 7e1c 23bf bd70 22bf ed1a 30be
00000390: 7dff 133f ddd6 bfbe ede3 463e a976 323e
000003a0: 8eec 223e e192 af3e 0457 343e 64d4 b9bd
000003b0: 8d06 11be 3775 54be 19aa d53a 15dd d93e
000003c0: 88c5 fd3e 25aa 47bf e353 a13c 07e6 033f
000003d0: 7351 5c3f d2ab 2cbe 94a3 c3be 8f7b 493d
000003e0: d918 863e b35f 943d bd92 df3d 32a4 77be
000003f0: 1da8 d63e 6f91 e4bd 2c34 bdbc aae9 913e

linear1.bias f4 [256]
0.80362004 -0.5306117 -0.4035974 -0.34541827 1.2588794 1.180446 -0.68793213 -0.07750314
1.1742836 -0.24342982 -0.5247441 0.0066381637 1.3093182 -0.16897982 -0.6055026 -0.5247645
-0.75430566 -0.13324198 -0.024320161 -0.47288042 -0.5704587 0.24401365 1.6472782 -0.64745796
-0.013480991 -0.51983684 -0.34641612 0.3004396 -0.28349566 -0.6661498 -0.43088558 1.7277452
1.3230151 1.0666169 1.0878216 0.91878355 -0.02412223 0.85303897 -0.29007402 0.92782205
-0.4253286 -0.4158742 -0.37791753 -0.019893859 -0.19586286 -0.15316808 -0.20757067 -0.62800354
0.9921111 -0.36022618 -0.71462774 -0.52406985 -0.32541692 0.42655772 1.2410876 -0.52962667
-0.3381194 -0.16256188 -0.0021826802 0.64923865 -0.61379236 0.86364406 1.1735505 0.8782453
0.00014449042 -0.45390406 0.85105526 1.0564997 0.9182378 0.8464886 1.1067989 0.09961763
-0.43323842 -0.13638987 -0.17172535 1.0359501 -0.54635686 -0.13461165 -0.390424 -0.633209
-0.16100252 0.8754537 -0.34516743 -0.41391417 -0.35929543 1.0985556 1.4757771 -0.42305017
-0.60541826 1.0649456 1.4253408 0.13220243 1.1353731 -0.18147951 -0.49763438 -0.47124088
0.022134474 -0.13958897 -0.21501997 -0.2773307 -0.16197933 -0.10600128 0.17221299 -0.30036098
-0.25043547 1.3601488 1.1064224 0.5374818 -0.21327482 -0.007269956 -0.09300152 -0.41275513
1.3185828 -0.49689272 1.1370981 -0.33982697 -0.5420183 -0.37695226 -0.108963504 -0.55594504
-0.099045016 -0.19721702 1.117104 -0.14238769 1.478687 0.9226516 0.16406804 1.1760151
-0.0405041 -0.38399488 -0.015116037 0.09517331 -0.4090141 -0.38377234 -0.38370803 0.4557002
-0.39688802 -0.6302393 1.0119678 -0.22789854 -0.041791838 0.21980424 -0.26048207 1.37979
-0.5431504 -0.4444304 -0.41446882 -0.22343212 1.0981117 1.2454 0.930084 -0.2122382
0.6484651 0.9920795 0.2389998 -0.5519073 -0.011536287 -0.6316775 -0.43096337 -0.22829862
-0.39697915 1.36586 0.7557726 -0.021171104 -0.6896711 -0.54149234 0.6959098 -0.6138547
-0.2023726 0.75226045 -0.24245407 0.27292407 -0.109197356 -0.39479354 -0.07036863 0.9490306
0.9900954 -0.33283988 0.4296441 -0.20813312 -0.61697495 -0.33193052 1.2406138 -0.02521275
0.45395848 -0.22136796 0.9885473 0.14185202 1.0559013 -0.1674959 -0.2799594 1.3082108
-0.55706674 -0.114966884 0.021867553 -0.5455047 1.1265613 -0.5382815 -0.19248874 -0.54148847
1.0693719 -0.10966878 1.2661145 1.3580511 0.79549587 1.1336564 0.0051995367 1.1372876
-0.23127109 0.4350562 -0.597884 -0.017531889 -0.11764726 0.12785213 -0.28120807 0.49595895
0.023038479 0.8970664 0.8335036 -0.17583533 0.48864606 -0.4040581 -0.5122527 0.3955626
-0.40875384 -0.32180145 -0.55089617 -0.36259666 0.7700385 1.2266047 1.1946933 -0.47672513
-0.730195 -0.32408342 -0.022962235 1.1784776 -0.3889001 0.9028794 0.17536919 0.9946852
1.1894661 -0.22239833 -0.345437 -0.16580053 -0.85213447 -0.7619539 0.018279025 -0.2317408
0.30065447 0.17294098 0.8435158 1.2809309 0.9200883 0.47571036 -0.31818438 1.1497422
00000000: 0bba 4d3f 2bd6 07bf 52a4 cebe aada b0be
00000010: f622 a13f db18 973f 521c 30bf f7b9 9ebd
00000020: ed4e 963f ab45 79be a155 06bf f484 d93b
00000030: bd97 a73f 0c09 2dbe 3802 1bbf f756 06bf
00000040: 2d1a 41bf 9670 08be 133b c7bc 621d f2be
00000050: 9509 12bf b7de 793e 03da d23f cebf 25bf
00000060: 60df 5cbc 0714 05bf 745d b1be 38d3 993e
00000070: 5826 91be cb88 2abf 099d dcbe c126 dd3f
00000080: 8f58 a93f e786 883f bd3d 8b3f 6635 6b3f
00000090: fc9b c5bc c360 5a3f 9584 94be bf85 6d3f
000000a0: acc4 d9be 77ed d4be 687e c1be 72f8 a2bc
000000b0: 4690 48be 18d8 1cbe 688d 54be d7c4 20bf
000000c0: fefa 7d3f 916f b8be d8f1 36bf 7129 06bf
000000d0: 0c9d a6be c665 da3e f5db 9e3f 9d95 07bf
000000e0: fc1d adbe 9f76 26be 4c0b 0fbb 8134 263f
000000f0: 7f21 1dbf c717 5d3f e736 963f afd4 603f
00000100: 5a82 1739 1d66 e8be c2de 593f 623b 873f
00000110: a211 6b3f 7ab3 583f 96ab 8d3f 5404 cc3d
00000120: 6dd1 ddbe c9a9 0bbe c5d8 2fbe 039a 843f
00000130: 0bde 0bbf a3d7 09be a8e5 c7be fc19 22bf
00000140: d8dd 24be bc1d 603f c9b9 b0be 8fec d3be
00000150: 92f5 b7be 789d 8c3f 44e6 bc3f 089a d8be
00000160: b1fc 1abf 2350 883f 9171 b63f 1360 073e
00000170: e853 913f c4d5 39be efc9 febe 7c46 f1be
00000180: 5b53 b53c 69f0 0ebe 322e 5cbe 4afe 8dbe
00000190: e9dd 25be 3317 d9bd 9a58 303e eac8 99be
000001a0: 1439 80be 5b19 ae3f 409f 8d3f 6898 093f
000001b0: b764 5abe d038 eebb 9577 bebd a454 d3be
000001c0: 52c7 a83f b968 febe 6e8c 913f cdfd adbe
000001d0: b6c1 0abf e3ff c0be 4228 dfbd 6a52 0ebf
000001e0: 1dd8 cabd 42f3 49be 44fd 8e3f 14ce 11be
000001f0: 9e45 bd3f e532 6c3f 7401 283e aa87 963f
00000200: a1e7 25bd fa9a c4be 41a9 77bc 39ea c23d
00000210: 4c6a d1be cf7d c4be 6175 c4be 8951 e93e
00000220: e834 cbbe 5d57 21bf 2988 813f 3c5e 69be
00000230: eb2d 2bbd 5d14 613e e85d 85be f59c b03f
00000240: e80b 0bbf 628c e3be 4235 d4be 64cb 64be
00000250: ed8e 8c3f 4469 9f3f fc19 6e3f f854 59be
00000260: cf01 263f ecf8 7d3f 5dbc 743e cc49 0dbf
00000270: b202 3dbc 9eb5 21bf 3ba7 dcbe 1dc7 69be
00000280: da40 cbbe 80d4 ae3f 507a 413f 066f adbc
00000290: 498e 30bf 3e9f 0abf 2527 323f 9525 1dbf
000002a0: c33a 4fbe 2494 403f e145 78be b4bc 8b3e
000002b0: dda2 dfbd 6122 cabe 6e1d 90bd abf3 723f
000002c0: e476 7d3f fd69 aabe 50fa db3e d920 55be
000002d0: 12f2 1dbf ccf2 a9be 6fcc 9e3f f88a cebc
000002e0: 3f6d e83e 48ae 62be 7011 7d3f a841 113e
000002f0: c627 873f 0c84 2bbe d756 8fbe 7473 a73f
00000300: ed9b 0ebf c273 ebbd 9523 b33c 32a6 0bbf
00000310: 2933 903f d1cc 09bf c51b 45be fd9e 0abf
00000320: 2ee1 883f 069a e0bd 0a10 a23f 9ed4 ad3f
00000330: 9ea5 4b3f a71b 913f e060 aa3b a492 913f
00000340: 54d2 6cbe b0bf de3e ed0e 19bf 099f 8fbc
00000350: 0cf1 f0bd abeb 023e 81fa 8fbe 55ee fd3e
00000360: 31bb bc3c 25a6 653f 7e60 553f 2d0e 34be
00000370: d12f fa3e b4e0 cebe fe22 03bf 2e87 ca3e
00000380: 2f48 d1be 29c3 a4be 8807 0dbf 45a6 b9be
00000390: 3e21 453f 6201 9d3f b6eb 983f 5115 f4be
000003a0: 0fee 3abf 43ee a5be 4c1b bcbc 5bd8 963f
000003b0: ea1d c7be 1b23 673f fb93 333e b0a3 7e3f
000003c0: 6d40 983f 63bc 63be 1edd b0be 9dc7 29be
000003d0: 7c25 5abf 690f 43bf e5bd 953c 764d 6dbe
000003e0: 62ef 993e 7117 313e a7f0 573f 8bf5 a33f
000003f0: e88a 6b3f 4f90 f33e 10e9 a2be c12a 933f

linear2.weight f4 [3, 256]
0.33181953 -1.3325425 -2.7920034 0.7150156 0.54475546 0.5320378 0.35548785 -3.2155993
0.63932455 -2.2050543 -1.0990154 -1.0065184 0.72977895 0.71211356 -1.6579486 -1.6877505
-2.8249621 0.0013236392 -5.400038 -1.8328798 -1.0628738 0.6510234 0.5001083 -1.3161749
-1.4225911 -1.2055743 -2.4631188 0.6659555 -6.3867936 -1.9745907 -1.7883174 0.46655303
0.64165103 0.67084956 0.56424195 1.9430625 -8.230674 0.64088035 -0.69918 0.78574026
-2.7855377 -1.5065659 0.9113709 -1.345456 -9.893379 0.52716255 0.044995643 -0.25530174
0.56982845 -0.72197306 -1.17044 -1.3698685 -1.7808993 1.1099238 0.61962605 -2.882809
-0.20551255 -2.8010714 -0.9308341 3.8328109 -1.3978888 0.7019522 0.64472306 0.33363584
-5.4025025 -3.8628159 0.32429996 0.57152873 0.68904644 0.78415173 0.69487035 -0.8030404
-2.146625 0.7004625 -1.1657374 0.69713426 -2.4441369 -2.4510338 -2.08242 -5.7390637
-3.0469546 0.51438457 -0.92923063 -3.263908 -3.0950983 1.8968292 0.6739276 -4.870961
-2.017184 2.2541482 0.39149147 1.6279094 0.4984512 0.013841115 -2.7994568 0.63663626
0.0022674715 -1.5082994 0.83186984 -1.9623739 -4.6377506 -5.142012 0.4763257 -2.5109384
-1.408807 0.7175632 0.8039584 -2.9753504 -0.046933196 -2.5903783 -2.8611493 -1.6609274
0.6926855 -0.57146686 0.7340151 0.3566875 -1.8658333 -1.3435762 -3.714355 -1.0543838
-3.330357 -2.9565852 1.875569 0.70759004 0.38303506 0.6287529 0.620081 0.69246423
-4.1922717 -3.037855 -3.4249058 -4.0565944 -2.8813818 -1.7689582 -2.3467388 0.510782
-1.3788457 -1.0092745 1.23213 -3.6335952 2.0606492 2.2576423 -2.8691077 1.1949586
0.6348378 -5.4896054 -1.0877745 -1.4956442 0.47109008 1.0540526 0.42263213 -3.7416615
1.91198 0.70592344 1.9949012 -1.2527424 -4.2255955 -2.649461 -1.2919881 0.57461596
-2.5196369 0.5787312 -0.7710911 0.95839125 -2.3791485 0.46707627 2.4783027 -4.1083055
-1.0165837 0.6265314 -1.5983424 0.61758333 0.08787547 -2.1722412 -0.67010456 0.59351903
0.49172172 -0.95865715 3.1494648 0.7058452 -1.016181 -3.134423 0.6677178 -2.6603632
2.9488041 -3.5932033 0.39015755 -0.6060989 0.6575913 0.7638012 -0.04031456 0.6951074
0.18190019 0.0059441947 -0.13266276 -0.24419504 0.6411487 -2.4033167 -2.0225062 -1.6739722
0.7351243 -1.1678504 0.5770895 1.5930239 1.4225328 0.67058885 -0.1362399 0.74072325
-0.051191278 3.2728143 -3.3701751 -1.4224927 -0.93318623 -3.6605227 -1.5155153 -1.5062068
-0.33018976 0.6500989 1.8338304 -4.4481044 0.5024527 -1.4895154 -1.9225489 -1.2264093
-1.3092693 -2.5766914 -0.84701127 -1.7266423 1.3386879 0.6116636 0.41933045 -1.5670573
-1.4554935 0.8313799 0.9242054 0.5052241 -1.3595556 0.5725489 -0.91387486 1.895519
0.6246948 -1.8419511 -3.6785839 -3.9590988 -0.012708949 0.11201643 -2.9472942 -0.023247242
0.6024903 1.128329 0.38458046 1.4404761 0.70133644 2.1895835 0.017945979 0.64713806
00000000: 40e4 a93e c190 aabf 2fb0 32c0 430b 373f
00000010: 1875 0b3f a133 083f 8102 b63e 61cc 4dc0
00000020: c6aa 233f 9c1f 0dc0 89ac 8cbf 98d5 80bf
00000030: cbd2 3a3f 134d 363f a937 d4bf 3508 d8bf
00000040: 2ecc 34c0 f67d ad3a 1ccd acc0 ce9b eabf
00000050: 400c 88bf 78a9 263f 1907 003f 6b78 a8bf
00000060: 7717 b6bf 4250 9abf bda3 1dc0 0f7c 2a3f
00000070: 9d60 ccc0 63bf fcbf 96e7 e4bf 0ae0 ee3e
00000080: 3e43 243f ccbc 2b3f 2972 103f 46b6 f83f
00000090: d7b0 03c1 bc10 243f 76fd 32bf 4626 493f
000000a0: 4046 32c0 27d7 c0bf 9a4f 693f e737 acbf
000000b0: 484b 1ec1 20f4 063f 5a4d 383d e9b6 82be
000000c0: 47e0 113f 3ad3 38bf fad0 95bf da57 afbf
000000d0: 82f4 e3bf fc11 8e3f d09f 1e3f f17f 38c0
000000e0: e271 52be c144 33c0 254b 6ebf c64c 7540
000000f0: 05ee b2bf 24b3 333f 920c 253f 51d2 aa3e
00000100: 4de1 acc0 6038 77c0 a50a a63e b54f 123f
00000110: 5965 303f 2bbe 483f 06e3 313f 0e94 4dbf
00000120: 4e62 09c0 8351 333f e236 95bf 6477 323f
00000130: bd6c 1cc0 bddd 1cc0 5f46 05c0 69a6 b7c0
00000140: 4e01 43c0 b5ae 033f 0fe2 6dbf dee3 50c0
00000150: 1716 46c0 4dcb f23f 8586 2c3f eade 9bc0
00000160: 8b19 01c0 f743 1040 9271 c83e 565f d03f
00000170: ff34 ff3e d8c5 623c 4d2a 33c0 98fa 223f
00000180: dc99 143b f40f c1bf 6cf5 543f 112f fbbf
00000190: 7468 94c0 5d8b a4c0 f6e0 f33e 37b3 20c0
000001a0: ca53 b4bf 39b2 373f 38d0 4d3f 246c 3ec0
000001b0: 063d 40bd c2c8 25c0 121d 37c0 4599 d4bf
000001c0: d653 313f a74b 12bf 6ae8 3b3f be9f b63e
000001d0: a0d3 eebf 4efa abbf feb7 6dc0 0cf6 86bf
000001e0: 9224 55c0 b138 3dc0 a512 f03f 9f24 353f
000001f0: 2c1d c43e f3f5 203f a1bd 1e3f 5645 313f
00000200: 1727 86c0 376c 42c0 a831 5bc0 9fcf 81c0
00000210: 8f68 38c0 396d e2bf f830 16c0 9cc2 023f
00000220: 047e b0bf e82f 81bf 70b6 9d3f d38c 68c0
00000230: ade1 0340 367d 1040 769f 37c0 67f4 983f
00000240: bb84 223f d9aa afc0 323c 8bbf 4571 bfbf
00000250: b832 f13e 32eb 863f 3d63 d83e 6277 6fc0
00000260: c3bb f43f 66b7 343f ec58 ff3f dd59 a0bf
00000270: 1438 87c0 c590 29c0 de5f a5bf 081a 133f
00000280: bb41 21c0 ba27 143f 3a66 45bf 2159 753f
00000290: f843 18c0 9f24 ef3e 839c 1e40 3d77 83c0
000002a0: 6a1f 82bf 5d64 203f 7c96 ccbf f119 1e3f
000002b0: 0ef8 b33d 0006 0bc0 f98b 2bbf ddf0 173f
000002c0: f3c2 fb3e 8e6a 75bf d590 4940 45b2 343f
000002d0: 3812 82bf 639a 48c0 8eef 2a3f 6443 2ac0
000002e0: 35b9 3c40 0bf7 65c0 bbc2 c73e 4c29 1bbf
000002f0: e757 283f 7a88 433f e120 25bd 8ff2 313f
00000300: 0b44 3a3e 85c7 c23b bfd8 07be 440e 7abe
00000310: 5222 243f f1cf 19c0 be70 01c0 b944 d6bf
00000320: 1b31 3c3f 1f7c 95bf 23bc 133f 35e8 cb3f
00000330: 8e15 b63f b6ab 2b3f 7982 0bbe 0aa0 3d3f
00000340: f2ad 51bd ca75 5140 f3b0 57c0 3e14 b6bf
00000350: 4be5 6ebf 0146 6ac0 68fc c1bf 62cb c0bf
00000360: a20e a9be e26c 263f f4ba ea3f df56 8ec0
00000370: bda0 003f 71a8 bebf 1516 f6bf fbfa 9cbf
00000380: 2396 a7bf 83e8 24c0 bbd5 58bf 9d02 ddbf
00000390: 205a ab3f fc95 1c3f 7bb2 d63e 5595 c8bf
000003a0: 9c4d babf 50d5 543f ba98 6c3f 5e56 013f
000003b0: eb05 aebf 9192 123f b4f3 69bf 5ea0 f23f
000003c0: 00ec 1f3f 0ec5 ebbf eb6d 6bc0 e061 7dc0
000003d0: 3239 50bc df68 e53d 78a0 3cc0 0071 bebc
000003e0: ce3c 1a3f 166d 903f bbe7 c43e 8561 b83f
000003f0: c98a 333f 2322 0c40 7203 933c d7aa 253f

linear2.bias f4 [3]
0.9423014 1.0978329 0.96265626
00000000: aa3a 713f ca85 8c3f a470 763f
