checkpoints_dqn/model_final_model_hq6fgyw7.pth (torch, 23259 bytes, 4 tensors)

linear1.weight f4 [256, 16]
00000000: eaf4 363e 7af8 63be 164c 5a3e 344e 633e
00000010: bcba a23d b06a 463e 18de 4bbd d6d7 15be
00000020: 1ad9 0ebe 9a67 0d3e 806d 20bb 483d 623e
00000030: 60ed 523c 4025 7f3c 404a 94bb e054 463c
00000040: 487c 7d3d 1ccf 403e fe53 57be a084 7f3d
00000050: 6874 303d 3093 253d b251 54be 48f4 9dbd
00000060: 9c98 b23d dc79 50be 0857 983d c46e b43d
00000070: 281b 033e 0280 7abe 3644 0a3e 389a a73d
00000080: a255 4a3e 4e67 453e d843 443e 6663 0cbe
00000090: 4475 213e a0f9 be3d 7858 4abd b0ee a33d
000000a0: 000b 9fbc 700d 5bbd 1e1d 693e d8be 9cbd
000000b0: e226 533e 601f 243c 5c71 3cbe 8018 793b
000000c0: 200e 643d 6e56 153e b8ba d8bd d88d c1bd
000000d0: d482 083e f0ed f83c 6cc1 90bd 2c44 8a3d
000000e0: 728e 2ebe 6015 6b3c 288c 703d 18e6 233e
000000f0: e421 0e3e 9ea6 61be 8cf2 9b3d 6c51 f5bd
00000100: 1873 5fbd 1041 9e3c 5253 333e 5615 53be
00000110: d86f 1b3d c087 683e 10f6 38be 0058 d1b9
00000120: bc70 163e a061 41be b263 1c3e 5ef1 61be
00000130: ce08 173e 5860 8e3d f888 193e 48bc 683d
00000140: 4afa 7f3e 46b0 07be 7213 65be 209b 193d
00000150: 2e9d 553e b0ad 49bd 6ac3 483e 88b6 1cbe
00000160: d098 b63c 70df 403d 40cf 69bd b4b5 5d3e
00000170: 585c b7bd 4081 02bc 00d5 463e 568c 5ebe
00000180: 0042 34bb 7824 d5bd c64d 233e fa06 55be
00000190: 4029 7dbc dc38 2abe 6038 70bc 0054 04bb
000001a0: 4070 e8bd 3ce4 35be 5617 3cbe 7c33 96bd
000001b0: 68b7 cd3d 7020 63be f26c 71be a606 1dbe
000001c0: 60f5 6b3c 3829 90bd ca54 4bbe 00f6 58be
000001d0: a03d 463e e0b0 cf3c 10d9 2cbd 7a37 763e
000001e0: 7062 dd3c 08e3 3c3d 806f afbc c856 a63d
000001f0: 8411 2c3e 5c2c a7bd 1c97 d9bd 7253 76be
00000200: 5c2c 103e 40be 94bd 00ed 2abb e0b0 e63d
00000210: 18d9 68be a416 f83d 1cb4 cc3d 1658 13be
00000220: 1807 713e f0ad f83c b831 d5bd 086f 573d
00000230: 84ab edbd 4c22 32be ba05 3c3e 3674 613e
00000240: 40d8 f0bb e075 753d 4884 443d 38b3 c6bd
00000250: 48e0 61be 4a2b 1fbe 6067 b03c a4bf fe3d
00000260: 6836 443e 5c73 363e b0c4 313e 6c1e 84bd
00000270: acb7 cebd b045 78be d89a 13be b4d1 df3d
00000280: dcc0 debd c0cf 4dbe ac68 b53d 84e1 653e
00000290: e054 793e a02b 433d 0082 b6ba fabe 073e
000002a0: 683b 273d 7475 1e3e b440 f43d 0ad4 40be
000002b0: 8402 953d 0cad 18be b83f ea3d f401 1bbe
000002c0: 60ec 50be 40e2 49bc 007d 83bd 986b 6a3e
000002d0: 1c28 1cbe ca0e 1e3e 0c1a 1ebe 7cd0 53be
000002e0: 7040 e53d b424 fcbd c8eb 503e 44ca 8b3d
000002f0: d804 06bd 18cd 8cbd e038 ebbd c47f c1bd
00000300: 62ec 1abe 8e64 70be b862 2cbe 007c 89bd
00000310: 9091 0dbd 8030 c03d 687d 663d e8cc 2ebe
00000320: b87b ab3d 641e 843d e08d 9dbc e00b 663e
00000330: 9694 2bbe 886d 9e3d 84cf 743e 382f 04bd
00000340: 705b 653d 8cf7 00be 3ac8 7cbe 601a 13bc
00000350: 486d 01bd 90c6 cfbd f8d7 74be d4fb bc3d
00000360: 6486 86bd 686b 3b3e 5a38 0fbe 2c5f 88bd
00000370: 8087 203b 7436 773e 703e d93c 4897 63bd
00000380: 0046 853a 26a0 66be 74f6 b2bd 44f3 bb3d
00000390: 0a26 2ebe b05b 08bd 0830 34bd c4dc 033e
000003a0: 0029 cb3c e034 443c a8f2 47be 647f f03d
000003b0: 8c46 82bd 8c5e 3cbe 96b1 3bbe f47e e9bd
000003c0: 946c 1f3e 1cb5 8d3d bcba c13d c0f1 0b3c
000003d0: 003a 043a c0ed e83d c061 cabc 34f6 e93d
000003e0: 1e8d 22be e0ed cabc 9c7b 3cbe 34f5 283e
000003f0: ec09 ec3d 506f ac3d 802a 22bd 6639 38be
0.17866865 -0.22262755 0.21318087 0.22197801 0.07945773 0.19376636 -0.049772352 -0.14633116
-0.13950005 0.13809052 -0.002447933 0.2209369 0.012873977 0.015572846 -0.004525453 0.012105197
0.061886102 0.18829006 -0.21028134 0.06238234 0.043079764 0.040423572 -0.2073429 -0.077126086
0.08720514 -0.20358986 0.07438475 0.08810189 0.12803328 -0.24462894 0.13502583 0.08183712
0.19759229 0.19277689 0.19166505 -0.13709792 0.1576739 0.09324956 -0.049400777 0.080045104
-0.019414425 -0.053479612 0.22765014 -0.07653588 0.20620301 0.010017246 -0.18402618 0.0038008988
0.055677533 0.14583752 -0.10582489 -0.09450883 0.13331157 0.030386895 -0.07068142 0.06751284
-0.17046526 0.014348358 0.058727413 0.16005743 0.13880116 -0.22036216 0.076146215 -0.119784206
-0.05455312 0.019318134 0.17512253 -0.20613608 0.03794846 0.22708035 -0.18062615 -0.00039929152
0.14691442 -0.18884897 0.15272406 -0.2206473 0.14749452 0.0695197 0.14993656 0.056820184
0.24997821 -0.13250837 -0.22370699 0.037501454 0.2086074 -0.049237907 0.19605795 -0.15304005
0.022289664 0.047088087 -0.057082415 0.21651345 -0.0895316 -0.007965386 0.1941719 -0.21733221
-0.002750516 -0.104073465 0.15947637 -0.20803443 -0.015451729 -0.16623253 -0.014661878 -0.002019167
-0.11349535 -0.17762846 -0.18368277 -0.073340386 0.100447476 -0.22180343 -0.23576716 -0.15334567
0.014401764 -0.07039112 -0.19856563 -0.21187592 0.19359446 0.025352895 -0.042199194 0.240446
0.027024478 0.04611495 -0.021415472 0.08122021 0.16803557 -0.08162758 -0.10624525 -0.2405527
0.14079422 -0.0726285 -0.0026081204 0.11264205 -0.22739065 0.12113693 0.09995291 -0.14389071
0.23537862 0.030356377 -0.10409874 0.052596122 -0.1160498 -0.17395896 0.1836156 0.22016987
-0.0073499978 0.059926867 0.047977716 -0.09702152 -0.22058213 -0.15543857 0.021533668 0.12438896
0.1916138 0.17817444 0.17360187 -0.06451115 -0.100936264 -0.24245334 -0.14414537 0.109286696
-0.10876629 -0.20098782 0.08857855 0.22449309 0.24348783 0.047649026 -0.0013924241 0.13256446
0.04082814 0.15474492 0.11926404 -0.18830886 0.072758704 -0.14909762 0.11437935 -0.15137464
-0.2040267 -0.012322009 -0.06420326 0.22892606 -0.15249676 0.15435329 -0.15439624 -0.20684999
0.11193931 -0.12311688 0.20402443 0.068256885 -0.032719463 -0.06875056 -0.114854574 -0.094481975
-0.15129235 -0.23475859 -0.16834533 -0.06713104 -0.034562647 0.09384251 0.05627194 -0.17070353
0.08373207 0.06451109 -0.01923269 0.22465467 -0.167559 0.07735735 0.23907286 -0.032271594
0.055995405 -0.12594432 -0.24685755 -0.008978456 -0.03159836 -0.10145295 -0.2391051 0.0922772
-0.06568602 0.18302691 -0.1398634 -0.066587776 0.0024494827 0.24141866 0.02651903 -0.055564195
0.0010167956 -0.2252203 -0.087384135 0.091772586 -0.17006698 -0.033290565 -0.04399112 0.12877184
0.024799824 0.011975497 -0.1952616 0.11743048 -0.06361112 -0.18395442 -0.18329462 -0.114011675
0.15568763 0.069193095 0.09459445 0.008541524 0.0005044043 0.11373472 -0.024704814 0.11423913
-0.15874144 -0.02477163 -0.18406528 0.16499788 0.1152533 0.08419669 -0.039591312 -0.17990646

linear1.bias f4 [256]
00000000: 5474 30be 4caa eebd 40b0 623c 309b b23d
00000010: fc32 89bd eeb7 13be f482 e93d a09d 88bd
00000020: cc89 df3d ea98 6d3e 5888 8c3d 801b 1bbd
00000030: 407d 1a3e 548f 0f3e aa98 51be e6de 1a3e
00000040: f0e8 d8bd 8e6b 6abe 345f 8fbd 586e 05bd
00000050: bcb6 d13d 82a5 13be 04ba 09be 20cd 70be
00000060: c6d4 1c3e aad8 603e f417 2e3e 3c5c 013e
00000070: 404c e43b 9eaa 6abe 4833 6dbe eedf 2a3e
00000080: e038 b0bd 8403 2abe d02a f83d ce49 7ebe
00000090: c673 0cbe 0612 603e ceda 053e e04d fd3d
000000a0: 2cc2 30be f47d bdbd 3ebc 053e 4028 c53b
000000b0: 60a7 1b3e 4a62 04be b044 c2bc f628 77be
000000c0: b644 7b3e 4c6c 5fbe e4ea 1f3e 4837 52be
000000d0: 006b abba cc2a dcbd c4ef 563e 5e22 6dbe
000000e0: 3acc 5d3e 6cc9 20be b803 d3bd 2c18 3abe
000000f0: c2a9 1c3e f0e8 403d 1810 27bd c61b 763e
00000100: 08ca 043d 64d5 8dbd 201c 423d 9006 7bbd
00000110: 0ac8 2a3e 1673 613e a0af 9cbc 20b0 45be
00000120: 801c f9bb 2045 fbbc f046 03bd 60d2 51be
00000130: be20 4fbe b0a9 263d cc7f 56be a8c1 dd3d
00000140: 9265 1a3e ae13 383e 740f 303e 98ab 97bd
00000150: 24e3 babd 6839 dc3d 18ba 11bd a06a b5bd
00000160: 9072 d1bd 386c 70bd 4011 7f3c 7cd7 b9bd
00000170: f05b c73c 28c1 2e3d 3c5a 173e ea52 2dbe
00000180: 109b babd e8e4 103e 4804 89bd 3673 51be
00000190: b8ca bbbd c0ee 133d 22a9 65be aea6 62be
000001a0: 0a67 5bbe d0fe ad3d 08b0 453d 4483 24be
000001b0: 9ab8 1e3e 28bf 05bd 00b2 bc3c da91 7dbe
000001c0: 8eb3 3b3e 2c83 243e e400 203e f034 9d3d
000001d0: 7226 043e 3c8a 3abe 6673 3fbe 106a f13d
000001e0: d895 3f3d 4c63 093e a055 abbc 30f3 66bd
000001f0: 4042 0ebe 7e93 2cbe a2cf 2c3e 0e80 6cbe
00000200: 2067 20bc 7831 c4bd 4865 57be 4e52 37be
00000210: 30f0 753e 9655 4dbe 96a1 443e 0065 f83b
00000220: 3852 013d 9443 6c3e 7a68 203e c849 66be
00000230: 6434 fbbd 64c1 453e 58c8 4bbd 647a 6bbe
00000240: d243 09be 0006 abbb 70c7 1abe b417 d83d
00000250: 384d 09be 501a 023d 5cc6 143e 309b 13be
00000260: f047 14be 10d1 883c c09a e13c 2478 8f3d
00000270: 8ea8 123e c8ce 69bd c41e 6abe 8a53 26be
00000280: e220 513e f6cb 13be 720c 28be 00a9 713e
00000290: b019 3e3d a0e1 033c 54ed 8f3d e296 13be
000002a0: 481c ecbd 20fe aabc 385d 05be bab0 753e
000002b0: 0459 c63d 5261 3bbe d095 c0bd 78de 193d
000002c0: 96f3 30be 58d9 613e 9a06 413e 5e7a 353e
000002d0: d06e 17bd b8f0 6c3d b289 213e 48dd 4fbd
000002e0: a872 99bd 406c 863c 629b 593e ec25 7d3e
000002f0: 48fb ddbd c823 d6bd 4aba 75be b004 383e
00000300: 4858 a5bd cc97 a23d 7af8 593e aef4 65be
00000310: fe60 453e f8c9 133e 5aa7 703e 8405 2f3e
00000320: 58e4 ca3d 5008 b63d 02a9 093e 484f 6dbe
00000330: 8ccb c23d 844f 21be c4c3 f4bd f0c3 ecbc
00000340: 3c70 0d3e 5e39 25be c090 d0bc 1484 1ebe
00000350: 30d3 b5bd b691 39be fc05 833d 48bf 25bd
00000360: 10e2 d4bc cea2 113e 4ea4 273e acfb debd
00000370: 50bc c83c 0077 c6bb 5c85 cabd d871 b6bd
00000380: 72c9 5b3e 0856 353d a4f9 a9bd 0474 69be
00000390: 022d 1dbe 969c 6d3e c0d8 fa3d 043b 77be
000003a0: 4a28 6b3e 8a9e 5a3e 3a73 09be 4c71 253e
000003b0: 620a 1b3e 7a97 22be a4eb 3cbe d0fd d73c
000003c0: 60e7 4d3c 6e43 18be a89d f83d f0e9 6c3e
000003d0: 4ac8 3dbe 0083 df3c 5015 32be f867 6bbd
000003e0: 589c 10be c047 f93c 484a 67bd c018 7ebd
000003f0: 3837 c43d 9cc7 9ebd e055 4a3d cc08 05be
-0.17231876 -0.11653575 0.013835967 0.08721006 -0.066991776 -0.14425632 0.114019305 -0.066706896
0.109149545 0.23202863 0.06861943 -0.037868023 0.15086842 0.14019519 -0.20468393 0.15124092
-0.10591304 -0.22892591 -0.070005804 -0.032575935 0.10239932 -0.14418605 -0.13449866 -0.23515749
0.15315542 0.21957651 0.17001325 0.12632841 0.0069670975 -0.22916648 -0.23164093 0.16686985
-0.08604598 -0.16602904 0.12117541 -0.24832842 -0.13716039 0.21881875 0.13071749 0.12368369
-0.1726157 -0.09252539 0.1306009 0.006016761 0.15200567 -0.1292812 -0.023714393 -0.24136719
0.2453793 -0.21818656 0.15616947 -0.205289 -0.0013078153 -0.1075035 0.20989901 -0.23157641
0.21659938 -0.15701836 -0.10303444 -0.18173283 0.15299132 0.047097147 -0.040786833 0.24034032
0.032419235 -0.06925467 0.047390103 -0.061285555 0.16677871 0.22016558 -0.019126713 -0.19305468
-0.0076022744 -0.03067261 -0.032050073 -0.20490408 -0.20227334 0.04068917 -0.20947188 0.108279526
0.15077808 0.17976257 0.17193395 -0.07405776 -0.09125355 0.10753137 -0.035577863 -0.08858228
-0.10226929 -0.058696955 0.015568078 -0.090743035 0.024335831 0.042664677 0.14780515 -0.1692616
-0.09111607 0.14149821 -0.0669027 -0.20454106 -0.09169525 0.03611636 -0.224278 -0.22133896
-0.21426025 0.08495867 0.04826358 -0.16065699 0.15500107 -0.032653004 0.023034096 -0.24762669
0.18330213 0.16065663 0.1562534 0.07676113 0.1290529 -0.18216795 -0.18696365 0.11787808
0.04677376 0.13416785 -0.020914853 -0.056384265 -0.1389246 -0.16853139 0.1687608 -0.23095724
-0.009790212 -0.09579748 -0.2103473 -0.1790249 0.24017406 -0.2005218 0.19202265 0.0075803995
0.03157255 0.23072654 0.15664855 -0.22489083 -0.12265852 0.19312054 -0.04975161 -0.22995907
-0.13404778 -0.005219221 -0.15115142 0.10551396 -0.13408363 0.031763375 0.14528793 -0.14414668
-0.14480567 0.016701251 0.02753961 0.07005337 0.14322111 -0.057081968 -0.22863299 -0.16242805
0.204227 -0.14433274 -0.16410998 0.23599625 0.046411216 0.008049399 0.070276886 -0.14413026
-0.11528832 -0.02087313 -0.13023841 0.23993197 0.09684947 -0.18298844 -0.094035745 0.03756568
-0.1728042 0.22055566 0.18850175 0.1772246 -0.036970913 0.057846755 0.15775183 -0.05074814
-0.07492572 0.01640904 0.2125068 0.24721497 -0.10838944 -0.104560435 -0.23996845 0.17970538
-0.08073479 0.07939109 0.21286193 -0.22456619 0.19275281 0.14432514 0.2350134 0.17091948
0.09906834 0.08888304 0.13443378 -0.23174775 0.0951148 -0.15752989 -0.11951402 -0.028902024
0.13812345 -0.16135165 -0.025459647 -0.15480071 -0.088781714 -0.1812199 0.06397626 -0.040465623
-0.025986701 0.14222261 0.16371271 -0.10887846 0.024503857 -0.0060566664 -0.098887175 -0.08908433
0.21463564 0.0442715 -0.08299568 -0.22798163 -0.153492 0.23204264 0.12248373 -0.24143606
0.22964588 0.2134954 -0.13422862 0.161565 0.1514068 -0.15878096 -0.18449265 0.026366144
0.012567371 -0.14869472 0.121394455 0.23136115 -0.18533435 0.027284145 -0.17390943 -0.0574722
-0.1412214 0.03042972 -0.056467324 -0.062035322 0.09580845 -0.07752916 0.049398303 -0.12991637

linear2.weight f4 [3, 256]
00000000: d8a1 2bbc 80df 373c 5ccf aebc 9e7e 453d
00000010: b0f2 763c 4079 05bb 7007 53bc de69 6abd
00000020: 3059 ef3c 60f3 723d b4d1 983c 307f d3bc
00000030: 6441 f5bc 60ac f33b 182e e33c e0f0 303b
00000040: 20ce 753b 7070 acbc f23d 443d 52da 663d
00000050: 0cbd 553d 002d cf39 2e3c 113d 3ce6 b3bc
00000060: 1463 c43c 9004 cebc 2ef4 4abd ca98 563d
00000070: 181d 8a3c c00a cfbc 96ca 153d 80fe 9abc
00000080: da94 42bd 5e0d 25bd 66e6 2abd fefd 3fbd
00000090: e2c3 5b3d 8034 76bd e8ba 5c3c 8a15 063d
000000a0: 0ab1 35bd 886f 703c 0096 8b3c aa0d 0b3d
000000b0: bc25 95bc d05b 9abc fe39 5abd c03a 55bc
000000c0: ac49 a0bc 9024 f1bb 5416 0abd d08f 873c
000000d0: 9009 81bc 1ee3 3a3d c0bd 8c3a d090 663d
000000e0: 4ca5 28bd 18f1 f53c 2852 31bd ccaf 4a3d
000000f0: 2ad7 6b3d 44d5 b6bc 2023 bbbc 88c8 a73c
00000100: 5418 fdbc 9066 793c 145d bdbc 5cba 69bd
00000110: b0f2 633c c825 dfbc 1840 94bc 68e3 503c
00000120: e8b5 3abc eee0 18bd 1202 16bd 8045 34ba
00000130: ec95 17bd f442 3a3d d082 50bd 58c9 75bc
00000140: 0093 faba 34a5 a1bc fcae 163d 4c6a 913c
00000150: 24f5 f33c f87f 14bc 2860 253d a09b 74bd
00000160: 1c51 e53c ca05 2b3d 4010 183d 4aef 383d
00000170: e086 08bc e867 00bc 4c0d 413d c05f b03a
00000180: 441c b0bc ae87 333d b464 463d 34f7 22bd
00000190: ec3c 793d 4eaf 2dbd 5c1f ffbc 04b0 043d
000001a0: c0fe 803c 40b6 16bd 6022 7f3d 10d8 aebc
000001b0: 42c9 0c3d c0a9 d33b 2ca3 edbc cce2 a83c
000001c0: 001b 79bd cedc 423d bac5 1c3d 4090 a53b
000001d0: 7812 703c 001c d1bc 4afa 353d 1ec0 01bd
000001e0: 10ee 093c 2cd6 ef3c ac81 a5bc 88c8 443c
000001f0: 5ada 5abd d2fa 043d 8c57 553d dc06 0c3d
00000200: d017 34bd 927c 01bd 28c0 37bd c4e9 de3c
00000210: dc49 233d 7af5 76bd 3663 033d ec09 dd3c
00000220: b843 933c 106b e63b 80d7 1d3c e82d 483c
00000230: 801d c53c 2480 633d f0fd 1ebc b40e 393d
00000240: 5c63 da3c 58e5 e6bc 1a3a 623d b8af 9c3c
00000250: 6861 4abc 9037 fd3c d057 903c 3c2b 233d
00000260: 54ac eb3c 204b 72bd 02e7 1abd 14e9 cc3c
00000270: ce14 1b3d 4414 553d 60f4 de3b ac39 123d
00000280: d0ba c4bb 9c35 2bbd a0bd ef3c 7eb9 7bbd
00000290: 80e5 a3bb d2b7 253d d657 75bd d49e 3bbd
000002a0: 7896 663c 0cf9 9b3c e492 91bc ae6e 623d
000002b0: 0e1d 65bd f461 edbc 683b 7abc c895 173d
000002c0: 784f 15bc 7618 4bbd 28f6 f83c 46e4 503d
000002d0: becc 4fbd 0cb0 6bbd 0c16 1abd 8434 883c
000002e0: e0f9 55bc 38b8 253d c6b3 62bd c81a 29bc
000002f0: 8048 b2ba e036 d43c 442b e2bc cc82 2bbd
00000300: 603d a8bb 88fe 4cbc f4e0 f03c 1a18 33bd
00000310: 3435 5bbd 1480 36bd f087 f0bc 96c0 6abd
00000320: f81b 063c 72db 173d 7404 b03c d267 1abd
00000330: ac73 8dbc 921a 6e3d 541a ae3c a084 babb
00000340: f4c4 213d 40fe fa3c c0e5 7cbd 3c60 bf3c
00000350: 888d 7b3d 6a47 00bd 50cf 46bd 3e12 0b3d
00000360: dc37 48bd d008 f23b 9ab0 613d 0e60 5fbd
00000370: 92fb 02bd f042 aabb 8824 0c3d c0b7 92ba
00000380: 48ec 1fbc a2e7 4c3d c0fc 67bc b458 adbc
00000390: bec1 083d a4f5 ff3c a82c 8dbc 403b 84bb
000003a0: b0c7 e23c 9660 4c3d 06fd 6bbd f80c ebbc
000003b0: b0cc 933b 4078 86bc 7cb9 7e3d 40d8 553b
000003c0: 2ce5 b7bc 80d3 17bb d8cf 4e3d c6b7 5ebd
000003d0: 4a53 1f3d 7c9e 753d 02a6 38bd 301f dcbc
000003e0: c045 2ebd d0fb 89bb 7c4a 603d 24b0 c23c
000003f0: 1821 7e3d 4a0e 48bd 1c40 c53c 0899 72bd
-0.010475598 0.01122272 -0.021339111 0.048216455 0.01507251 -0.002036646 -0.012880191 -0.05722987
0.029217333 0.05931413 0.018654682 -0.025817484 -0.029938407 0.00743632 0.02773194 0.0026999041
0.0037506893 -0.021049708 0.04791064 0.05636055 0.052182242 0.00039515644 0.035457782 -0.02196037
0.023973025 -0.02514866 -0.049549274 0.052391805 0.016859576 -0.02527368 0.036570154 -0.018920183
-0.047505237 -0.04029595 -0.04172363 -0.046873085 0.053653605 -0.06010866 0.013472296 0.032735385
-0.04435829 0.014675029 0.017039299 0.033948578 -0.01820647 -0.018842608 -0.053277962 -0.013014495
-0.01956638 -0.007359095 -0.0337127 0.016548067 -0.01575163 0.045626752 0.0010737702 0.056290448
-0.041173264 0.030022189 -0.04329124 0.04948406 0.057578243 -0.02231849 -0.022843897 0.020481363
-0.03089539 0.015222207 -0.023115672 -0.05706249 0.013912842 -0.027239695 -0.018096969 0.01274953
-0.011395909 -0.037323885 -0.03662307 -0.00068768114 -0.03700821 0.045474008 -0.050906003 -0.015001617
-0.0019117296 -0.019732095 0.03678797 0.017750882 0.029779978 -0.009063713 0.040374905 -0.059718728
0.027992778 0.041753568 0.037124872 0.04515008 -0.008332938 -0.007837273 0.04713182 0.001345627
-0.021497853 0.043830566 0.04843588 -0.039786533 0.060849115 -0.04240351 -0.031142883 0.032394424
0.015746474 -0.0367949 0.062288642 -0.021343261 0.034371622 0.0064594448 -0.02900847 0.020615958
-0.060816765 0.047573857 0.038274504 0.0050525963 0.014652841 -0.025526047 0.044428147 -0.031677358
0.008418575 0.02927693 -0.020203434 0.012010701 -0.053430893 0.032465763 0.052085444 0.03418623
-0.043968022 -0.03161294 -0.04486099 0.027211078 0.03986536 -0.0602927 0.032077037 0.02698227
0.017976627 0.007031806 0.009633899 0.012217976 0.024061918 0.055542126 -0.009704098 0.045180038
0.026658706 -0.028185531 0.05523119 0.019126758 -0.012352325 0.030910283 0.017619997 0.039836153
0.028768696 -0.059153676 -0.037817962 0.025013484 0.037861638 0.05202128 0.006804034 0.03569953
-0.006003715 -0.041799173 0.029265225 -0.061456196 -0.0050017238 0.040458508 -0.05989822 -0.045805767
0.0140739605 0.019039653 -0.017770238 0.055281334 -0.05593591 -0.028977372 -0.015272953 0.037008077
-0.009113185 -0.049583875 0.030390814 0.05099895 -0.050732367 -0.05754094 -0.03761868 0.016626604
-0.013060063 0.040458888 -0.055347227 -0.010321327 -0.0013601929 0.025905073 -0.027608521 -0.041872784
-0.0051342696 -0.012511857 0.029404141 -0.043724157 -0.053517535 -0.04455574 -0.029361695 -0.05731257
0.008185379 0.037074514 0.021486498 -0.037696667 -0.01726707 0.05813081 0.021252789 -0.0056920797
0.03949447 0.030638814 -0.061742544 0.023361318 0.06141427 -0.031318106 -0.048537552 0.033952944
-0.048881397 0.0073863044 0.05510006 -0.054534964 -0.031978197 -0.005195968 0.034214526 -0.0011193678
-0.009760924 0.05002559 -0.014159381 -0.021160461 0.033387892 0.03124506 -0.017233208 -0.0040353835
0.027683109 0.0498968 -0.05761435 -0.028692707 0.0045104846 -0.016414762 0.06218861 0.0032630116
-0.022448145 -0.0023166835 0.050491184 -0.05437448 0.03889779 0.059965596 -0.045080192 -0.02687034
-0.042546988 -0.0042109266 0.054758534 0.023765631 0.06204328 -0.048841752 0.024078421 -0.059227973

linear2.bias f4 [3]
00000000: c697 69bd 303d e53c 3c79 913c
-0.057029508 0.027983278 0.017758004
