checkpoints_dqn/model_final_model_gyp8qtcf.pth (torch, 23259 bytes, 4 tensors)

linear1.weight f4 [256, 16]
000000 12 53 68 3f 76 64 4f 3e 8f 7c ad 3d 80 f8 0b 3f
       0.90751755 0.20253167 0.08471023 0.54676056
000010 e6 6b 11 be 2c 28 be be 42 c8 97 be 6e 46 4e 3e
       -0.14201316 -0.37140024 -0.29644972 0.20144054
000020 12 3c b1 3e bb 7d 10 be 50 7e 70 3e 11 1c 0e 3d
       0.34616143 -0.14110462 0.23485684 0.034694735
000030 c8 dc 5e 3e a6 65 4d 3e 89 81 c7 3e be 92 40 3e
       0.21763909 0.20058307 0.38966015 0.18805978
000040 3e 92 8f 3f 5f 7d 11 3f 1a 89 ad bd 16 62 31 3f
       1.1216505 0.56831926 -0.08473416 0.6929029
000050 6b 54 a4 be 7c b8 ac be d9 92 d5 be 7e 51 c2 3d
       -0.32095656 -0.337345 -0.41713598 0.094882
000060 23 26 1c be a8 9c f9 bd 10 f0 55 3d a8 34 09 3e
       -0.15248923 -0.12188083 0.052230895 0.13398993
000070 3f 90 86 3e a7 c8 ee 3d 9e 04 27 3f a3 79 38 bd
       0.26281926 0.11659365 0.6524142 -0.045037877
000080 9f a5 6e 3f 28 c8 7b 3f ed 5a 88 bd 4b a1 9e 3e
       0.9322147 0.9835229 -0.06657968 0.30982432
000090 4b 1d d2 3f 10 bc 10 3f fa d7 56 bf 63 f7 f9 be
       1.641519 0.5653696 -0.83923304 -0.48821554
0000a0 2e a6 25 3d 48 74 db bb f6 b5 b5 bd 79 23 b3 bd
       0.040441684 -0.0066972114 -0.08872597 -0.08747
0000b0 54 58 e1 bb 78 75 54 bd 6f 0d 8a bb 1a fe 1e bf
       -0.0068769846 -0.05186984 -0.004213027 -0.6210648
0000c0 ce 15 0f 3f 4b f1 cf 3e 27 14 62 bf 62 27 98 3d
       0.55892646 0.4061378 -0.88312 0.07429387
0000d0 53 48 c9 3f b8 21 35 3e 0d 80 b2 3d 5b ca 56 3e
       1.5725197 0.17688644 0.0871583 0.2097563
0000e0 52 85 01 3d 71 06 88 bd 7b 92 cc 3d 17 1d 8b be
       0.031621285 -0.066418536 0.099888764 -0.2717063
0000f0 81 8c 47 be ef 2c 06 bf f2 8e c5 bd 4a a4 3f be
       -0.19487192 -0.52412313 -0.09646405 -0.18715015
000100 b9 c2 1d 3f 08 19 08 be 97 e5 97 bd b3 e9 5b bd
       0.6162525 -0.13290799 -0.07416838 -0.05368967
000110 fd aa a8 bd a3 78 94 3f f0 ca 97 3f 23 79 6a 3f
       -0.082357384 1.1599315 1.1858807 0.9159109
000120 93 e3 53 3f f4 2a 5e 3e 37 9f 76 3e ea 49 44 3e
       0.82769126 0.21696073 0.24084173 0.19168821
000130 2a 04 ad 3e 83 48 12 3f 63 35 3e 3f 19 3f 90 3f
       0.3379224 0.57141894 0.7430021 1.1269256
000140 03 44 4e bf ab a7 2c bf 79 b8 9a be da a8 14 bd
       -0.8057253 -0.6744334 -0.30218866 -0.036293842
000150 a9 94 97 3f 8c 2e 42 be 1b d6 9e 3d 25 a4 ac bd
       1.1842242 -0.18963069 0.07755681 -0.084297456
000160 af 8f cd 3b 22 ab 2b 3e 84 d6 11 3e 2c 7b b2 3c
       0.006273232 0.167645 0.14241987 0.021787249
000170 cd 92 04 bd 53 72 15 3e 42 74 dc bc c3 33 f8 bd
       -0.032366563 0.14594392 -0.026910905 -0.12119248
000180 ca 59 34 3f 6f a7 a5 3e 75 68 51 be 0c c9 82 bd
       0.7044951 0.32354304 -0.20450003 -0.06386003
000190 0d 5f 5e bf dc b4 60 be 30 4e 82 bc 99 33 01 be
       -0.86863786 -0.21943992 -0.015906423 -0.12617339
0001a0 e8 6f 26 3e 98 24 3f 3e eb 6f ca 3d 1f 6e 91 3c
       0.16253626 0.18666303 0.09884628 0.017752705
0001b0 c4 fb 32 bd 79 eb d2 3c 24 33 0c 3f ec 69 c6 3e
       -0.043697134 0.025747048 0.54765534 0.38752687
0001c0 1c c7 9d 3d 66 c4 6e be 54 22 28 be 14 6c aa bd
       0.07703993 -0.23317108 -0.16419345 -0.083213955
0001d0 c0 1f 20 3d 86 42 61 be 64 9b dc bd 58 42 19 be
       0.03909278 -0.21998033 -0.10771826 -0.14966714
0001e0 00 9e 35 3a 50 84 be bd f0 ea 8d bc 24 79 2d be
       0.0006928146 -0.0930258 -0.017323941 -0.16940743
0001f0 98 b7 2f be d2 59 15 be 9c 41 af bd 50 0e 4a be
       -0.17159879 -0.14585045 -0.08557436 -0.19732022
000200 91 c2 52 3f e4 af f7 3e 33 e1 0a 3e 87 e3 a9 3e
       0.82328135 0.4837638 0.13562469 0.33181402
000210 3b 56 f5 3f 3a d8 29 3f c6 74 84 3e 8c ad 81 3e
       1.916694 0.6634556 0.2587034 0.25327718
000220 fc 0b 2f 3e 46 c1 28 3e c9 76 d2 3e f3 28 8d 3e
       0.17094415 0.16479978 0.4110625 0.27570304
000230 ca 47 04 3f a9 cc 45 3e a0 3f 33 3f 2a 87 18 3e
       0.5167204 0.19316353 0.7001896 0.14895311
000240 d9 61 5d 3f f2 34 82 bf 44 dc 31 3e 6f 58 e4 3e
       0.8647743 -1.0172408 0.17369181 0.4459872
000250 56 ea 22 3f 25 8d 1c bf 38 da 3d 3d a7 6f 90 3c
       0.6363882 -0.6115287 0.046350688 0.017631365
000260 d0 a2 a4 3e 69 71 9e 3d ce 05 83 3e 7e 5b dd bd
       0.32155466 0.07736475 0.25590366 -0.108084664
000270 30 a6 b2 3d 74 67 48 3e 85 d9 2d 3e d9 34 06 bd
       0.08723104 0.19570714 0.16977508 -0.032765243
000280 93 1b 27 3f e6 d8 37 bf 3c f7 54 3d 71 d4 17 3f
       0.6527645 -0.71815336 0.051993594 0.59308535
000290 6f e5 91 3e af a4 a7 be 09 19 66 be 1e 02 e2 3e
       0.28495356 -0.3274283 -0.22470488 0.4414224
0002a0 0e fa c6 3e 83 d2 d3 bc 45 b1 74 bd 14 ff 05 3e
       0.38862652 -0.025857216 -0.05973937 0.13085586
0002b0 d1 63 07 3f a8 f6 68 3d 18 57 29 be 06 c3 18 be
       0.5288668 0.056875855 -0.1653713 -0.14918146
0002c0 b5 df f9 bf 52 87 1f 3e 08 15 e9 3d f9 d8 ee be
       -1.9521395 0.15578964 0.113809645 -0.46649912
0002d0 13 15 00 3f 72 e4 4e bd 37 97 bc 3e aa 66 19 3e
       0.50032157 -0.05051083 0.36834118 0.1498057
0002e0 b9 ce 21 3e 99 b5 d0 3d 73 e0 4a bd 13 4c 59 bc
       0.15801515 0.10190887 -0.049530458 -0.013262766
0002f0 98 01 01 3d e5 e7 97 3c d1 e1 0a bc d3 d8 fa 3d
       0.03149566 0.018543193 -0.00847669 0.12248387
000300 93 9e 9f 3d 5f ee f3 3d e1 e6 d5 3e c6 77 2c 3c
       0.077939175 0.119107 0.4177771 0.010526603
000310 f8 e3 09 3f 38 aa c7 be d6 17 97 be 19 99 12 3c
       0.5386348 -0.38997054 -0.29510373 0.008947634
000320 88 be 64 be 99 b2 03 3d 20 2a bb 3d 1a ee 9b 3d
       -0.22338307 0.032152746 0.09138894 0.07613774
000330 15 b3 2c 3e 4c af 24 3d c8 9b 3c 3d 62 02 b6 bb
       0.1686519 0.04020624 0.046047002 -0.0055544833
000340 b2 d9 33 3f ba b2 ab be e4 5d a3 3e 94 fe 81 3e
       0.7025405 -0.33534795 0.3190757 0.2538954
000350 47 de f1 3d 38 04 1a bf cd cd e2 bd 41 81 90 3e
       0.11809974 -0.6016269 -0.1107441 0.28223613
000360 0d de 4f 3e 05 01 40 3d fa 86 0e 3e 81 4f 44 bd
       0.2029955 0.046875972 0.13918677 -0.047927383
000370 a3 a8 e0 3c d2 55 0c 3f f8 66 53 3e 19 4c df 3c
       0.027424162 0.5481845 0.20644748 0.027257966
000380 2c c4 12 bf fe 95 e6 3e 81 2b 02 3f 3e 9c fb be
       -0.57330585 0.4503631 0.5084763 -0.4914264
000390 eb 4a 90 3e 31 a1 f0 be 14 07 9b be b0 3a 91 3e
       0.28182158 -0.4699798 -0.30278838 0.28365088
0003a0 91 7f e4 3e 72 5c 78 3e 1f f0 25 be 90 c5 ff 3d
       0.44628575 0.24254015 -0.1620488 0.12488854
0003b0 b5 ff c8 3d 5d 56 34 bd aa e6 03 bf 8e a0 48 bf
       0.09814397 -0.044027675 -0.5152384 -0.78369987
0003c0 9b b4 7b 3f 7b f0 cf be fe dd a2 3e a8 57 01 bf
       0.9832246 -0.4061316 0.31809992 -0.5052438
0003d0 d1 4d a2 3f 60 b5 f9 bd 26 b9 a1 be bf 05 84 3b
       1.2679998 -0.12192798 -0.3158657 0.0040290053
0003e0 cd 27 46 be ea f1 19 3e 47 00 1c 3c 59 c0 53 bd
       -0.1935112 0.15033689 0.0095215505 -0.05169711
0003f0 b9 6b 9d 3e f6 19 59 3e 80 5d 20 3e 63 92 87 be
       0.30746248 0.2120131 0.15660667 -0.26478872

linear1.bias f4 [256]
000000 56 56 19 bf ad c3 da bd aa ff 12 3f bc 9e 2c 3e
       -0.59897363 -0.106818534 0.5742136 0.16857427
000010 af 5b 9c 3f 21 13 cf 3c 03 42 fb be 24 ed ea 3d
       1.221548 0.025277676 -0.490738 0.11471012
000020 f9 52 eb 3e 09 d7 1e bf e8 2a fb be 27 d5 d3 be
       0.4596174 -0.6204687 -0.49056172 -0.4137356
000030 ce 0a a8 be 00 ab 0a bf 27 47 ad be 25 81 95 3e
       -0.32820743 -0.54167175 -0.33843347 0.29200092
000040 7b 5f fb be ec 7c c5 be 88 44 34 bd e4 7d 08 3f
       -0.49096283 -0.3857187 -0.04401067 0.53317094
000050 77 32 c2 bd e8 cf 3d 3e be 47 93 be 77 10 eb be
       -0.09482282 0.18536341 -0.28765672 -0.45911
000060 31 7d da bd e6 ea c7 bc 15 7b d4 be 31 81 2d 3f
       -0.106684096 -0.024404 -0.41500154 0.67775255
000070 75 b2 88 be 22 3c 87 3f 64 dc fe be 39 7f 90 3f
       -0.26698652 1.0565226 -0.4977752 1.1288825
000080 9a c2 8a 3f 49 77 a5 3e 34 20 0e bf 69 92 f8 be
       1.0840638 0.3231757 -0.5551789 -0.48549202
000090 c2 3c a4 3f b7 fe 1b be 26 95 ee be 45 4c 12 3f
       1.2831042 -0.15233885 -0.46598166 0.5714763
0000a0 f5 2a a1 3f 2d 7d 37 3f 17 ae 32 3c 52 96 8d be
       1.2591234 0.7167538 0.010905764 -0.27653748
0000b0 87 6e 5a be 36 ae 3e bf c1 c7 c3 3e d3 06 46 bc
       -0.21331225 -0.74484575 0.38238338 -0.012086588
0000c0 fb 8a 5d be fe cd a1 3f 64 88 aa be c1 b3 c4 be
       -0.21635048 1.2640989 -0.33307183 -0.3841839
0000d0 56 72 27 be 24 95 e6 be 8a af b1 3f 82 9a 87 3f
       -0.1635221 -0.4503566 1.3881695 1.0594027
0000e0 e0 0b 87 3f e7 5a 15 bf 28 2f d1 3e fa 79 b6 be
       1.0550499 -0.5834183 0.4085629 -0.35639936
0000f0 f8 d1 1d bf 18 2c 82 3f dc 2b 9f 3e 4a e2 fd 3d
       -0.6164851 1.0169706 0.3108815 0.12396677
000100 46 e4 8a 3e c9 aa 88 be 68 69 88 3f 5e c0 07 bf
       0.27127284 -0.266928 1.0657167 -0.53027904
000110 1c 12 26 3f a4 b3 ea 3d c7 1a 67 be 2f 2e 0e bf
       0.6487138 0.11460045 -0.22568808 -0.5553922
000120 cb 2c f6 3e bb b6 ac be ec e4 36 be 63 88 1a bf
       0.4808105 -0.33733162 -0.17860764 -0.6036436
000130 16 2f 21 bf fc 5f 88 be 0b a1 29 bf 38 c7 9c 3f
       -0.6296247 -0.2663573 -0.6626136 1.2248297
000140 fb 26 f7 be a5 ef c8 3f c1 ca 6d 3f 7d 99 be 3b
       -0.48271927 1.5698134 0.928875 0.005816637
000150 51 55 6d be 9d 89 8c bd a5 a9 b8 3f 1a e4 54 be
       -0.23177077 -0.06862185 1.4426771 -0.20790139
000160 47 5f 29 be 0c e2 b4 3f dc 5a 04 3e d5 3c ea be
       -0.16540252 1.4131484 0.12925285 -0.45749536
000170 68 f6 c3 3f ec 8c 04 bf f4 13 c3 3f b4 91 e1 3d
       1.5309572 -0.5177753 1.5240464 0.11014119
000180 25 35 cb 3e 81 37 0c be 69 38 ff be bd 97 2d 3c
       0.39688984 -0.13693048 -0.49847725 0.010595259
000190 16 ac b3 be eb d6 db be f3 eb 10 bf d9 76 1d bf
       -0.3509223 -0.42937407 -0.5661003 -0.6150947
0001a0 40 4e 33 3f 08 24 b9 bd ba 4f 84 3f 50 23 1e bf
       0.70041275 -0.090400755 1.0336831 -0.6177263
0001b0 eb 92 1a bf 94 62 ac 3f 80 bd d6 be 32 23 06 3f
       -0.6038043 1.3467584 -0.41941452 0.52397454
0001c0 25 88 5f be 2c 3a d8 bd 49 af 0a 3f 9b 02 81 3f
       -0.21829279 -0.105579704 0.54173714 1.007892
0001d0 5e 52 91 3f 23 21 bd 3f 58 fe 6e 3f 75 6a 24 3f
       1.1353261 1.4775738 0.9335685 0.6422494
0001e0 82 24 b5 3d 50 cc 1f bf 66 4f 17 3d ee f0 98 3e
       0.08844854 -0.6242113 0.036940955 0.29871315
0001f0 be 2b 14 bf 4a 2e 44 be 43 a8 0d bf 8a 62 0d bd
       -0.57879245 -0.19158283 -0.5533487 -0.034517802
000200 68 6a 29 bf 8d 43 20 bf 79 fd d8 3c df 09 6e 3e
       -0.6617799 -0.62603074 0.026488053 0.23245953
000210 7d 6c 13 be 42 62 07 bf d9 f8 15 bc 63 49 8d be
       -0.14396854 -0.52884305 -0.009153568 -0.27595052
000220 3f ec 90 3e 2e 5d 98 3f 40 14 de be d9 2b 3a be
       0.2830524 1.1903436 -0.43374825 -0.18180789
000230 d9 ea f4 be 3b 05 a3 3f c7 12 43 3d 3a 2d ef be
       -0.47835425 1.2735971 0.04762533 -0.46714193
000240 2f 7a 0f bd 67 7d a4 3e a7 d1 e3 be 25 13 9d 3f
       -0.035028633 0.32126924 -0.4449589 1.2271467
000250 ae a8 40 be d9 89 c4 be ae 12 3f 3d 28 64 01 bf
       -0.18814346 -0.3838642 0.046648674 -0.5054345
000260 7a af 0a 3f a2 65 d0 be 01 9c 22 3d 05 00 fb bd
       0.54174006 -0.4070254 0.03969956 -0.12255863
000270 09 fb 91 3e 30 5a 90 be 13 09 5a be bb df 22 bf
       0.28511837 -0.28193808 -0.21292524 -0.63622636
000280 bf 00 a8 bd 7e 6c b5 3f b8 79 ca be ca 8c 10 bd
       -0.08203267 1.4173734 -0.3954599 -0.035290517
000290 c8 9b 53 be 55 3a 22 bd ce 5f f0 be 6f 71 b5 3f
       -0.20664895 -0.03960641 -0.46948093 1.4175242
0002a0 a6 73 1b bf 0b 9a 84 bd d8 ce 14 bf 74 06 29 3f
       -0.6072334 -0.06474694 -0.5812812 0.6602547
0002b0 68 1d eb be ff 0f 81 be 32 38 31 be 53 cb 8b be
       -0.45920873 -0.25207517 -0.17306593 -0.27303562
0002c0 da 25 22 bf d8 e6 74 3f 9c 93 80 3f c5 e7 85 3f
       -0.63339007 0.9566474 1.0045047 1.0461355
0002d0 6e 84 39 3e 85 c0 0f bf af d1 b3 3f cc e1 0f be
       0.18116924 -0.56153136 1.4048365 -0.14050978
0002e0 ea bc a6 3f 36 a4 60 be 57 3f 43 be de 65 ad be
       1.3026402 -0.21937642 -0.19067131 -0.3386678
0002f0 b9 43 ab 3f 6e bc 8a 3f 1d f9 c6 be ad ca 50 be
       1.3380042 1.0838754 -0.38861933 -0.20389815
000300 a5 0b b2 be b4 df b6 bb 25 56 0d be c1 f6 0b 3d
       -0.3477451 -0.0055808667 -0.13802393 0.03417087
000310 04 9f 95 be eb 59 9c be a1 3f 9e be 08 1c 0b bf
       -0.29222882 -0.30537352 -0.3090792 -0.5433965
000320 90 3f 73 bd e1 f2 ab 3c 2d 36 23 bf eb 05 1f bf
       -0.05938679 0.020989837 -0.6375454 -0.62118405
000330 be a2 a3 3f c5 0d 34 be 5a ff dd bc cd 12 60 bd
       1.278404 -0.17583378 -0.0270993 -0.05470543
000340 82 65 0a bf 4c 58 af 3f fe 24 11 bf 83 73 0f bf
       -0.5406114 1.3698821 -0.5669707 -0.5603563
000350 8a 3e a6 3f 79 f6 19 bf b1 a2 e9 bb 23 48 3a be
       1.2987835 -0.6014171 -0.00712999 -0.1819158
000360 70 eb 95 3f 72 90 02 bd 70 30 0d bf 97 da e2 bd
       1.1712475 -0.031876035 -0.55152035 -0.11076849
000370 c2 5c 86 3f 0c 01 28 bd 9e 1f 0d 3e 4f 0e 0b bf
       1.0497057 -0.041016623 0.13781592 -0.5431871
000380 63 a1 35 be e2 e5 fd 3f 63 e2 1c 3f 1d 6b 7a bd
       -0.17737345 1.983578 0.6128294 -0.061137307
000390 52 3f 9e 3f 9b eb 3a 3f 0d 06 97 3f 2e ae de be
       1.2363074 0.73015755 1.1798722 -0.43492264
0003a0 a4 c1 a3 3f 05 1d 9b 3b ec 60 84 be fd 8f 81 3f
       1.279347 0.004733684 -0.25855196 1.0122067
0003b0 70 92 a4 be db fd ca 3f d0 b8 16 bf 2a 9f 88 3f
       -0.32142973 1.585872 -0.5887575 1.0673573
0003c0 bb 1d 95 be ef d3 b4 be b4 21 b7 be 49 f8 ac 3f
       -0.29124245 -0.35317943 -0.357679 1.3513271
0003d0 2c 3c b3 3f d6 a6 b7 3d 75 b4 81 3d 5b 9c d4 3d
       1.4002738 0.08967368 0.063332476 0.10381385
0003e0 08 12 9c bd 80 c1 b4 bd 53 80 c2 3f 9b 4c 3f 3f
       -0.07620627 -0.0882597 1.5195411 0.74726266
0003f0 b2 ee 8e 3d 3e 8e c9 b9 9a 6b 1e bf 1e 93 84 be
       0.06979121 -0.00038443686 -0.61882937 -0.25893492

linear2.weight f4 [3, 256]
000000 81 22 b9 bf fb 1e 1d c0 94 9b 0a 40 f2 84 d6 3e
       -1.4463655 -2.455016 2.1657457 0.41898304
000010 cf 21 19 3f dd 76 00 c0 9f 8c fb bf a4 11 26 bd
       0.5981721 -2.0072548 -1.9652289 -0.040544167
000020 d7 d6 fc 3e 27 f5 b6 bf 85 ca b0 bf 56 cd ba c0
       0.4938266 -1.4293565 -1.3811804 -5.8375654
000030 6e 1e 4b bf 5d 41 99 bf 8e a4 37 bf fb 84 98 3e
       -0.79343307 -1.1973072 -0.71735466 0.29788956
000040 e9 29 44 c0 86 60 5a bf e6 82 16 bd 3d 8b 21 40
       -3.065058 -0.85303533 -0.03674593 2.5241234
000050 21 5b 83 be 47 21 55 3f 6c 62 78 bf 4b 32 c1 bf
       -0.25655463 0.832539 -0.9702518 -1.5093473
000060 77 0d 02 c0 6f f5 98 bf 8f d1 de bf a3 15 d4 3e
       -2.0320718 -1.19499 -1.7407702 0.41422758
000070 e2 dd 2f bf 64 4a 3a 3f fd e3 61 c0 e5 4a 3d 3f
       -0.6869794 0.7276976 -3.5295403 0.73942405
000080 da 78 47 3f 2c de 10 40 36 d2 8a bf 34 cf 69 c0
       0.7791878 2.2635603 -1.0845401 -3.6532717
000090 f3 e8 1b 3f 75 8a 11 c0 41 02 50 bf 08 22 d2 3e
       0.6090233 -2.2740757 -0.8125344 0.4104159
0000a0 42 2f 0f 3f 65 b1 16 3f 19 80 49 3f c0 68 87 c0
       0.55931485 0.5886443 0.78711087 -4.231537
0000b0 d6 6c fe 3e 6a be 1e c0 66 ce 78 3e fc 6e 05 bf
       0.4969241 -2.480372 0.24297485 -0.52122474
0000c0 63 c6 54 c0 c5 d0 1c 3f e8 26 9d bf dc 7a 2f c0
       -3.3246086 0.6125606 -1.2277498 -2.7418737
0000d0 5a bb 27 bd a2 4f da bf e6 51 30 3f b7 f2 53 3f
       -0.040950157 -1.7055552 0.6887497 0.8279223
0000e0 c1 72 3b 3f 95 db 68 bf 60 0c 14 3f 9d 58 a6 bf
       0.73221976 -0.90960056 0.5783138 -1.2995793
0000f0 95 8d 46 c0 2d 91 47 3f c4 61 c1 bd b8 79 d2 be
       -3.1023915 0.77955896 -0.094424754 -0.4110849
000100 38 e5 ba 3f aa dd a2 c0 13 08 b7 bf 63 77 70 bf
       1.4601202 -5.0895586 -1.4299339 -0.9393217
000110 95 3e ff 3e 0b 7e 68 bf f9 ba 63 c0 3c 1b 76 3e
       0.49852434 -0.90817326 -3.558287 0.24033827
000120 da d8 f0 3f 92 cf 92 c0 c0 45 c3 bf d9 27 07 c0
       1.8816178 -4.587838 -1.5255661 -2.111807
000130 e0 73 e2 bf 81 18 73 c0 c1 b4 0c c0 e2 61 26 3f
       -1.7691612 -3.7983706 -2.1985323 0.6499311
000140 75 7c 2f c0 b1 e9 32 be 95 22 1e 3f d6 56 a3 c0
       -2.7419713 -0.17471959 0.6177152 -5.10435
000150 a2 39 9f bf 50 00 1e c0 e6 1d 3e 3f 57 4a 5e 3d
       -1.2439463 -2.468769 0.7426437 0.054270115
000160 55 b3 03 c0 04 74 1f 3f 79 46 67 bf 4d 54 30 bf
       -2.0578206 0.622864 -0.9034191 -0.6887863
000170 82 3d fa 3e dc 7e c8 be 0a c8 21 3f 24 9e 5a 3f
       0.48875052 -0.39159286 0.6319586 0.85397553
000180 9a 09 a0 3f 5b d1 c4 bf 75 f9 47 c0 30 40 86 c0
       1.250293 -1.537639 -3.1246006 -4.1953354
000190 35 7a ac bf 73 90 0b bf 98 7b 05 c0 61 a4 d0 bf
       -1.3474795 -0.54517287 -2.0856686 -1.6300164
0001a0 34 b4 1d 3f 40 20 95 bf 27 c6 2c 3f f3 4e 3c bf
       0.61603093 -1.1650467 0.67489856 -0.73557967
0001b0 2b 54 22 c0 3e ec 1a 3f 64 52 56 bf 88 2e be 3e
       -2.5363872 0.60516727 -0.8371947 0.37144876
0001c0 ad 3a 07 bd 8a 0a b1 bf bc 7a 0b 3f b5 a4 12 3f
       -0.033014942 -1.3831341 0.5448415 0.57282573
0001d0 8b a5 29 3f ce 5f 00 3f 69 91 00 3f 5c 8c fa 3e
       0.66268224 0.50146186 0.5022188 0.4893521
0001e0 ec d5 a5 c0 9a 96 50 c0 28 86 94 bf 8c ff 1b 40
       -5.1823635 -3.259192 -1.1603441 2.4374723
0001f0 a0 a8 c1 bf e2 47 77 bd 2b 9a 2d c0 41 b0 92 c0
       -1.5129585 -0.060371287 -2.7125347 -4.5840154
000200 55 0a 09 c0 32 56 15 c0 bc 38 a8 c0 a6 a8 93 3f
       -2.1412556 -2.333386 -5.2569256 1.1535842
000210 01 1f 8e c0 6b 4a 36 c1 91 7e 8c bf 21 60 be bf
       -4.4412847 -11.393168 -1.0976125 -1.4873086
000220 b8 8d 7a 3f 6e f5 25 3f 50 95 d5 bf 1c bb b1 bf
       0.97872496 0.6482762 -1.6686192 -1.3885226
000230 2d 9c fe bf f7 57 1e 3f 0e c7 1b c0 48 61 9b bf
       -1.9891411 0.61852974 -2.4340243 -1.2139063
000240 9a 46 07 bf e3 c2 09 3f d6 89 83 bf ba a4 4d 3f
       -0.52842104 0.53813 -1.0276439 0.8032948
000250 23 4b 0d c1 2c 85 08 bf 09 ee 70 c0 81 4e a0 bf
       -8.830844 -0.53328204 -3.7645285 -1.2523957
000260 93 14 18 3f 63 39 e8 bf 5e 57 7a 3f d9 04 f9 be
       0.59406394 -1.8142513 0.9778956 -0.4863651
000270 47 a0 e8 3e 7c 29 5a c0 45 cc 6f 3e e5 03 2b c0
       0.45434782 -3.408782 0.23417766 -2.6721127
000280 21 ea a8 bf 88 c3 30 3f b1 a2 88 c0 82 6c ae bf
       -1.319645 0.69048357 -4.26986 -1.3626864
000290 ca a0 47 c0 d6 9c 53 3f 19 72 b7 bf d1 55 2b 3f
       -3.1191888 0.8266119 -1.4331695 0.6692782
0002a0 b1 82 31 3e 46 3a 61 c0 9d 5f f4 bf c9 9a 69 40
       0.17335011 -3.5191817 -1.9091679 3.6500723
0002b0 c5 df a2 3d 29 02 a9 bf 24 5f 57 bf 83 a4 ee bf
       0.07952837 -1.3203784 -0.8412955 -1.8643955
0002c0 b9 54 b8 c0 b6 1b 3a 3f d3 f3 f6 3e 86 42 49 3f
       -5.760342 0.72698534 0.48232898 0.7861713
0002d0 30 47 0b bf 38 c4 0f bf dd e4 17 3f 90 ed 32 c1
       -0.544055 -0.5615878 0.5933359 -11.182999
0002e0 ad 27 39 3f 94 71 2b bd ab b5 25 c0 64 83 b7 3e
       0.72326165 -0.041856363 -2.5892131 0.3584243
0002f0 0a 87 2e 3f 43 77 3a 3f 65 06 1d bf 62 eb c4 bf
       0.68174803 0.7283823 -0.6133788 -1.5384333
000300 fc 7d 8a c0 fc 50 e0 bf 68 3c b5 3c 1d 6c 56 c0
       -4.327879 -1.7524714 0.02212353 -3.3503487
000310 3d cb 97 bf 2f 2a 35 c0 88 96 8e bf 9f ff e7 bf
       -1.1858898 -2.8306997 -1.1139688 -1.8124884
000320 d4 9f 8a bf d3 43 64 3f 41 75 dd bf 52 d6 cd bf
       -1.0830026 0.8916599 -1.7301408 -1.608103
000330 8e 03 2e 3f 96 dd a8 bf 12 6f 02 c1 2b 50 0c 3f
       0.67974174 -1.3192623 -8.152117 0.54809827
000340 65 33 9a bf f1 db 29 3f fe 65 01 c0 ac 07 8f bd
       -1.2046934 0.6635123 -2.02185 -0.06983885
000350 26 96 38 3f 35 ad d6 bf f1 07 6f be 9a 3e 0a c0
       0.7210411 -1.6771609 -0.23342873 -2.160071
000360 33 30 03 3f c7 c5 b3 bf 23 96 3d c0 2d 49 a2 c0
       0.5124542 -1.4044732 -2.9622886 -5.0714326
000370 10 8e 21 3f f7 33 6e c0 e5 8c 1e bf d8 1a 1c c0
       0.63107395 -3.7219217 -0.6193374 -2.4391384
000380 59 53 73 c0 2d d8 94 3f 23 18 0c 3f 71 90 6f c0
       -3.8019621 1.1628472 0.5472433 -3.743191
000390 d5 b0 60 40 62 4c 44 c0 9a 0c 3f 3f b2 52 b3 c0
       3.510793 -3.067162 0.74628603 -5.6038446
0003a0 77 58 2d 3f a9 bd f8 c0 ee f3 20 3f 7e 56 38 3f
       0.6771311 -7.773152 0.6287221 0.72006977
0003b0 0c 96 13 3f b5 c1 14 40 c7 4e 04 c0 bd de 4a 3f
       0.5765083 2.324323 -2.0673082 0.7924612
0003c0 dd bc 20 c0 b1 a7 9b be 4f 8a 74 c0 1b c4 2b 3f
       -2.5115273 -0.30401376 -3.8209417 0.6709611
0003d0 39 81 2e 3f 44 33 35 c0 0f fe 0b 3e ad 8f 2e 3f
       0.6816593 -2.831254 0.13671134 0.6818798
0003e0 dc 2f 25 c0 9b 8e 65 c0 70 ac 04 40 58 8a c7 3e
       -2.581046 -3.586829 2.0730247 0.38972735
0003f0 b9 af 8a bf c6 46 1e c0 95 1c 9e c0 a3 2b 97 c0
       -1.0834876 -2.4730697 -4.940989 -4.7240767

linear2.bias f4 [3]
000000 b9 79 77 3f c9 e7 70 3f b6 7c 87 3f
       0.9667011 0.94103676 1.0584934
