checkpoints_dqn/model_final_model_9ora6ung.pth (torch, 23259 bytes, 4 tensors)

linear1.weight f4 [256, 16]
000000 66 c6 92 3f db d8 05 3e 0c bc 7b 3e bd c7 89 3e
       1.1466796 0.13071005 0.24583453 0.269102
000010 f1 cd 1f 3d b7 07 7f bf 34 ed e2 be f3 e0 4f 3e
       0.03901476 -0.99621147 -0.44321597 0.20300655
000020 1a 5c 85 3e 29 d6 22 be 5a f5 53 3d 9b e7 15 be
       0.2604683 -0.15902008 0.051747657 -0.14639132
000030 12 48 0b 3e 52 8c 2f 3e 50 fd a7 3e 43 c3 5a 3e
       0.13601711 0.17143372 0.3281045 0.21363549
000040 f8 1d 14 3f 1d b2 39 3e 87 05 f1 bd f2 0b 3d 3e
       0.5785823 0.18134351 -0.117686324 0.18461588
000050 42 67 0c c0 78 01 b0 3e 47 8e 66 be 4f 24 09 be
       -2.1938024 0.3437612 -0.22515212 -0.13392757
000060 0c 65 43 3d d9 4f 5a 3e 51 77 00 3d 8b cc 42 3d
       0.047703788 0.21319522 0.03136379 0.04755835
000070 98 5a bf 3e a4 ec 60 3e 60 45 9f 3e 5b 90 2d be
       0.37373805 0.21965271 0.31107616 -0.16949598
000080 d0 57 0c bf 93 b2 6c bf 1b 9c 25 3f 55 a6 e9 3e
       -0.5482149 -0.9245998 0.64691323 0.45634714
000090 3f e0 7b 3f 0b 91 c7 be 4d d2 2e bf 95 c1 23 bf
       0.9838905 -0.38977847 -0.68289644 -0.6396726
0000a0 99 d2 04 3e e0 64 a7 3d a7 d0 12 3c 9a 8e 5c 3e
       0.12970962 0.08173537 0.008960879 0.21538773
0000b0 24 cd c0 3e 1b 78 14 3d 5a 9c 35 bd 8c 91 cb 3d
       0.3765651 0.036247354 -0.04433856 0.0993987
0000c0 8f 42 14 3f 0c 7e 79 be 39 a8 4a bf 07 bc cc 3d
       0.5791406 -0.2436449 -0.7916294 0.09996801
0000d0 fa ba 9c 3f b2 77 11 40 50 42 a0 3f e6 7f a7 3f
       1.2244561 2.2729306 1.2520237 1.3085907
0000e0 d0 c0 59 3f 71 0c 11 3f a7 a4 29 3f 1f 91 4f 3e
       0.85059834 0.5665961 0.66266865 0.20270203
0000f0 9f 61 30 3f df 06 fa 3e 7b fe 20 3f a7 c9 6a 3f
       0.6889896 0.48833367 0.62888306 0.9171395
000100 1c 05 20 3f fe d6 e4 be 9a ad c0 be 13 4e 66 bd
       0.62507796 -0.44695276 -0.37632447 -0.0562268
000110 61 7c 03 bf 41 ce 10 40 a2 19 f2 3f 67 7f cd 3f
       -0.5136166 2.2625887 1.8914073 1.6054505
000120 a2 d5 98 3f c4 0a 00 3f 8a fc 02 3f f4 f6 c6 3e
       1.1940196 0.5001643 0.51166594 0.38860285
000130 0f 11 09 3f d8 61 4f 3f b2 2c 77 3f 8f af c0 3f
       0.53541654 0.8100867 0.96552575 1.5053576
000140 fd 6f c0 3f 30 fd 04 3f fe e0 92 3f 54 06 e1 bf
       1.5034176 0.51948833 1.1474912 -1.7580056
000150 2c 9e 0a 40 ef 51 06 3f 9c 2f 16 3f 41 15 7c be
       2.165904 0.5246877 0.58666396 -0.24617483
000160 40 f1 98 3e b4 fa 57 3e fe 4b 8b 3e 2d 6f 2c bf
       0.2987156 0.2109173 0.27206415 -0.6735714
000170 2d 69 62 be b3 ff 65 bd 9d 19 a5 bd c9 c7 0b bf
       -0.22110434 -0.056152057 -0.08061526 -0.5460172
000180 43 83 12 3e 92 05 a0 3d b6 ac ba bd 82 92 95 bd
       0.14307885 0.078135625 -0.09114973 -0.07303335
000190 be 2e 06 3e f1 5f 39 be ff 68 8d bd 93 8c 58 be
       0.13103768 -0.18103005 -0.06904792 -0.21147375
0001a0 81 ad 7d 3d e4 da 05 be ab 55 50 be d3 2a 3c be
       0.061933044 -0.13071781 -0.2034518 -0.18375711
0001b0 9d 63 89 be 07 32 87 be 61 8c 1b 3e 2f ff 3e 3d
       -0.2683381 -0.26405355 0.15190269 0.04663008
0001c0 1c c7 9d 3d 66 c4 6e be 54 22 28 be 14 6c aa bd
       0.07703993 -0.23317108 -0.16419345 -0.083213955
0001d0 c0 1f 20 3d 86 42 61 be 64 9b dc bd 58 42 19 be
       0.03909278 -0.21998033 -0.10771826 -0.14966714
0001e0 00 9e 35 3a 50 84 be bd f0 ea 8d bc 24 79 2d be
       0.0006928146 -0.0930258 -0.017323941 -0.16940743
0001f0 98 b7 2f be d2 59 15 be 9c 41 af bd 50 0e 4a be
       -0.17159879 -0.14585045 -0.08557436 -0.19732022
000200 fe 41 af bf 75 52 f5 3e eb ec 4c 3f e1 78 1c be
       -1.3692014 0.47914472 0.8004901 -0.15280487
000210 45 02 f9 be 66 80 0c bf 6d 6e eb be de de d7 bf
       -0.48634544 -0.5488342 -0.45982686 -1.6864889
000220 a7 d4 4c be c2 d6 0d 3e e8 49 c8 3e 3a d0 6c 3d
       -0.20002995 0.13851455 0.39118886 0.057815768
000230 ba c3 38 bb 0b b3 a9 3e a2 db 6b 3f a8 52 95 3f
       -0.0028192834 0.3314441 0.9213201 1.166585
000240 9d 04 43 be 6c ea a6 bd 1b ba 22 3e b3 ef 68 3d
       -0.19044729 -0.08150181 0.15891306 0.05686922
000250 9f 7d 5b 3e 7a 65 85 be 34 6a 1d be a9 93 8e be
       0.2143464 -0.26053983 -0.15372545 -0.2784703
000260 04 b3 22 be 11 dc ca be 87 14 f4 bc e9 42 ab be
       -0.15888602 -0.39621022 -0.029794944 -0.33449486
000270 bf e0 a5 3d 54 7b 7b 3d 1a af a7 3d 51 74 ae bd
       0.080995075 0.06139691 0.08187695 -0.08518279
000280 44 61 b6 3f 4b 5f 3a 3e 11 45 06 be 70 7d af bf
       1.4248433 0.18200414 -0.13112284 -1.3710155
000290 6d 8c ab be a8 e5 9c 3e 31 9b 64 3e 4a ea 72 3e
       -0.33505574 0.30643964 0.22324826 0.23722187
0002a0 ff db fc 3e a4 60 95 bd 9f 29 be bc 65 26 70 3d
       0.49386594 -0.07293823 -0.023213206 0.058630366
0002b0 22 7e 0b be e8 c0 4c be 0e 3b 1d bf e0 0c 26 be
       -0.13622335 -0.19995463 -0.61418235 -0.16215849
0002c0 ca e8 bd bf 6a 02 88 bf d2 23 c3 3e 15 cd 91 bf
       -1.4836667 -1.0625737 0.38113266 -1.1390711
0002d0 45 21 7c 3f d2 de 01 bf 24 39 df 3e ea 06 b3 3e
       0.98488265 -0.5073062 0.43598282 0.34966213
0002e0 21 92 63 3f 8a c0 05 3f b7 2b 3a 3e fe b8 a2 3e
       0.8889485 0.52246916 0.18180738 0.31781763
0002f0 e3 98 89 bd ea 18 26 be 91 76 f8 be a2 1e ca be
       -0.06718614 -0.16220441 -0.4852796 -0.39476496
000300 6a 8a 42 bc 9c 48 2a 3f f3 c4 62 be 68 e4 0d be
       -0.011873821 0.66517043 -0.22145443 -0.13856661
000310 c4 87 4e 3f 90 e3 a1 bf 60 3d a2 3e 05 f9 32 3e
       0.8067591 -1.2647572 0.3168745 0.17477806
000320 c5 a3 f1 bd 70 f5 92 be 98 3d bc bd 7c 74 8d bc
       -0.11798815 -0.2870288 -0.091914356 -0.017267458
000330 39 47 e5 3d b5 17 e8 3d 8e 23 23 3e 53 63 43 bd
       0.11195225 0.11332647 0.15931532 -0.047702145
000340 d7 52 39 3d 94 2c 34 40 1c b9 fc 3e 01 89 51 3e
       0.045245018 2.8152208 0.49359977 0.20462419
000350 53 a6 42 c0 eb f4 76 bf 79 d7 6f be 4d 9b da 3d
       -3.0414016 -0.96467465 -0.2342204 0.106741525
000360 fa 08 90 3e 26 48 5a 3e 79 ce 9e 3e 6c 78 16 bc
       0.2813185 0.21316585 0.310169 -0.009183984
000370 5f 8a 7d 3e c2 d7 bc 3e fb 79 79 3e f3 1a be 3e
       0.24759816 0.3688336 0.24362938 0.37129936
000380 46 45 17 3f f4 0c 93 3e 70 ec 01 3f 8d 85 24 3f
       0.5909008 0.2872082 0.507514 0.6426628
000390 5d d7 89 3f a1 a3 4a bf 98 86 26 3e 73 f2 23 3f
       1.0768849 -0.7915593 0.16262281 0.64041823
0003a0 14 79 a1 3e 64 07 9d 3d 10 e9 59 be 26 6f 48 be
       0.31537688 0.07667425 -0.21280313 -0.1957365
0003b0 be cb ef bd 9e 03 97 be d4 d7 4a be a7 b8 84 3d
       -0.117087826 -0.29494947 -0.19808894 0.06480532
0003c0 85 44 05 bf cc 3a 50 be 0b 28 b9 be 4f 27 0e 3f
       -0.5205768 -0.20334929 -0.36163363 0.5552873
0003d0 a5 7c d3 be 81 c0 b0 be 57 fe 8c c0 53 22 37 3f
       -0.41306034 -0.3452187 -4.4060473 0.7153675
0003e0 22 5c 13 3f 75 44 8e 3e fe ed f5 be 15 11 ee bb
       0.5756246 0.27786604 -0.48033136 -0.00726522
0003f0 91 3e 2a 3f cb 2b 41 3f 60 e9 6a 3f cc cc ca bf
       0.6650172 0.7545745 0.9176235 -1.5843749

linear1.bias f4 [256]
000000 27 a6 9c bf 66 0c 13 3f b9 08 c3 be b8 ef 10 40
       -1.2238206 0.57440794 -0.38092592 2.2646313
000010 db bf 14 40 c1 56 3d 3f 17 9b e7 be 24 ed ea 3d
       2.32421 0.739605 -0.45235512 0.11471012
000020 34 b2 40 bf 02 f9 89 be d6 b3 12 3e 3c d0 5e bf
       -0.75271916 -0.2694779 0.14326414 -0.8703649
000030 a4 fc 99 bf c9 9e 67 bf 3d f5 28 bf 64 01 8d 3d
       -1.2030225 -0.9047666 -0.65999204 0.06885031
000040 45 22 3b bf 17 c9 05 bf 88 44 34 bd df 0e b9 bd
       -0.73099166 -0.52259964 -0.04401067 -0.090360396
000050 ee 00 65 3d 97 5f 55 be 4e 62 d1 be f3 51 b4 be
       0.05590909 -0.20837246 -0.40895313 -0.35218772
000060 c8 bb 8a be aa 68 f0 be 69 5f 67 bf ab eb d8 3e
       -0.2709639 -0.46954852 -0.9037996 0.423673
000070 e7 0d 99 3e 3c f8 06 40 44 db 46 3f 98 2a 53 3e
       0.2989342 2.108901 0.7767832 0.20621717
000080 5d 26 03 40 c7 8b 19 be 16 e4 9a bf d2 44 2f bf
       2.0492165 -0.14994727 -1.2100856 -0.68464386
000090 03 33 07 3f 6e a4 7a 3f 1d 41 6a bf 56 56 e5 be
       0.5281221 0.9790715 -0.91505605 -0.44792432
0000a0 83 c8 98 3f c3 72 80 bd 55 f5 19 bf 67 af a0 bf
       1.1936191 -0.06271889 -0.6013997 -1.2553529
0000b0 71 20 84 be be 4f 03 40 44 e9 4c 3f fe 02 39 bf
       -0.25806 2.051742 0.80043435 -0.7227019
0000c0 09 8c 3b bf 64 f2 0c bf 1a 68 18 bc 24 f3 12 be
       -0.7326055 -0.5505736 -0.0093021635 -0.14350563
0000d0 56 72 27 be 78 a7 1f bf 43 2c 16 40 92 79 81 be
       -0.1635221 -0.6236491 2.3464515 -0.25288063
0000e0 7b 15 05 40 85 80 9d bf a7 74 6a bc e3 7e 6c bf
       2.079436 -1.2304846 -0.014310039 -0.92381114
0000f0 5e f4 81 3f 08 de a1 be 43 db 1c 3d 44 b7 f2 3f
       1.01527 -0.3161471 0.03829504 1.8962178
000100 e0 00 8a 3d ed fd 1b 3f 30 bf 00 3f 43 bd 83 bf
       0.06738448 0.60934335 0.5029173 -1.0292133
000110 dd 37 c6 3f a7 00 30 be 38 fd 82 bf 1a 70 31 bf
       1.5485798 -0.17187749 -1.0233526 -0.6931168
000120 ca d9 e7 be 9c 28 3c be b9 a5 bc 3f 84 29 16 be
       -0.45283347 -0.18374866 1.4738075 -0.14664274
000130 6b 4b 7d bf 13 77 59 be 6f d0 08 bf b3 f0 64 bd
       -0.98943204 -0.2123683 -0.53443044 -0.05589361
000140 84 d1 73 bf 3c dc d7 bc 9b 3d 5e bf fd 84 61 3d
       -0.9524157 -0.026350133 -0.8681275 0.055058468
000150 46 c7 d4 3e 14 ef c6 be e1 61 b7 be ec 19 59 be
       0.41558284 -0.38854277 -0.35816863 -0.21201295
000160 14 9a 39 bf f8 9d 55 3f ce 0a 99 be 63 17 01 be
       -0.7250073 0.83444166 -0.29891056 -0.12606578
000170 d4 a0 9b 3f 44 c4 36 bf 5a be f8 3f 53 48 2f bf
       1.2158456 -0.7139323 1.9433091 -0.68469733
000180 a6 9d be be eb 83 ae be 4b f0 05 bd b6 11 10 40
       -0.3722965 -0.3408502 -0.032699864 2.251081
000190 4e 3b 50 bf ad 30 a0 be 0e 75 08 be 20 22 68 be
       -0.8134049 -0.31287137 -0.13325903 -0.22669268
0001a0 64 41 a3 3f de 41 e4 be fb 5a 67 be db 3f 6a bf
       1.2754331 -0.44581503 -0.225933 -0.91503686
0001b0 62 ce 47 bf 01 f8 4a 3e b8 80 82 be 4b 41 39 be
       -0.7804929 0.19821168 -0.2548883 -0.18091314
0001c0 d3 67 63 be fd 36 f5 3f c3 ec 40 3f d9 7a c0 be
       -0.22207575 1.9157406 0.7536127 -0.37593725
0001d0 0c 49 08 40 da 3a 6c 3f 74 01 7f 3f 53 b1 1e bf
       2.1294584 0.922773 0.9961159 -0.61989325
0001e0 37 26 95 3e a3 ab 92 bf 32 77 98 3f df ec 87 3f
       0.29130718 -1.1458629 1.1911376 1.0619162
0001f0 37 69 a4 bf 4a 2e 44 be 3b 98 8d bf 2d cc 0f 3f
       -1.2844609 -0.19158283 -1.1062082 0.5617092
000200 48 3b 40 be f2 cc 9e be a4 c2 2d 3f 69 1b 38 bf
       -0.18772614 -0.31015736 0.67875123 -0.71916825
000210 83 ae 2d be 10 7a b7 be af 69 2e bf ff f4 d5 be
       -0.16961102 -0.35835314 -0.6813001 -0.4178848
000220 0b 80 ab bd 0a 96 15 40 1f 06 70 bd 5b 46 f8 be
       -0.08374032 2.3372827 -0.058599588 -0.48491177
000230 65 c4 98 bd bf 75 63 be ea 82 81 bf 22 27 67 bf
       -0.07459334 -0.22212885 -1.0118077 -0.90294087
000240 2e 92 b2 3e e1 eb 98 bf 3c 31 40 bf 27 ea 31 bf
       0.3487715 -1.1946985 -0.75075126 -0.69497913
000250 9b c4 e1 be 80 22 a0 bf 51 28 a0 3f e7 7d d5 be
       -0.4409531 -1.2510529 1.2512304 -0.41697618
000260 4f 8b 22 40 65 28 39 bf 56 a4 1f bf 52 e1 27 bf
       2.5397527 -0.7232726 -0.6236013 -0.65578187
000270 43 00 16 bf fe d4 77 be 32 90 26 bf 31 9b 89 bf
       -0.5859415 -0.24202344 -0.65063775 -1.0750486
000280 e9 61 b1 3d ab b6 be 3f 0d 42 81 bf 4b a7 fb bd
       0.08661253 1.4899496 -1.0098282 -0.12287768
000290 9c e7 b4 bd e7 e4 7f bf d0 2a fe 3e 87 44 1d 40
       -0.088332385 -0.9995865 0.49642038 2.4573076
0002a0 eb a9 0e bf d8 33 48 be c4 77 45 bf ac bd 5a 3f
       -0.55728024 -0.19551027 -0.7713587 0.85445666
0002b0 d0 e4 f1 be b6 fc 21 be a2 28 17 3f a6 6e 5e bf
       -0.47244883 -0.15819058 0.59046376 -0.86887586
0002c0 0c 7e 92 bf ac cf 4a bf 57 c2 84 3f 78 b2 02 40
       -1.1444716 -0.7922313 1.0371808 2.0421429
0002d0 04 6b 55 bd ea d9 62 bf 06 51 5f 3f 4e c3 de 3f
       -0.05210401 -0.8861376 0.87233007 1.7403352
0002e0 4f b9 76 bf 36 a4 60 be e0 96 81 bf 2b a2 1e bf
       -0.9637651 -0.21937642 -1.0124168 -0.619662
0002f0 39 42 0c bf cb 65 09 40 1f ac 27 bf 4e db 03 bf
       -0.5478855 2.146838 -0.6549701 -0.5150651
000300 4a 62 41 bf 62 dd 18 40 da 8a 9f bf 1e 0e 55 be
       -0.755406 2.3885121 -1.2464249 -0.20806167
000310 4c af 45 bf 48 18 d2 3f 4c c7 4a bf c3 ad 37 bf
       -0.77220607 1.641366 -0.7921035 -0.71749514
000320 e1 52 c8 3f 3a e3 12 3f 17 36 5c bf 24 12 a1 be
       1.5650293 0.5737797 -0.86020035 -0.31459153
000330 1e c8 0a 3f f2 90 d9 bd c8 6e 21 bf 66 42 39 bf
       0.54211605 -0.10623349 -0.63059664 -0.7236694
000340 d3 42 78 3f 27 44 21 3f 6b da 5b be 79 b7 75 bf
       0.96976966 0.6299462 -0.21470039 -0.9598308
000350 b1 6e 8d 3e 3a da 81 bf ce 5d 45 3d 52 ce b0 be
       0.27623513 -1.0144722 0.048185162 -0.3453241
000360 80 3c 28 3d 9b c9 97 be cf 43 76 be 50 10 d4 be
       0.041073322 -0.29646 -0.24049304 -0.41418695
000370 65 60 fb be 4d 8a 52 3e ec 18 c8 be f7 4d 6e bf
       -0.4909698 0.2056057 -0.39081514 -0.93087715
000380 bb 99 f2 3d 30 8a 0b 40 96 5f 19 bf 87 36 f8 be
       0.11845728 2.1803093 -0.5991148 -0.484791
000390 8b 54 a5 3e c3 de 8d 3f 82 a1 0e 40 c8 45 93 3f
       0.32291064 1.1083606 2.2286077 1.150567
0003a0 7b 18 b4 3d 0b e2 7e be d3 57 ae be 61 80 6b bf
       0.08793732 -0.24890916 -0.3405138 -0.91992766
0003b0 ff b1 61 be 35 dd 24 3d 6f 9a 57 bf dc 27 03 40
       -0.22040556 0.040250022 -0.8422002 2.0493078
0003c0 e4 ec 0a bf bd cd 54 bf 47 79 73 3e 19 94 cc be
       -0.54267716 -0.8312643 0.23776732 -0.3995674
0003d0 0d df 91 3f b4 c5 70 3e 07 96 2a 40 f6 70 6f be
       1.1396195 0.23512918 2.665407 -0.23382935
0003e0 18 cc d2 3c 18 98 36 3e 1c 86 b3 3f 72 4f 7c 3f
       0.025732085 0.17831457 1.4025302 0.98558724
0003f0 ab 63 11 be 04 72 07 3e 1a 3d f5 be 70 89 23 bf
       -0.14198177 0.13227087 -0.4789818 -0.6388159

linear2.weight f4 [3, 256]
000000 ef 8e b9 bf 30 f1 4a c0 97 26 1e c0 80 53 ae 3f
       -1.4496745 -3.170971 -2.4711053 1.3619232
000010 c1 bf 98 3f de 30 e7 3e bc 03 0f 3d a4 11 26 bd
       1.1933519 0.4515447 0.03491567 -0.040544167
000020 19 40 2e 3f 01 42 9c bd 6c e0 c4 be 4f 0b 57 c0
       0.68066555 -0.07629777 -0.3845247 -3.3600652
000030 1f 2f db be a8 46 25 c1 96 16 44 bf 08 db b9 bf
       -0.42809388 -10.32975 -0.76596963 -1.4519968
000040 0a 35 62 c0 7c 68 24 be e6 82 16 bd dc ba 71 3e
       -3.5344872 -0.16055483 -0.03674593 0.23606437
000050 6a 7c 71 bd a9 fc bf 3e f3 01 7c bf 17 4f 16 3e
       -0.05895654 0.37497452 -0.98440474 0.14678608
000060 b4 02 48 be 87 49 5b bf 42 00 60 bf a5 1f 18 40
       -0.19532281 -0.8565907 -0.87500393 2.3769314
000070 28 14 1f 40 8a e8 99 3f 1a 78 5a 40 5e e3 87 3f
       2.4856052 1.202409 3.4135804 1.0616262
000080 5b 0e a2 3f 15 87 03 bd 33 96 0e c0 ee de 24 bf
       1.2660631 -0.032111246 -2.2279174 -0.64402664
000090 c6 52 9d 3f 54 38 5e c0 25 e2 04 c1 0f 3f 2a bf
       1.2290885 -3.472188 -8.305211 -0.6650247
0000a0 5a 4b 82 3f d7 82 0c bc 41 07 aa bd bd ff d1 3e
       1.0179245 -0.0085761165 -0.08302165 0.41015425
0000b0 3b 25 cf 3e 4a 64 ab 3f 72 e9 24 40 fb d8 ef bf
       0.40458092 1.3389981 2.5767484 -1.8738092
0000c0 6b 70 6a c0 c8 38 34 be 3f f4 31 3e ff 6c f6 3e
       -3.6631114 -0.17599785 0.17378329 0.48130032
0000d0 5a bb 27 bd 3f 0d 12 be ae 04 6f 3f f8 58 fe 3c
       -0.040950157 -0.14262865 0.93366516 0.031048283
0000e0 aa 6e bb 3f f0 d2 15 3f 3a ed 2c bd 1c 4a 2a bf
       1.4643147 0.5852499 -0.042218424 -0.6651933
0000f0 22 f4 10 40 44 b5 11 3f bc 1e f1 3c a7 68 36 3f
       2.2649007 0.56917214 0.0294336 0.71253437
000100 b0 1c d7 3c 8d 2e 52 40 c8 f1 2c 40 d5 1e ae bf
       0.026258796 3.2840912 2.7022572 -1.3603159
000110 cf 7c 47 40 dd 2b b5 be 37 a8 48 3f 16 d8 05 bf
       3.1169927 -0.35385028 0.78381675 -0.52282846
000120 b6 9d 66 c0 61 df c1 bf 81 d3 54 3f 84 1f 49 bc
       -3.603376 -1.5146295 0.8313523 -0.01227558
000130 e1 7f 36 bd 67 16 d8 bc 14 75 6a bf 61 c9 e6 3d
       -0.04455555 -0.02637787 -0.915849 0.11268879
000140 de 37 e1 bf 21 f7 28 c0 76 4e f0 bd 77 d4 01 c1
       -1.7595174 -2.6400836 -0.11733715 -8.114371
000150 cf 92 eb 3f 0b fa 79 bf 4a e3 d3 be ee c8 57 3d
       1.8404177 -0.9764716 -0.41384345 0.052681856
000160 43 36 18 be 76 ca 8b 3f 46 4e 62 c0 36 6e 35 40
       -0.14864449 1.0921161 -3.5360274 2.8348517
000170 52 2c a8 40 7c 50 4a bf ae 95 44 40 7e 77 e6 3e
       5.25541 -0.7902906 3.0716357 0.4501304
000180 94 b9 85 be 67 b8 63 bf 12 a5 7d bd 62 5a bb 3f
       -0.26118147 -0.8895325 -0.061925 1.4636958
000190 42 52 fb be a3 38 f8 bb 89 f3 3e bd 3c 20 5f bd
       -0.49086195 -0.007575111 -0.046618972 -0.0544741
0001a0 6c 76 f1 be 36 07 83 bf 11 d7 1e 3d 5d a9 02 bf
       -0.4716066 -1.0236576 0.038779322 -0.5103968
0001b0 ee 4e 83 bd 13 fe d5 3f ec 84 58 bb b8 ba 46 c0
       -0.06411539 1.6718162 -0.0033038212 -3.1051464
0001c0 7a bf 37 bd 19 16 c1 be 2e 27 4e c0 ca e0 c4 3e
       -0.04486034 -0.37712172 -3.2211413 0.3845275
0001d0 56 6f aa 3f 3c 64 2e 3f a5 31 43 40 e0 d9 31 c0
       1.3315227 0.68121696 3.049905 -2.778923
0001e0 d2 f2 ea c0 53 89 6b c0 00 80 92 c0 a6 35 a7 40
       -7.342141 -3.6802566 -4.578125 5.225299
0001f0 7f 9a a4 bf e2 47 77 bd 88 c0 89 bf 5a a0 5c c0
       -1.2859648 -0.060371287 -1.0761881 -3.447287
000200 9c 47 cb 3c 97 99 56 3f ce 71 3a c0 8e 76 ed bf
       0.02481442 0.8382811 -2.913196 -1.8551805
000210 12 60 65 c0 28 25 00 3d 4f 7f 14 bf 94 50 2c c0
       -3.5839887 0.031285435 -0.5800676 -2.692418
000220 d0 ec 9b 40 ff 60 9f 3f 2a 18 aa bf 76 54 21 bf
       4.872658 1.2451476 -1.3288624 -0.630195
000230 45 04 21 bd ae 6b 79 3b 44 44 20 bf b6 37 08 3f
       -0.039310712 0.0038058567 -0.62604165 0.5321001
000240 e4 10 ab 3e 14 84 cc 3e 39 5c df bf 68 cf 48 bf
       0.33411324 0.39944518 -1.7450019 -0.78441477
000250 13 a2 03 c1 08 82 a5 be 2e ca 09 40 51 61 c5 bf
       -8.227069 -0.32325768 2.152965 -1.5420324
000260 69 2c 96 3f c5 a0 a3 c0 76 d9 84 bf a7 89 9c 3e
       1.1732303 -5.113375 -1.0378864 0.3057377
000270 9c 15 58 bf 03 8b 6d be 9b d9 83 3e 84 e6 d9 be
       -0.84407973 -0.2319756 0.25751957 -0.42558682
000280 c1 cf 22 40 b8 1f 1d 40 06 0a 86 bf af 92 6d 3e
       2.5439303 2.455061 -1.0471809 0.23200487
000290 b6 5a 4f 3e cc 1e 2a bf f0 66 43 3f d7 b9 b1 3f
       0.20249447 -0.6645324 0.76328945 1.3884839
0002a0 5f d8 25 bc 87 30 65 c0 24 09 ad bf 6c 20 8c 3f
       -0.010122388 -3.5810869 -1.3518414 1.0947394
0002b0 02 2d e7 bf a8 8f 2f bf a6 8a 15 3f 38 3e 05 be
       -1.806061 -0.6857858 0.58414686 -0.13012016
0002c0 be a0 6b c0 06 e2 14 c0 77 e2 72 3f a2 7d a8 3f
       -3.681686 -2.3262954 0.9487681 1.316334
0002d0 89 d0 74 c0 4d 28 02 be df 60 8e c0 16 2e 09 40
       -3.825228 -0.12710686 -4.449325 2.1434379
0002e0 8f 78 20 c0 94 71 2b bd 97 10 4d c0 fa 84 9d bf
       -2.5073583 -0.041856363 -3.2041376 -1.2306206
0002f0 4a 01 f4 be 11 54 af 3f 6c cb 1c c0 1e f1 3c c0
       -0.47657233 1.369753 -2.449916 -2.9522166
000300 d4 86 4c c0 54 83 9b 3f 9c d4 36 c0 5f f9 6f bf
       -3.1957293 1.2149453 -2.8567266 -0.93739885
000310 21 0f 9d bf f3 c1 82 3f e5 df b1 bf 94 7c ed bf
       -1.2270242 1.0215439 -1.3896452 -1.8553643
000320 d4 3a eb 3f d5 25 6a 40 ee ed 47 be cb fc b0 3f
       1.8377328 3.658559 -0.19524357 1.3827146
000330 bd 62 43 bf 8c ed 48 3c 87 6f b6 c0 db cd 82 bf
       -0.7632254 0.012263667 -5.701114 -1.0219072
000340 99 a5 fd 3f f9 f2 a2 3f 49 ed 21 40 ba 5c ef bd
       1.9816161 1.2730399 2.5301077 -0.11687608
000350 c3 55 fe 3d 1f 53 05 c0 b1 e4 43 3d 52 06 7c c0
       0.124187015 -2.0831983 0.04782552 -3.9378858
000360 a4 3e cd 3f d8 06 bc bf 3c a5 81 3b 14 03 5d c0
       1.6034741 -1.4689589 0.003956465 -3.4533129
000370 ce ef cb bf 6c 61 38 c0 2f c5 03 c0 73 f3 18 c0
       -1.5932558 -2.8809462 -2.0589101 -2.389859
000380 d1 73 cb c0 70 24 60 3f 05 9e 50 c0 2a a8 1a bf
       -6.3578877 0.875556 -3.2596447 -0.6041285
000390 6f 22 0a 40 69 40 51 c0 df 26 bb 3f 95 c3 6e 3f
       2.1583517 -3.2695563 1.4621238 0.93267184
0003a0 2b 83 11 c0 26 28 0f c1 93 21 e1 3e e9 57 12 c0
       -2.2736309 -8.947302 0.43970928 -2.2866156
0003b0 60 56 01 3e 6f 24 83 3c 93 db 87 3f e3 b2 ba 3f
       0.12630606 0.016008584 1.0613884 1.4585842
0003c0 83 ae 48 c0 0c 87 89 bf fc eb a4 3f 7a ca 47 c0
       -3.1356514 -1.0744338 1.2884517 -3.1217332
0003d0 31 18 ec 3f 0d 97 51 c0 e7 b3 b0 3f a7 9c 64 3c
       1.8444883 -3.2748444 1.3804902 0.013953364
0003e0 69 09 93 c0 47 83 a1 c0 ec 85 a2 bb bd 79 31 3f
       -4.5948987 -5.047275 -0.0049598124 0.6932638
0003f0 ed f7 64 bf 9f bb 66 bf 75 97 41 c0 f5 2d b3 c0
       -0.89440805 -0.9013004 -3.0248692 -5.59936

linear2.bias f4 [3]
000000 d4 48 0b 40 ed 2e be 3f c5 25 c8 3f
       2.17632 1.4858071 1.5636526
