checkpoints_dqn/model_final_model_6ufq063i.pth (torch, 23259 bytes, 4 tensors)

linear1.weight f4 [256, 16]
0	0x3bb72b49	0.005589877
1	0x3d3d90f3	0.046280812
2	0xbd4e5541	-0.050374273
3	0x3d9cee87	0.07662683
4	0x3d9b82d0	0.0759331
5	0xbd470ccd	-0.048596192
6	0xbf139207	-0.57644695
7	0xbd4cd02b	-0.050003212
8	0x3d904bcb	0.07045706
9	0xbeb2143f	-0.34781072
10	0x3d176258	0.036959022
11	0xbe1ece71	-0.15508439
12	0x3d2a2998	0.041543573
13	0xbe20a73c	-0.15688795
14	0xbdb74971	-0.08949555
15	0xbeb4c02c	-0.35302866
16	0x3e4e86b3	0.20168571
17	0xbe4b9758	-0.19881952
18	0xbf08cdf4	-0.5343926
19	0x3f0432da	0.51640093
20	0xbefd16de	-0.4943151
21	0xbe8b8d80	-0.27256393
22	0xbf933979	-1.1501914
23	0xbecee203	-0.40406808
24	0xbf27f336	-0.65605485
25	0xbebd465c	-0.36967742
26	0xbd073d51	-0.03301746
27	0xbf38a847	-0.7213177
28	0xbed44937	-0.41462108
29	0xbf2cd085	-0.67505676
30	0xbe20c582	-0.15700343
31	0xbe3f4560	-0.18678808
32	0xbdc212f1	-0.09476269
33	0xbe3aa671	-0.18227555
34	0x3d083ca6	0.033260964
35	0x3d260e58	0.040541023
36	0x3ddae143	0.106874965
37	0x3b4f04d9	0.0031588583
38	0xbf1dcfbb	-0.61645097
39	0xbe4eeabd	-0.20206733
40	0xbe039936	-0.12851414
41	0xbe849dd9	-0.25901678
42	0xbe82439f	-0.25442216
43	0xbdf516fb	-0.11967274
44	0xbdde7cc7	-0.10863643
45	0xbe9c19f0	-0.3048854
46	0xbb9195d5	-0.00444291
47	0xbe217352	-0.15766647
48	0xbd34bca7	-0.044125225
49	0xbed1eb94	-0.41000044
50	0xbd3dc8f2	-0.046334215
51	0xbdff0a5d	-0.124531485
52	0x3d106c47	0.03525951
53	0xbc4ad92f	-0.012380882
54	0xbe641d78	-0.22276866
55	0xbd149847	-0.036278035
56	0xbe86a137	-0.26294872
57	0xbe8fab62	-0.28060442
58	0xbd0e1f85	-0.034698028
59	0xbedb3513	-0.4281393
60	0xbe3c1735	-0.18368228
61	0xbeb4ee41	-0.35338023
62	0xbd80a891	-0.062821515
63	0xbe107352	-0.14106491
64	0xc0238fe9	-2.5556586
65	0xc10a8cd3	-8.659381
66	0xbfea0dc9	-1.8285457
67	0xbffbd02b	-1.9672903
68	0xc0d1b29e	-6.553054
69	0x40063ab3	2.0973327
70	0x3fbf4ce7	1.4945344
71	0x3fe5fb2a	1.7967274
72	0x3ea1e941	0.3162327
73	0xbda6967b	-0.081341706
74	0xbd311a61	-0.043238048
75	0xbe7aaa64	-0.24479061
76	0xbf077ad3	-0.5292179
77	0xbf46ebd0	-0.7770357
78	0xbf689260	-0.9084835
79	0xbdf711f3	-0.120639704
80	0xbdf3c803	-0.119033836
81	0xbefcccca	-0.49374992
82	0x3e439b75	0.19102271
83	0xbdbe73d9	-0.0929944
84	0x3e001cae	0.1251094
85	0xbe91716f	-0.28406855
86	0xbddf1099	-0.108918376
87	0xbe5b07a9	-0.21389641
88	0xbe65089d	-0.22366567
89	0xbcdf3b61	-0.027249994
90	0xbebd4f55	-0.36974588
91	0xbeb406be	-0.35161394
92	0x3da35c8a	0.07976635
93	0x3d887300	0.066625595
94	0xbee9e1b9	-0.45680025
95	0xbea47e19	-0.32127455
96	0x3c3c0723	0.011476311
97	0xbe0e772d	-0.1391265
98	0xbd9e3f40	-0.07726908
99	0xbe88fedb	-0.2675694
100	0xbe0ab940	-0.1354723
101	0xbe47d2bd	-0.19513984
102	0xbfa17b2f	-1.2615718
103	0xbf523faf	-0.82128423
104	0xbf1a0bbc	-0.60174155
105	0xbecd4cbd	-0.4009761
106	0xbeec54c5	-0.46158424
107	0xbf26f5b1	-0.65218645
108	0xbf2a7400	-0.6658325
109	0xbe9f3e5c	-0.31102264
110	0x3e09b187	0.13446628
111	0x3ddfee3a	0.1093411
112	0x3d9dc71c	0.07703993
113	0xbe6ec466	-0.23317108
114	0xbe282254	-0.16419345
115	0xbdaa6c14	-0.083213955
116	0x3d201fc0	0.03909278
117	0xbe614286	-0.21998033
118	0xbddc9b64	-0.10771826
119	0xbe194258	-0.14966714
120	0x3a359e00	0.0006928146
121	0xbdbe8450	-0.0930258
122	0xbc8deaf0	-0.017323941
123	0xbe2d7924	-0.16940743
124	0xbe2fb798	-0.17159879
125	0xbe1559d2	-0.14585045
126	0xbdaf419c	-0.08557436
127	0xbe4a0e50	-0.19732022
128	0x408b56a3	4.354326
129	0x405790d2	3.3682141
130	0x3f956190	1.1670399
131	0x3fd459a2	1.6589854
132	0xbfb58df7	-1.4183949
133	0x3e1cca4f	0.1531155
134	0xc011ffae	-2.2812304
135	0xbfdf72e0	-1.7456932
136	0xbddb36cc	-0.10703811
137	0xbe115b5f	-0.14195012
138	0xbe7e015e	-0.24805209
139	0xbe351f6e	-0.1768777
140	0xbf914fb5	-1.135245
141	0xbf95afd0	-1.1694279
142	0xbf2a86bf	-0.66611856
143	0xbfa4553d	-1.2838513
144	0xbdfbe49b	-0.122994624
145	0xbc35027d	-0.0110479565
146	0xbb5d3f92	-0.0033759815
147	0x3e84e907	0.25959036
148	0x3e51c1e5	0.20484121
149	0xbe8907a7	-0.2676365
150	0x3b8a2548	0.00421587
151	0xbe0f91a9	-0.14020409
152	0xbcb7e269	-0.022446828
153	0xbe76b9b9	-0.24094285
154	0x3e3cbf10	0.1843226
155	0xbe5af35b	-0.21381895
156	0x3d5e60d9	0.05429158
157	0xbb0ba62a	-0.0021308758
158	0x3b65f199	0.003508663
159	0xbdbd0dcd	-0.09231148
160	0x3e02b2ac	0.1276347
161	0xbd4d20ce	-0.050080113
162	0xbe0e06b7	-0.13869749
163	0xbe56f9e7	-0.20993768
164	0x3d7b5226	0.06135764
165	0xbe289b56	-0.16465506
166	0xbe2a1425	-0.16609247
167	0x3e05fd52	0.13084915
168	0xbdb6bd59	-0.08922834
169	0xbebe25c7	-0.37138197
170	0xbe913380	-0.28359604
171	0xbe41448b	-0.18873803
172	0x3b9e3fa3	0.0048293634
173	0xbe182349	-0.1485721
174	0xbe40f0fc	-0.18841928
175	0xbdd2328c	-0.10263547
176	0xc0aeb4d1	-5.4595723
177	0xc007a262	-2.119286
178	0xbe850792	-0.25982338
179	0xbfd792e0	-1.6841698
180	0x40a51cda	5.159772
181	0x3cef2551	0.029192599
182	0xbddbd504	-0.10733989
183	0xbe70bb59	-0.23508967
184	0xbea30c4a	-0.31845313
185	0xbd8a7c6d	-0.067620136
186	0xbd2c240c	-0.042026564
187	0xbe84a08f	-0.25903746
188	0x3e562c41	0.20915319
189	0x3f06be3d	0.5263403
190	0x3e976115	0.29566255
191	0x3f1b4589	0.6065298
192	0xbf15c67c	-0.5850599
193	0xbd0daedf	-0.0345906
194	0xbc12f40d	-0.008969319
195	0x3d00d0ce	0.03144913
196	0x3ec467c7	0.38360426
197	0xbe4791da	-0.19489232
198	0xbff7fd4e	-1.9374177
199	0xbdd2c44a	-0.102913454
200	0xbda169f1	-0.07881535
201	0xbeb88459	-0.36038473
202	0xbee730c6	-0.451544
203	0xbf09252b	-0.5357234
204	0xbecdd237	-0.40199444
205	0xbebccaef	-0.36873576
206	0xbe509328	-0.20368636
207	0xbe2c3f8f	-0.1682112
208	0xbf7bf149	-0.98415047
209	0xbf38506f	-0.7199773
210	0xbefbf7af	-0.49212405
211	0x3f2c4071	0.6728583
212	0xbfc1008a	-1.507829
213	0xbf391ad2	-0.7230655
214	0x3e32e106	0.17468652
215	0x3ed2349c	0.41055763
216	0xbea0a1ec	-0.31373537
217	0xbdb6f48f	-0.089333646
218	0xbdb2ada4	-0.087245256
219	0x3ccc646e	0.024950232
220	0x3ddd5e8e	0.108090505
221	0x3f7a20fa	0.9770657
222	0xbe79aef0	-0.2438314
223	0xbf98a8c7	-1.1926507
224	0xbea87c41	-0.32907298
225	0x3d341e01	0.043973926
226	0x3deac820	0.11463952
227	0x3db15668	0.08659059
228	0xbe328090	-0.17431855
229	0xbeab99e3	-0.33515844
230	0xbe93adad	-0.28843442
231	0x3dd7a5b3	0.105296515
232	0x3d0495c1	0.03236938
233	0x3de82462	0.113350645
234	0x3c065218	0.008198284
235	0xbd5dcb3f	-0.05414891
236	0xbdc094a4	-0.09403351
237	0xbe919b18	-0.2843864
238	0xbe97cac6	-0.2964689
239	0xbea23cec	-0.31687105
240	0x3d4b1dfa	0.049589135
241	0xbe743cb4	-0.23851281
242	0xbd21ec50	-0.039532006
243	0xbde28e72	-0.110623255
244	0xbd3a98d0	-0.04555589
245	0xbe7ea892	-0.24868992
246	0xbe5348de	-0.20633265
247	0x3caaf417	0.020868344
248	0xbe0e9583	-0.13924222
249	0x3da7203d	0.08160446
250	0xbe2d8544	-0.16945368
251	0xbe7d6367	-0.2474495
252	0xbdc74aaf	-0.09731042
253	0xbe2aa5dd	-0.16664834
254	0xbdf6030f	-0.12012302
255	0xbe911d92	-0.28342873

linear1.bias f4 [256]
0	0xbe8d63cf	-0.2761521
1	0xbd2c22fb	-0.042025547
2	0x3c44ce22	0.0120120365
3	0xbca9840d	-0.02069285
4	0x400a2887	2.1587236
5	0xbd8d9ce5	-0.06914691
6	0xbeeed491	-0.4664655
7	0x3deaed24	0.11471012
8	0xbd4fba4e	-0.050714783
9	0xbe8d9b20	-0.27657413
10	0xbea7d3af	-0.3277869
11	0xbeaae6c0	-0.33379173
12	0xbe08527a	-0.13312712
13	0xbf29c3d6	-0.66314447
14	0xbe507341	-0.20356466
15	0x3e293c86	0.16526994
16	0xbe41dacc	-0.1893112
17	0xbd2e96e1	-0.042624358
18	0xbd344488	-0.04401067
19	0xbf056e5e	-0.5212153
20	0x3d2f84b0	0.04285115
21	0xbedb0c99	-0.4278305
22	0xc0052085	-2.0801098
23	0xbe501d7d	-0.20323749
24	0xc04101e4	-3.0157404
25	0xbe120766	-0.14260635
26	0xbea4e8c2	-0.3220883
27	0xbd976ae1	-0.073934324
28	0xbe2a9bad	-0.16660948
29	0x409df889	4.936589
30	0xbdd8bc66	-0.10582809
31	0xbe7f0d6c	-0.24907464
32	0xbe3734ca	-0.17891231
33	0xbe631261	-0.2217498
34	0xbe688623	-0.22707419
35	0xbf67de5e	-0.9057368
36	0xbdd6829d	-0.10474131
37	0x3e3c6e9f	0.18401574
38	0xbf5dc2e0	-0.8662548
39	0xbe37112d	-0.17877646
40	0x3e7dbb18	0.24778402
41	0xc02b9402	-2.6809087
42	0xbfa66915	-1.3000818
43	0xbebe991e	-0.37226194
44	0xbe0a088e	-0.13479826
45	0xbed58c56	-0.4170863
46	0xbf302eef	-0.68821615
47	0xbf8b5b59	-1.0887252
48	0xbd9598d0	-0.07304537
49	0xbe5a2595	-0.21303399
50	0xbe95c38b	-0.2925075
51	0xbd77930f	-0.06044298
52	0xbe277256	-0.1635221
53	0xbe6986b7	-0.22805296
54	0xbda3d5ac	-0.07999739
55	0xbe97c335	-0.2964112
56	0xbf158aa9	-0.58414704
57	0xbe826355	-0.2546641
58	0xbc89a619	-0.016802834
59	0xbe9406d3	-0.28911456
60	0xbe82abef	-0.255218
61	0xbe9ab5f6	-0.3021695
62	0x3c79fd35	0.015258123
63	0xbdaad94c	-0.08342227
64	0x3d96ec97	0.07369345
65	0xbdf34944	-0.11879209
66	0xbf97ba97	-1.1853818
67	0xbfc83420	-1.5640907
68	0xbf783f5e	-0.9697169
69	0x40c88e5c	6.267378
70	0xbf580c02	-0.8439332
71	0xbe5ba8fb	-0.2145118
72	0xc008cfc2	-2.1376805
73	0xbea2c2b8	-0.31789184
74	0xbeed2db0	-0.4632392
75	0xbe2a6dc0	-0.16643429
76	0xbedddbb8	-0.43331695
77	0xbe739df2	-0.2379072
78	0xbe6c65f4	-0.23085767
79	0xbdc96465	-0.09833602
80	0xbe1a70b3	-0.15082054
81	0xbe18f7af	-0.14938234
82	0xbe6d4b9a	-0.23173371
83	0xbd6d5c6d	-0.057949472
84	0xbd438b73	-0.04774041
85	0xbef8eb74	-0.48617136
86	0xbfc0956e	-1.5045602
87	0xbe5919ec	-0.21201295
88	0xbe43a067	-0.19104157
89	0x403ad25c	2.9190893
90	0x3e4c8bbf	0.19975184
91	0xbeb7cdcd	-0.358992
92	0xbe194a49	-0.14969744
93	0xbef58935	-0.47956243
94	0xbd334dfd	-0.043775547
95	0x3dacd52e	0.08439098
96	0x3ec41415	0.3829657
97	0xbe5b8c3e	-0.21440217
98	0x3fdc4969	1.7209903
99	0xbd6d67ec	-0.057960436
100	0x403b91dd	2.9307778
101	0xbdc55a17	-0.09636324
102	0xbe1aaada	-0.15104237
103	0xbf9cbd65	-1.2245299
104	0xbe3c52cb	-0.18390958
105	0xbe0f3196	-0.1398376
106	0xc025e655	-2.5921834
107	0xbe8d38ca	-0.2758239
108	0xbe020579	-0.126974
109	0xbe4282fd	-0.1899528
110	0xbe9bbc52	-0.30417114
111	0x3c2e7a0b	0.0106492145
112	0xbe7355ed	-0.23763247
113	0xbebd1410	-0.3692937
114	0xbe951650	-0.29118586
115	0x3fe9f9ee	1.8279397
116	0xbdd46d75	-0.1037244
117	0xbf9b36b0	-1.2126064
118	0x40a08272	5.0159235
119	0xbd880e95	-0.06643406
120	0x4026928f	2.6026952
121	0xc0575be5	-3.3649838
122	0xbb9206f1	-0.004456394
123	0x3decb417	0.11557787
124	0xbe980af5	-0.2969586
125	0xbe442e4a	-0.19158283
126	0xbe6fc973	-0.2341669
127	0xbf57dba4	-0.8431952
128	0xbe4dcf02	-0.20098498
129	0xbe9d6fd9	-0.30749395
130	0xc0200bb3	-2.500714
131	0xbe0aa48a	-0.13539329
132	0xbe5de9b2	-0.21671179
133	0xbf8e2eb5	-1.1108004
134	0x40c1a114	6.050913
135	0xbea5ad63	-0.32358846
136	0x403ffef0	2.9999352
137	0x40a5d252	5.181924
138	0xbd95762f	-0.07297932
139	0x3b2e5c29	0.0026605225
140	0xbdc97264	-0.098362714
141	0xbe834966	-0.25641936
142	0x3d97e422	0.0741656
143	0xbe649401	-0.22322084
144	0xbe5f99eb	-0.21836059
145	0xbfcefc7e	-1.6170805
146	0xbe83fa72	-0.25777012
147	0xbf6dbb80	-0.9286423
148	0xbdfc2855	-0.1231238
149	0xc00f9c87	-2.2439287
150	0x3d3c7f04	0.04601957
151	0xbf34123d	-0.7034033
152	0x3c097327	0.008389271
153	0xbe6a8073	-0.22900562
154	0xbe8dbbf0	-0.27682447
155	0xbbecf87e	-0.007231771
156	0xbf25c122	-0.6474782
157	0xbde6ea89	-0.11275203
158	0xbfcc4d98	-1.596118
159	0xbe6e20e6	-0.23254737
160	0xbc98fba6	-0.018674683
161	0xbe064854	-0.13113528
162	0xbf15d9b9	-0.58535343
163	0xbdda3f56	-0.106566116
164	0xbe4a773c	-0.19772047
165	0xbe4683af	-0.19386171
166	0x3f9235a8	1.1422625
167	0x3df37ffd	0.11889646
168	0xbe823ced	-0.25437108
169	0x3cabd6cc	0.020976447
170	0xbfbf744d	-1.4957367
171	0xbe9c5300	-0.30532074
172	0xc033d8c6	-2.8101058
173	0x3d6d5289	0.05794004
174	0x3dd2e247	0.10297065
175	0xbe24d454	-0.16096622
176	0xbe18bcf8	-0.14915836
177	0xbec8470d	-0.39116707
178	0xbee1ba7d	-0.44087592
179	0x3f37d579	0.7181011
180	0x3eca6926	0.39533347
181	0xbe9c0af6	-0.30477113
182	0xbe2535d0	-0.16133809
183	0xbd3b9a14	-0.045801237
184	0xbde35fe0	-0.11102271
185	0xbe60a436	-0.21937642
186	0xbe101500	-0.14070511
187	0xbe8dc8b0	-0.27692175
188	0xbd97c34d	-0.074102975
189	0x3f903341	1.1265641
190	0xbe368711	-0.17824961
191	0xbe673e91	-0.22582461
192	0xbe0160f1	-0.12634636
193	0xbd096678	-0.033544987
194	0xbe21eb74	-0.15812474
195	0xbfa1e2fc	-1.2647395
196	0xbf685ff3	-0.90771407
197	0xbfd52dac	-1.6654563
198	0xbd9a63ea	-0.07538588
199	0xbe5478ad	-0.20749159
200	0x407593de	3.83715
201	0x4063fe7c	3.5624075
202	0x3fd8c47c	1.6934962
203	0xbed869d9	-0.42268255
204	0xbe0fe97d	-0.14053912
205	0xbdd938f2	-0.106065646
206	0xbe0493e2	-0.12947038
207	0xc01f7509	-2.4915183
208	0xbe212d79	-0.15740003
209	0xbe811032	-0.2520767
210	0xbe58abac	-0.21159238
211	0x3f998d49	1.1996242
212	0xbfa4341a	-1.28284
213	0xbe6ac0ee	-0.2292516
214	0xbe9fe893	-0.31232128
215	0x40bef97f	5.967956
216	0x3e8ca527	0.2746975
217	0xbfe62a60	-1.7981682
218	0xbe7b26a8	-0.24526465
219	0xbf8f964d	-1.1217743
220	0xbee359a1	-0.4440432
221	0x3d17d917	0.037072267
222	0xbd353df3	-0.044248533
223	0xbf97c62e	-1.1857355
224	0x402ea49b	2.7287967
225	0x40a8c8d1	5.2745137
226	0x3ef9b91f	0.4877405
227	0xbe31eda1	-0.17375804
228	0xc01a3141	-2.4092562
229	0x3f1aff79	0.6054607
230	0x40a6fbae	5.2182226
231	0xbf7b8ab9	-0.9825855
232	0xbe2e15d5	-0.17000516
233	0xbe8b23df	-0.27175805
234	0xbdfd7263	-0.12375333
235	0xbea9b0c7	-0.33142683
236	0xbf801f04	-1.0009465
237	0x3d476ec4	0.04868962
238	0xbe2519c5	-0.16123112
239	0x40973819	4.725598
240	0xbe961919	-0.29316023
241	0xbf3fd8bf	-0.74940103
242	0xbea50b0b	-0.32234988
243	0xbfe5da4c	-1.7957244
244	0xbfa3ea1c	-1.280582
245	0xbf8f6f75	-1.1205889
246	0xbdad5943	-0.08464291
247	0xbf5b9d58	-0.8578696
248	0xbda2706c	-0.07931599
249	0xbe7e310d	-0.24823399
250	0xbeb2cec3	-0.34923372
251	0x3f76d29e	0.96415126
252	0xbe825c2d	-0.2546095
253	0x3db30647	0.08741432
254	0xbe45e2af	-0.19324754
255	0xbd523c58	-0.05132708

linear2.weight f4 [3, 256]
0	0xbd230fa5	-0.03980984
1	0xbed77ddd	-0.42088214
2	0xbd1b59f0	-0.037927568
3	0xbd3425fd	-0.04398154
4	0x4028b495	2.6360219
5	0xbdcc54ee	-0.099771366
6	0xbe5d46c0	-0.2160902
7	0xbd2611a4	-0.040544167
8	0x40a0e256	5.027629
9	0xbd7fbb19	-0.06243429
10	0xbcf24bf9	-0.029577242
11	0xc10a49bf	-8.643004
12	0x3c38c44b	0.011277269
13	0xbe054795	-0.13015588
14	0xbd08f1ab	-0.033433598
15	0xbce05ee3	-0.027388996
16	0x3c5c5e9c	0.013450291
17	0x3db2a3f7	0.0872268
18	0xbd1682e6	-0.03674593
19	0xbdb72fa1	-0.08944631
20	0xbd717c6a	-0.05895654
21	0xbccf682d	-0.02531823
22	0xbf95af3b	-1.1694101
23	0x3c695afd	0.014242885
24	0xbe2bdd34	-0.16783601
25	0x3d1648b7	0.03669044
26	0xbb59c686	-0.0033229901
27	0x3d6e299b	0.058145147
28	0x3bc2167f	0.005923092
29	0x4010752b	2.2571514
30	0x3c30d63d	0.010793266
31	0x3cb18dea	0.021674115
32	0xbcfb38b7	-0.030666692
33	0xbc1953c7	-0.009358353
34	0xbcc02594	-0.023455419
35	0xbd898513	-0.06714835
36	0xbac00040	-0.0014648512
37	0xbba571c5	-0.005048963
38	0xbde58584	-0.11207107
39	0xbe3b9977	-0.18320261
40	0x3e87b33b	0.2650393
41	0xbdba0f22	-0.090849176
42	0xc0e0d0d8	-7.0254936
43	0x3d5e09ef	0.054208692
44	0x3e3cca1d	0.18436475
45	0x3e8ab47b	0.2709082
46	0x3db45ede	0.08807157
47	0x3c42b91f	0.011884957
48	0xbd966e69	-0.07345278
49	0xbd3bc28d	-0.045839835
50	0x3de98134	0.11401597
51	0x3e710108	0.2353555
52	0xbd27bb5a	-0.040950157
53	0x3dd99156	0.10623424
54	0xbc615412	-0.013752954
55	0xbc844db9	-0.016150342
56	0xbfc6e193	-1.553759
57	0xbb9eef64	-0.004850315
58	0x3d7750b7	0.06037971
59	0xbdb2bd45	-0.087275065
60	0x3a000646	0.00048837473
61	0x3ecae473	0.39627418
62	0xbad07324	-0.0015903455
63	0xbddcdf9d	-0.10784838
64	0x3d0457f2	0.032310434
65	0x3b61c198	0.0034447666
66	0xbef4e0f5	-0.4782788
67	0xbd011895	-0.031517584
68	0xc15bc673	-13.7359495
69	0x403abb42	2.9176793
70	0xc02acfb1	-2.6689265
71	0xbc4c7af2	-0.012480484
72	0x3e8a1ba4	0.26974213
73	0x3e7ec579	0.24880017
74	0xbd1c75a2	-0.03819812
75	0xbc55fa7d	-0.013060209
76	0x3d38f4f5	0.045155484
77	0xbd37f813	-0.044914316
78	0xbbd20a1c	-0.0064098965
79	0xbc1a2c1e	-0.009409932
80	0x3c8e1003	0.01734162
81	0xbd36e09e	-0.044647805
82	0xbd512761	-0.051062945
83	0xbd4c0aff	-0.049815174
84	0xbcc0a345	-0.023515353
85	0xbe2116d6	-0.15731367
86	0xbecafd54	-0.396464
87	0x3d57c8ee	0.052681856
88	0xbcaf8560	-0.021425903
89	0x3f8654fc	1.0494685
90	0x3fe55e9f	1.7919501
91	0xbda6d8b2	-0.081468
92	0xbc6b24b5	-0.014352013
93	0x3e769c9e	0.24083182
94	0xbc80c96b	-0.015721044
95	0x3cf020eb	0.029312572
96	0x3db84d8f	0.08999168
97	0xbbe7a217	-0.007068883
98	0xc014815f	-2.3203962
99	0x3e76f338	0.24116218
100	0x3fb99957	1.4499921
101	0xbd5a9ea6	-0.053373955
102	0x3d39c986	0.045358203
103	0xbe6083fb	-0.21925347
104	0xbb45a71f	-0.0030159426
105	0xbcdcb25b	-0.026940515
106	0xc02dd158	-2.7159023
107	0x3cb76cc1	0.022390725
108	0xbdd39d47	-0.10332733
109	0x3c6c0c79	0.014407271
110	0x3ba2a726	0.0049637733
111	0xbd51ffea	-0.05126945
112	0xbd37bf7a	-0.04486034
113	0xbdc64c51	-0.09682525
114	0x3d2b04c8	0.041752607
115	0x3ff59553	1.9186195
116	0xbce6a603	-0.028155332
117	0xbe2906cc	-0.16506499
118	0x4000e3f2	2.0139127
119	0x3d0500ec	0.032471582
120	0x400f1382	2.2355657
121	0xc03a4570	-2.9104881
122	0x3cbf9b59	0.023389505
123	0xbc8f36a6	-0.017482113
124	0xbb73dfc7	-0.003721224
125	0xbd7747e2	-0.060371287
126	0xbdfd7ce8	-0.123773396
127	0xbeb7e3b3	-0.35915908
128	0xbc342480	-0.01099503
129	0xbca1d3a8	-0.019754246
130	0xc0700341	-3.7501986
131	0x3c29b89f	0.0103589585
132	0x3d526948	0.051369935
133	0xbe21bfb2	-0.15795782
134	0xc0ab54bc	-5.3540936
135	0xbd08d81b	-0.03340922
136	0x3f1ecf5d	0.6203516
137	0x4003e751	2.0609934
138	0x3d2d51bc	0.042314276
139	0xbcbdce29	-0.023169594
140	0x3bbd38b9	0.005774584
141	0xbb9f1ecf	-0.0048559676
142	0xbc8e2ebd	-0.01735627
143	0xbc7a84e0	-0.015290469
144	0x3c87a0bc	0.016556136
145	0xbea525e1	-0.32255462
146	0x3e29c10a	0.16577545
147	0xbf274b47	-0.6534924
148	0xbe89a7fb	-0.2688597
149	0xbe944e26	-0.28965873
150	0x3cecec55	0.028921286
151	0x3e34d8d3	0.17660837
152	0x3b2d2988	0.002642246
153	0x3d3a355b	0.04546104
154	0xbe314b9a	-0.17313996
155	0x3b5dd996	0.0033851615
156	0xbe0c2191	-0.1368468
157	0x3c305e1f	0.010764628
158	0xbf12d0df	-0.5734996
159	0x3bbf981b	0.00584699
160	0xbc9d51a3	-0.019203966
161	0xbdcbe2fb	-0.099554025
162	0x3f57189a	0.84021914
163	0xbe073c78	-0.13206661
164	0xbba68844	-0.005082162
165	0xbcb17b30	-0.021665186
166	0xbff0b367	-1.8804749
167	0x3c57e9a8	0.013178267
168	0x3cdc94d1	0.02692643
169	0x3c864646	0.01639093
170	0xc0662dba	-3.596541
171	0x3df42419	0.119209476
172	0x3d4c8ba8	0.049937874
173	0xbd1c199a	-0.038110353
174	0xbbcb62a8	-0.006206829
175	0xbd059a41	-0.03261781
176	0xbc843a64	-0.016141124
177	0x3c8138c2	0.015774135
178	0x3d5dc033	0.054138374
179	0xc0c025d2	-6.0046167
180	0xc129baab	-10.608073
181	0xba944032	-0.0011310636
182	0x3ce8e2b9	0.028428422
183	0x3cec2408	0.028825775
184	0x3cc69d30	0.024244875
185	0xbd2b7194	-0.041856363
186	0xbd582240	-0.05276704
187	0x3e18512f	0.14874719
188	0xbc25e7c5	-0.010126059
189	0xc0a090d1	-5.017678
190	0xbd0afc74	-0.033932164
191	0xbd8f9839	-0.07011456
192	0xbd9ebb61	-0.077505834
193	0xbcde53bb	-0.027139535
194	0x3daf7d0e	0.08568774
195	0x4068a4ef	3.6350667
196	0xbd23feea	-0.040038027
197	0xbf8c33ef	-1.0953349
198	0xbc89b958	-0.016812012
199	0xbd9b3d35	-0.07580034
200	0x4058507d	3.3799126
201	0x3fa8cdd2	1.3187811
202	0xc02392d1	-2.555836
203	0x3f3d5b74	0.7396767
204	0xbcf52ffe	-0.029930111
205	0x3c5cd8be	0.01347941
206	0x3b964481	0.004585803
207	0xbf575a03	-0.8412172
208	0xbdf62d0f	-0.12020313
209	0xc0b803f5	-5.750483
210	0xbc0be0a3	-0.008537444
211	0x40d0ad8a	6.521184
212	0xbeb46d95	-0.35239854
213	0xbd7a1bbd	-0.06106161
214	0xbc19496d	-0.009355885
215	0x40666e77	3.6004922
216	0xc07d0997	-3.9537103
217	0xbeed8574	-0.4639088
218	0x3d3a9af6	0.04555794
219	0xc0811ec2	-4.0350046
220	0x3ca7310b	0.020409128
221	0xbb80ce9e	-0.0039308807
222	0xbdd7e5cd	-0.10541878
223	0xbd2899ef	-0.041162428
224	0x3e893289	0.26796368
225	0x40077e13	2.11707
226	0x3ef598aa	0.47968036
227	0x3e437029	0.19085754
228	0xc0a4ac4c	-5.1460323
229	0x3e006624	0.12538964
230	0x4014eb01	2.3268435
231	0xbdbd57d5	-0.09245268
232	0x3d329698	0.04360065
233	0xbd96c235	-0.07361261
234	0xbd0352ec	-0.032061502
235	0xbb55a880	-0.0032601655
236	0xbdc37d28	-0.09545356
237	0xbc835536	-0.016031843
238	0xbca5175f	-0.020152746
239	0x3fa12059	1.2587997
240	0x3d17c707	0.03705504
241	0xbe21b77e	-0.15792653
242	0x3cbb3574	0.022852637
243	0xc00edfed	-2.2324173
244	0xc030f7e0	-2.765129
245	0xbf345e2f	-0.7045621
246	0xbe5faaaa	-0.21842447
247	0xbaebfdc4	-0.0018004705
248	0x3d1ad4d6	0.037800632
249	0xc0780d88	-3.875826
250	0xbbb6852a	-0.0055700736
251	0x40800f4a	4.0018663
252	0x3bac7f89	0.005264227
253	0xbdf1a6b9	-0.11799378
254	0xbd6eadb7	-0.058271136
255	0x3c9fc161	0.01950139

linear2.bias f4 [3]
0	0x40c34390	6.1019974
1	0x4089248e	4.2857122
2	0x409cf96a	4.905446
