checkpoints_dqn/model_final_model_5nz48jys.pth (torch, 22824 bytes, 4 tensors)

linear1.weight f4 [256, 16]
000000 e0 bf 8b 3e 58 7d 62 3f 02 a4 9d 3e d7 92 12 3e
       0.27294827 0.8847251 0.3078919 0.14313827
000010 47 a7 94 bf 6a f6 dc 3d f7 36 23 bf 5e 7a c2 bd
       -1.1613549 0.10789187 -0.63755745 -0.09495996
000020 e0 30 2e 3e 6d 72 78 3e fa c4 43 3d 0a 14 ac 3d
       0.17010832 0.242624 0.047795273 0.0840226
000030 38 79 3a 3d 33 d6 f8 3d bf 39 53 3e 1a f8 ed 3d
       0.04552576 0.1215023 0.20627497 0.11619587
000040 56 d0 43 be f8 1c af bd 1b 78 bf 3e 9e 90 c5 3e
       -0.19122443 -0.08550447 0.3739632 0.38586897
000050 f2 f7 67 3f 71 a7 d4 be 76 63 07 bf eb e5 de 3d
       0.9061271 -0.41533998 -0.5288614 0.10883697
000060 6e e4 30 bd d6 37 69 3e c7 30 c9 bc 5d 02 24 3d
       -0.043186598 0.22775206 -0.024559392 0.040041316
000070 b0 e2 11 3f b0 32 a3 3c 5d 07 bb 3d 48 a1 d4 be
       0.5698652 0.01992163 0.09132264 -0.41529298
000080 d9 9a 91 3e 57 19 95 3f f0 ac 68 3d 36 e9 61 bd
       0.28438452 1.1648358 0.05680555 -0.055154048
000090 fe e5 5d bf 87 11 bc be 59 37 ea bd 82 8f 96 3e
       -0.86679065 -0.36732122 -0.11436338 0.29406363
0000a0 d9 db c3 3e 66 d6 ad 3d 64 84 9c 3d 18 82 1c 3e
       0.38253668 0.08488159 0.07642439 0.15284002
0000b0 85 92 1d 3e b2 f3 b5 3d ca 62 15 3d 17 51 13 3e
       0.15387924 0.08884372 0.036471166 0.14386402
0000c0 85 c4 71 3e b4 f6 b1 bc ba 87 af 3e 14 aa 0c 3f
       0.23610123 -0.021724083 0.3428324 0.5494702
0000d0 17 34 4c 3f 9d 09 bd be a3 93 a0 be 77 c6 1c be
       0.7976698 -0.36921397 -0.31362638 -0.15310083
0000e0 b5 20 92 bd 2c 87 52 3e 1e 7d 20 bd b3 27 7d bb
       -0.071351446 0.20559376 -0.03918182 -0.00386284
0000f0 d7 53 90 3e b4 4d ab 3e 12 3a 54 be af 03 1a bc
       0.28188965 0.3345772 -0.20725277 -0.009400292
000100 55 b3 e4 3e 9c 3f 6b 3d 5f 62 9d be 7c 73 09 3e
       0.4466807 0.05743371 -0.30739114 0.1342296
000110 86 9a 23 3e 39 74 c3 3f c7 1b 8a 3f 6a 80 68 3f
       0.15976915 1.5269843 1.0789727 0.90820944
000120 1d 7a aa 3e f8 b0 89 3e 42 06 08 3f df 44 b8 3e
       0.3329629 0.2689283 0.5313455 0.35990044
000130 2d 3b f7 3e 46 33 3e 3e 07 45 08 3f e2 a9 66 3f
       0.48287335 0.18574247 0.5323033 0.9010297
000140 f0 82 1d 3f ad f9 11 bd 6b 3d 95 be a4 1b 12 3e
       0.6152792 -0.0356385 -0.2914842 0.14268357
000150 a1 05 cc 3d 63 f0 a0 3f 0a 80 33 3f 2e 70 66 3f
       0.09962011 1.257336 0.7011725 0.9001492
000160 d3 c5 0d 3f f0 36 fb 3e 1c 6f 62 3e 98 9e 08 3f
       0.5537998 0.4906535 0.22112697 0.53366995
000170 55 48 e0 3e 59 a7 12 3f 64 42 e0 3e 4c 83 49 3f
       0.43805185 0.572866 0.43800652 0.7871597
000180 e7 7d 8f 3e 62 a3 0d 3d cd a2 17 3e 45 2a ff 3e
       0.28025743 0.034579642 0.14808197 0.49836937
000190 15 91 0b 3f 3f 4d 07 bf 8b 83 1b bd 08 49 81 be
       0.5451825 -0.52852243 -0.037967246 -0.2525103
0001a0 cf 13 52 be 15 71 b0 bd 5f 48 a2 3c 30 f6 85 3e
       -0.20515369 -0.08615319 0.0198099 0.2616439
0001b0 55 44 3f 3e 59 ff 51 3e d0 41 a5 3e 98 90 31 bd
       0.1867841 0.20507564 0.32276773 -0.043350786
0001c0 a6 c0 97 be 05 4c 2a bf cd 32 04 bd f4 dd ed 3d
       -0.29639167 -0.66522247 -0.03227501 0.116146
0001d0 84 4d 16 3f 8e 18 9b be c6 8e a9 be d8 4c f3 3e
       0.5871203 -0.3029217 -0.3311674 0.47519565
0001e0 4c a2 3a bf 3b 2a d5 bd ce 04 96 3e c8 b7 1b be
       -0.72903895 -0.104084454 0.2930054 -0.15206826
0001f0 58 74 84 3e 51 96 cc bd c3 0d 5e 3e 7e 91 82 3e
       0.25870013 -0.09989608 0.21684937 0.25501627
000200 14 74 fc 3e 12 f0 36 3d d2 1f d4 be 7d a9 78 3e
       0.4930731 0.044662543 -0.41430527 0.24283405
000210 b8 42 97 3e 24 91 82 3f 24 33 41 3f cc fa ff 3e
       0.2954309 1.0200543 0.7546866 0.4999603
000220 8e 90 ed 3e 32 9b b7 3e 27 fc a5 3e 47 5a 48 3e
       0.4639935 0.35860592 0.3241894 0.19565688
000230 0e 39 91 3e 69 f2 70 3e ba fa fe 3e d5 5f 6a 3f
       0.28363842 0.23529972 0.49800664 0.9155248
000240 2d 2a 44 3f 80 1b 85 3f 6f 87 39 be bf a4 19 3e
       0.76626855 1.0399017 -0.1811807 0.15004252
000250 1e d4 9d bf 88 98 e5 be a2 f0 c4 be 19 25 d3 bc
       -1.2330358 -0.44842935 -0.38464838 -0.025774525
000260 11 d7 2f 3e b0 57 df 3d e9 b4 e8 3d cf 61 0a bc
       0.17171885 0.10905397 0.11362631 -0.008446171
000270 bd d8 b0 3d 01 09 96 3e 68 c3 73 3d 7f 8b 97 3e
       0.086350895 0.29303744 0.059512526 0.29598615
000280 88 7b 1a bf a6 1c cd bd 27 2b 56 3e 52 e6 04 bf
       -0.60344744 -0.1001523 0.20914899 -0.5191394
000290 f7 3c 59 3f 9e ce 5b be 36 84 8d be 5a 26 9d 3e
       0.8485865 -0.21465537 -0.2763993 0.30693322
0002a0 ce 0e 9a 3e 81 e4 8b 3e c1 5d a3 bc 24 41 4f 3d
       0.3008942 0.27322772 -0.019942166 0.050599232
0002b0 c6 d1 b3 3d 95 c7 8b 3d fe b7 04 bf 87 8b f9 be
       0.087802455 0.068251766 -0.5184325 -0.48739263
0002c0 b8 c3 41 bf 3d 9b f2 3e f0 b6 3b 3f ac d1 22 bf
       -0.7568927 0.47384062 0.73326015 -0.63601184
0002d0 e8 6b 25 3e cc 60 26 be 87 c6 07 3f b2 fe 36 be
       0.16154444 -0.16247863 0.53037304 -0.17870596
0002e0 a0 c1 33 be 7c 27 56 bd 1f 82 98 3d 7f 6b ef 3e
       -0.17554331 -0.05228375 0.07446694 0.467617
0002f0 42 d6 c4 3e 46 4a 20 be 22 cd 5c be d2 b4 4c bd
       0.38444716 -0.15653333 -0.21562627 -0.04997713
000300 64 46 ff 3e f1 be 71 3d ef 6f ed be e3 28 d0 3d
       0.4985839 0.059019987 -0.4637446 0.101640485
000310 43 c7 18 3f c1 e9 82 3f 4e 05 80 3f bf 12 2c 3f
       0.5967905 1.0227586 1.0001619 0.67216104
000320 c0 e0 83 3e 90 ec b0 3e aa 52 b8 3e cd 9c 2f 3e
       0.25757408 0.34555483 0.36000568 0.17149659
000330 15 e0 ba 3d 22 cb a3 3e be 89 d6 3e 11 cd 2c 3f
       0.091247715 0.31990916 0.41901964 0.67500407
000340 13 cd fd be c4 0f 0d 3f 8b 3b 49 be 82 89 85 3c
       -0.49570522 0.5510218 -0.1965162 0.01630092
000350 cc 9b 1d 3f be 35 21 bf b9 1f e5 bd f7 7a 03 be
       0.6156585 -0.6297263 -0.11187691 -0.12839876
000360 f7 65 0c bd ce 82 83 be 5c 20 26 bd a6 86 cf 3d
       -0.03427693 -0.25685734 -0.040558204 0.10133104
000370 c0 d2 1a 3e 74 cd e4 3d 78 e7 a9 3e 16 f8 b5 3a
       0.15119457 0.111719996 0.3318441 0.001388314
000380 b9 74 12 3f 86 93 3f bf e6 95 b4 be 92 6d 74 bd
       0.57209355 -0.7483448 -0.35270613 -0.059674807
000390 e0 e5 14 3f 0f 0b f8 be 98 6e 4e 3e e6 5b 28 3e
       0.5816326 -0.48445937 0.20159376 0.16441306
0003a0 a8 9e 39 3e 5f 01 a6 3e 19 ed f8 3d 62 61 2d bd
       0.18126929 0.3242292 0.12154598 -0.0423292
0003b0 7f c0 3f bc 8b 5e 40 be 76 5c c8 3c 32 1f e3 3e
       -0.0117036095 -0.18786065 0.024458151 0.44359738
0003c0 df 4b 4c 3e b9 e4 60 bf 1e 80 47 39 97 9c c0 3e
       0.19950818 -0.87849003 0.00019025846 0.3761947
0003d0 5f 2a 57 3f 40 30 da bd cf c4 b1 be 98 6e ae 3d
       0.8404903 -0.10653734 -0.34720466 0.08517188
0003e0 ff 15 63 3e ca 3b f8 3d 3f af 48 3e 4d 95 64 be
       0.2217636 0.12120779 0.19598101 -0.22322579
0003f0 68 99 b5 3e 26 be f7 3b 24 0d 23 3c d3 fc 9b 3e
       0.35468602 0.0075605093 0.009951863 0.30466327

linear1.bias f4 [256]
000000 ea b4 a5 3d 54 c0 1c bf 9d dd e1 be 08 18 0f bf
       0.08091147 -0.6123097 -0.4411439 -0.55896044
000010 61 2d af 3f 31 ca a5 3f db d6 0b bf 51 74 d2 bd
       1.3685724 1.2952329 -0.5462472 -0.10276092
000020 6c 30 a3 3f 24 8d 92 be 8c cc 05 bf 54 e2 a1 bd
       1.2749152 -0.28623307 -0.5226524 -0.07904497
000030 f1 42 b7 3f 3e 3b ab be e9 1c 37 bf f3 e7 ec be
       1.4317304 -0.33443636 -0.7152849 -0.46270713
000040 9d 32 30 bf d3 73 08 be 00 ff 36 bd 41 13 ff be
       -0.6882723 -0.13325433 -0.04467678 -0.49819377
000050 6e 86 23 bf a4 fc 20 be b9 53 d4 3f c7 3a 1e bf
       -0.63877 -0.15721375 1.658805 -0.6180844
000060 71 fc 43 be b6 6d fd be 70 b1 fe be ed d7 93 3e
       -0.19139268 -0.49497765 -0.4974475 0.28875676
000070 44 2b e9 be b6 ba 21 bf f0 ad d1 be 85 a1 be 3f
       -0.45540822 -0.63175523 -0.40953016 1.4893042
000080 71 1f b6 3e 18 07 98 3f 9e 57 99 3f 26 28 9c 3f
       0.35570863 1.1877165 1.1979864 1.2199752
000090 81 14 a2 bd 6e f7 72 3f d7 b9 be 3d c1 8e 87 3f
       -0.07914067 0.949088 0.0931279 1.059044
0000a0 86 aa 00 bf 68 26 e0 be 6c 57 f4 be ad eb 27 be
       -0.502602 -0.43779302 -0.47722948 -0.16398497
0000b0 a8 b1 79 be b6 b8 0f be 68 8d 54 be 37 23 20 bf
       -0.24384177 -0.14035305 -0.20757067 -0.62553734
0000c0 32 87 8a 3f b5 93 f4 be 22 37 1d bf 3a 02 10 bf
       1.0822508 -0.47768942 -0.6141225 -0.562534
0000d0 ab c7 b0 be 10 7a a5 be 32 d4 bd 3f 7c bf 10 bf
       -0.34527335 -0.3231969 1.4830382 -0.5654218
0000e0 73 c2 b0 be b2 d9 66 be a2 6a a4 be bd 7b 94 3e
       -0.34523353 -0.22543982 -0.32112604 0.29000655
0000f0 97 0d 2e bf ec d6 7e 3f 5f 63 a7 3f 04 3b 72 3f
       -0.67989486 0.99546695 1.3077201 0.946213
000100 cb b0 88 3a 92 28 0f bf a3 cd 21 be 63 cc 99 3f
       0.0010428665 -0.5592128 -0.158011 1.2015499
000110 13 9a 87 3f 78 a8 76 3f fe f7 9c 3f 70 8b 81 bd
       1.0593895 0.9635081 1.2263181 -0.06325424
000120 d9 fc d3 be a4 df 8b 3e fe ed e2 bd bb 31 ac 3f
       -0.41403845 0.27319062 -0.1108055 1.3452677
000130 cd ce f9 be 97 a7 4b be a6 01 b7 3e 8e d4 2e bf
       -0.4879059 -0.19888149 0.35743445 -0.6829308
000140 8b 19 ba bd 3b 5b 77 3f 66 36 98 be 7f 48 cc bd
       -0.09086903 0.9662358 -0.29729003 -0.09974765
000150 3d 39 0f bf 14 7c af 3f cd 3b d5 3f 0c 0d 12 bf
       -0.55946714 1.3709741 1.6658875 -0.5705116
000160 43 ba 0d bf a4 26 ef 3f 13 a5 e0 3f 3a a1 aa 3a
       -0.5536234 1.8683667 1.7550377 0.001301802
000170 b5 b5 9a 3f c4 d5 39 be f8 e5 f4 be 7d 2d 23 bf
       1.2086703 -0.18147951 -0.47831702 -0.63741285
000180 03 bb 9d 3e 18 ba 59 be bd d4 9f be 31 6b 9f be
       0.3080674 -0.21262395 -0.31216994 -0.31136468
000190 66 4e 71 be 41 a1 e3 bd ba 3c 02 3f 85 b3 af be
       -0.23565063 -0.11114741 0.5087391 -0.3431665
0001a0 fb 2c 7c be 83 f7 63 3f 3a d3 a0 3f 88 7e 11 3f
       -0.24626534 0.8904955 1.2564461 0.56833696
0001b0 e8 5a 5a be 52 21 ab bd 58 87 fb bd d2 20 6d be
       -0.2132374 -0.08355965 -0.12281674 -0.23157051
0001c0 c5 57 57 3f 38 09 c3 be ea 41 a0 3f 5b cb 80 be
       0.841183 -0.3809297 1.2520115 -0.25155148
0001d0 fd 02 81 be 4f 1c 24 bf 8b d0 19 be fd db 19 bf
       -0.25197592 -0.64105695 -0.15020959 -0.601013
0001e0 2d d7 e0 bd 54 4f 30 be 24 01 b0 3f 06 d3 83 3d
       -0.109785415 -0.17217761 1.3750348 0.06436734
0001f0 a1 74 cf 3f 9c be 84 3f dc a4 8b bd d4 b4 a8 3f
       1.6207467 1.0370669 -0.06818554 1.3180184
000200 2e ab 32 be 77 ef 9f be fd c5 b9 3a 4f 6f 34 3d
       -0.17448112 -0.31237385 0.0014173385 0.044051465
000210 1e 44 05 bf fa 07 d6 be dd a5 d0 be d8 77 1f be
       -0.52057064 -0.4180296 -0.40751544 -0.1557306
000220 46 40 03 bf 0b ff 3f bf 8c 36 7c 3f 75 e9 52 be
       -0.5126995 -0.7499854 0.9852073 -0.2059687
000230 d5 df 0c bf 09 91 02 bf 42 80 57 be a8 38 bb 3f
       -0.5502904 -0.51002556 -0.2104502 1.4626665
000240 4e ba 90 be 00 70 14 bf c3 96 eb be 9d 07 24 be
       -0.2826714 -0.579834 -0.4601346 -0.16018529
000250 07 49 9f 3f 89 cf e3 3f ce d2 80 3f 3e a5 48 be
       1.2444161 1.779771 1.0064332 -0.19594285
000260 c6 5f 25 3f 4a 6e 92 3f 24 5a 67 3e d7 60 17 bf
       0.64599264 1.1439908 0.2259298 -0.5913214
000270 c4 b3 f2 bc 46 ba 19 bf 5c 42 db be cd 31 b9 3d
       -0.029626735 -0.60049856 -0.42824066 0.09042702
000280 0e 0c b4 be d9 f7 bb 3f 43 11 24 3f 61 8a 60 be
       -0.35165447 1.4685012 0.6408884 -0.21927787
000290 6f 31 0c bf f2 a7 10 bf 2f 0e 0e 3f 24 80 06 bf
       -0.5476293 -0.56506264 0.5549039 -0.5253928
0002a0 96 53 5a be d0 43 61 3f 99 23 a6 be f2 28 a1 bd
       -0.21320948 0.879941 -0.32449034 -0.07869138
0002b0 cb 6d ae be 63 0b d8 be 29 fc 0d be a6 29 86 3f
       -0.3406814 -0.42196187 -0.13865723 1.048146
0002c0 25 89 98 be 8b e1 aa be 7d 51 d6 3e 75 b4 3e be
       -0.29792133 -0.333752 0.41859046 -0.18623526
0002d0 aa 92 f4 be f8 1c c3 be 8e 09 b0 3f fc 2e 44 3c
       -0.47768146 -0.3810804 1.3752916 0.011974093
0002e0 db cc 81 3f 45 5b 8f be f7 e5 8c 3f 38 34 51 bc
       1.0140642 -0.2799932 1.100768 -0.012768798
0002f0 a4 3e 1a 3f 66 72 da bc 9e ea a5 be bc 44 c9 3f
       0.6025183 -0.026665878 -0.3240556 1.5724101
000300 9b 5e 1e bf c2 73 eb bd 4f a5 aa be 18 79 0e bf
       -0.61863106 -0.114966884 -0.33329245 -0.55653524
000310 03 2c 9c 3f 45 6a ea be b4 bb 1e be 39 b1 11 bf
       1.2200931 -0.45784202 -0.1550129 -0.56911045
000320 72 bb a2 3f 8a e9 76 bd 8d ff b1 3f eb 65 91 3f
       1.2713454 -0.060281314 1.3906113 1.1359228
000330 30 a2 bd 3e 29 77 9f 3f 0c 1c 72 be 6e 85 9e 3f
       0.37037802 1.245824 -0.23643512 1.238447
000340 54 d2 6c be db 2e 0a bf eb c7 1b bf c9 59 70 bd
       -0.23127109 -0.53977746 -0.60851926 -0.058679376
000350 5a a6 ab bd 83 7c b5 3d 48 65 4c be 3a 31 4e 3f
       -0.083813384 0.08861639 -0.1996051 0.80543864
000360 da b0 0f 3f ca 39 80 3f c9 ee 28 be 5d 09 2a be
       0.5612923 1.0017636 -0.1649734 -0.16605134
000370 bd fb c4 3d ca 5c cf bd f7 2f 07 bf e7 eb bf 3e
       0.09618328 -0.1012512 -0.52807564 0.37484667
000380 0c 0c 9c be 55 12 96 be 49 d9 fb be b6 5c 98 be
       -0.3047794 -0.2931086 -0.49189213 -0.29758233
000390 64 b7 3e 3f 29 af ae 3f 99 13 a8 3f 59 f8 86 bd
       0.7449858 1.3647205 1.3130981 -0.06590337
0003a0 39 d9 2b bf 47 b0 f5 be cd 91 3a 3c cc e9 a2 3f
       -0.6712833 -0.4798605 0.011387301 1.2727599
0003b0 69 dd 0d bf 00 1e 9c 3f 00 09 8d be da a7 86 3f
       -0.5541597 1.2196655 -0.2754593 1.0519974
0003c0 d2 44 a1 3f 37 d4 82 be 84 c3 b4 be 02 66 08 be
       1.2599127 -0.25552532 -0.35305417 -0.13320163
0003d0 eb 30 15 bf 0e 2a 1f bf 78 2b e3 3f 76 4d 6d be
       -0.5827777 -0.62173545 1.7747641 -0.2317408
0003e0 10 ea c9 3e a0 82 e8 3d 08 6d 1d 3f 13 b9 a4 3f
       0.39436388 0.1135304 0.61494493 1.286898
0003f0 20 67 87 3f 82 5b 16 3f b6 8a 7a be 91 55 9f 3f
       1.0578346 0.5873338 -0.24466977 1.2447988

linear2.weight f4 [3, 256]
000000 54 48 69 c0 2d 45 ad bf 0d 2e de bf 72 81 92 bf
       -3.6450396 -1.3536736 -1.7357804 -1.1445754
000010 8e 94 1f 3f e3 65 17 3f 7c 15 6f bf 71 c3 3e c0
       0.6233605 0.5913984 -0.9339216 -2.9806788
000020 0f 7b 32 3f 73 12 2b c0 0e 02 b4 bf 84 b4 8d bf
       0.6971902 -2.673001 -1.4063127 -1.1070714
000030 8b 2e 4b 3f 08 3b a9 be 5e 31 cd bf cb d7 c5 bf
       0.79367894 -0.3305285 -1.6030691 -1.545648
000040 3a 5b 07 c0 f6 7d ad 3a b3 e7 b1 c0 2d c1 58 c0
       -2.114943 0.0013236392 -5.5595336 -3.3867905
000050 f6 f5 b5 bf a4 2d 77 bf 46 e6 2e 3f df fa a6 bf
       -1.4215686 -0.9655402 0.6832012 -1.304531
000060 f2 0d 1e c0 68 ef e8 bf b5 eb 32 c0 46 01 29 40
       -2.4696012 -1.8198061 -2.7956364 2.6407027
000070 b4 c3 9f c0 91 1b e5 bf 4e b7 0b c0 40 aa c0 3f
       -4.9926395 -1.7899038 -2.183063 1.5051956
000080 0b 76 6d 3e 72 5e 3f 3f 01 2d 21 3f 77 27 06 40
       0.23189561 0.7475349 0.62959296 2.0961587
000090 be 0d 03 c1 6e ca 33 3f ab 03 2c 3f e5 2c 58 3f
       -8.190855 0.7023076 0.67193097 0.84443504
0000a0 45 31 27 c0 c3 0b b4 bf 05 96 33 3f 88 43 2d c0
       -2.6123822 -1.4066089 0.70150787 -2.7072468
0000b0 b8 7f 0d c1 2f 28 43 3f 5a 4d 38 3d 07 9c 91 be
       -8.843681 0.7623319 0.044995643 -0.28439352
0000c0 7c 54 25 3f 89 05 50 bf 8e e7 d1 bf e8 cd d4 bf
       0.6458204 -0.81258446 -1.639879 -1.6625338
0000d0 a2 71 f9 bf b5 fd 64 c0 77 eb 28 3f 6b d4 2a c0
       -1.9487803 -3.577985 0.6598429 -2.669215
0000e0 3c 98 2d c0 36 00 6f c0 63 0d 39 bf 06 14 bc 3f
       -2.7124166 -3.7343879 -0.7228605 1.4693611
0000f0 b7 eb a6 bf ca 1c 46 3f 6f 21 3b 3f b3 15 d8 3e
       -1.3040684 0.7738768 0.7309789 0.42204055
000100 f4 91 ae c0 12 62 a4 c0 80 bf 74 bf 9a 6a 0c 3f
       -5.4553165 -5.1369715 -0.95604706 0.5485016
000110 e1 3d 4f 3f 1e 2e 2e 3f 7c 71 42 3f 0b ad 2c bf
       0.80953795 0.6803912 0.75954413 -0.6745154
000120 3b eb 18 c0 80 6f 1a 3f 6a 18 24 c0 a3 77 2f 3f
       -2.3893573 0.60326385 -2.56399 0.68541926
000130 db 32 4a c0 5c c6 36 c0 78 98 67 bf 66 83 d3 c0
       -3.159354 -2.855857 -0.90467024 -6.60979
000140 2b d8 4c c0 22 52 13 3f 64 87 32 bf 82 98 8f 3d
       -3.2006938 0.575472 -0.6973784 0.070115104
000150 44 8b ed c0 38 a1 1d 40 bc e8 36 3f 06 5d aa c0
       -7.42325 2.462965 0.71448874 -5.3238554
000160 31 4d 05 c0 14 04 04 3f fe 3d b9 3e ee 9e 9f 3f
       -2.0828364 0.5156872 0.3618011 1.2470376
000170 45 42 0c 3f d8 c5 62 3c d6 65 48 c0 ea 00 53 3e
       0.5478862 0.013841115 -3.1312156 0.20605817
000180 ba 12 2c 3f 80 96 a4 bf 28 05 dd bf ca 9f e3 bf
       0.67216074 -1.2858429 -1.7267199 -1.7783139
000190 3c f9 33 c0 ea 56 8f c0 89 87 dc 3e 92 cb 00 c0
       -2.812087 -4.4793596 0.43072155 -2.012425
0001a0 5c d2 82 bf 51 62 c6 3f 92 b4 5f 3f 6c 42 80 bf
       -1.0220447 1.5498754 0.87384903 -1.002027
0001b0 c4 cd 59 bd 07 4a 0c c0 a8 37 46 c0 2d dd 83 be
       -0.05317475 -2.1920183 -3.097147 -0.2575468
0001c0 7e d1 b3 3f b0 5c be bf ea 0e 4e 3f 05 8d af 3e
       1.4048307 -1.4872036 0.8049151 0.34287277
0001d0 d7 65 9b 3e 2f bd 37 c0 08 95 57 c0 d0 85 87 bf
       0.30351135 -2.8709219 -3.3684711 -1.0587711
0001e0 f9 6c 19 c0 85 cf 62 c0 5b 74 1a 40 a6 f7 20 3f
       -2.3972762 -3.543916 2.4133518 0.6287788
0001f0 71 22 dc 3e ee 72 33 3f a2 a7 10 3f ce 23 43 3f
       0.42995027 0.70097244 0.5650579 0.7622651
000200 68 48 8f c0 bf d8 5e c0 2b 56 ea bf 43 c3 53 c0
       -4.4775887 -3.4819791 -1.8307546 -3.3087928
000210 5d 9c 61 c0 2d 5b 59 bf 71 08 01 c0 ba 41 a1 be
       -3.5251687 -0.8490475 -2.0161402 -0.31495458
000220 de 52 e7 bf ce 38 ff bf 82 05 fa 3f 23 6f 99 c0
       -1.8072164 -1.993921 1.9532931 -4.7948165
000230 01 05 c9 bf 8c 2e aa bf d5 ac 46 c0 ec 63 f0 3f
       -1.5704652 -1.3295455 -3.1042988 1.8780494
000240 48 fb e1 be c7 78 91 c0 26 b0 9c bf 8b 1d 80 bf
       -0.44137025 -4.5459933 -1.2241256 -1.0009016
000250 99 a2 01 3f 4f c8 de 3e d2 20 00 3f f7 f2 64 c0
       0.5063873 0.43512198 0.5005008 -3.5773294
000260 4a 41 f4 3f 9a 30 49 3f f7 9e 1a 40 e2 2f e9 bf
       1.9082425 0.78589785 2.4159524 -1.8217738
000270 a0 93 9e c0 77 63 06 c0 f6 a9 aa bf 4d ef a1 3e
       -4.9555206 -2.0998209 -1.3333118 0.31627885
000280 fe 54 07 c0 9b d7 2e 3f c8 6a b4 be 9e 0b aa bf
       -2.1145625 0.6829774 -0.35237718 -1.3284795
000290 f7 fa cf bf ce 4f 11 3e 8c ce f0 3f d2 c2 0a c0
       -1.6248463 0.141906 1.8813033 -2.168141
0002a0 0e 34 75 bf cf 46 31 3f 50 dc f3 bf 01 a8 e6 3e
       -0.95782554 0.6924867 -1.9051609 0.45050052
0002b0 9a 37 07 c0 eb 55 29 c0 4e e0 5b bf 9b 1a 2d 3f
       -2.1127687 -2.645869 -0.85889137 0.6761872
0002c0 52 15 0f c1 dc 58 a1 bf 34 03 15 40 cc e5 2f 3f
       -8.942705 -1.2605243 2.3283205 0.6871002
0002d0 b4 96 51 bf 17 3e 14 c0 8b 0d 40 3f 11 11 3c c0
       -0.8187058 -2.3162897 0.75020665 -2.9385417
0002e0 99 2d 36 3f 07 02 8a c0 73 e5 f9 3e af 7a 06 bf
       0.71163327 -4.3127475 0.48807868 -0.5253095
0002f0 1a 5e 9e 3f 1e bc 6c 3f 58 84 d7 bf ec ae 34 3f
       1.2372468 0.92474544 -1.6837263 0.7057941
000300 1e e5 93 be 85 c7 c2 3b 8b 87 b4 bf 1a 85 7c bf
       -0.2888574 0.0059441947 -1.4103864 -0.98640597
000310 7d e0 30 3f b9 7f ab bf b0 73 d1 bf 10 d8 81 bf
       0.6909254 -1.3398353 -1.636343 -1.0144062
000320 29 2f 50 3f c6 bb 64 bf 96 9e 22 3f 3b 3e 3d c0
       0.8132196 -0.8934902 0.6352323 -2.9569232
000330 b8 f6 98 40 2f 4f 43 3f e2 1b 42 3e 6c 18 48 3f
       4.780117 0.762927 0.18955949 0.78162265
000340 f2 ad 51 bd 76 5d 2a c0 46 ab 3d c0 e7 de 99 bf
       -0.051191278 -2.6619544 -2.9635787 -1.2021149
000350 c7 11 a4 bf 6a bb 70 c0 c6 88 8f bf 3a fc 7b be
       -1.2817925 -3.7614388 -1.1213615 -0.24607936
000360 69 27 04 3f 64 d6 38 3f 95 3b 09 c0 7a 7b 7c c0
       0.51622635 0.72202134 -2.1442616 -3.9450364
000370 b7 de 33 3f 6f bf 47 c0 7e 0d 02 c0 41 2a 18 bf
       0.7026171 -3.1210592 -2.0320735 -0.59439474
000380 5f 92 72 bf 3b fc 13 c0 ed 49 2d bf 2d b0 fe bf
       -0.94754595 -2.31227 -0.67690927 -1.9897515
000390 88 cb b5 3f 10 dc 2f 3f aa 9c fb 3e be 4c 61 3f
       1.4202738 0.68695164 0.49142963 0.88007724
0003a0 8e 6d 94 bf 88 fb 81 bf a2 b2 59 3f 28 06 15 3f
       -1.1595933 -1.0154886 0.850382 0.5821252
0003b0 3f 80 17 c0 62 c4 40 3f 29 21 23 bf 73 f2 4c 40
       -2.3672025 0.75299656 -0.63722473 3.202298
0003c0 58 13 2f 3f 5f 75 d9 bf 6c 7a 4c c0 e5 84 3f c0
       0.6838889 -1.6988944 -3.194972 -2.9924862
0003d0 51 de 4a bf c8 06 b0 be 62 39 29 3f 00 71 be bc
       -0.7924548 -0.34380174 0.66103184 -0.023247242
0003e0 bf e7 da 3e 32 47 a6 3f 5f 82 18 40 b2 ad 0e 40
       0.42754933 1.2990477 2.3829572 2.2293515
0003f0 ec 30 46 3f bc 7f 0d 40 c7 5e 4b c0 81 54 33 3f
       0.774184 2.2109213 -3.1776597 0.7005082

linear2.bias f4 [3]
000000 c2 52 88 3f 18 3e 9f 3f a8 69 98 3f
       1.0650256 1.2440825 1.1907244
