checkpoints_dqn/model_final_model_d9tr8v60.pth (torch, 23259 bytes, 4 tensors)

linear1.weight f4 [256, 16]
1.808594 0.33347058 0.23736031 0.34120327 -1.2499651 -0.8999087 0.061252274 0.25031602
0.112956636 -0.046159357 0.26530117 -0.07691804 0.12855256 0.18711902 0.2009003 0.6302032
1.1496762 0.37746447 0.3328172 1.089793 0.9079856 -1.0262587 0.09714783 0.6788015
0.17562148 0.07386147 0.07655106 -0.012255273 -0.22250965 -0.33775508 -0.02434203 -0.28264272
0.46549156 -0.4164937 0.1316103 0.8176447 1.349644 -0.59653157 0.18104008 -0.12427039
-0.05302653 -0.20371373 -0.40438908 0.17314225 0.07169457 0.0067514325 0.55851567 0.7090348
1.5847061 0.98813474 -0.8066024 -0.6213643 2.6323736 1.9385728 0.48005092 0.27235276
0.10999427 0.14123006 0.58450574 0.351896 0.62489533 0.29726982 0.52721936 0.9331953
0.800027 -0.4472192 0.035854165 -0.13665585 -0.6360223 2.1144354 1.7101471 1.4834789
1.1998312 0.5230387 0.4592739 0.30508074 0.45158166 0.7635423 0.88037354 1.3813971
1.218373 -3.0400677 1.1629378 -1.5071864 -3.7056131 0.32025543 -0.83940494 -0.095906466
0.22256401 0.45417702 0.61889815 -0.08819697 0.16812383 0.5565337 -0.5745475 -1.4326196
0.17407006 -0.45288497 -0.19252777 -0.10836353 -0.29656157 -0.06862058 -0.16230357 -0.5128287
-0.23279786 -0.21114695 -0.2853675 -0.3602668 -0.43891713 -0.2439029 0.12500584 -0.042061113
0.07703993 -0.23317108 -0.16419345 -0.083213955 0.03909278 -0.21998033 -0.10771826 -0.14966714
0.0006928146 -0.0930258 -0.017323941 -0.16940743 -0.17159879 -0.14585045 -0.08557436 -0.19732022
-0.22903624 -0.4417721 0.44290185 0.59918165 -0.75727206 -0.15258792 0.701601 -0.59989005
-0.98592037 -0.29757878 -0.118030004 -0.28418243 0.16052446 0.43523663 0.6152552 0.87761086
-0.18606213 -0.08135138 0.15877816 0.05729697 0.21419969 -0.2606865 -0.14591181 -0.2678142
-0.14782809 -0.3859752 -0.023632322 -0.33467993 0.08084833 0.061159 0.0817302 -0.07787579
0.17509678 1.1338865 -0.5210736 -0.7269417 2.1410594 -0.23779953 -0.5175099 0.7729655
0.027276738 -0.22822532 -0.3050031 -0.18485242 0.19986108 -0.19407699 -0.3101378 -0.05537155
-1.6950828 -1.353702 -0.40665206 -0.56147546 1.3567879 -0.42085728 0.39982 -0.11654737
-0.17035608 -0.26447424 -0.09591044 -0.1141553 -0.39765158 -0.2800892 -0.35204896 -0.26984692
0.75945276 0.9956035 0.33306074 -0.40009972 2.1743422 -0.8587714 0.23494063 -0.28355652
-0.87227684 -0.367409 -0.041253027 0.08973201 0.0064990786 -0.30960914 -0.092901625 0.17530066
0.1696785 2.7410831 0.40692812 0.14958443 -3.573456 -1.1025219 -0.24421397 0.2343609
0.34753433 0.2517071 0.30240744 -0.025952505 0.24581833 0.3526487 0.23457153 0.3871518
0.50393796 0.4770711 0.6321343 -0.30196738 0.36185047 -1.0312132 -0.3706853 0.661445
0.57777303 0.4725382 0.1317232 0.07469559 -0.09229983 0.20149416 0.32993886 -0.15737918
0.021558892 -0.8433928 1.5414051 1.0508621 1.886782 0.50192845 -2.067604 -0.26406017
-0.00040607053 0.8211553 0.29897988 -0.25367185 -0.96101296 -0.99894005 -0.9896392 -1.5623982
00000000: 0280 e73f a8bc aa3e 950e 733e 32b2 ae3e
00000010: dbfe 9fbf 6b60 66bf aae3 7a3d 6c29 803e
00000020: cf55 e73d 9811 3dbd 8ed5 873e 3587 9dbd
00000030: 48a3 033e 219c 3f3e cfb8 4d3e ff54 213f
00000040: 9728 933f 0643 c13e 0467 aa3e 567e 8b3f
00000050: bf71 683f 725c 83bf 71f5 c63d efc5 2d3f
00000060: 1ed6 333e af44 973d cdc6 9c3d 57ca 48bc
00000070: 92d9 63be 3cee acbe f068 c7bc 8cb6 90be
00000080: e954 ee3e aa3e d5be dac4 063e 2a51 513f
00000090: 22c1 ac3f 4bb6 18bf 9262 393e 7981 febd
000000a0: 5932 59bd 559a 50be 160c cfbe 344c 313e
000000b0: 9ad4 923d 1f3b dd3b e2fa 0e3f 4e83 353f
000000c0: a6d7 ca3f 66f6 7c3f 7f7d 4ebf bb11 1fbf
000000d0: cf78 2840 2723 f83f 3cc9 f53e d271 8b3e
000000e0: ad44 e13d 9d9e 103e 2ba2 153f b62b b43e
000000f0: 24f9 1f3f c033 983e d9f7 063f e3e5 6e3f
00000100: 92ce 4c3f eaf9 e4be d1db 123d 83ef 0bbe
00000110: 5cd2 22bf e952 0740 1ae6 da3f a3e2 bd3f
00000120: 1294 993f dde5 053f f325 eb3e 8b33 9c3e
00000130: b635 e73e 8277 433f 2960 613f 9fd1 b03f
00000140: a5f3 9b3f 7890 42c0 25db 943f 7ceb c0bf
00000150: c428 6dc0 85f8 a33e 3ee3 56bf 9c6a c4bd
00000160: d2e7 633e e489 e83e 1c70 1e3f 9da0 b4bd
00000170: a728 2c3e fe78 0e3f 8c15 13bf 1460 b7bf
00000180: 6c3f 323e 8ae0 e7be 0026 45be b3ed ddbd
00000190: ebd6 97be f288 8cbd e832 26be be48 03bf
000001a0: 9062 6ebe e836 58be b01b 92be e474 b8be
000001b0: bfb9 e0be afc1 79be 8801 003e 4648 2cbd
000001c0: 1cc7 9d3d 66c4 6ebe 5422 28be 146c aabd
000001d0: c01f 203d 8642 61be 649b dcbd 5842 19be
000001e0: 009e 353a 5084 bebd f0ea 8dbc 2479 2dbe
000001f0: 98b7 2fbe d259 15be 9c41 afbd 500e 4abe
00000200: 7a88 6abe f42f e2be 08c4 e23e f863 193f
00000210: 95dc 41bf 0240 1cbe 209c 333f 6592 19bf
00000220: 4765 7cbf 3f5c 98be b7b9 f1bd 5c80 91be
00000230: 8660 243e 56d7 de3e 5d81 1d3f 1bab 603f
00000240: 1287 3ebe 8d9b a6bd be96 223e 3ab0 6a3d
00000250: 2a57 5b3e b378 85be e869 15be f11e 89be
00000260: 3f60 17be 8b9e c5be 9298 c1bc 2b5b abbe
00000270: cf93 a53d dc81 7a3d 2a62 a73d 587d 9fbd
00000280: 924c 333e 3123 913f 1465 05bf da18 3abf
00000290: 1e07 0940 b881 73be 877b 04bf 11e1 453f
000002a0: 7773 df3c e6b3 69be 5e29 9cbe f449 3dbe
000002b0: 62a8 4c3e 1ebc 46be 62ca 9ebe 47cd 62bd
000002c0: 79f8 d8bf 1b46 adbf b334 d0be dbbc 0fbf
000002d0: 3aab ad3f 9b7a d7be 35b5 cc3e 63b0 eebd
000002e0: d371 2ebe 2b69 87be b16c c4bd 41ca e9bd
000002f0: fd98 cbbe da67 8fbe c33f b4be 6029 8abe
00000300: 7f6b 423f dfdf 7e3f f086 aa3e dfd9 ccbe
00000310: 6c28 0b40 71d8 5bbf 4794 703e 522e 91be
00000320: 894d 5fbf 081d bcbe eff8 28bd 6bc5 b73d
00000330: 39f6 d43b 1785 9ebe 3543 bebd 0482 333e
00000340: 33c0 2d3e e86d 2f40 e258 d03e a92c 193e
00000350: 81b3 64c0 701f 8dbf 3a13 7abe 4efc 6f3e
00000360: 05f0 b13e c1df 803e 26d5 9a3e 599a d4bc
00000370: cdb7 7b3e 5f8e b43e 8533 703e c338 c63e
00000380: 1402 013f aa42 f43e 8ed3 213f 789b 9abe
00000390: 7744 b93e cbfe 83bf 77ca bdbe 7654 293f
000003a0: efe8 133f 87f0 f13e 72e2 063e 00fa 983d
000003b0: b107 bdbd 7c54 4e3e bfed a83e 0228 21be
000003c0: 469c b03c 97e8 57bf c34c c53f a682 863f
000003d0: 1382 f13f 627e 003f a053 04c0 e532 87be
000003e0: dde5 d4b9 3c37 523f e413 993e 47e1 81be
000003f0: f204 76bf 89ba 7fbf ff58 7dbf aafc c7bf

linear1.bias f4 [256]
-1.1275543 -0.7958116 -0.58767813 1.9302641 2.176009 0.535075 -0.33994502 0.11471012
-0.35642695 -0.26962447 -0.4009414 -0.78396493 -0.79701155 -1.0427654 -0.8996285 0.91592544
-0.825242 1.3285096 -0.04401067 -0.55398566 0.05590909 0.061017442 -0.58870876 0.91426086
-0.71114933 -0.040986575 -1.117506 -0.46580803 -0.13050997 1.9242134 0.61344385 1.9116962
1.9629397 -0.14994727 -1.210016 -1.237516 -0.08825864 1.7128221 -0.88108027 0.9939179
1.2945218 -0.7190912 -1.0799013 0.29732734 0.7232057 2.017587 2.1626506 1.0307261
-0.5093654 -0.46922085 1.4978564 -0.4158994 -0.1635221 -0.74648726 2.2871263 0.32212248
1.9783844 0.17653896 -0.014310039 -0.7783673 0.6810227 0.0052937227 0.03829504 -0.09105616
-0.117885396 0.77859163 0.35239276 -1.1710529 1.2097796 -0.1484432 -0.24563536 -1.2392688
-0.1972171 -0.46084344 1.9578674 -0.14664274 -1.0817807 -0.21237086 -0.5199645 1.7415634
-0.17631708 -0.13280411 -0.36664245 0.15530676 -0.5536545 -0.46924466 0.5740016 -0.21201295
-0.8782118 1.4133619 -0.5678297 -0.78227454 1.056924 -1.3096849 1.6411327 -0.2603506
0.4721847 -0.75880164 -0.032699864 -0.048118286 -0.7266922 -0.7936295 -0.13325903 -0.21863972
-1.0248477 0.09345393 -0.18577765 -0.86234194 -0.89612925 -0.74130094 -0.2548883 -0.32997563
-0.22207575 0.5060728 0.49638924 0.5097486 2.1044898 2.1619773 0.7897921 -0.5778234
0.12706855 -1.0893499 0.6571696 0.01039735 0.5680933 -0.19158283 -0.7751266 0.6586309
0.11207459 0.009102964 0.526931 -0.7587589 -0.9452789 0.5550975 -0.5065742 -0.8922484
-0.15429065 2.1894424 -0.44721496 -0.41388825 -0.07896204 -0.22212867 -1.0708559 -1.1181804
0.58972716 -0.7884924 -0.48382768 0.26396957 -0.463953 -1.1685681 2.430701 -0.86916006
1.1735679 -0.8584812 -0.11287511 -0.4987786 -0.05820809 -0.86413646 -1.1103148 -1.1257341
0.4565317 0.99329185 -0.6474305 -0.315844 0.6236203 -0.029124843 -0.70891243 2.3930597
-0.8827703 -0.30634508 -1.045431 0.57475936 -1.3033481 1.1107082 -0.61940265 -0.8492439
-1.1459465 -0.13779494 1.8120637 1.9500293 -0.22814456 0.39635992 0.68693775 -0.16028248
-0.36345133 -0.21937642 -0.6665997 -0.02532708 -0.40895903 2.072434 0.082134046 -0.28320134
-0.69701517 2.3921206 0.06819929 -0.3566169 -0.8555538 -0.20181932 -0.9829772 -1.1000262
2.2388809 -0.13544452 -1.141157 -0.50397193 0.5041693 -0.10434238 -0.669183 -0.7480985
0.0673726 0.5166024 -0.26742822 -0.16235125 1.3248901 -1.1095093 1.6620531 -0.53042626
0.36535105 -0.14143458 -0.23079443 -0.71472627 0.26765427 -0.39749804 -0.420251 -1.1106021
0.046364877 0.48277768 0.10019404 -0.50533235 0.0977934 1.0317564 2.1263452 1.2310212
-0.035431825 -0.5290645 0.17181127 -0.626202 -0.64410454 -0.25700158 -0.9537557 1.9760846
0.3127698 -0.41891858 1.2741972 -0.48090526 1.3085245 -0.61913973 2.7852993 -0.10900872
-0.2265742 -0.6286011 0.7122914 1.7116926 0.99771845 1.9849368 -0.70604587 -0.7117286
00000000: b353 90bf 4fba 4bbf 1372 16bf e512 f73f
00000010: bb43 0b40 adfa 083f 460d aebe 24ed ea3d
00000020: 987d b6be 380c 8abe 3148 cdbe edb1 48bf
00000030: f308 4cbf 5679 85bf 0e4e 66bf 177a 6a3f
00000040: 0f43 53bf 9a0c aa3f 8844 34bd 01d2 0dbf
00000050: ee00 653d 6ded 793d 9eb5 16bf 000d 6a3f
00000060: e20d 36bf 8ae1 27bd 700a 8fbf 647e eebe
00000070: 68a4 05be a04c f63f a80a 1d3f 76b2 f43f
00000080: 9c41 fb3f c78b 19be cee1 9abf ed66 9ebf
00000090: f2c0 b4bd c13d db3f 7a8e 61bf 6771 7e3f
000000a0: e4b2 a53f 5c16 38bf 353a 8abf 4a3b 983e
000000b0: 0224 393f 2520 0140 de68 0a40 d5ee 833f
000000c0: c565 02bf b73d f0be c2b9 bf3f c4f0 d4be
000000d0: 5672 27be ca19 3fbf 4760 1240 3ded a43e
000000e0: b33b fd3f a1c6 343e a774 6abc 1443 47bf
000000f0: 8157 2e3f f776 ad3b 43db 1c3d a77b babd
00000100: e66d f1bd c851 473f d36c b43e 10e5 95bf
00000110: 0fda 9a3f 7f01 18be d687 7bbe 5ca0 9ebf
00000120: 48f3 49be acf3 ebbe 669b fa3f 8429 16be
00000130: ca77 8abf bf77 59be 651c 05bf 8deb de3f
00000140: 778c 34be cdfd 07be 8fb8 bbbe bc08 1f3e
00000150: 4dbc 0dbf d640 f0be c5f1 123f ec19 59be
00000160: 7dd2 60bf 0be9 b43f 4a5d 11bf 2543 48bf
00000170: 4949 873f c1a3 a7bf a310 d23f ad4c 85be
00000180: 31c2 f13e d340 42bf 4bf0 05bd ae17 45bd
00000190: 8008 3abf 4e2b 4bbf 0e75 08be 17e3 5fbe
000001a0: 362e 83bf c664 bf3d 7f3c 3ebe 71c2 5cbf
000001b0: ba68 65bf e6c5 3dbf b880 82be 91f2 a8be
000001c0: d367 63be fd8d 013f bb26 fe3e e27e 023f
000001d0: f6af 0640 d65d 0a40 d12f 4a3f 3cec 13bf
000001e0: 421e 023e d16f 8bbf 443c 283f a659 2a3c
000001f0: 906e 113f 4a2e 44be b26e 46bf 099c 283f
00000200: 5d87 e53d 9924 153c f3e4 063f 063e 42bf
00000210: ccfd 71bf df1a 0e3f d9ae 01bf 646a 64bf
00000220: 5efe 1dbe d31f 0c40 5cf9 e4be 29e9 d3be
00000230: dab6 a1bd b375 63be ce11 89bf 8920 8fbf
00000240: 5cf8 163f a3da 49bf 43b8 f7be 0527 873e
00000250: 3f8b edbe a493 95bf 9b90 1b40 4681 5ebf
00000260: 7937 963f 6dc5 5bbf 112b e7bd e95f ffbe
00000270: 9b6b 6ebd 0c38 5dbf cc1e 8ebf 0e18 90bf
00000280: 86be e93e 6048 7e3f 01be 25bf 4eb6 a1be
00000290: 94a5 1f3f 3997 eebc 497b 35bf e427 1940
000002a0: 3cfd 61bf 43d9 9cbe afd0 85bf 6e23 133f
000002b0: 1cd4 a6bf b02b 8e3f 2c91 1ebf 0c68 59bf
000002c0: 60ae 92bf 1e1a 0dbe b4f1 e73f 8f9a f93f
000002d0: ba9e 69be b0ef ca3e 27db 2f3f 1721 24be
000002e0: 4b16 babe 36a4 60be 47a6 2abf bd7a cfbc
000002f0: 1463 d1be c2a2 0440 e535 a83d c4ff 90be
00000300: 966f 32bf 8118 1940 12ac 8b3d 7e96 b6be
00000310: 9305 5bbf b9a9 4ebe 65a4 7bbf a9cd 8cbf
00000320: d349 0f40 f8b1 0abe 6f11 92bf 4e04 01bf
00000330: 3d11 013f 75b1 d5bd 944f 2bbf 6283 3fbf
00000340: a5fa 893d 0e40 043f 5aec 88be 683f 26be
00000350: 0096 a93f 6704 8ebf 28be d43f 04ca 07bf
00000360: 4b0f bb3e 3ad4 10be 6055 6cbe 4df8 36bf
00000370: fb09 893e dd84 cbbe 242b d7be 3628 8ebf
00000380: 19e9 3d3d a32e f73e 8832 cd3d 765d 01bf
00000390: e847 c83d 9810 843f 0a16 0840 1a92 9d3f
000003a0: f620 11bd c570 07bf 4bef 2f3e c64e 20bf
000003b0: 09e4 24bf b695 83be 5529 74bf 57f0 fc3f
000003c0: 5d23 a03e 7f7c d6be e518 a33f 3739 f6be
000003d0: bb7d a73f f17f 1ebf 5842 3240 f73f dfbd
000003e0: 1103 68be 00ec 20bf bb58 363f be18 db3f
000003f0: 7a6a 7f3f 6912 fe3f 6cbf 34bf d833 36bf

linear2.weight f4 [3, 256]
-3.4739254 -1.0609548 -1.3707167 1.039058 1.2846652 1.3628849 0.1030984 -0.040544167
-1.6301218 -0.05307911 0.41100347 -2.9015121 0.7842305 -8.8433275 -0.55562735 2.1752715
-1.907074 3.1239796 -0.03674593 -1.3806533 -0.05895654 0.62265825 -1.0393552 1.8094201
-0.40553543 -0.50286883 0.3279514 0.42026177 -0.7450159 1.131027 2.1171763 1.0923344
1.241603 -0.032111246 -0.9842625 -0.61759555 0.035808787 -0.58753633 -5.4647946 1.3961345
0.24169563 -1.666903 -3.9990094 1.8552494 1.2663423 1.2392869 3.4178684 0.89179295
-6.472949 0.6206434 5.001531 -1.2022173 -0.040950157 0.8168423 0.89747065 -1.3175756
1.3241692 0.65441924 -0.042218424 -0.42387205 1.7879326 -2.3181412 0.0294336 1.1244086
0.53113246 2.6641588 -2.6486492 -0.7782818 3.0920408 2.9023583 1.3429464 0.8125096
-4.3144937 -0.0072715157 1.3383384 -0.01227558 0.20788498 -0.016852587 -2.5547912 1.2269292
-3.6803472 -2.638083 -0.026164725 -8.244167 0.1777132 -1.1858386 -3.1898012 0.052681856
-1.8419044 1.87252 -2.7959888 -2.5402427 0.83759063 0.08017661 1.1322954 -2.0124035
2.4350135 -0.67210424 -0.061925 0.18427356 -1.3495287 0.84727275 -0.046618972 -0.03542037
-3.3351896 -0.35718086 0.2672129 0.7796992 -4.903648 0.0012924726 -0.0033038212 -1.8186891
-0.04486034 -2.7371502 4.521622 1.1205015 1.244898 0.93842536 -0.0016830054 -5.559023
-6.109413 -1.571385 -4.599226 -0.040052544 0.7021816 -0.060371287 -0.80408716 0.39239419
3.7725468 2.2210932 -1.1045998 -2.2215466 -0.80424815 0.66169775 0.76156235 -0.6380085
0.6056911 1.2456906 -1.3061262 0.5039776 -0.025990933 0.0038058567 0.8512334 0.64038414
0.42946446 0.75285655 0.3871108 -5.0493803 -11.116737 0.613321 1.1670667 -0.051440775
0.37214074 -2.8881724 -1.6156907 -2.3005114 2.852817 -0.9061593 -0.23218954 -1.8267472
2.8419847 1.8769828 -2.2068381 -0.76091355 1.9321823 3.7156403 0.26504225 1.3129301
-0.73875904 -2.8252242 -0.079417825 1.71032 -0.103638746 0.49247622 -1.8344146 0.37173107
-4.3189354 0.14759216 0.98414344 1.3297629 -0.20091553 3.953283 -2.3667197 -1.2019429
-1.499306 -0.041856363 0.32277387 -5.7276816 -1.229854 1.2755544 -2.1682405 -3.8779192
-1.6678454 0.5206907 1.4551054 -2.9181485 -1.7679421 -0.04602275 -1.0394592 -1.4395475
1.3944213 0.64686036 -1.7628956 -1.5896378 -2.7352164 0.0119506745 -1.8242289 -0.20076568
1.2225153 1.9062843 -0.16374005 -0.0020062288 1.8138492 -1.836848 1.3485475 -3.482753
-0.65194273 2.9920983 0.062709026 -3.0368805 1.1036551 -3.2992487 -0.3951632 0.13864674
-6.7582994 -2.0422423 0.65289825 -2.1669652 2.0772526 -2.8897831 1.2727073 0.8043973
0.1733177 -6.8306 4.1154265 -2.520294 -0.91052896 -1.8184074 -0.6715491 1.3641785
1.125809 -2.0402472 1.3964386 -5.295177 0.8887273 -1.9787998 1.2968038 -0.0020809004
-1.5780691 0.09444224 -2.248741 1.3623736 1.6907916 0.65945566 -5.067233 -2.2020314
00000000: cb54 5ec0 5ecd 87bf a573 afbf daff 843f
00000010: e96f a43f 0373 ae3f 4125 d33d a411 26bd
00000020: d5a7 d0bf 7b69 59bd 0c6f d23e 60b2 39c0
00000030: 54c3 483f 457e 0dc1 983d 0ebf a637 0b40
00000040: 001b f4bf 48ef 4740 e682 16bd 3fb9 b0bf
00000050: 6a7c 71bd 8866 1f3f 9709 85bf 149b e73f
00000060: 57a2 cfbe 03bc 00bf 3fe9 a73e 8d2c d73e
00000070: 5db9 3ebf 7ec5 903f d17f 0740 9dd1 8b3f
00000080: d9ec 9e3f 1587 03bd a1f8 7bbf be1a 1ebf
00000090: 3cac 123d c868 16bf 99df aec0 89b4 b23f
000000a0: 0f7f 773e 145d d5bf c5ef 7fc0 d078 ed3f
000000b0: 8117 a23f f4a0 9e3f 5bbe 5a40 8b4c 643f
000000c0: 6622 cfc0 7ce2 1e3f 8b0c a040 42e2 99bf
000000d0: 5abb 27bd 941c 513f a3c0 653f 51a6 a8bf
000000e0: 607e a93f 0588 273f 3aed 2cbd c205 d9be
000000f0: fada e43f 6d5c 14c0 bc1e f13c 9fec 8f3f
00000100: 4cf8 073f 9481 2a40 7883 29c0 7a3d 47bf
00000110: ffe3 4540 3dc0 3940 abe5 ab3f a100 503f
00000120: 5510 8ac0 e545 eebb ac4e ab3f 841f 49bc
00000130: cddf 543e 700e 8abc b381 23c0 040c 9d3f
00000140: cf8a 6bc0 5ad6 28c0 6857 d6bc 1ce8 03c1
00000150: 73fa 353e 8fc9 97bf b425 4cc0 eec8 573d
00000160: 86c3 ebbf bcae ef3f 7bf1 32c0 5693 22c0
00000170: 576c 563f a233 a43d 0eef 903f 38cb 00c0
00000180: 43d7 1b40 060f 2cbf 12a5 7dbd 35b2 3c3e
00000190: 5bbd acbf dee6 583f 89f3 3ebd f314 11bd
000001a0: bf73 55c0 69e0 b6be 21d0 883e 5e9a 473f
000001b0: afea 9cc0 2f68 a93a ec84 58bb ceca e8bf
000001c0: 7abf 37bd 782d 2fc0 21b1 9040 986c 8f3f
000001d0: d158 9f3f a53c 703f 4a98 dcba 84e3 b1c0
000001e0: 5080 c3c0 2523 c9bf dc2c 93c0 230e 24bd
000001f0: 2cc2 333f e247 77bd a8d8 4dbf e4e7 c83e
00000200: 6871 7140 6426 0e40 8763 8dbf d22d 0ec0
00000210: 35e3 4dbf 0665 293f c0f5 423f 8654 23bf
00000220: 920e 1b3f ca72 9f3f 252f a7bf ad04 013f
00000230: f0ea d4bc ae6b 793b 6fea 593f 37f0 233f
00000240: c4e2 db3e 35bb 403f 6333 c63e 8694 a1c0
00000250: 28de 31c1 9b02 1d3f 7162 953f 90b3 52bd
00000260: 3b89 be3e d1d7 38c0 f4ce cebf 943b 13c0
00000270: 8e94 3640 0efa 67bf 18c3 6dbe dad2 e9bf
00000280: 14e3 3540 f940 f03f d63c 0dc0 3bcb 42bf
00000290: c051 f73f 0dcd 6d40 9eb3 873e 180e a83f
000002a0: 501f 3dbf 79d0 34c0 d0a5 a2bd c4eb da3f
000002b0: 8d40 d4bd d825 fc3e 19ce eabf 8953 be3e
000002c0: b834 8ac0 6622 173e d3f0 7b3f ac35 aa3f
000002d0: cdbc 4dbe 9702 7d40 5678 17c0 44d9 99bf
000002e0: 42e9 bfbf 9471 2bbd 9e42 a53e 2b49 b7c0
000002f0: db6b 9dbf 5e45 a33f 74c4 0ac0 d42f 78c0
00000300: f57b d5bf fc4b 053f e540 ba3f f2c2 3ac0
00000310: ed4b e2bf 5a82 3cbd 000d 85bf 1843 b8bf
00000320: 667c b23f a498 253f 90a6 e1bf 4079 cbbf
00000330: c90d 2fc0 c3cc 433c 5580 e9bf 8595 4dbe
00000340: 627b 9c3f 2001 f43f 79ab 27be ef7a 03bb
00000350: 362c e83f d61d ebbf 349d ac3f 6de5 5ec0
00000360: b8e5 26bf 8a7e 3f40 976d 803d 405c 42c0
00000370: 9244 8d3f e426 53c0 d552 cabe 69f9 0d3e
00000380: fd43 d8c0 19b4 02c0 5724 273f 8faf 0ac0
00000390: b5f1 0440 35f2 38c0 13e8 a23f fbec 4d3f
000003a0: 327a 313e 4694 dac0 93b1 8340 7f4c 21c0
000003b0: 6d18 69bf 93c1 e8bf a4ea 2bbf 679d ae3f
000003c0: 821a 903f 6993 02c0 80be b23f 1772 a9c0
000003d0: a283 633f 5049 fdbf abfd a53f b75f 08bb
000003e0: 2bfe c9bf ef6a c13d 5feb 0fc0 4262 ae3f
000003f0: dc6b d83f 16d2 283f c626 a2c0 15ee 0cc0

linear2.bias f4 [3]
2.0554907 1.6117158 1.8241038
00000000: 298d 0340 b44c ce3f 3c7c e93f
