checkpoints_dqn/model_final_model_yh6wumvh.pth (torch, 23259 bytes, 4 tensors)

linear1.weight f4 [256, 16]
000000 50 59 83 3e 9b 8b 58 3f ce 7c 97 3f fd a2 47 3e
       0.25654078 0.8458802 1.1834962 0.19495769
000010 f1 c9 e1 bf 60 24 cc 3c 20 9d 85 bf 99 a3 c7 bf
       -1.7639753 0.024919689 -1.0438576 -1.5596801
000020 16 00 02 bf f6 6d 27 bd d7 58 bb 3e 0b 91 df be
       -0.5078138 -0.04087635 0.36591217 -0.43665347
000030 9e 29 19 3d 74 56 62 3e 98 4a 41 3f 38 0e 7d 3f
       0.037393205 0.22103292 0.75504446 0.9884982
000040 f0 a4 f2 3f ed 57 33 3f cd 0f 32 3e e7 71 02 3f
       1.8956585 0.7005604 0.1738884 0.5095505
000050 00 45 dd 3d 19 ad 6e bf 76 3d 89 bd 21 3d ce 3d
       0.10804176 -0.93232876 -0.06701176 0.10070253
000060 c6 e3 93 be e4 0c cf bd be 88 cd 3e 48 f8 21 3d
       -0.28884715 -0.101098806 0.40143389 0.03954342
000070 3f 60 b1 3d ab cc 15 bd 26 f5 35 3f ea b9 e1 3e
       0.086609356 -0.03657214 0.7107719 0.44087154
000080 1c 2f 08 40 1f 3f dc be 24 18 37 bf 6a 21 39 3e
       2.1278753 -0.43016908 -0.7152121 0.18079153
000090 72 f6 ad be 1d e5 b1 3f 7e 8e ba bf bf 63 b1 bf
       -0.33977085 1.3898045 -1.4574735 -1.3858565
0000a0 01 44 81 3d 21 9f 53 be 21 7f ab be f3 48 97 be
       0.06311799 -0.20666172 -0.3349543 -0.29547843
0000b0 6d f2 3f be 74 6e 17 bf 85 64 09 be ed 1c 05 bf
       -0.18744822 -0.59152913 -0.13417251 -0.5199726
0000c0 68 41 81 3f ef 91 95 bf 93 9f 8a 3f e7 07 4a bf
       1.0098085 -1.168516 1.0829948 -0.7891831
0000d0 b9 77 a3 bf d4 8d e2 3e 0b 67 da bd 15 44 58 bd
       -1.2770911 0.4424883 -0.10664185 -0.052799303
0000e0 d7 f1 b7 3e fc 2a bc 3e 20 f0 e8 3e 41 6d 3d bc
       0.35926697 0.36751544 0.454957 -0.011561693
0000f0 93 b0 20 3c 88 ad 89 3e a4 8b a0 3e 6a f1 ba be
       0.009807724 0.26890206 0.31356537 -0.3651231
000100 2a bf 32 3f 32 c8 73 bf ca e6 95 be a5 57 cd bd
       0.69822943 -0.9522735 -0.2927764 -0.100264825
000110 e5 ef 8d bf 39 d9 d3 3f 40 72 00 40 9c 28 d1 3f
       -1.1088835 1.6550666 2.0069733 1.6340518
000120 b4 e0 8a 3f b9 be dd 3e 37 b1 d0 3e a8 03 98 3e
       1.0849824 0.43309572 0.40760204 0.2969029
000130 0c 25 a8 3e 76 00 3c 3f 42 0e 84 3f 80 5f cd 3f
       0.32840765 0.73438203 1.0316851 1.6044769
000140 e7 47 13 3f 15 02 39 3f de 9c ed be 6c 24 63 3e
       0.5753159 0.722688 -0.46408743 0.22181863
000150 67 61 a2 3f 86 97 54 3e 53 c5 0d bf 29 f4 27 bf
       1.2685975 0.20760927 -0.5537922 -0.65606934
000160 4b 6f 4c bf 7e fd ac be d3 09 b3 be b2 5f f0 be
       -0.7985732 -0.3378715 -0.34968433 -0.4694801
000170 7d 70 3e 3e f0 f3 32 3f 10 da 07 3e 1f 6d ff bd
       0.18597598 0.6990347 0.13266778 -0.12471985
000180 4b 0b 49 3f 31 42 ab bf 42 87 3e 3e 05 a0 b3 bf
       0.78532857 -1.3379575 0.18606284 -1.4033209
000190 79 30 ad 3b fd c7 e0 3d 12 28 ab be 4e 40 1a 3e
       0.0052853194 0.10975645 -0.3342901 0.15063593
0001a0 51 72 1c 3f 38 4b d9 3e 13 6a 4a bd fa 55 51 bd
       0.61111933 0.424402 -0.049417567 -0.051107384
0001b0 89 d0 a6 bd 30 72 8e bd 64 63 00 3e 69 81 11 be
       -0.08145244 -0.06955373 0.12537915 -0.14209522
0001c0 1c c7 9d 3d 66 c4 6e be 54 22 28 be 14 6c aa bd
       0.07703993 -0.23317108 -0.16419345 -0.083213955
0001d0 c0 1f 20 3d 86 42 61 be 64 9b dc bd 58 42 19 be
       0.03909278 -0.21998033 -0.10771826 -0.14966714
0001e0 00 9e 35 3a 50 84 be bd f0 ea 8d bc 24 79 2d be
       0.0006928146 -0.0930258 -0.017323941 -0.16940743
0001f0 98 b7 2f be d2 59 15 be 9c 41 af bd 50 0e 4a be
       -0.17159879 -0.14585045 -0.08557436 -0.19732022
000200 ac f9 3e 3f 12 5b a6 3f 6c 93 29 3f 42 c1 e2 3d
       0.7459972 1.2996542 0.6624057 0.11072017
000210 f6 9d c2 3f 8e f9 49 be 43 4f 19 bf de d5 5f bf
       1.5204456 -0.19724104 -0.5988657 -0.8743571
000220 64 fa 1c bf d7 1f 43 be c7 96 03 3e 75 bf ff bd
       -0.61319566 -0.19055115 0.12850486 -0.124876894
000230 90 2b 81 3e 83 67 7a 3e 34 19 d4 3e 9d d1 a1 be
       0.25228548 0.24453549 0.41425478 -0.31605235
000240 51 1c f3 bd 4a b4 a4 3f e6 fd b2 3e 79 d5 e6 be
       -0.11870635 1.286752 0.34959334 -0.45084742
000250 e0 91 9e 3f 6a eb 12 bf 4d 91 df be 99 6f 31 bf
       1.2388268 -0.57390463 -0.43665543 -0.6931091
000260 37 17 fe be 95 79 8e be 3a 22 2b be fa fa a9 bd
       -0.49627087 -0.27827135 -0.16712275 -0.08299823
000270 14 df c8 3d 8e a8 ae 3e 4a bb 38 3f 77 73 a6 3e
       0.09808174 0.34112972 0.7216078 0.32509968
000280 d0 3d 99 3e c6 e5 9c 3e 88 49 56 be d2 bb 1e bf
       0.29929972 0.30644053 -0.20926487 -0.6200534
000290 b3 f0 81 3f 35 d2 7c bf 8e 15 b1 bd 96 b2 02 3d
       1.015158 -0.9875825 -0.08646689 0.031908594
0002a0 21 cc ef bd b1 35 80 be 0b 0f ae be 20 3c ba 3e
       -0.117088564 -0.25040963 -0.33995852 0.36373997
0002b0 80 67 2c 3f 5f e3 3c bb cf 87 8c 3e 3e 82 a4 3e
       0.6734543 -0.0028822047 0.27447364 0.32130617
0002c0 ac 8e 60 3f 99 7d 15 bf 26 b9 27 bf dd e9 b3 be
       0.877177 -0.5839477 -0.6551689 -0.3513936
0002d0 99 b9 00 3f 07 59 2a bf 19 51 53 3f 97 4c 43 be
       0.502832 -0.66542095 0.8254562 -0.19072185
0002e0 2f 24 30 3e 76 c7 89 3e 0c 6e 90 3e b1 4b a8 3e
       0.17201303 0.2690999 0.2820896 0.32870248
0002f0 63 6e 72 3d 91 bf 2b be ce 60 ce bd 87 e2 d5 3d
       0.059187304 -0.16772296 -0.10077058 0.10443597
000300 8c 6c af bc d2 eb 07 3e 94 aa 12 bd 7d ad 22 bd
       -0.021414064 0.13273552 -0.035807207 -0.039716233
000310 be f1 cd bc 93 9e 24 be 0d 46 8f 3d fd d4 78 3d
       -0.025139686 -0.16076116 0.06995783 0.060749996
000320 15 6e 81 be 66 96 51 be d7 84 21 3d b5 c3 20 bd
       -0.25279298 -0.20467529 0.039433327 -0.03924914
000330 0b c8 27 be 25 24 2d be 3b 60 ee bd 4e ec e3 bd
       -0.16384904 -0.1690832 -0.11639448 -0.11129056
000340 74 d3 9a 3f aa c7 e2 3f d0 4c 74 3e eb 54 87 3e
       1.209578 1.7717183 0.23857427 0.26431975
000350 ec be 4d bf 06 fc 24 bf b2 a6 0f be 3d 2f c9 3e
       -0.8036945 -0.6444706 -0.14028433 0.39293852
000360 76 f7 86 3e 90 67 e3 3d b6 b9 0f 3e 61 00 15 bb
       0.26360673 0.11103737 0.14035687 -0.0022735822
000370 30 86 98 3d 26 07 64 3e 3a d2 f0 3e 9e 7f d4 3e
       0.07447469 0.22268352 0.4703539 0.41503614
000380 23 3c 26 bf 7a 9d 13 40 6b b5 81 3d 18 a0 a7 be
       -0.6493551 2.3064866 0.06333431 -0.3273933
000390 50 e7 1d c0 25 ff 54 bf e3 a3 48 bd c8 df 1a 3f
       -2.4672432 -0.8320182 -0.04898442 0.60497713
0003a0 57 58 0a 3e 68 ae 3e 3d 19 eb 97 3d 28 c8 29 bd
       0.13510261 0.046553046 0.07417888 -0.04145065
0003b0 2e 1d e4 3e 84 c9 a7 3e ed 34 cd 3e 54 ca fa 3e
       0.44553512 0.32770932 0.40079442 0.4898249
0003c0 fc 82 2f 3e 09 9c 05 be 13 ca 3a be 63 9e a3 bd
       0.1713981 -0.13047804 -0.18241148 -0.07989194
0003d0 5a 8c b1 be 61 11 a4 be 8c a1 8c bd 10 ad fa 3b
       -0.34677392 -0.3204451 -0.0686675 0.007650025
0003e0 4f bf 2c be dd e1 24 3e e2 a6 75 be 7b 42 ab be
       -0.16869853 0.16101785 -0.23989442 -0.33449158
0003f0 a8 24 00 be bf 7b e4 bd ef 12 c5 bd 75 cc 50 be
       -0.12513983 -0.11156415 -0.09622752 -0.20390494

linear1.bias f4 [256]
000000 5d 82 4f be 1b a7 33 bf 41 07 b3 3f a0 4b de 3e
       -0.20264573 -0.7017686 1.3986589 0.43417072
000010 a3 bc db 3f 3d 53 d8 3e 4d 76 25 be 24 ed ea 3d
       1.7166942 0.42251006 -0.1615841 0.11471012
000020 88 68 cd be 24 35 15 bf b6 52 93 bf aa a7 83 bf
       -0.40118814 -0.5828421 -1.1509616 -1.0285542
000030 42 b8 ca bd 44 a5 15 bf 11 57 33 bf 76 82 bf 3d
       -0.09898426 -0.584553 -0.7005473 0.09351055
000040 2e 94 66 bf f8 07 2d bf 88 44 34 bd 4d e4 c7 3f
       -0.90069854 -0.67590284 -0.04401067 1.5616547
000050 e5 00 65 3d c1 5d d0 3d a4 8e 96 be 6b 4b f7 3d
       0.055909056 0.10174132 -0.294057 0.12074932
000060 61 f3 fa be b9 2e b0 be 52 71 34 3e b0 ee 4b 3f
       -0.49013808 -0.34410647 0.17621353 0.79661083
000070 e6 d7 89 3e a3 3f db 3f 27 12 d8 3e ac ff dd 3f
       0.2692253 1.7128795 0.4220135 1.734365
000080 da 70 e0 3f 11 92 74 3f 96 26 89 bf 6b cb 9a 3e
       1.753444 0.9553538 -1.07149 0.3023332
000090 e6 19 36 3f a6 a0 db 3f e6 46 a2 bf dc 53 b8 bd
       0.7113327 1.7158401 -1.2677886 -0.0900037
0000a0 f0 a6 0f be f0 ed 41 3e f3 55 e5 be 32 09 97 be
       -0.14028525 0.18938422 -0.44792137 -0.29499203
0000b0 e7 a0 25 bf 69 db d2 3f 51 56 d1 be fd e9 15 bf
       -0.6469864 1.6473209 -0.40886167 -0.5856016
0000c0 08 14 34 bf cc 5f 07 bf 0a bb 51 3f 16 be 4a be
       -0.70343065 -0.5288055 0.81926024 -0.19799075
0000d0 56 72 27 be 36 cd 24 bf 93 3c 86 3c c9 30 a8 3f
       -0.1635221 -0.6437563 0.016386306 1.3139888
0000e0 87 23 6f 3f d2 25 81 bf f7 63 70 bc cf a6 41 bf
       0.93413585 -1.0089667 -0.014672271 -0.75645155
0000f0 e5 da 3a 3f 6b 6e c2 be a5 7c 43 bf 99 39 c2 bd
       0.72990257 -0.37974867 -0.7636207 -0.09483642
000100 39 90 cb 3e 2c fb a4 3f af d4 e2 3e 68 2c 4f bf
       0.3975847 1.2889152 0.4430289 -0.80927134
000110 7e 60 34 3f 2b 29 dd 3e 9c 70 e8 be fb 5f 48 bf
       0.70459735 0.4319547 -0.45398414 -0.78271455
000120 1c 25 73 bd 58 44 de be d2 01 a3 bf ca 35 0b be
       -0.059361562 -0.43411517 -1.273493 -0.13594738
000130 00 3b ab bf 72 5e 5c be ba 83 94 be 88 0a eb bd
       -1.337738 -0.21520403 -0.2900675 -0.11476618
000140 98 f8 50 bf 81 73 ef bd 8b 27 c6 be a7 f6 ae 3d
       -0.81629324 -0.116919525 -0.38702044 0.08543139
000150 82 e3 67 bf 10 ed 54 be a3 86 03 bf ec 19 59 be
       -0.90581524 -0.20793557 -0.51377314 -0.21201295
000160 62 0c 53 bf 8b d5 14 40 8a 98 01 3d a8 28 d7 bf
       -0.8244077 2.3255336 0.031639613 -1.6809282
000170 cc 04 1f bd cc a4 cb be 89 24 cb 3f 23 e3 30 3f
       -0.038822934 -0.39774168 1.5870525 0.69096583
000180 91 19 88 3f e2 8e b3 be 4b f0 05 bd c8 8e 0f 3f
       1.0632802 -0.35069948 -0.032699864 0.5607724
000190 2e 77 ef 3e a9 88 33 bf d4 d3 9c be c1 d4 63 be
       0.46770614 -0.701304 -0.30630362 -0.22249128
0001a0 8a 8d ac be c4 39 b1 3d c0 2e d4 bd 0f 53 4d bf
       -0.33701736 0.08653596 -0.10360479 -0.8020486
0001b0 3a b0 34 bf 65 51 10 3f 30 fe 92 bf 44 cf 15 be
       -0.705814 0.563742 -1.1483822 -0.14629847
0001c0 94 02 20 bf 67 b0 1c 3f 46 0a 34 bf d0 66 99 be
       -0.62503934 0.6120667 -0.70328176 -0.29961252
0001d0 8f 2e ed 3f ff f9 1e 3e f2 78 20 be 14 b3 de 3d
       1.8529834 0.15525053 -0.15671137 0.10874
0001e0 38 8c cd 3c 61 50 72 bf 0f 4c f1 3f 1d 88 cf 3e
       0.025091276 -0.946539 1.8851336 0.40533534
0001f0 42 4f a7 be 4a 2e 44 be 74 f8 78 bf db 23 c2 3d
       -0.32677656 -0.19158283 -0.9725411 0.09479495
000200 c0 2c ae bf d9 91 13 bf a7 c8 89 3f a6 55 50 be
       -1.3607407 -0.5764442 1.0764359 -0.20345172
000210 89 b3 0a bf a6 ad dc bf f3 bc f7 bd c9 b2 61 bf
       -0.541802 -1.7240493 -0.12096586 -0.8816343
000220 6b af 7f bd e2 97 38 3f 2d 91 1a 3f 81 ff 53 3f
       -0.06242315 0.72106755 0.6037777 0.82811743
000230 8f 8d 5d bf 61 00 5a be dc 9b da be d0 c0 4d bf
       -0.86544126 -0.21289207 -0.42697036 -0.80372334
000240 f6 e8 2e be b0 19 9b bf fc e6 37 be 80 75 83 3f
       -0.17081055 -1.2117214 -0.17959207 1.0270233
000250 53 9b ad bb 6c f0 03 bf d0 f4 06 40 47 c4 4e be
       -0.005298057 -0.5153873 2.1086922 -0.20192061
000260 d6 0e bc 3f e1 d9 64 bf 54 14 c9 3c cf 1a 2d 3f
       1.4692028 -0.89394957 0.024545826 0.6761903
000270 fd f4 ae be 74 b0 1c be d7 67 3e 3f 89 6e 55 be
       -0.34171286 -0.15301687 0.743772 -0.20842947
000280 06 3c 08 bf a6 32 8f be 17 90 86 bf 09 bb cf 3e
       -0.5321659 -0.2796833 -1.0512723 0.40572384
000290 0f 59 bb bd 82 62 87 3d 12 cc d4 bc 8b c6 08 40
       -0.09147846 0.06610586 -0.025976215 2.137118
0002a0 ba e1 a0 3d d0 09 df bd 32 54 2c bf 52 76 36 3f
       0.07855554 -0.108905435 -0.6731597 0.7127429
0002b0 d1 3e 17 bf 2d e7 33 3f cb e6 7c bf 15 00 81 bf
       -0.59080225 0.7027462 -0.9878966 -1.007815
0002c0 5b 55 40 bf 65 cd 8b 3f bb 83 6b 3f 29 20 da 3f
       -0.7513024 1.0922056 0.9199788 1.7041065
0002d0 7f 74 5e 3f cc 2e 2f bf 7b 27 1f 40 8e a5 91 bd
       0.8689651 -0.6843078 2.4867847 -0.07111655
0002e0 de f1 f1 be 36 a4 60 be a7 6f 90 bc c8 13 56 bf
       -0.47254843 -0.21937642 -0.017631365 -0.83623934
0002f0 ec 1a 1b 40 fc ed d7 3f 28 5b a4 3e 8f b3 aa be
       2.4235182 1.6869502 0.32100797 -0.33340117
000300 31 3f 00 bf e6 ff 98 3f 4a ee 3c bf 65 06 cd be
       -0.5009642 1.1953094 -0.738011 -0.4004394
000310 37 c2 a8 be af ca 78 bf 01 9c 3b bf 32 35 81 bf
       -0.32960674 -0.9718427 -0.7328492 -1.0094359
000320 a2 47 02 be d8 8f 80 3f ab f2 8b bf 33 2e 6c bf
       -0.12722638 1.0043898 -1.0933431 -0.92257994
000330 c8 64 fb 3f e0 a4 56 bf 7f c0 39 bf 46 96 bd 3e
       1.9640131 -0.8384533 -0.7255935 0.37028712
000340 9c c9 0f 3f c5 23 fc 3f b6 8c 13 3f e9 0b 12 bf
       0.56167006 1.9698416 0.5763658 -0.57049423
000350 d8 f1 46 3f d6 60 59 bf a5 c1 f0 3f d1 18 25 bf
       0.77712774 -0.84913385 1.8809096 -0.6449099
000360 87 5b 52 be dc a1 a0 be 84 5b 29 bf 6c d8 a7 3c
       -0.20542727 -0.3137349 -0.66155267 0.02048894
000370 99 e5 ac bc 77 cd eb be 83 78 1a bf c1 91 4d 3e
       -0.021105574 -0.46055195 -0.60340136 0.20075132
000380 07 b4 71 be de 4d 96 3f ae 5b 5c 3f 1f 1e eb be
       -0.23603831 1.1742513 0.8607739 -0.45921418
000390 ad 2a ca 3d 4a 60 fb 3e e8 19 dc 3f bb 16 81 3f
       0.09871421 0.490969 1.7195406 1.0085062
0003a0 4b c2 de 3f ef 4a 1f bf b2 bd b3 be e3 08 ee be
       1.7403044 -0.62223715 -0.35105664 -0.46491155
0003b0 ae 76 9d bf 23 48 b5 3b fe 2e 64 bf 9c 5a df 3f
       -1.2301843 0.005532281 -0.89134204 1.7449527
0003c0 3f 29 53 bf dc 77 db 3e 3b f5 6b bf 3a 94 89 be
       -0.8248481 0.42864883 -0.92171067 -0.268709
0003d0 a8 ff 0e 40 d7 8c 1f 3e f0 ef b2 3f 6d 72 3c bf
       2.234354 0.1558107 1.3979473 -0.736121
0003e0 5e 9a ad be 44 27 c0 be 86 1e fe be 9d 38 02 bf
       -0.33906835 -0.37529957 -0.49632663 -0.50867635
0003f0 91 36 79 bf 27 22 d9 3f 4c ce 6b bf 98 b9 26 bf
       -0.97348887 1.6963547 -0.9211166 -0.65126944

linear2.weight f4 [3, 256]
000000 aa de 0c 40 c3 73 27 c0 81 f0 3f 40 3d 8c 82 bf
       2.2010903 -2.6164405 2.9990542 -1.0199047
000010 41 01 8e 3f ec 6e 8c 3e 3b ad 00 3d a4 11 26 bd
       1.1094133 0.27428377 0.031415205 -0.040544167
000020 b0 72 12 3f 5f 46 6d 3f f8 36 bf 3e 36 e3 10 bf
       0.5720625 0.926855 0.37346625 -0.56596696
000030 4d 26 ce 3a a9 cf 21 c0 39 45 cc c0 2b 43 a5 39
       0.0015727967 -2.5282996 -6.38345 0.00031521296
000040 5a 87 d0 bf 42 c0 15 c0 e6 82 16 bd c6 2a 11 40
       -1.6291306 -2.3398595 -0.03674593 2.2682357
000050 6a 7c 71 bd e4 79 5e be d8 2e 3e c0 b3 71 3c 3c
       -0.05895654 -0.21726185 -2.971609 0.011501717
000060 b3 fb db bf f3 2c 9b bf 6e 2e a4 40 65 b7 e0 3f
       -1.7186188 -1.2123092 5.1306677 1.7555968
000070 64 54 64 3e f2 05 9a 3f 51 a8 11 40 a8 48 99 3f
       0.22297817 1.2033064 2.2758982 1.1975298
000080 d1 0f a5 3f 37 ca 37 40 72 b4 4c c0 77 28 4d 40
       1.2895452 2.8717172 -3.1985135 3.2055948
000090 3a ca f1 3f 32 a5 cf 3f 91 b1 9f 3e 36 af 88 3e
       1.888984 1.6222289 0.3119016 0.26696175
0000a0 74 14 a1 bf 2e 93 20 3f e3 c2 bc bf 75 ba 26 c0
       -1.2584367 0.6272458 -1.4746975 -2.6051304
0000b0 6b 93 6c 3f 8c 9c 9b 3f 62 61 13 c0 f2 a3 eb bf
       0.9241244 1.2157149 -2.3028188 -1.8409407
0000c0 03 8d 9c c0 79 a8 0a c0 5b 66 5a 40 5f 51 0f c0
       -4.8922133 -2.1665328 3.4124973 -2.2393415
0000d0 5a bb 27 bd 04 88 95 bf b3 f2 d3 bf a5 ac 2f 3f
       -0.040950157 -1.1682134 -1.6558441 0.6862281
0000e0 18 4e e7 3e 5c be bc bf cb ba 5a bd e5 c2 7a bf
       0.45176768 -1.4745593 -0.053400796 -0.97953635
0000f0 a1 b4 cd 3f 98 3c 77 c0 5b fe 2e bf e7 40 65 40
       1.6070749 -3.8630733 -0.68356866 3.5820863
000100 d3 fd 37 40 d6 1b 8e 3f a1 b5 9d 3f 0e 5f 66 bd
       2.8748672 1.1102245 1.2321054 -0.056242995
000110 7e c0 38 40 dc d5 95 bf 3d ab d6 bf 28 21 e7 be
       2.8867488 -1.170589 -1.6771008 -0.45142484
000120 02 56 ad c0 a3 64 6f bf e0 83 b5 3e ee a6 f2 3c
       -5.416749 -0.93512934 0.35452175 0.029620614
000130 0e b7 ac c0 bd 01 d7 bc be dc ac 3b 1c 9b 27 3e
       -5.3973455 -0.026245946 0.005275338 0.16367763
000140 e7 df a6 c0 1e c4 83 bf fc 94 32 3d 69 70 d5 c0
       -5.214832 -1.0294225 0.043599114 -6.669972
000150 67 12 fa ba 35 fe 43 c0 36 81 8e bd ee c8 57 3d
       -0.0019078971 -3.0623906 -0.06958239 0.052681856
000160 19 a6 1c bf f0 5f 0d 3f 3b 0a 08 c1 23 1a 23 3f
       -0.61190945 0.55224514 -8.502498 0.63711756
000170 fd c5 6b 40 a5 3c 80 bf 31 82 bc 3e b8 7f 6d 3f
       3.6839592 -1.0018507 0.36818078 0.9277301
000180 02 48 86 40 f9 2c a9 bf 12 a5 7d bd 58 ca 61 3f
       4.19629 -1.321685 -0.061925 0.8819938
000190 9d e7 63 3f 61 66 12 3f e0 38 85 3d b4 16 11 bd
       0.8902529 0.5718747 0.06504989 -0.035422042
0001a0 00 88 cd 3d 3b 6c 26 c0 5a d7 a1 c0 90 06 07 be
       0.100357056 -2.6003559 -5.057538 -0.13186097
0001b0 11 f9 00 c0 39 f5 fd 3d 4a 37 b2 be 19 3a d1 c0
       -2.0152018 0.12400288 -0.34807807 -6.538342
0001c0 d6 00 c8 3e 80 44 35 be 67 96 d1 3f 92 20 8e 3f
       0.39063138 -0.17701912 1.6374024 1.110369
0001d0 1f 0b 9e 3f 71 76 77 3e 0f eb 29 c0 dd 51 20 3e
       1.2347144 0.24166276 -2.6549718 0.15656228
0001e0 62 d8 00 c1 b7 e2 27 bf f1 4f 17 40 66 71 d6 3f
       -8.052828 -0.65580314 2.3642542 1.6753356
0001f0 2e 3d c0 bc e2 47 77 bd dd b5 55 bf 2a 03 f5 3e
       -0.023466673 -0.060371287 -0.83480626 0.47853976
000200 fa 65 02 3f c4 7d 4a c0 69 f4 85 c0 f8 16 ae c0
       0.50936854 -3.1639261 -4.186085 -5.440304
000210 b1 e3 04 c0 0c cc c3 3b 85 f9 fd 3f 62 1f e9 be
       -2.0763972 0.005975252 1.9841772 -0.45531756
000220 81 0f 2c bd db a1 97 3f 65 b4 5f 40 7e 16 69 3e
       -0.042006973 1.1846269 3.4953854 0.22762486
000230 23 e9 08 3f c9 e0 e8 38 b6 d7 c7 bf 71 3a ba bf
       0.5348074 0.000111044916 -1.5612705 -1.4549085
000240 45 b1 43 c0 90 4f 1a bf dd 0b 3b 40 b7 e7 1f c0
       -3.0576947 -0.6027765 2.922599 -2.4985178
000250 db a5 9e bd f9 8b d4 3e 95 3c 89 3f e0 21 b3 bc
       -0.07746478 0.4151304 1.0721613 -0.021866739
000260 ee 0d 58 3f 5a bd fe bf 49 6c 2e 40 1a 68 07 3f
       0.84396255 -1.9901536 2.7253592 0.5289322
000270 49 dd 10 c0 f5 76 65 bd 8c 97 dd 3f be 24 09 3e
       -2.2635062 -0.05602165 1.7311873 0.13392922
000280 0b 6c f8 c0 ff 77 33 bf e2 1f ab 3d 2b 97 e3 bd
       -7.763189 -0.70104975 0.083556905 -0.111128174
000290 ae 43 55 bc 0c bf 13 40 fb 3c 48 40 59 eb a3 3f
       -0.013016624 2.3085356 3.128722 1.2806197
0002a0 a4 c6 1c 40 8c 4e 9f 3f 8d 2e 8e c0 54 7a 14 40
       2.449624 1.2445846 -4.4431825 2.3199663
0002b0 cc bd d4 bb 32 34 3b c0 a5 ca 87 bf 48 14 c5 3e
       -0.006492352 -2.9250607 -1.0608717 0.38492036
0002c0 4f 04 0b c0 7d e8 25 3f 87 c1 2f 40 d0 e1 a9 3f
       -2.172138 0.64807874 2.746187 1.3272038
0002d0 50 ca 10 be bd c5 e7 bf a9 c2 9a c0 3e 91 15 40
       -0.14139676 -1.810722 -4.836262 2.3369899
0002e0 c7 f0 f3 c0 94 71 2b bd 59 fa 85 c0 9f 04 02 c0
       -7.623142 -0.041856363 -4.18681 -2.031532
0002f0 a2 2c 94 3f 88 03 8b 3f 7a 9f 38 3f e3 a5 96 3d
       1.1576121 1.0860453 0.7211834 0.07355859
000300 00 55 61 c0 6d 42 49 3f 21 dc 4a c0 c6 9f 5c bf
       -3.520813 0.7861698 -3.1696856 -0.86181295
000310 dc 2a c6 3e 9b e4 f3 bf 74 10 1e bf 3b ce c9 bf
       0.38704574 -1.905414 -0.61743855 -1.5766062
000320 62 b4 12 3f 29 c9 a7 40 2d 2f 81 3d 05 db 8a 3e
       0.5730649 5.2433057 0.06307826 0.27120224
000330 15 ff 4d 3f 01 76 0f 3f bf 3f 0f c0 48 d1 ed 3f
       0.8046735 0.56039435 -2.2382658 1.8579493
000340 88 bc 61 3f 97 d4 56 40 42 0f 58 3f 87 bd 39 bf
       0.881783 3.3567255 0.8439828 -0.7255482
000350 ca 58 a1 be dc 01 c7 bf 94 ca 8d 3f b0 89 8c c0
       -0.31513053 -1.5547442 1.1077447 -4.3918076
000360 d2 cb 1d 40 d9 92 31 3f 3d 08 e3 3e 23 ec d9 c0
       2.4655652 0.69364697 0.44342223 -6.8100753
000370 ed fd 66 c0 dc 56 23 c0 ef c3 64 3e 8c cb 6e 40
       -3.6092484 -2.5521765 0.22340368 3.7311735
000380 e0 a2 ec c0 be 8b 56 3f 84 7d 2a 3f b4 d0 20 bf
       -7.394882 0.8380698 0.6659777 -0.62818456
000390 ac dd fc 3f 3e 57 f9 bf 6a af 8f 3f 2d 2a e5 3f
       1.9755149 -1.9479749 1.1225407 1.7903496
0003a0 ad ab 6a 3f 93 27 01 bf 13 c0 be bc 81 5e 10 c0
       0.91668206 -0.5045101 -0.023284947 -2.255768
0003b0 be cf 05 3f 05 31 c1 bf 88 9a f7 c0 fe 4a b0 3f
       0.52270114 -1.5093085 -7.7376137 1.3772886
0003c0 6e d8 b7 bf bf 8c c7 3f 74 a4 02 c0 20 19 01 c1
       -1.4362924 1.5589827 -2.0412874 -8.068634
0003d0 65 f1 95 3f 50 05 2c c0 29 59 18 40 90 68 3b c0
       1.1714293 -2.6878242 2.380442 -2.928257
0003e0 d8 41 eb be 69 07 45 bf 77 78 07 c0 2c 70 85 c0
       -0.45948672 -0.7696443 -2.1167276 -4.169943
0003f0 96 27 4b c0 ae d2 68 3f 97 71 b6 c0 0f 0d b9 c0
       -3.1742911 0.9094647 -5.701366 -5.782844

linear2.bias f4 [3]
000000 6f 74 ea 3f 5f b1 ac 3f ce be cd 3f
       1.8316783 1.3491629 1.6073854
