checkpoints_dqn/model_final_model_cswd94d9.pth (torch, 23259 bytes, 4 tensors)

linear1.weight f4 [256, 16]
00000000: 5e7a a9c0 c112 a440 5d63 ff3f 8f5d 33bf
00000010: 0a0b bfbf 5efc 0f3e 3c69 e2bf 9fe2 debe
00000020: d62d 593e e6c1 db3e 0438 ed3e 80ca 6dbe
00000030: 6b2c 07bf e3eb 933e 582a 873f c8cf 5cbe
00000040: 1144 11bf 6b44 593d 40de e1bd 4949 733d
00000050: 5824 f83d b5b4 debd 2986 7cbb b7b2 213e
00000060: c8dd b3be f8cf 98be 84d3 bcbe c20a 603d
00000070: 82d5 aabd e152 eebe adfd 0f3d 879a 1abc
00000080: 463c 48bd 504a e5bc 9e36 2e3e e7b3 f33c
00000090: eb55 90be 2298 bfbd 405f 1ebf 3ec2 86bc
000000a0: a213 8fbd 8d64 83be 0194 25be c832 933d
000000b0: bd7a 2ebe 78c1 e3bd 9082 bebd 044c 333d
000000c0: 28ce 82bf fff7 36bf 3dff 753f 0308 a0bf
000000d0: 1d19 0ac0 3457 0ebf 5f6f e93c 82d2 1ec0
000000e0: f8b7 e63d 70c7 1a3e 439c ef3e 2d41 edbd
000000f0: 9b90 323f 6479 763f c0e9 f73f fc32 1a40
00000100: 74df cbbf fbd0 1bc0 b9d4 5ebe 79a9 2e3e
00000110: e3b8 ebbf 41c9 56be a21f 2f3f f7ed 9dbe
00000120: c683 3bbf a87a 34bf b7c3 5cbe b13e b5be
00000130: cac3 8ebe a964 f5be f38e 8bbe 6419 563e
00000140: bb12 9abb 743d d8bd c494 103d 8e2a 49bd
00000150: e4c1 0cbe df1a 52be 0869 60be b9ad d93d
00000160: 7a96 f73c 80ec b3bc 6ec6 8fbe f1f8 b93d
00000170: b30f 85bc bc1a aa3d c69b 2abe c065 15bc
00000180: d70b 663d 906f 0c3d 3d50 b03e 4f9f b3be
00000190: 8c9c f33d 84c9 d5be dfbd 9e3d 3b18 09bc
000001a0: b40d d23d 93d6 84be 20b2 2ebc aa81 5f3d
000001b0: 5c4a 57be fcc1 dcbe a072 883d 3756 d8bd
000001c0: 1ca7 9bbd 5e94 0ebe 575e ccbd 16f2 04be
000001d0: 9771 32be 9715 30be cbde a1be 309e 603e
000001e0: ef81 83be 8d43 91be 8bab 49bd f2cf 91be
000001f0: 6df6 173e f594 9abe 6c86 37bd 70fe 26be
00000200: e4e8 9abe 5835 b2bd b9f7 2cbe 84ed bf3d
00000210: 67f1 3e3e c2e1 d6be 4895 aa3d bd46 fdbd
00000220: 52ad 7e3d 62d6 69be af2e 29be 4224 afbe
00000230: db82 92be 9f52 c6be a576 07be 5b18 7a3e
00000240: 5713 63be 0821 6fbe a265 87bc df93 a9bd
00000250: 89de 70bd 484c 3ebe ce2c 4fbf 9378 58be
00000260: b5e1 11be 5593 d43b adb3 ecbd 3dc9 d43d
00000270: 8e95 12be b780 223d 7fdb 6cbe fdc3 143e
00000280: 4d36 7dbf 3fe1 403f e4d5 6abf 8ddf 4b3f
00000290: ce8b 0140 31bd 53bf 69fb ed3f ea2f eb3f
000002a0: e83d c3bf 8d1a d6bf 52cf 2bbf 3243 27bf
000002b0: f5a2 d13e ea8a 233f 60e3 0d3f e07e 833f
000002c0: 4452 d6be 5b58 69be f3f6 463e 42ac a13d
000002d0: 2a55 4dbd 2633 c0bd 5915 14bd 871b d8be
000002e0: 25ee e3be a3c4 cbbe c288 c5be 5e4d 6e3d
000002f0: 94d9 bc3d 731d bdbe 7172 43be 1ab0 6bbe
00000300: 974b bfbf c501 3bc0 21ac f1bd 4e24 30be
00000310: edcb e6bf 5c8b 0cbf d293 073f c2c9 cabd
00000320: b3ce f1be e26b efbe c98c 58be 913a b7be
00000330: 3477 fbbe b99c 82be 567f 8bbd c873 4f3e
00000340: 20d3 033e 4c86 45be 9d11 e4bf 7c0c 38bf
00000350: c943 83c0 9fbb 6b3f f1cc ea3f d108 153f
00000360: d604 9c3e f05a a23e 10dd 943e d9da 43bd
00000370: 33e6 bfbe 872d 8abe 52ae 0d3e fdc6 133f
00000380: 0e38 bd3d 114b 9bbe 3038 90bd b502 19be
00000390: 1359 333d ecb2 81bd a9b4 d3bd c19a c9bd
000003a0: 26b7 80be 2dcb 813c 1027 4cbd 2f82 68be
000003b0: d2d3 303d cf4a 7abd 3b82 98be e331 a83d
000003c0: 3558 09be d7a7 95be 3620 2cbd 355b e8bd
000003d0: c394 a43e f20a 3abd 80db 1cbf 149b 003d
000003e0: a319 cd3d 53ad f2bd ebf3 b7bd 0ab3 d4be
000003f0: 28cb d4bd 767d 16bf e34c 3cbe 1354 47bd
-5.2961874 5.1272893 1.9952198 -0.70064634 -1.4925244 0.14061114 -1.7688365 -0.43532273
0.21208891 0.4292137 0.463318 -0.23221779 -0.5280215 0.28890905 1.0559797 -0.21563637
-0.56744486 0.053043764 -0.11028719 0.059396062 0.12116307 -0.10874311 -0.0038532114 0.1579083
-0.35130143 -0.29846168 -0.36880124 0.05469776 -0.08341505 -0.46547607 0.035154033 -0.009436256
-0.048885606 -0.027989537 0.17013022 0.02974887 -0.2819055 -0.09355189 -0.6186409 -0.016450044
-0.069861665 -0.25662652 -0.1616974 0.0718742 -0.17039008 -0.111208856 -0.093022466 0.043773666
-1.0219164 -0.7147216 0.9609259 -1.2502445 -2.1577828 -0.5560181 0.028495489 -2.4815984
0.11265558 0.15115142 0.46798906 -0.11584697 0.697519 0.9627898 1.936821 2.4093618
-1.5927567 -2.4346302 -0.21760835 0.17056836 -1.8415798 -0.2097521 0.6840764 -0.30845615
-0.73247945 -0.7049966 -0.21559034 -0.35399392 -0.2788375 -0.4792836 -0.272575 0.20908123
-0.00470194 -0.10558596 0.035298124 -0.04911285 -0.13745838 -0.20518063 -0.21915066 0.10628838
0.03022312 -0.021963358 -0.28081077 0.09080685 -0.016242838 0.083058804 -0.16660985 -0.009118497
0.056163635 0.03428608 0.34436217 -0.3508248 0.11895093 -0.41755307 0.07751059 -0.008367593
0.1025652 -0.25944957 -0.0106625855 0.054567017 -0.2102446 -0.43116748 0.06662488 -0.10563319
-0.07600233 -0.13923785 -0.099789314 -0.12982973 -0.17426144 -0.17195736 -0.3161529 0.21935344
-0.2568507 -0.2837185 -0.04923586 -0.28478962 0.14840098 -0.3019177 -0.04480593 -0.16307998
-0.30255806 -0.08701581 -0.16891374 0.093714744 0.18646775 -0.41969115 0.083292544 -0.12367008
0.06217701 -0.22835687 -0.16521715 -0.3420735 -0.2861546 -0.3873491 -0.13228853 0.24423353
-0.22175346 -0.23352444 -0.016527954 -0.08280157 -0.058805976 -0.18583786 -0.8092774 -0.21139745
-0.14246257 0.00648729 -0.11557708 0.10389946 -0.14314863 0.039673533 -0.23130606 0.14527889
-0.9891098 0.753437 -0.9173262 0.79637986 2.024158 -0.8271056 1.8592349 1.8373997
-1.5253267 -1.6726853 -0.6711322 -0.65336907 0.4094464 0.6388384 0.5542507 1.0273094
-0.4185964 -0.22787611 0.19430141 0.07894184 -0.050130047 -0.09384756 -0.03615317 -0.42208502
-0.44517627 -0.3979846 -0.385809 0.05817925 0.09221187 -0.3693653 -0.19086625 -0.23016396
-1.4944943 -2.921983 -0.11800409 -0.17201349 -1.8030983 -0.54900146 0.5295993 -0.099017635
-0.4722801 -0.46761996 -0.21147455 -0.3578687 -0.49114382 -0.25510195 -0.06811397 0.20259011
0.12873507 -0.19289511 -1.7817875 -0.7189405 -4.1020246 0.9208316 1.8343793 0.5821658
0.3047244 0.31710005 0.29074907 -0.04781613 -0.37480316 -0.2698786 0.13836029 0.5772551
0.09239207 -0.3033071 -0.07041967 -0.14942439 0.04378612 -0.06332955 -0.103371926 -0.0984397
-0.2513973 0.015843952 -0.04984194 -0.22705911 0.043170758 -0.0611065 -0.29786858 0.0821264
-0.13412555 -0.29229614 -0.042022906 -0.11345521 0.32144746 -0.045420595 -0.6127243 0.031397894
0.100146554 -0.11849465 -0.089820705 -0.41542846 -0.103903115 -0.5878519 -0.18388705 -0.048664164

linear1.bias f4 [256]
00000000: f2b4 e83d 7d9f 9cbe 8c63 2bbe 6ef0 3ebf
00000010: ec7a bcbe 534b 2bbe 02dd debe e66f e73c
00000020: ebb8 28be bd8f c1bc 824f 91bf c0f0 2abc
00000030: f160 0fbe 92ad 9b3f 618d 96be 36a6 cdbe
00000040: 8453 d4bf c68b 0abe 3bdc 36be 6cd0 8bbe
00000050: 8d67 6bbe 13be 2fc0 df39 d43c 1967 50be
00000060: 3541 4bbf 43fe 9cbe 6900 25be 75a7 a4be
00000070: 31cd 66be ea8e 99be bb3d b23f a81d e13c
00000080: 8a20 00c0 8e66 ca3f 5039 51be b436 0cc0
00000090: b035 e440 104e f9be 0ca6 3f3e 2a47 2e40
000000a0: 3ec8 a1be e6a8 cabd 0572 9c40 0236 2c3d
000000b0: f80c 1b3c e8d7 89be 688d 54be 93aa 9dbe
000000c0: 1551 d8be b771 86be 37f9 90be 0e15 7dbe
000000d0: 4dd7 7ebe 7c82 33be d7fe 0f3e ded5 83be
000000e0: 780e 11bf 79c3 22be 5cb7 54be f207 15c0
000000f0: 35ba f9be 9eac 21be 9ceb 993e 847c 8fbe
00000100: 0c8d 86bd fe4f 19be 8901 de3e 2e13 02bf
00000110: 825c 9f40 fc87 06bf 0efb aebd 7a33 11bd
00000120: ddc4 99be d563 64be 3891 40be b8d8 ff3d
00000130: 9d02 9cbe 467d 3abe 921e 73bd 1284 23bf
00000140: 68fe 17c0 f221 0fbf 85d2 82be 29b2 ccbd
00000150: 947a 98be e960 ecbf 991f d63c 18cf 7ac0
00000160: 1988 e9be db6f 01be 7678 74be f78e c6bf
00000170: 76ad 66be c4d5 39be 5bfb 10be 7de9 d6be
00000180: 2338 f03b 0d25 bbba 7d22 38be 54b3 84be
00000190: 431a 92be cea3 e7bd 7749 8dbc b8bb e1be
000001a0: 8cd1 9a3c ebde 5bbb 077a f3bd e04b da3f
000001b0: 6d6a 71be 2f7a 43c0 436b 7740 06cf 99bf
000001c0: 628d 0f3f 10e0 55be 6131 36be 5be1 96bd
000001d0: 1115 3abe 275b 79bf 1eaf 53bf 4e59 c5be
000001e0: 31a2 01c0 f293 a1bf 418a cfbf 81da 5abf
000001f0: 0bda 36be 1642 9ebe fba9 cabf d447 21be
00000200: f568 10c0 e1b8 b7bf 520b 40be c60a 81bd
00000210: 87b2 30be 1c1d a9be d43c 7c3f 945d adbc
00000220: 83c9 82be 78aa 08bf b7ba d6be b792 9ebe
00000230: 1674 97bf f3a8 b4bf 275a 2cbe 45d1 07be
00000240: d872 e3bf f84c 42be b5c1 06be a972 c4bd
00000250: 5791 b1be 5f85 0dbe 4385 96be 1af4 8cbe
00000260: a416 d13d 5fa1 24bf c599 65be c73e 66be
00000270: 9c4c 893e 6a86 8cbe 07f3 3bbe c3cd 5ebe
00000280: e629 cebe e282 e53f 9ae4 953c 6779 35bf
00000290: ebe5 69be 421e 6a3e aff9 c23d d9b9 8dbe
000002a0: 3378 343b 3e99 0ebf d899 25bf 847c 82bf
000002b0: 2326 b3bd cd6f a3bd 8cad bdbd c524 bdbe
000002c0: f02f 96be 3898 43be 18b9 94be 1022 18c0
000002d0: 44f9 7ebe d848 56be 486b 4bbe bea9 f53c
000002e0: 5949 9dbe 8db0 93be 1b5b 8abe b3a4 34c0
000002f0: 24e4 12bf e08d 6a3d fead 91bf cc9f 7b3c
00000300: ef44 d7bf 0cb3 1bbe 36da b3bd 84da d3be
00000310: 6e44 b540 6b05 3cbe 2ae9 adbd c971 82be
00000320: 159f 1e40 14ad 5e3e dd8c 8a40 c6b8 c6be
00000330: 0f85 d7bd 8a7a 33bf bad9 94be 5a1a c63f
00000340: 54d2 6cbe 2536 18be ad9b 38be 7f00 03be
00000350: 0520 f8bd d5b0 993b ee3e 2a3d 4657 bfbd
00000360: 30d7 09be fef7 1240 0f21 0ebe 559d 1ebf
00000370: 0708 ae3f 389a edbe 719a 5ebe d5f6 3dbf
00000380: 0811 18be c4fc f5bd d252 2cbe ed6b d5be
00000390: e99b 7ebf a578 4cbe fd27 5a3f b8ad 44bf
000003a0: 9b9e bbbe 19a6 9440 a91c 87bd e5d3 d2be
000003b0: 46a2 3ebe c50c 963c ee72 c9be f8fd e33e
000003c0: debd 8fbe afae 093e 7a6c 17be 7a35 483d
000003d0: 145a fabf 6dd6 a6be b93b 47bf 764d 6dbe
000003e0: b283 34bf 2a98 32c0 b6c0 aebf d0a4 6ebf
000003f0: 5376 bbbe 57fc 0dbe 6150 82bf 3b16 b940
0.113626376 -0.3059043 -0.16737193 -0.74585617 -0.36812532 -0.16727953 -0.4352799 0.0282516
-0.1647679 -0.02362811 -1.1352389 -0.010433376 -0.14001824 1.2162344 -0.2940474 -0.4016587
-1.6587987 -0.13529882 -0.17857449 -0.2730745 -0.2298872 -2.7459762 0.025906501 -0.20351829
-0.79396373 -0.30662736 -0.16113438 -0.3215901 -0.22539212 -0.29991847 1.3925089 0.027479962
-2.001986 1.5812547 -0.20432019 -2.1908388 7.1315536 -0.4869237 0.18715686 2.7230935
-0.31598085 -0.09895496 4.8889184 0.042043693 0.009463541 -0.26922536 -0.20757067 -0.307942
-0.4224936 -0.26258633 -0.28315136 -0.24715063 -0.24886818 -0.17530245 0.14062057 -0.25749105
-0.566627 -0.1589488 -0.20773071 -2.32861 -0.48774877 -0.15788504 0.30062568 -0.28024685
-0.06569871 -0.14971921 0.43360546 -0.50810516 4.9800425 -0.52551246 -0.08543979 -0.035449483
-0.30033007 -0.22303708 -0.18805397 0.12492508 -0.30470744 -0.1821185 -0.059355326 -0.638734
-2.3749027 -0.5591117 -0.2555124 -0.09994919 -0.2978102 -1.8467075 0.026138114 -3.91889
-0.45611647 -0.12640326 -0.23874077 -1.551238 -0.22527108 -0.18147951 -0.14158385 -0.41975012
0.007330911 -0.001427801 -0.17981906 -0.25918067 -0.2853566 -0.1131054 -0.017246945 -0.4408853
0.018898748 -0.0033549618 -0.11888509 1.7054405 -0.23575754 -3.0543325 3.8659217 -1.2016304
0.5607511 -0.20886254 -0.17792274 -0.07367202 -0.18172099 -0.9740471 -0.8268908 -0.38544697
-2.0255244 -1.2623274 -1.6214067 -0.8548966 -0.17856614 -0.30909795 -1.5833124 -0.15750057
-2.256406 -1.4353296 -0.18754318 -0.06300883 -0.17255603 -0.3303002 0.98530316 -0.021162786
-0.25544366 -0.53385115 -0.41939327 -0.3097131 -1.1832302 -1.4114059 -0.16831265 -0.13263424
-1.7769423 -0.18974674 -0.13159831 -0.09592182 -0.34681198 -0.13820408 -0.29398546 -0.27529985
0.102093965 -0.6430873 -0.2242194 -0.22484885 0.2681626 -0.274463 -0.18354426 -0.2175818
-0.4026634 1.7930567 0.018297482 -0.7088837 -0.22841613 0.22863105 0.095202796 -0.27680853
0.0027537465 -0.5570258 -0.6468787 -1.0194249 -0.087475084 -0.07980309 -0.09261617 -0.36942115
-0.29333448 -0.19101036 -0.29047465 -2.377079 -0.24899775 -0.20926225 -0.19865143 0.029988166
-0.30720022 -0.28845635 -0.27022633 -2.8225524 -0.57379365 0.05726421 -1.1381223 0.015357923
-1.6817912 -0.1520502 -0.08781855 -0.41377652 5.664603 -0.18361442 -0.08491738 -0.25477436
2.4784596 0.21745712 4.329695 -0.38812846 -0.10523426 -0.70108855 -0.29072362 1.5476792
-0.23127109 -0.14864404 -0.18028136 -0.12793158 -0.12115482 0.0046902695 0.04156392 -0.09342818
-0.13460994 2.2963862 -0.13879798 -0.6195882 1.35962 -0.46406722 -0.21738602 -0.7420476
-0.14850247 -0.12011102 -0.16828468 -0.41683903 -0.9945665 -0.19967897 0.8521727 -0.76827574
-0.36644444 4.6452756 -0.06597263 -0.41177288 -0.1861659 0.018316636 -0.39345497 0.445297
-0.28074545 0.13445543 -0.14787474 0.048879124 -1.955874 -0.3258547 -0.77825505 -0.2317408
-0.7051345 -2.7905374 -1.3652561 -0.93220234 -0.36613712 -0.13865791 -1.018078 5.7839637

linear2.weight f4 [3, 256]
00000000: 324a 5840 8980 a83d 40b1 ee3c dd7c a9bf
00000010: 27ae 8a3e b28d 183c a67e 5fbc 32e7 4bbd
00000020: 9069 813c d7f4 e33c 2ce1 0ec0 95a8 b73c
00000030: 1ca4 033e acc4 d3c0 68a0 31bc 855e 303c
00000040: 7cd8 e73f 2cd8 443d e1c4 b33c aba9 56bd
00000050: 6db2 6fba edf9 0ebe 7c5d 7e3c 8678 7a3b
00000060: 7157 bf3d b670 5f3a c28d 81bd 84bb 89bd
00000070: 9d3f febc c9de c8bd 90b6 c13e 2943 9bbc
00000080: 4216 a0bf 1b02 863f 4e02 233c 8628 c7be
00000090: 8133 2440 2dae 043d dea4 713f 4895 f43e
000000a0: c129 8fbc 4706 13bc a488 853f 6118 cc3d
000000b0: 483d 6640 35d8 f13d 5a4d 383d dcb8 78bb
000000c0: 4952 153e a89d 25bc 2681 dbba 01f5 e33c
000000d0: 60f7 49be 9e1b 3d3d 2438 0cbd 4b6d ae3c
000000e0: 9939 4e3f 61ca b13c 9184 4abc a585 babf
000000f0: 70b9 d2bd 4392 543e bc23 ef3f 2bc6 91ba
00000100: 8c9c 063d 51dd 6ebd 236c 0440 0e5a c63e
00000110: cd9d 2740 4c2e 94be dc90 803b 635a bcbc
00000120: e990 24bc 1dec 95bb 0db3 85bd e0c3 13c0
00000130: 4b26 003d fcc8 e43c 9fbf 633d 3c97 f0bf
00000140: dce5 1fc0 58eb b53d 44a6 943a b99b 623c
00000150: 1249 ae3c a883 06c1 69d3 44bc c320 253f
00000160: e79e 8e3e c390 23bd bb84 023c f334 c0bf
00000170: dfbc 97bd d8c5 623c d176 c3bb 1e8a 83be
00000180: 33e2 563d c162 81bc e5db 92bc d45c e4bb
00000190: 70cd 413c 5de6 553c bef6 873c 76e0 c0bb
000001a0: b57e fc3b cd68 afbc c3cc 03bc fbcb b4bf
000001b0: da6a afbc d863 69bf d1d3 1d40 6650 15bd
000001c0: e238 0e40 88df b23d 909a 1a3c 1bc1 4740
000001d0: ed42 093d 9f61 efbc 06f3 f0c0 028c a2bc
000001e0: 36d8 3fbf f62c 30bf 5c3a 42c1 4363 ccbe
000001f0: fe18 84bd 01e4 ef3c a0d8 8dbe 9ccc dd3d
00000200: db80 82bf 8174 89be 405b f53c df70 3bbc
00000210: e1c6 76bd 74a5 c3bd 61e7 e43e cb28 033c
00000220: d756 37bb cb40 08bf 513e b73e b7a0 633c
00000230: b484 cdbd 6f5d 373f 7336 e0bf 73cb 14bc
00000240: 735a c8bf b126 bc3c a19f 1c3e e731 aa40
00000250: e38c ed3d 2e97 2e3e 9e92 323b 26b2 cbbc
00000260: ec17 ad3d 5ad2 5abc 2576 813c 578f 933d
00000270: 7038 20c1 1985 27bd 3142 37bc aa1a ba3b
00000280: 800f e3bc 79eb 1dbf 0840 bd3c 1967 92bc
00000290: fc3d 403c b15b f23e 3058 35c0 7f41 ef3c
000002a0: 7242 953b 7e30 a13e cc46 3440 3983 673f
000002b0: 714c 01bd 0c04 083d 717d 91bc cbd9 63bd
000002c0: 6240 9fbd dae1 143e ca3e f3bc 4038 153f
000002d0: 8578 babf 6603 a4bc f8e8 533e ce94 56bd
000002e0: 21a3 0ec0 51c7 c0bc 5b61 893c 7a35 dabf
000002f0: 8f92 26bd ef5f d6bc c84b 8a3e 079a aabb
00000300: 779b 6c3f e406 ee3c 6be9 9bbc 1ae5 e73d
00000310: 38d5 4f40 9508 843d ef78 01bd ac47 99bc
00000320: 6620 4340 3094 55c0 8fbe c13f d5cc 0f3e
00000330: 8906 0bbd 291a 7fbd 3b3d afbb 24c8 b83f
00000340: f2ad 51bd e66e e63c f181 a1bc 9d43 eabc
00000350: 1c46 ab3c 7382 c83d 883d 24bd 8f1e a53c
00000360: a708 563d d294 6b3f 9c8a 5abc ae68 db3c
00000370: e4bd 963f 5d9b 30bc 606b 21bc 41f5 a6bf
00000380: 0f4d dbbb e44f cd3b 88a3 c13c 66fc d0bc
00000390: e488 da3d b8fd 5e3d cf07 643f e4b2 cf3f
000003a0: 6878 d63d eea6 31c0 a462 c5bc 99fd c0c0
000003b0: 98be bbbc 8d1d 80bc dda6 c8bc 8c75 ce3f
000003c0: ca0b 02bd 1f9d d83c 2233 983c 011d c93c
000003d0: f6e8 83c0 b70f a03c 8343 653e 0071 bebc
000003e0: 74b1 efbd 659c 73bd 1c44 10c1 b386 57c0
000003f0: ac76 b93b 2054 b9bc f85d 12c1 39f6 5240
3.3795285 0.08227641 0.029137254 -1.324123 0.27085993 0.009311127 -0.013641035 -0.049781032
0.015797406 0.02782671 -2.2324934 0.022419253 0.12855572 -6.617758 -0.0108414665 0.010764723
1.8112941 0.04805772 0.021944465 -0.0524079 -0.0009143714 -0.13962527 0.015525218 0.003821881
0.0934285 0.000852357 -0.06325866 -0.06725219 -0.031036193 -0.09808118 0.37834597 -0.018952923
-1.2506793 1.0469393 0.00994928 -0.38898104 2.5656435 0.03239267 0.9439219 0.47770143
-0.017475965 -0.008973665 1.0432324 0.099655874 3.5974903 0.11808816 0.044995643 -0.0037951982
0.1458217 -0.010108389 -0.0016746863 0.027826788 -0.19723272 0.046168916 -0.034233227 0.02129235
0.8055664 0.021702947 -0.012360708 -1.4572035 -0.10289276 0.2075892 1.868278 -0.0011121681
0.03286414 -0.058316533 2.0691001 0.3874058 2.6190064 -0.28941572 0.0039235186 -0.022992318
-0.010044315 -0.004575266 -0.06528292 -2.3088303 0.03128652 0.027927868 0.055602666 -1.8796153
-2.4984045 0.08882779 0.0011341055 0.0138310725 0.021275077 -8.407143 -0.012013295 0.64503115
0.27855608 -0.039932977 0.007966216 -1.5016159 -0.07409071 0.013841115 -0.0059650918 -0.25691313
0.052461814 -0.01579416 -0.01792712 -0.006969074 0.011828765 0.013055411 0.016597148 -0.005886133
0.0077055343 -0.021412278 -0.0080444245 -1.412475 -0.021413255 -0.91167974 2.4660532 -0.036453627
2.2222219 0.087340415 0.009436265 3.1211612 0.03351109 -0.029221354 -7.529666 -0.019842152
-0.74939287 -0.68818605 -12.139248 -0.3991948 -0.064500794 0.029283525 -0.27704334 0.10830042
-1.0195574 -0.26846698 0.029950738 -0.011440485 -0.06024826 -0.09553042 0.44707778 0.008005331
-0.0027975345 -0.53223866 0.3578973 0.013893298 -0.10035077 0.71626943 -1.7516617 -0.009081709
-1.5652603 0.022967668 0.15295269 5.3185916 0.11599138 0.17049858 0.0027248035 -0.024865221
0.08451828 -0.013355816 0.015803406 0.07205074 -10.013779 -0.040898416 -0.011185215 0.005679448
-0.027717352 -0.6168743 0.023101822 -0.017871426 0.011733528 0.4733558 -2.8335075 0.029206036
0.00455504 0.3148231 2.816821 0.90434605 -0.03156704 0.033206984 -0.01776001 -0.055627625
-0.07775952 0.1453928 -0.029693026 0.58288956 -1.456803 -0.020021152 0.2069434 -0.052388005
-2.2287066 -0.023532541 0.016770056 -1.704757 -0.040667113 -0.026168792 0.27010942 -0.00520635
0.9242472 0.02905602 -0.0190322 0.113229945 3.2473888 0.064469494 -0.031609472 -0.018710934
3.0488524 -3.3371696 1.5136279 0.14042981 -0.03394178 -0.062280808 -0.0053478754 1.4436078
-0.051191278 0.028129052 -0.019715281 -0.028596694 0.020907454 0.09790506 -0.040097743 0.020156173
0.052254345 0.92023957 -0.013338711 0.026783314 1.17767 -0.010779229 -0.00985226 -1.3043596
-0.0066925357 0.006265627 0.023637548 -0.025510978 0.10670641 0.054441184 0.89074415 1.6226468
0.104721844 -2.7758136 -0.024094887 -6.0309567 -0.02291803 -0.01563909 -0.02449363 1.6129622
-0.031749524 0.026442109 0.01857907 0.024549963 -4.1221876 0.019538743 0.22389035 -0.023247242
-0.117037684 -0.05947532 -9.016628 -3.3675964 0.0056598987 -0.022623122 -9.147942 3.2962782

linear2.bias f4 [3]
00000000: cd25 b240 3a0b af40 84a8 ac40
5.5671144 5.4701204 5.3955708
