checkpoints_dqn/model_final_model_9l5bkfnk.pth (torch, 23259 bytes, 4 tensors)

linear1.weight f4 [256, 16]
000000 70 7d 64 3f 5c df a1 be 21 cb 4b 3e ad 71 8f 3e
       0.892539 -0.31615722 0.19901706 0.28016415
000010 62 c5 b1 be a7 e6 02 bf 9c 48 0c be 68 1d 07 3f
       -0.34720904 -0.511332 -0.13699573 0.52779245
000020 26 10 b2 3e b4 dd 83 be b8 34 96 3d 1a 85 0a be
       0.34777945 -0.25755084 0.07334274 -0.13527337
000030 01 84 1e 3e c3 5a c7 3d a6 6b 88 3e 27 3d 88 3e
       0.15480043 0.09734108 0.2664463 0.26609156
000040 49 f2 1e 3f 73 09 35 3d da 17 a3 be 83 32 b6 3e
       0.6208845 0.044198465 -0.31854135 0.35585412
000050 95 b4 04 40 43 19 95 3e 6e 05 06 3d 85 8d ea 3e
       2.0735219 0.29120836 0.032720022 0.45811096
000060 61 40 25 3e 82 54 31 3e c5 66 69 3e 7b 64 0a 3e
       0.1613784 0.17317393 0.2279311 0.13514893
000070 11 bc 88 3e 03 c4 ac 3d da 40 0e 3f fb e4 50 3e
       0.26705983 0.08435824 0.55567706 0.20399849
000080 88 c0 76 3f 5b d0 90 3f de 2a c0 be 2a a6 db 3e
       0.9638753 1.1313585 -0.37532705 0.4290021
000090 9c 6c e0 3f 23 be 42 3f 03 4f 82 bf 8d e7 79 bf
       1.7533145 0.76071376 -1.0180362 -0.97618943
0000a0 b2 24 db bd 43 1c 86 3c 33 93 2e 3d e4 c4 67 bd
       -0.107003585 0.016370898 0.04262085 -0.056584254
0000b0 8e c2 b6 bd 52 1a b4 bd ac bc 00 3e f3 2a ec be
       -0.08923827 -0.08794083 0.12571973 -0.46126518
0000c0 e9 0d 6a 3f f9 3e 99 3e 6b f5 2d bf 25 b9 99 3d
       0.91427475 0.29930857 -0.67952603 0.07506017
0000d0 8b 2c 12 40 36 3e 82 3f 7f 95 04 3e 95 d7 f5 3e
       2.2839687 1.0175235 0.12947653 0.4801604
0000e0 ab 12 e8 3e 23 e0 ad 3e 87 ca 10 3f e1 7a c4 3d
       0.45326743 0.33960065 0.5655903 0.0959375
0000f0 7d d5 bd 3e 08 ed d5 3d 2b 94 a8 3e 4d 1e 23 3e
       0.3707694 0.10445601 0.32925543 0.15929528
000100 a0 22 2b 3f 40 80 a2 bd 23 ea 68 3c 94 27 a8 3c
       0.6684971 -0.07934618 0.014215979 0.020526685
000110 40 84 24 3e 59 70 8a 3f 09 15 85 3f 58 9c 41 3f
       0.16066074 1.0815536 1.0397044 0.75629187
000120 a5 93 39 3f 29 53 15 3e 2c f8 42 3e 0f aa e1 3d
       0.7249091 0.14582504 0.19039983 0.11018764
000130 53 e8 55 3e e0 6f d8 3e 4c 44 0c 3f 31 33 5d 3f
       0.20889406 0.42272854 0.5479171 0.86406237
000140 a7 d7 28 bf fc a1 24 bf 61 fd ae be 8b 9b 27 be
       -0.6595406 -0.6430967 -0.34177688 -0.16367929
000150 85 36 a0 3f e6 40 b5 be 38 a1 ac 3d b5 c9 28 be
       1.2516638 -0.35401076 0.084291875 -0.16483195
000160 59 74 10 bc 9d e8 2c 3e 66 89 20 3e 3e de c5 3c
       -0.008816802 0.1688561 0.15677413 0.024153825
000170 ee 22 ab 3d af 23 57 3e b7 33 4c 3c 43 c7 08 be
       0.08356272 0.21009706 0.012463502 -0.13357262
000180 12 0c 86 3f 0a 60 88 3e 98 a0 57 be be c2 9b bd
       1.0472434 0.26635772 -0.21057355 -0.076055035
000190 af ae fc 3f 05 79 89 3f 91 51 48 3e 8e 8b b0 3e
       1.9740809 1.0740057 0.19562365 0.34481472
0001a0 06 3c 0d 3f 1e 60 a1 3e a5 f9 59 3e 29 4b 65 3e
       0.55169713 0.31518644 0.21286638 0.22391953
0001b0 ba 1e 8e 3e 5a ff 83 3e 5b ed 2f 3f 20 67 eb 3e
       0.27757818 0.25780755 0.6872155 0.45977116
0001c0 1c c7 9d 3d 66 c4 6e be 54 22 28 be 14 6c aa bd
       0.07703993 -0.23317108 -0.16419345 -0.083213955
0001d0 c0 1f 20 3d 86 42 61 be 64 9b dc bd 58 42 19 be
       0.03909278 -0.21998033 -0.10771826 -0.14966714
0001e0 00 9e 35 3a 50 84 be bd f0 ea 8d bc 24 79 2d be
       0.0006928146 -0.0930258 -0.017323941 -0.16940743
0001f0 98 b7 2f be d2 59 15 be 9c 41 af bd 50 0e 4a be
       -0.17159879 -0.14585045 -0.08557436 -0.19732022
000200 e6 3a 2d 3f d6 64 8d 3e a2 9c ee 3d 6d c0 a6 3e
       0.67667997 0.27615994 0.11650969 0.32568684
000210 ba 63 e9 3f a1 3c 82 3f 33 28 a6 3d da 10 a2 3e
       1.8233559 1.0174752 0.08113136 0.31653482
000220 b3 2a 2b 3e 13 21 01 3e 86 97 d3 3e 96 4f 4c 3e
       0.16715507 0.12610273 0.4132654 0.19952235
000230 66 33 d3 3e 76 32 cb 3d 66 c7 06 3f 9d 13 0c 3e
       0.4125015 0.09921734 0.5264801 0.13679357
000240 7d 86 d9 3e 1b 84 f6 be 64 7c 11 3e 95 c1 b6 3e
       0.4248542 -0.48147663 0.14207608 0.35694566
000250 4b 26 62 3f d2 6d 20 bf f0 10 76 bd 52 32 c3 be
       0.8833968 -0.6266757 -0.060074747 -0.3812433
000260 26 a7 0b 3e 83 13 ff bb c8 33 14 3e 26 54 b6 bd
       0.13637981 -0.0077843084 0.14472878 -0.08902769
000270 49 04 63 3e 68 68 64 3e 3d a4 88 3e 8b 2e 96 bc
       0.22169603 0.22305453 0.26687804 -0.01833274
000280 d0 98 11 3f d0 6f 8d be 64 72 ac 3e 05 86 86 3e
       0.568738 -0.2762437 0.33681023 0.26274124
000290 7b 75 16 3f a2 5a d6 be 65 0b e8 be 7d 85 ad 3d
       0.5877301 -0.41866022 -0.45321193 0.084727265
0002a0 85 25 04 3e 43 52 a4 bd f8 c4 b5 bd 7d 73 2f 3d
       0.12904938 -0.08023503 -0.088754594 0.042834748
0002b0 03 69 a4 3e 52 7a aa 3d d2 60 97 bb ed 61 b1 3d
       0.32111368 0.08324112 -0.004619696 0.08661256
0002c0 b6 19 02 c0 5f 95 3f 3d 93 84 35 3e 72 55 28 bf
       -2.0328193 0.04677331 0.17726354 -0.6575538
0002d0 b7 ab 0a 3f a0 44 32 bd 5e aa dc 3e d5 ff 8f 3d
       0.54168266 -0.043522477 0.4309873 0.07031218
0002e0 cc 60 85 3e 86 c5 68 3e af a4 a5 3a 86 9b 5e bd
       0.26050413 0.22731599 0.001263758 -0.054347537
0002f0 89 c2 bc bd 2f 3a 81 bd 2e 37 aa bd d5 5d 14 3e
       -0.09216792 -0.06309926 -0.08311306 0.14488919
000300 67 ef a5 3d 2c 6e 42 3f f0 2b b0 bd 5b f6 9f be
       0.08102303 0.7594936 -0.086021304 -0.31242642
000310 24 8c 84 bf 97 b5 85 be 5a cb 69 3e 51 f0 c1 3e
       -1.0355268 -0.26115105 0.22831479 0.3787866
000320 73 dc b9 3b 2a aa cd 3d 1f 3a 4e 3e c5 0a 8f 3e
       0.0056720315 0.10042222 0.20139359 0.27937904
000330 52 f9 67 3e 5d 81 0c 3b f1 b1 97 39 7e d1 64 3d
       0.22653702 0.0021439411 0.0002893354 0.05586385
000340 fd 2b 8f 3e 32 72 8e 3f 60 5f 31 3e 10 9c 02 3d
       0.27963248 1.11286 0.17321539 0.031887114
000350 6b 73 8f bf df 84 b4 be 1d 30 24 bd 8e f4 b7 3e
       -1.1207098 -0.35257623 -0.040084947 0.35928768
000360 58 7a 8b 3e 84 64 db 3d c5 ca cc 3d 43 8f 5f bd
       0.27241778 0.10712531 0.09999613 -0.054579984
000370 84 4f 96 3d 21 cd d2 3e 38 02 4e 3e 34 90 01 3e
       0.07339385 0.41172126 0.20118034 0.12652665
000380 4c 22 5c 3e 48 ee b7 3c 60 ce 0e 3f 7b 7d 33 3e
       0.21497458 0.022452489 0.55783653 0.17528336
000390 da d0 c1 3c 8b 8b 22 bf 9f d7 46 be 30 5c 09 3f
       0.023659158 -0.63494176 -0.1941819 0.5365629
0003a0 5f 6e 5f 3e d8 e7 06 3e 57 db f4 bd c4 df 12 be
       0.21819447 0.13174379 -0.11955898 -0.14343172
0003b0 8c 7c 9e 3e 0e b8 91 3e 3c d6 8f 3e 42 6f 01 3e
       0.30954397 0.28460735 0.28093135 0.12640098
0003c0 22 5f e4 bd ba 52 f1 3e 07 32 38 3f 78 64 91 3c
       -0.11150958 0.47133428 0.71951336 0.017748103
0003d0 3a 94 04 40 47 2b 21 bd 65 f8 01 bf 3b 9e 3c 3b
       2.071547 -0.039347913 -0.50769645 0.0028780836
0003e0 c8 af b6 3d 88 72 8d 3e dd 26 d6 b9 f6 f0 54 be
       0.08920246 0.27626443 -0.00040846216 -0.20795044
0003f0 9c c1 a7 3c fa 51 5a 3c 1f 2b 2d bd 25 c2 93 be
       0.020478062 0.013325209 -0.04227745 -0.28859058

linear1.bias f4 [256]
000000 1b 2e 3d bf b0 93 05 3f 53 02 45 3f 66 2d 81 3f
       -0.73898476 0.5217848 0.7695667 1.009198
000010 a3 52 92 3f d8 81 0e be a4 7a 4d 3f 24 ed ea 3d
       1.1431469 -0.13916719 0.8026526 0.11471012
000020 3f 53 50 3f f0 b7 22 bf 12 e0 14 bf 4d 3d d0 be
       0.81377023 -0.63561916 -0.58154404 -0.4067177
000030 31 2c 4c be 0d d6 95 be 61 d9 00 bf ff cb bf 3e
       -0.19938733 -0.2926487 -0.50331694 0.37460324
000040 6c 8c 03 bf aa c9 ed 3e 88 44 34 bd c4 d5 59 bd
       -0.5138614 0.4644292 -0.04401067 -0.05318238
000050 7f 36 d3 bd 1c c5 a4 be 2a 52 7a be cf 5a c2 be
       -0.10313129 -0.32181633 -0.24445406 -0.37959906
000060 55 f4 57 bd 31 9a a1 be ff c7 eb be 2b 2e 93 3e
       -0.052723248 -0.3156295 -0.46051022 0.2874616
000070 b0 1d 18 3e b7 86 81 3f 58 d9 c0 3e c7 ff 8d 3f
       0.14855075 1.0119237 0.3766582 1.1093682
000080 ce 0b 84 3f 9c bc 07 3f 76 21 0d bf a0 ac 61 3e
       1.0316103 0.5302217 -0.5512918 0.22038507
000090 e3 8c 9c 3f 2d ec 5c 3e c3 07 dc be 3f c8 61 3f
       1.2230495 0.21574469 -0.42974672 0.88196176
0000a0 05 2c 94 3f 52 d5 84 3f b3 4b 3c 3e fa c1 c5 be
       1.1575934 1.03776 0.18388252 -0.38624555
0000b0 11 69 1f be 1d aa 3a bf e3 ed 04 3f 16 aa 0a bd
       -0.15567423 -0.7291582 0.51925486 -0.033853613
0000c0 3b 7b 9d be 6c 1c c4 3e d8 d1 86 be c5 f4 db be
       -0.3075808 0.38302934 -0.26331973 -0.42960182
0000d0 56 72 27 be 83 88 d4 be 0e d8 aa 3f b2 a2 7b 3f
       -0.1635221 -0.415104 1.3347185 0.9829513
0000e0 7c bd 47 3f 77 17 2c bf 58 c8 9d bc a5 3d c5 be
       0.78023505 -0.67223305 -0.01926057 -0.38523594
0000f0 df 79 b6 be 12 d5 75 3f 89 b7 eb 3e e6 42 71 3d
       -0.35639855 0.96028244 0.46038464 0.05890169
000100 4c af 44 be 99 e5 b6 be 0b 3b 29 3f 4e fd 04 bf
       -0.19207495 -0.35722044 0.6610572 -0.5194901
000110 87 a7 70 3f b1 d4 a4 3e 2b d1 d0 bc e7 23 4f 3f
       0.94005626 0.3219352 -0.025490364 0.8091416
000120 26 35 e2 bd 7b d2 a5 be 84 50 7f be b8 36 b2 be
       -0.110452935 -0.32387146 -0.24933058 -0.34807372
000130 31 dc ef be e5 3c b4 be 90 3a 98 be e6 c2 9a 3f
       -0.4684768 -0.3520271 -0.2973218 1.2090728
000140 29 dc b6 be 90 d4 c0 3f d2 2b 58 3f b7 c5 16 3d
       -0.35714844 1.5064869 0.84441864 0.03680965
000150 02 d9 90 3f b5 34 fa 3d 30 a2 c2 be ec 19 59 be
       1.1316226 0.12217084 -0.38014364 -0.21201295
000160 ea f7 b7 be 76 2f b1 3f d9 11 78 3f 58 0c 04 bf
       -0.3593133 1.3842609 0.96902233 -0.51581335
000170 42 9a a8 3f d0 dc e2 be c5 49 bb 3f 88 f7 8e be
       1.3172076 -0.44309092 1.4631888 -0.27923226
000180 e9 a3 bc 3f 80 8d ad bd 6f b3 dd be 99 66 e8 bd
       1.4737521 -0.084742546 -0.4330096 -0.11347694
000190 33 d5 e6 be 76 a2 f0 be 87 60 a9 be 9a b2 23 bf
       -0.45084533 -0.46998948 -0.33081457 -0.639444
0001a0 b0 d1 f3 be 47 4a d1 bd 5c 60 7c 3f 04 c7 d9 be
       -0.47620916 -0.102192454 0.9858453 -0.4253465
0001b0 f9 a4 c5 be 2d c4 fe be eb 0f 3b bf 74 f8 0e bd
       -0.38602427 -0.49759045 -0.73071164 -0.034904912
0001c0 40 e6 5c be 38 ee 0e 3f 3a e9 11 bf 2b 90 7e 3f
       -0.21572208 0.5583224 -0.569965 0.9943873
0001d0 0c e0 87 3f 11 80 90 3f c4 7b 39 be 17 4d 45 3f
       1.0615249 1.1289083 -0.18113619 0.77070755
0001e0 fd 5b ac 3d 00 7f 1a bf 9e 34 a2 3f 57 ce cf 3d
       0.08415983 -0.60350037 1.2672307 0.10146778
0001f0 ff a6 2b bf 4a 2e 44 be f2 09 bb be 9c 5e 6e 3f
       -0.6705169 -0.19158283 -0.36531025 0.9311311
000200 36 83 37 bf 8f 2d 04 bf 15 68 ad 3d a1 7a a3 be
       -0.71684587 -0.51632017 0.08467118 -0.31929496
000210 36 54 74 be 15 86 d0 be 7c ad 0d 3e 99 b6 f5 be
       -0.23860249 -0.40727296 0.1383571 -0.47990873
000220 6e 9e f3 3d 4b 67 94 3f ef 12 ab be 5c 31 58 be
       0.118954524 1.1594023 -0.33412883 -0.21112579
000230 75 88 71 be e9 d3 9b 3f 55 f6 25 3f d5 cb f8 be
       -0.2358721 1.2174045 0.64829 -0.48593011
000240 b8 de 8a 3f 0b ed ce be 1f 3d bb be 50 a5 93 3f
       1.0849218 -0.40415224 -0.3657007 1.1534824
000250 b2 43 95 be 0c 8f c5 be 08 28 07 3e f4 f2 d6 be
       -0.2915321 -0.385857 0.13198864 -0.41982234
000260 92 37 a8 bc 89 dd c5 be cd 89 a9 3c c6 d6 b0 bd
       -0.02053431 -0.3864558 0.020695591 -0.08634715
000270 a5 f9 c0 be 39 38 a0 be 21 34 ca be 68 e7 35 bf
       -0.37690464 -0.31292894 -0.39492896 -0.7105622
000280 7b 9a 35 3f f1 ae a6 3f f4 63 eb be d1 b3 26 be
       0.70938843 1.3022138 -0.45974696 -0.16279532
000290 e8 ca 96 be 57 f8 36 3f dc 78 c7 be 79 44 1a 3d
       -0.2945168 0.71472687 -0.38959396 0.037662957
0002a0 2a 57 02 bf ac 36 f4 bd ae 6d 10 bf 10 50 cc be
       -0.5091425 -0.1192449 -0.5641736 -0.39904833
0002b0 7b 60 18 bf 81 ca 00 3e cd db 46 be 8a 3d 5a be
       -0.5952222 0.12577249 -0.19419785 -0.21312538
0002c0 1c c6 10 bf 2c 66 69 3f e4 2d 87 3f ef 43 80 3f
       -0.5655229 0.91171527 1.056088 1.0020732
0002d0 14 94 15 3e b0 c0 ae be 49 a9 b0 3f 94 b8 86 bd
       0.14607269 -0.34131384 1.3801662 -0.06578174
0002e0 da 2b 9d 3f 36 a4 60 be 21 28 b5 be 25 6a 5d 3f
       1.2279007 -0.21937642 -0.35382178 0.8649009
0002f0 98 00 9b bd cf da 86 3f b3 2a d6 3e bb dc 2a be
       -0.075684726 1.0535525 0.41829452 -0.16685764
000300 44 aa f7 3f 93 c7 20 bd 70 f5 21 bf 5b 9d 90 bc
       1.9348836 -0.03925283 -0.6326513 -0.017653158
000310 5d 9a a3 be 35 31 b1 be db 77 e1 be 24 f4 10 bf
       -0.31953707 -0.34607854 -0.44036755 -0.5662253
000320 c0 56 93 3f c8 5c 73 3f 00 66 29 bf 52 9f 95 3d
       1.1510849 0.9506345 -0.66171265 0.073057786
000330 8b e6 ad 3c 72 f3 70 3f dc d4 c3 bd c9 18 8a be
       0.021228096 0.9412147 -0.09562084 -0.26972035
000340 46 58 e6 be fa 1c aa 3f f6 3a aa 3f 98 c6 f9 be
       -0.44989222 1.3290093 1.3299243 -0.48784328
000350 0b e9 9e 3f 54 39 0d bf d6 5d ef be 25 6f 11 be
       1.2414869 -0.551656 -0.4675128 -0.14202555
000360 16 85 8f 3f b1 14 26 be 21 d1 e6 be dd 55 01 be
       1.121249 -0.1621883 -0.45081428 -0.1263041
000370 16 46 85 3f 91 f3 56 be f1 11 78 3f bb f1 0d bf
       1.0412014 -0.2099135 0.96902376 -0.55446976
000380 5e 5a 9e be 4c 7f a5 3f 02 b8 97 3f c4 be 17 bd
       -0.3092832 1.2929473 1.185303 -0.037047163
000390 81 aa 3c 3d 16 7c 98 3f ef 1e 3c 3f 28 fe 01 bf
       0.046061043 1.1912868 0.734847 -0.50778437
0003a0 7d 81 9c 3f 93 2d b7 3d a8 ad 49 be be 0c 7f 3f
       1.2227017 0.089442395 -0.19695151 0.9962882
0003b0 db d0 ad bc 74 9b e6 be df dc 29 bf 70 68 7f 3f
       -0.021217754 -0.45040476 -0.6635265 0.99768734
0003c0 c5 a1 8f be ae 91 e3 be 38 49 98 be ba 22 3f be
       -0.28053108 -0.44447082 -0.2974336 -0.18665591
0003d0 82 39 a8 3f 8d b6 f1 bc 0f 8c 83 3f d8 04 a8 3e
       1.314255 -0.029505992 1.0277117 0.32816195
0003e0 48 e4 c7 3c 4c c7 de bd a7 05 91 3f d5 dd aa bd
       0.024400845 -0.108778566 1.132985 -0.08343092
0003f0 3f ea 2a bf 59 7b 50 3f 84 ce d3 be 94 e2 35 be
       -0.6676368 0.81438214 -0.41368496 -0.17762214

linear2.weight f4 [3, 256]
000000 4c ae 34 c0 a3 1d 17 3f 03 ca 40 40 2c fd 07 3f
       -2.8231382 0.590296 3.0123298 0.53120685
000010 9b c4 2f 3f db af 5f c0 7d 25 04 3f a4 11 26 bd
       0.6865937 -3.4951084 0.516197 -0.040544167
000020 77 07 2c 3f 48 87 8f bf 73 94 85 bf dc c5 a0 c0
       0.6719889 -1.121316 -1.0435928 -5.0241528
000030 cc 9c 9d bf fd fd 03 c0 b0 e6 79 bf 50 cc 79 3f
       -1.2313476 -2.0623772 -0.97617626 0.9757738
000040 77 63 0b c0 0b a6 0a 40 e6 82 16 bd 72 a5 43 c0
       -2.1779459 2.1663845 -0.03674593 -3.056973
000050 f1 a2 c0 bf 08 af 15 c0 bc 8d 26 bf d9 64 59 bf
       -1.5049726 -2.338808 -0.6506002 -0.84919506
000060 c4 2e e2 bf cf c6 2b c0 81 91 09 c0 4a 25 d1 3e
       -1.7670522 -2.6840093 -2.1495059 0.40848762
000070 b7 fd 4c 3e 35 f7 32 3f 1a 9b 43 40 49 d6 37 3f
       0.2001866 0.6990846 3.0563416 0.7181135
000080 67 4f 3c 3f 7f 2a ae 3f 55 96 95 bf 81 5e 55 3f
       0.7355866 1.3606719 -1.1686503 0.83347327
000090 38 e2 1f 3f d1 f5 5d c0 13 00 a6 bf 59 4d 29 3f
       0.6245456 -3.4681284 -1.2968773 0.6613365
0000a0 f1 37 22 3f f2 4e 24 3f f8 47 86 3f b4 45 44 c0
       0.6336661 0.6418296 1.0490713 -3.0667543
0000b0 ed 5a c5 bf c2 f2 8d bf 93 55 ab 3d 90 8c 58 3e
       -1.5418373 -1.1089709 0.08365931 0.2114737
0000c0 40 65 ac bf 08 2d e4 3e 83 61 64 bf c0 48 c7 bf
       -1.3468399 0.44565606 -0.8921129 -1.5569077
0000d0 5a bb 27 bd f4 dd c4 bf 71 1b 34 3f 0d 95 4f 3f
       -0.040950157 -1.5380235 0.7035437 0.8108681
0000e0 d9 92 c8 3f ca a5 81 bf ae 7f 78 3e 15 a7 cc bf
       1.5669814 -1.012872 0.24267456 -1.5988489
0000f0 ed 77 af c0 b8 ac 3d 3f 69 bd e1 3e cc 27 a5 bf
       -5.4833894 0.7409167 0.4408982 -1.290277
000100 e2 45 55 c0 b9 ed 6e bf 0e 7a a8 bf b8 b0 0c c0
       -3.3323903 -0.93331486 -1.3162248 -2.198286
000110 27 1b 17 3f 61 1f 40 3f 42 8e b1 3c 1e c9 43 40
       0.59025806 0.7504788 0.02167428 3.0591502
000120 d4 81 30 c0 99 cd 34 bf b7 74 a5 bf 8c cf d9 bf
       -2.757924 -0.7062622 -1.2926244 -1.7016463
000130 aa 97 1d c1 5b ca d7 bf af 78 06 c0 73 75 21 3f
       -9.849527 -1.6858629 -2.101116 0.6306984
000140 f5 c1 19 c0 bc 8b 34 3f 29 ca 31 3f 8a 2c 82 c0
       -2.4024632 0.7052572 0.69449097 -4.067937
000150 4b 86 2b 3f 39 40 73 c0 b6 de c3 bf ee c8 57 3d
       0.6700179 -3.8007948 -1.5302341 0.052681856
000160 3f 79 5d bf 3f de f4 3e 50 56 53 3f bb 3d 19 bf
       -0.8651313 0.4782581 0.8255358 -0.5985982
000170 ea df bc 3f 38 ab ad c0 2c 27 23 3f d0 f9 65 c0
       1.4755833 -5.4271507 0.63731647 -3.5933723
000180 c2 52 32 3f 6f af b1 bf e6 32 5d bf 38 e6 3c c0
       0.6965753 -1.3881663 -0.8640579 -2.9515514
000190 e8 7c 7c bf cb af 63 bf f4 f4 1c c0 44 16 4a bf
       -0.9862809 -0.88940114 -2.4524508 -0.78940225
0001a0 a4 70 8a bf c5 83 64 bf 3f 67 2b 3f 30 14 53 bf
       -1.0815625 -0.89263564 0.66954416 -0.8245268
0001b0 92 13 c8 bf 93 75 b6 bf 09 5f ec bf b5 1a 1d c0
       -1.5630972 -1.4254631 -1.8466502 -2.454755
0001c0 7a bf 37 bd ba 0f 94 3e 41 63 d8 bf 74 ef 19 3f
       -0.04486034 0.28918248 -1.690529 0.60131
0001d0 0a 62 2b 3f 3b eb 17 3f 7c b7 85 c0 9e e8 10 3f
       0.6694647 0.5934331 -4.178648 0.56604946
0001e0 04 ad a2 c0 c1 c0 b4 bf c1 b7 9a 3f 3d 21 9e c0
       -5.08362 -1.4121324 1.2087327 -4.9415574
0001f0 72 82 ae bf e2 47 77 bd 86 19 6f c0 33 9b d0 3f
       -1.3633559 -0.060371287 -3.7359328 1.6297363
000200 b8 f4 16 c0 42 52 81 bf 45 ad 3a c0 88 a2 f7 bf
       -2.3586864 -1.0103228 -2.9168255 -1.9346476
000210 30 ed 48 c0 af e5 31 c1 e0 fc 35 3f af f7 7b bf
       -3.1394768 -11.118575 0.7108898 -0.9842481
000220 48 2f 8a 3f 17 33 38 3f 51 cd dd bf 53 68 02 c0
       1.0795679 0.71952957 -1.7328283 -2.0376174
000230 c4 09 3e bf 06 53 21 3f 49 a0 43 3f 5b 7e ab bf
       -0.7423365 0.6301731 0.7641645 -1.3397936
000240 42 3b 2d 3f 5b f6 af bf fa 3b d7 bf 3e 84 49 3f
       0.67668545 -1.3747057 -1.6815178 0.7871741
000250 2b 22 9d bf b6 02 13 bf 7d d0 17 c0 4e 7b 7e c0
       -1.2276052 -0.5742601 -2.3721 -3.976276
000260 2d 66 4b c0 c2 02 9f bf 02 c5 4f 3d 64 ea e7 bc
       -3.1781113 -1.2422717 0.05072499 -0.028310008
000270 fd d6 eb bf 03 71 75 c0 fa 79 04 be b1 94 15 c0
       -1.8424984 -3.8350227 -0.12937155 -2.3372004
000280 01 3b 42 40 65 c4 36 3f 7f f5 3c c0 c9 51 9c bf
       3.0348513 0.71393424 -2.952484 -1.2212459
000290 60 7e 9c bf 2b 34 3b 3f 03 99 02 c0 09 36 15 c0
       -1.2226067 0.73126477 -2.040589 -2.331423
0002a0 80 1e 89 3e f4 d4 57 c0 22 d8 1f bf 4d c4 02 c0
       0.26781082 -3.3723726 -0.6243917 -2.0432312
0002b0 4b 3c cf bf 26 17 5f be 4a ed b8 bf a4 06 35 c0
       -1.6190275 -0.21786174 -1.4447415 -2.8285303
0002c0 7b 2e a7 c0 75 48 26 3f 31 84 12 3f 51 31 44 3f
       -5.224424 0.6495431 0.5723296 0.7663775
0002d0 f8 81 04 bf 7f 9e 8f bf f1 bd fc 3e 06 ae 03 c1
       -0.51760817 -1.1220244 0.49363664 -8.229986
0002e0 30 78 39 3f 94 71 2b bd 9d 60 57 c0 07 33 26 3f
       0.72449017 -0.041856363 -3.3652718 0.6492161
0002f0 a7 95 01 c0 92 ff 3c 3f ca ff 56 3f 43 24 0a c0
       -2.024759 0.7382747 0.83984053 -2.1584632
000300 b6 ce 92 be 07 65 0c c0 7e 9b da bf ee 10 3b c0
       -0.28673333 -2.1936662 -1.7078702 -2.9229083
000310 7d b8 8d c0 ae ef 04 c0 b9 93 86 c0 5e 12 8f bf
       -4.4287705 -2.077129 -4.2055326 -1.117748
000320 34 88 14 3f 32 6f 24 3f eb 74 18 c0 11 d6 fb 3c
       0.5802033 0.6423217 -2.382136 0.030741723
000330 d9 9c 03 c0 ac 01 d8 3e e9 42 47 bf 51 6a 5b bf
       -2.0564482 0.42188776 -0.7783647 -0.857091
000340 12 c4 b7 bf 2a fa 2c 3f 09 ec 0c 3f db 3e 5a bf
       -1.4356711 0.6756922 0.5504766 -0.8525216
000350 e9 d4 40 3f 2f 4b e4 bf c0 e8 d9 be 04 33 13 c0
       0.75324875 -1.7835444 -0.42560387 -2.2999887
000360 99 1b 34 3f 82 34 3d bf 80 f1 db bf 50 7b 91 c0
       0.7035461 -0.73908246 -1.7183075 -4.546303
000370 4d ee 25 3f 85 89 9b bf fd 7a 23 3f 1c cb 90 bf
       0.64816743 -1.2151343 0.6385954 -1.1311984
000380 97 f3 4d c0 b2 bd 0a 3f 29 51 1d 3f a6 8c 5e c0
       -3.2179925 0.541957 0.61451966 -3.4773345
000390 4b 11 c5 be 05 f5 27 3f 65 e2 00 40 5b 30 18 c0
       -0.38489756 0.65608245 2.013818 -2.3779514
0003a0 36 66 2b 3f 61 c8 20 c1 d5 13 13 c0 30 da 01 40
       0.66952837 -10.048921 -2.2980855 2.028942
0003b0 7c 69 63 3f 26 89 7b c0 a9 e4 02 c0 08 f5 3f 3f
       0.8883283 -3.9302459 -2.0452063 0.74983263
0003c0 63 3e a6 bf 01 6e 21 c0 fe 7a 5b c0 f4 28 3c c0
       -1.2987789 -2.522339 -3.4293818 -2.9399996
0003d0 8b 27 2e 3f bc 61 c3 bf 45 b9 3c 3f c0 62 9f 3e
       0.6802909 -1.5264201 0.737202 0.31130028
0003e0 9d 81 40 c0 f8 57 78 c0 17 bf e6 3f 7f 48 23 c0
       -3.007911 -3.8803692 1.8027066 -2.5512998
0003f0 4b 40 83 c0 6f e0 e1 3e ea 8c 00 c0 cc d5 47 c0
       -4.1015983 0.44116542 -2.0086007 -3.1224241

linear2.bias f4 [3]
000000 74 05 72 3f 0a 52 56 3f 44 bc 60 3f
       0.9453957 0.8371893 0.8778727
