checkpoints_dqn/model_final_model_652ugdwb.pth (torch, 23259 bytes, 4 tensors)

linear1.weight f4 [256, 16]
-5.164032 -4.0268 -0.7375101 1.4164957 -2.5525477 0.9584775 -0.9222196 -1.2483057
-0.54032636 -0.9233065 -1.1041976 -0.7899642 -0.043826696 -0.1626482 -0.33980465 -1.035878
-0.3589292 0.0074020345 -0.059491746 0.035122875 0.15117136 -0.097655684 -0.082059056 0.1492714
-0.19476487 -0.043290466 -0.24166222 0.036261257 0.11914584 -0.36817375 0.049761973 -0.058529507
-0.031091465 0.16945826 -0.032043967 -0.1202008 -0.44701377 -0.13171841 -0.61926347 -0.19997652
-0.2922717 -0.42173824 -0.14546214 0.058116924 -0.16644883 -0.11878876 -0.014064299 0.007797363
-0.12663752 0.13809958 0.008086256 0.14620583 0.08056995 -0.01375781 -0.6513761 -0.2395048
-0.47258028 -0.340431 -0.43498984 -0.656469 -0.17570359 -0.0062830155 -0.3152472 -0.05595757
-1.5239382 -0.13067031 -0.5006768 -1.1801099 -6.0016713 4.7780576 2.8412826 1.1225296
-0.7072148 -0.55916584 -0.16395245 -0.31232142 -0.18589492 -0.5305851 -0.2471588 0.9655809
-0.00046005112 -0.1022047 -0.023657497 -0.04320783 -0.13745838 -0.2015618 -0.21425669 0.110624045
0.03463054 -0.017696977 -0.27667296 0.094406866 -0.012798231 0.08658115 -0.16145466 -0.003990287
0.07311186 0.100611955 0.08396577 0.047356784 0.3838787 -0.28972146 -0.60044974 -0.45701155
-0.28624704 -0.27051723 -0.20116235 -0.051260613 -0.07623866 -0.11337417 0.022068767 -0.41679612
0.0046722624 -0.11108963 0.025439011 -0.034123134 -0.19311476 -0.08311553 -0.29856113 0.05366552
-0.29485697 -0.17536514 0.05007669 -0.28864324 0.055534333 -0.28028598 0.0075241434 -0.06796689
2.3096366 -8.776954 0.17555113 -3.5837412 0.61649585 0.22570911 -2.7224078 0.9053485
0.20003673 0.5473802 0.35463914 -0.05023716 0.16008876 0.34940642 1.1352218 -0.7353425
-0.6881544 0.09731748 0.018163417 0.051621765 0.86091554 -0.79329306 -1.4168328 0.05091391
0.3084939 0.09108069 -0.13686363 0.05359054 -0.28578383 -0.031297717 -0.48689038 -0.19171193
-0.20990622 0.03446553 -0.06097867 0.1709537 0.04008173 -0.07103112 0.022263236 0.062244974
-0.061448846 -0.06759051 -0.2295435 -0.40478712 -0.15744327 -0.047110815 -0.28075844 -0.25720695
-0.33880204 -0.19609725 0.14448284 0.13757008 -0.04452841 -0.10055798 0.033170927 -0.35679913
-0.35215554 -0.21206895 -0.28919712 0.01834882 0.06604844 -0.3233651 -0.29989526 -0.34809056
0.41596544 -0.27738973 -0.23289299 -0.06642256 0.25101176 -1.4037522 0.69509363 -0.008975636
-0.06955189 -0.0073036505 0.023221256 -0.27756292 -0.20991388 -0.18980142 0.20639282 0.61065817
-2.0492074 -6.8917103 1.5259329 1.1881368 -4.2322865 0.19346635 -2.4454455 -1.3378633
-1.5628929 -0.2657118 -0.16915278 -0.31975186 -1.2816492 -0.61887 -0.11450404 -0.83688635
0.09239207 -0.3033071 -0.070419654 -0.14942439 0.043786116 -0.063329555 -0.103371926 -0.0984397
-0.25139728 0.015843956 -0.049841948 -0.22705911 0.043170743 -0.061106503 -0.29786858 0.08212639
2.6728647 -0.7299321 -1.4344614 -0.509966 3.988115 -2.536751 0.8811541 1.4719683
0.40775645 -0.09212863 -0.23406334 -0.13849051 0.12259145 -0.30424064 -0.58779913 0.1662612
00000000: c03f a5c0 8cdb 80c0 76cd 3cbf bb4f b53f
00000010: f15c 23c0 c85e 753f 9516 6cbf 7bc8 9fbf
00000020: d452 0abf d15d 6cbf 5956 8dbf 183b 4abf
00000030: 9f83 33bd 408d 26be e0fa adbe a697 84bf
00000040: 91c5 b7be c48c f23b 9ead 73bd 01dd 0f3d
00000050: aacc 1a3e b4ff c7bd 940e a8bd 9ada 183e
00000060: 7170 47be 5851 31bd 4d76 77be af86 143d
00000070: bc02 f43d 4581 bcbe 36d3 4b3d a3bc 6fbd
00000080: 87b3 febc 7786 2d3e 8940 03bd d62b f6bd
00000090: fdde e4be 31e1 06be 0d88 1ebf a5c6 4cbe
000000a0: a3a4 95be 13ee d7be 07f4 14be 030c 6e3d
000000b0: 9071 2abe 8547 f3bd f26d 66bc 0681 ff3b
000000c0: 44ad 01be fa69 0d3e 377c 043c fbb6 153e
000000d0: dc01 a53d 7068 61bc 96c0 26bf bf40 75be
000000e0: 0bf6 f1be f94c aebe fdb6 debe 5a0e 28bf
000000f0: a4eb 33be c1e1 cdbb 1568 a1be c433 65bd
00000100: 6810 c3bf 70ce 05be 5b2c 00bf d70d 97bf
00000110: b10d c0c0 d9e5 9840 93d7 3540 0daf 8f3f
00000120: 070c 35bf 7e25 0fbf 27e3 27be 98e8 9fbe
00000130: 3d5b 3ebe 6dd4 07bf 3217 7dbe 4f30 773f
00000140: 0433 f1b9 b350 d1bd 5ecd c1bc b2fa 30bd
00000150: e4c1 0cbe 3766 4ebe 1b66 5bbe dc8e e23d
00000160: c1d8 0d3d 40f9 90bc 14a8 8dbe 6358 c13d
00000170: acaf 51bc 7551 b13d 5f54 25be f4c0 82bb
00000180: acbb 953d a40d ce3d 3ff6 ab3d 30f9 413d
00000190: c08b c43e 5f56 94be 13b7 19bf 6bfd e9be
000001a0: f98e 92be 3c81 8abe 81fd 4dbe a6f6 51bd
000001b0: 0423 9cbd b830 e8bd 8fc9 b43c 4d66 d5be
000001c0: c719 993b f682 e3bd 7965 d03c b3c4 0bbd
000001d0: e0bf 45be 7a38 aabd 01dd 98be 60d0 5b3d
000001e0: 7ef7 96be eb92 33be 371d 4d3d 0cc9 93be
000001f0: f877 633d a581 8fbe 178d f63b 3a32 8bbd
00000200: 16d1 1340 676e 0cc1 adc3 333e 045c 65c0
00000210: acd2 1d3f 4a20 673e ee3b 2ec0 ebc4 673f
00000220: 6ed6 4c3e 1c21 0c3f 4393 b53e 7bc5 4dbd
00000230: 4fee 233e 66e5 b23e f34e 913f 683f 3cbf
00000240: e32a 30bf 634e c73d 72cb 943c 5871 533d
00000250: f664 5c3f 4115 4bbf c75a b5bf 1b8b 503d
00000260: eaf2 9d3e 8388 ba3d fb25 0cbe c181 5b3d
00000270: 4252 92be 0932 00bd b249 f9be 2250 44be
00000280: a8f1 56be ba2b 0d3d c5c4 79bd 7d0e 2f3e
00000290: bd2c 243d c478 91bd 6461 b63c 96f4 7e3d
000002a0: c9b1 7bbd e56c 8abd 740d 6bbe 4240 cfbe
000002b0: cf38 21be 45f7 40bd 92bf 8fbe a1b0 83be
000002c0: 7677 adbe b8cd 48be 4ff3 133e 2cdf 0c3e
000002d0: 6c63 36bd 58f1 cdbd 3dde 073d 60ae b6be
000002e0: bb4d b4be 9a28 59be a511 94be 4450 963c
000002f0: 6844 873d 1c90 a5be df8b 99be ed38 b2be
00000300: 6cf9 d43e 0706 8ebe 807b 6ebe 8d08 88bd
00000310: 9d84 803e 27ae b3bf a8f1 313f 8c0e 13bc
00000320: 3971 8ebd 7653 efbb 813a be3c ba1c 8ebe
00000330: aaf3 56be 4e5b 42be a458 533e 1854 1c3f
00000340: 3726 03c0 e488 dcc0 c551 c33f de14 983f
00000350: e46e 87c0 0b1c 463e 2e82 1cc0 1b3f abbf
00000360: e00c c8bf 610b 88be 6336 2dbe 84b6 a3be
00000370: 150d a4bf 446e 1ebf 1881 eabd 2f3e 56bf
00000380: 0e38 bd3d 114b 9bbe 2e38 90bd b502 19be
00000390: 1259 333d edb2 81bd a9b4 d3bd c19a c9bd
000003a0: 25b7 80be 2fcb 813c 1227 4cbd 2f82 68be
000003b0: ced3 303d d04a 7abd 3b82 98be e131 a83d
000003c0: 3710 2b40 d5dc 3abf 6e9c b7bf 228d 02bf
000003d0: 473d 7f40 215a 22c0 5193 613f 7569 bc3f
000003e0: 74c5 d03e efad bcbd 4dae 6fbe 75d0 0dbe
000003f0: 3a11 fb3d 6ec5 9bbe 017a 16bf 6040 2a3e

linear1.bias f4 [256]
0.93149585 -0.29481778 -0.2055387 -0.20362608 4.6197095 -0.16366073 -0.30744964 0.11709341
0.48059475 -0.6310767 -0.37921852 -0.017143767 -0.99476194 0.48898324 -0.2940474 -2.8929107
-0.4281652 -0.1468432 -0.183748 -0.2497051 -2.6358662 -0.6851406 5.591587 1.2782558
0.045987926 -0.21615487 -0.15421447 -0.29786363 -0.8558172 -0.28892824 -0.1459782 -1.2795037
-0.3315108 0.37050414 -0.21047607 0.26942468 5.4504123 -0.36774242 -0.33205786 -0.18703872
-0.29940876 0.11870343 5.1936784 0.06149101 4.9753814 -0.36249122 -0.20757067 -0.30191997
-0.4047533 -0.18838955 -0.29541934 0.47924685 -0.12523809 -0.18047939 0.09282024 -0.23747317
-0.7723135 -0.1476927 -0.23065798 -0.10681947 -0.8577426 -2.92548 -2.3338416 -0.29883555
-2.1375635 -0.1436274 0.09857428 0.57413894 1.1126119 -2.2900155 -0.12065773 -0.02716845
-0.026885843 -0.23278531 -1.0351644 -0.16681336 -0.4175213 -0.5253306 1.0177387 -0.45990193
2.9252994 -0.4765657 -2.4906428 -0.11219073 -0.45469752 0.015510773 -0.03613683 -0.34087262
0.29762697 1.2411165 -0.26742274 -0.5494549 -0.15729974 -0.18147951 -0.14266104 -3.030792
-0.011593262 -0.10731848 -0.07576343 -0.054849118 -0.22213745 -0.87665564 -0.011870167 -1.3221936
-0.00982362 5.263415 -0.112160034 0.02432506 -0.23575668 -0.2742406 -0.5765622 0.55093724
-2.315826 -0.18044373 -0.32942033 -0.14328276 -0.6567632 0.8141847 -0.54682624 -0.11928271
-0.18590634 0.024277978 -2.9584405 -1.2631383 -0.17265013 -0.30037346 -0.5304084 -0.58703154
-2.2452285 -0.3275562 -0.22949955 3.2208686 -0.14114852 -2.476712 -1.6790684 -0.26165047
-0.3272549 -0.3816124 4.343657 3.4596639 -1.3485172 -0.24778944 -2.033554 -0.16441296
-0.30083424 -0.2726021 -0.70362765 0.15100206 -1.2827849 -0.15427314 -0.29398546 -2.2204492
-0.75090736 -0.54391944 -0.23430623 -0.22396381 -1.2375404 -0.4028184 -0.17400901 -0.27323598
-0.90607595 -0.98634714 -0.30414423 -0.30924037 -0.6212099 -0.17139407 0.11210872 -0.26270622
0.0056421906 -0.36838186 2.1974733 2.9888833 -0.34966695 -1.6057676 -0.10670844 -2.1353052
0.85465074 -0.45850974 -0.2813675 -1.8250357 -0.65129125 -0.2761404 0.018656777 -0.01380174
-0.3149173 -0.124248154 -0.2631531 0.060489614 -0.26442385 -0.05946209 -1.6668826 0.006240263
-0.9484413 -0.14664517 -0.10933729 -0.2853346 0.5772881 -1.674691 -1.9273176 -0.26002365
0.021232236 -0.00790603 0.92999727 3.885242 -0.097633205 1.4450144 -0.29630727 3.1914632
-0.23127109 -0.14865118 -0.17546177 -0.13221166 -0.13448918 0.450578 -0.00725616 -0.07328838
-0.20313302 -0.16752042 -0.5162595 -0.030543517 -0.3656122 -2.0758226 -0.21738607 0.1516005
0.53951824 -0.5237057 -0.18630296 -2.9348676 -0.14469431 0.019862866 -0.23271343 -0.24368188
-1.6148654 0.4913339 0.005683588 -0.35298946 -0.21193962 0.04971347 0.5988178 0.11759409
-0.37548283 0.037397295 1.5391833 0.033114664 -0.36346614 -0.40413463 -0.39941242 -0.2317408
6.0676246 -0.39669183 -0.60482806 3.7825906 -0.36951244 2.9373088 1.3905165 0.7122908
00000000: 8376 6e3f 5bf2 96be bd78 52be 5b83 50be
00000010: a9d4 9340 ae96 27be 0a6a 9dbe abce ef3d
00000020: 8410 f63e 3e8e 21bf ee28 c2be 1671 8cbc
00000030: b8a8 7ebf 035c fa3e 618d 96be 7325 39c0
00000040: 7838 dbbe 105e 16be 7028 3cbe b2b2 7fbe
00000050: 08b2 28c0 6065 2fbf 48ee b240 e39d a33f
00000060: d65d 3c3d b457 5dbe 66ea 1dbe 9581 98be
00000070: d616 5bbf 67ee 93be 4f7b 15be c7c6 a3bf
00000080: c9bb a9be b8b2 bd3e 0a87 57be 08f2 893e
00000090: c769 ae40 bc48 bcbe 7d03 aabe 1487 3fbe
000000a0: 1b4c 99be c91a f33d 9d32 a640 ffdd 7b3d
000000b0: 5336 9f40 7398 b9be 688d 54be 4195 9abe
000000c0: d33b cfbe 31e9 40be 3441 97be d85f f53e
000000d0: 6a3e 00be 97cf 38be 8a18 be3d 2b2c 73be
000000e0: 56b6 45bf c13c 17be 9b31 6cbe 2bc4 dabd
000000f0: 0595 5bbf 103b 3bc0 a95d 15c0 f900 99be
00000100: d7cd 08c0 1013 13be 50e1 c93d c5fa 123f
00000110: 116a 8e3f 9d8f 12c0 661b f7bd 5f90 debc
00000120: b33f dcbc 465f 6ebe 4480 84bf 1fd1 2abe
00000130: 5ac5 d5be 117c 06bf 4345 823f 4478 ebbe
00000140: 1b38 3b40 6b00 f4be b166 1fc0 41c4 e5bd
00000150: 1dce e8be e620 7e3c 3604 14bd db86 aebe
00000160: 9062 983e e8dc 9e3f a2eb 88be 14a9 0cbf
00000170: 2f13 21be c4d5 39be bc15 12be 7ff8 41c0
00000180: aaf1 3dbc cbc9 dbbd db29 9bbd 78a9 60bd
00000190: 0078 63be 816c 60bf 177b 42bc a43d a9bf
000001a0: 40f3 20bc e56d a840 29b4 e5bd 5945 c73c
000001b0: 336a 71be 4469 8cbe 9599 13bf 390a 0d3f
000001c0: 7e36 14c0 3ec6 38be c8a9 a8be b7b8 12be
000001d0: a221 28bf 696e 503f cefc 0bbf 7e4a f4bd
000001e0: 3b5e 3ebe 9ce2 c63c 1757 3dc0 84ae a1bf
000001f0: 32cb 30be 8dca 99be d8c8 07bf b347 16bf
00000200: d3b1 0fc0 72b5 a7be ee01 6bbe b622 4e40
00000210: 3d89 10be 7382 1ec0 b7eb d6bf 0df7 85be
00000220: f48d a7be b362 c3be 3dff 8a40 226b 5d40
00000230: 369c acbf 84bc 7dbe c025 02c0 df5b 28be
00000240: f206 9abe 8192 8bbe f120 34bf 49a0 1a3e
00000250: 4c32 a4bf c7f9 1dbe 4385 96be d71b 0ec0
00000260: 773b 40bf 4e3e 0bbf f9ed 6fbe c556 65be
00000270: b967 9ebf 373e cebe 6b2f 32be 96e5 8bbe
00000280: 98f4 67bf 3f81 7cbf cbb8 9bbe c154 9ebe
00000290: 9d07 1fbf ed81 2fbe 4299 e53d 6e81 86be
000002a0: 20e2 b83b 8c9c bcbe 67a3 0c40 dd49 3f40
000002b0: 8c07 b3be cb89 cdbf f489 dabd d7a8 08c0
000002c0: 64ca 5a3f cac1 eabe 670f 90be c59a e9bf
000002d0: 06bb 26bf 4662 8dbe 19d6 983c b120 62bc
000002e0: d73c a1be d175 febd 01bc 86be f5c3 773d
000002f0: 9062 87be 858e 73bd 695c d5bf 1f7b cc3b
00000300: 0dcd 72bf 272a 16be 3bec dfbd 6017 92be
00000310: 27c9 133f 465c d6bf 58b2 f6bf d221 85be
00000320: 3aef ad3c 4b88 01bc 4d14 6e3f cea7 7840
00000330: ebf3 c7bd 3bf6 b83f 96b5 97be ef40 4c40
00000340: 54d2 6cbe 0438 18be 40ac 33be 7e62 07be
00000350: 88b7 09be 29b2 e63e 15c5 edbb 3818 96bd
00000360: 1a02 50be 798a 2bbe 9529 04bf 6636 fabc
00000370: 8631 bbbe 47da 04c0 749a 5ebe 293d 1b3e
00000380: de1d 0a3f 9411 06bf 34c6 3ebe dfd4 3bc0
00000390: bf2a 14be 73b7 a23c 6e4c 6ebe be87 79be
000003a0: e9b3 cebf 1e90 fb3e 643d ba3b 09bb b4be
000003b0: b306 59be 5aa0 4b3d 204c 193f 2cd5 f03d
000003c0: 493f c0be e82d 193d f503 c53f 3ea3 073d
000003d0: 3c18 babe bcea cebe c97f ccbe 764d 6dbe
000003e0: fb29 c240 311b cbbe 03d6 1abf f715 7240
000003f0: bc30 bdbe defc 3b40 72fc b13f b158 363f

linear2.weight f4 [3, 256]
0.5037014 -0.0076639615 -0.023046326 -0.015450665 0.9762799 0.010170662 0.04546759 0.00077534805
1.6321902 -0.30730578 -0.008608321 -0.021138936 -0.29887128 1.1173813 -0.0108414665 -3.8228097
-0.08085673 -0.010306692 -0.025887812 0.0019331325 -0.25813025 -0.057178304 2.9063506 1.1186081
0.04194677 -0.0019823282 -0.10931593 0.020840649 -0.115354404 -0.034554504 0.060137406 -0.34351432
-0.05746084 1.9469293 -0.027750522 -1.2937833 2.8686926 0.0011176903 0.18487963 0.5640415
0.0010051104 2.7294958 2.8204594 -0.03702955 2.3611107 -0.06626338 0.044995643 0.008269772
0.03334947 0.002235105 -0.09572233 0.15978186 -1.756414 -0.2550122 0.1311035 -0.064616725
-0.03974541 0.038642794 0.075123675 -0.08264914 -0.35763738 1.0733896 -3.2965972 -0.0542109
-0.7990875 -0.016274676 0.00031210252 0.94083357 -2.3851993 -0.5420105 0.023602976 0.025809187
0.01594821 -0.15393582 -2.0116024 0.02137518 -0.108927906 0.024775794 1.2562823 -0.0760151
1.9675802 0.3037716 1.2565321 0.03938594 -0.26470554 -0.0008239169 0.6119322 -0.1539454
0.016284518 -11.619511 0.0199628 0.013414522 0.027784353 0.013841115 -0.00624677 -0.19374143
0.0034238885 0.3455288 0.02019695 -0.025002131 -0.032647107 0.022761917 -0.06037197 1.054577
-0.017768325 2.7061937 -0.025815962 -1.2058339 -0.05317475 -0.003489577 -0.06026014 2.0758207
-8.660496 -0.017221479 0.15686691 -0.073935956 -0.037116025 -1.7579422 -0.042943023 -8.761426
-0.09000144 0.31371254 0.31193107 3.6074173 -0.003798364 0.0031370798 0.11591898 -1.2083062
-2.190465 0.0022422434 -6.256388 1.7284124 -0.01645237 -0.70500964 -0.13944969 0.20841743
0.11684097 -0.04732238 -1.8541796 3.8904762 0.119737394 0.0063937483 -2.0870557 -0.022351874
0.053128984 0.011256577 -0.13230515 -1.0827723 -0.10855484 0.029931705 0.0027248147 -2.6856604
-1.4804335 -0.04972711 0.029100398 -0.07590165 -4.2086806 0.17343552 0.06532595 -0.05481335
-0.20827314 -3.2464004 -0.064142354 -0.24917527 -0.13418406 -0.10728524 0.2663808 0.06167134
0.06735985 0.27201346 0.14922448 2.0174267 0.029893536 0.01887764 -0.03749793 -3.9014196
3.0199118 -8.051818 0.06991536 -0.32086137 0.009087306 0.10896644 0.17647518 0.10791387
-3.0426311 -0.114623845 0.0008882885 -0.03364435 0.07198042 0.043710746 1.5735416 0.0912329
-1.6870996 0.016738076 0.05826213 0.039609503 3.3076537 -0.018077437 -4.698515 -0.13338771
0.33671805 -0.01784754 1.1884986 -0.6819969 0.012824838 0.20678608 -0.05985684 -1.302911
-0.051191278 -0.0036333054 -0.034067906 -0.04238901 -0.03396916 -8.779426 -0.07590067 0.009089769
0.015760547 1.7724297 -0.015347251 0.015366925 0.077005744 -0.24278909 -0.009852061 0.35791904
0.50229347 0.04220013 -0.095228374 1.3016685 -0.28772226 0.30129483 0.15204296 0.1221279
-0.011202706 -1.5654942 0.18246454 0.07688684 -0.06981869 0.31908926 1.6830045 0.053457946
0.017473778 0.12854737 0.08713097 0.023999717 -0.27178046 -0.025168277 0.3265157 -0.023247242
3.5358984 -0.07464763 -3.1778784 -0.018730221 0.003029737 2.6804626 -0.7996131 -0.78153497
00000000: 93f2 003f f821 fbbb a6cb bcbc c924 7dbc
00000010: 7bed 793f d9a2 263c 393c 3a3d ba40 4b3a
00000020: 9ceb d03f 2f57 9dbe ea09 0dbc 902b adbc
00000030: a805 99be 5a06 8f3f 68a0 31bc eaa8 74c0
00000040: 3798 a5bd 66dd 28bc ad12 d4bc 2a61 fd3a
00000050: a629 84be cc33 6abd a601 3a40 8d2e 8f3f
00000060: 60d0 2b3d f3e9 01bb 08e1 dfbd 02ba aa3c
00000070: ee3e ecbd 0689 0dbd a452 763d 1ce1 afbe
00000080: 0f5c 6bbd fb34 f93f 1055 e3bc b19a a5bf
00000090: a998 3740 777f 923a 1651 3d3e 0665 103f
000000a0: e9bd 833a 0fb0 2e40 6882 3440 4cac 17bd
000000b0: 701c 1740 18b5 87bd 5a4d 383d f07d 073c
000000c0: 7499 083d d77a 123b 120a c4bd db9d 233e
000000d0: 2dd2 e0bf f690 82be ff3f 063e c655 84bd
000000e0: 15cc 22bd e847 1e3d 71da 993d f443 a9bd
000000f0: 3f1c b7be d564 893f 73fb 52c0 400c 5ebd
00000100: 0091 4cbf 7852 85bc b1a1 a339 78da 703f
00000110: 1ba7 18c0 33c1 0abf 075b c13c ca6d d33c
00000120: d2a5 823c 5aa1 1dbe 18be 00c0 001b af3c
00000130: 9815 dfbd 9bf6 ca3c dccd a03f cead 9bbd
00000140: abd9 fb3f f387 9b3e 0bd6 a03f 2753 213d
00000150: 7c87 87be 21fc 57ba 97a7 1c3f dda3 1dbe
00000160: 1c67 853c 84e9 39c1 0789 a33c 95c8 5b3c
00000170: 039c e33c d8c5 623c b4b1 ccbb 2764 46be
00000180: 5163 603b 27e9 b03e 1374 a53c 45d1 ccbc
00000190: f9b8 05bd 3377 ba3c 9948 77bd 61fc 863f
000001a0: e18e 91bc 4732 2d40 ff7b d3bc c458 9abf
000001b0: c4cd 59bd 63b1 64bb 56d3 76bd 3fda 0440
000001c0: 6491 0ac1 0f14 8dbc b8a1 203e bc6b 97bd
000001d0: f906 18bd 4004 e1bf 06e5 2fbd cd2e 0cc1
000001e0: ad52 b8bd ee9e a03e 6eb5 9f3e eddf 6640
000001f0: f9ed 78bb 7797 4d3b ee66 ed3d c7a9 9abf
00000200: 9430 0cc0 9af2 123b 5534 c8c0 9e3c dd3f
00000210: 1fc7 86bc 837b 34bf e6cb 0ebe 616b 553e
00000220: 524a ef3d 1dd5 41bd c255 edbf 90fd 7840
00000230: e138 f53d a682 d13b 5292 05c0 471b b7bc
00000240: c79d 593d 826d 383c 007b 07be 4898 8abf
00000250: 0052 debd 5633 f53c ce92 323b dce1 2bc0
00000260: d87e bdbf a7ae 4bbd f563 ee3c 5372 9bbd
00000270: 83ad 86c0 1599 313e 9dc9 853d f783 60bd
00000280: 8e45 55be 06c5 4fc0 115d 83bd cd27 7fbe
00000290: 8c67 09be 5db8 dbbd 1063 883e 169b 7c3d
000002a0: f6f3 893d 5945 8b3e 4dce 183e 851d 0140
000002b0: 4ae3 f43c 48a5 9a3c 6e97 19bd dcb0 79c0
000002c0: 3c46 4140 3fd4 00c1 c92f 8f3d f147 a4be
000002d0: ede2 143c cc29 df3d e9b5 343e f201 dd3d
000002e0: 78ba 42c0 e8bf eabd 08dc 683a a8ce 09bd
000002f0: 786a 933d 0a0a 333d d069 c93f 51d8 ba3d
00000300: e1f2 d7bf 4a1e 893c 45a4 6e3d 933d 223d
00000310: 99b0 5340 2217 94bc 3c5a 96c0 ca96 08be
00000320: 4f66 ac3e 0135 92bc b920 983f 5997 2ebf
00000330: 451f 523c bbbf 533e 722c 75bd cac5 a6bf
00000340: f2ad 51bd c01c 6ebb ca8a 0bbd 19a0 2dbd
00000350: 3f23 0bbd 8778 0cc1 cf71 9bbd 41ed 143c
00000360: 431c 813c fade e23f 0973 7bbc 8ec5 7b3c
00000370: 30b5 9d3d b49d 78be 8a6a 21bc 2a41 b73e
00000380: 4e96 003f 0bda 2c3d 1807 c3bd 139d a63f
00000390: 5550 93be 5143 9a3e 26b1 1b3e 311e fa3d
000003a0: 8e8b 37bc 1d62 c8bf fcd7 3a3e d976 9d3d
000003b0: 1afd 8ebd ab5f a33e b16c d73f b8f6 5a3d
000003c0: 2b25 8f3c eca1 033e b971 b23d 0e9b c43c
000003d0: cf26 8bbe b42d cebc 112d a73e 0071 bebc
000003e0: 294c 6240 dbe0 98bd 5c62 4bc0 1f70 99bc
000003f0: 8d8e 463b b38c 2b40 72b3 4cbf ad12 48bf

linear2.bias f4 [3]
5.948773 4.9324794 5.221129
00000000: 595c be40 dfd6 9d40 7d13 a740
