checkpoints_dqn/model_final_model_s4okvlet.pth (torch, 23259 bytes, 4 tensors)

linear1.weight f4 [256, 16]
0	0x3f860038	1.0468817
1	0xbecb18ee	-0.39667457
2	0xbd145ba5	-0.03622021
3	0x3e863607	0.26213095
4	0xbd6763e3	-0.056491744
5	0xbf0ba821	-0.5455342
6	0xbdbb2c26	-0.0913928
7	0x3e80a69b	0.2512711
8	0x3e4e5d9d	0.20152898
9	0xbe87c0fa	-0.26514417
10	0x3e89a749	0.2688544
11	0xbd1d086a	-0.038338102
12	0x3e3834ff	0.17988966
13	0x3dd89fe8	0.10577375
14	0x3e9dc88c	0.30817068
15	0x3ec179dd	0.37788287
16	0x3f83eec6	1.0307243
17	0x3f055f79	0.52098805
18	0xbe90d4f9	-0.28287485
19	0x3e8444fc	0.2583388
20	0xbf3b51ac	-0.73171496
21	0xbee6a8aa	-0.45050555
22	0xbe420377	-0.18946634
23	0x3e5f464f	0.21804164
24	0xbd9630c0	-0.07333517
25	0x3d024f1e	0.031813733
26	0x3d5120a4	0.05105652
27	0x3c92b8ba	0.01791035
28	0x3e2d6f10	0.16936898
29	0xbd5a4184	-0.053285137
30	0x3ee3f06d	0.44519368
31	0xbd3facaf	-0.046795543
32	0x3f4337fc	0.762573
33	0x3eb72012	0.35766655
34	0x3e63f40f	0.2226107
35	0x3f355b42	0.70842373
36	0x3fac2e2e	1.3451593
37	0x3f1b7a0d	0.6073311
38	0x3ed69206	0.41908282
39	0x3e7faea2	0.24968961
40	0x3d5b59aa	0.053552307
41	0x3d4d367e	0.050100796
42	0x3e9775b0	0.29581976
43	0x3f20e8be	0.62855136
44	0x3f25114e	0.6447953
45	0x3e4df11b	0.20111506
46	0x3ec90fa4	0.39269745
47	0x3dc79220	0.09744668
48	0x3f6ec036	0.9326204
49	0x3e7bbd7e	0.24584004
50	0xbf127de5	-0.5722335
51	0x3e7ae148	0.245
52	0x3ffa4e1d	1.9555088
53	0x3f221264	0.6330931
54	0x3eac50b1	0.33655313
55	0x3eeae321	0.4587641
56	0x3ecb5ddd	0.3972005
57	0x3ea1773a	0.31536275
58	0x3f020348	0.50786257
59	0x3dc45325	0.09586171
60	0x3e9278f8	0.28607917
61	0xbda421c7	-0.08014255
62	0x3eaa8c50	0.33310175
63	0x3e484fa7	0.19561635
64	0x3f3c0a6c	0.734534
65	0xbe58aab8	-0.21158874
66	0xbe0ecd02	-0.13945392
67	0xbc9768ee	-0.018482652
68	0xbd98371c	-0.07432386
69	0x3f93e5a3	1.1554455
70	0x3f95c85a	1.1701767
71	0x3f705936	0.93886125
72	0x3f5afd97	0.855432
73	0x3e8482b1	0.2588096
74	0x3e93671b	0.287896
75	0x3e815665	0.25261226
76	0x3ea27b1b	0.31734547
77	0x3f10623f	0.5639991
78	0x3f34deab	0.70652264
79	0x3f8b2440	1.0870438
80	0xbf6a7693	-0.9158718
81	0xbf4dfaab	-0.80460614
82	0xbe23979c	-0.15975803
83	0xbe62ab98	-0.2213577
84	0x3f98a8d7	1.1926526
85	0xbe239b05	-0.15977104
86	0x3e25b793	0.1618331
87	0xbe113cfb	-0.14183418
88	0xbcd60816	-0.026126903
89	0x3d5c03d3	0.053714585
90	0xbbd3cd2f	-0.006463669
91	0x3d8b5586	0.06803422
92	0x3cb1eb21	0.021718564
93	0x3e512b6b	0.20426719
94	0xbbf139d4	-0.00736163
95	0xbd4cb88a	-0.049980678
96	0x3ea7cb8c	0.3277248
97	0x3f157047	0.58374447
98	0xbe1d1886	-0.15341386
99	0xbe652d94	-0.22380668
100	0xbf1830a7	-0.5944924
101	0xbdebaaed	-0.11507211
102	0x3e17066b	0.14748542
103	0x3d8db702	0.069196716
104	0x3ea9b59f	0.33146378
105	0x3e6cb2fd	0.23115154
106	0x3dbc33c2	0.091895595
107	0x3e1f78a9	0.15573372
108	0xbce4730c	-0.02788689
109	0xbd59a2de	-0.053133838
110	0x3ecad804	0.39617932
111	0x3e0c95c5	0.13729008
112	0x3d9dc71c	0.07703993
113	0xbe6ec466	-0.23317108
114	0xbe282254	-0.16419345
115	0xbdaa6c14	-0.083213955
116	0x3d201fc0	0.03909278
117	0xbe614286	-0.21998033
118	0xbddc9b64	-0.10771826
119	0xbe194258	-0.14966714
120	0x3a359e00	0.0006928146
121	0xbdbe8450	-0.0930258
122	0xbc8deaf0	-0.017323941
123	0xbe2d7924	-0.16940743
124	0xbe2fb798	-0.17159879
125	0xbe1559d2	-0.14585045
126	0xbdaf419c	-0.08557436
127	0xbe4a0e50	-0.19732022
128	0x3f878281	1.0586702
129	0x3f090d73	0.53536147
130	0x3dd4663b	0.103710614
131	0x3eef08ba	0.46686345
132	0x3fe6e9cf	1.8040103
133	0x3f356bd1	0.7086764
134	0x3ea1ac98	0.3157699
135	0x3eaac807	0.33355734
136	0x3e72f0db	0.23724692
137	0x3e5cb4b5	0.2155331
138	0x3ef4edd1	0.4783769
139	0x3ecc98a7	0.39960214
140	0x3f0fc099	0.56153256
141	0x3e5f2b2c	0.21793813
142	0x3f3057c9	0.6888395
143	0x3e37cf35	0.17950137
144	0x3eb838e7	0.35980913
145	0x3f2c0366	0.67192686
146	0xbd3e4725	-0.046454567
147	0x3f399007	0.72485393
148	0x3e02fe92	0.12792423
149	0x3e6aa379	0.22913922
150	0xbfb91aa0	-1.446125
151	0xc02085df	-2.5081708
152	0xbfc93891	-1.5720388
153	0xbf011f2a	-0.5043818
154	0x3e75d079	0.24005307
155	0xbd1d34b3	-0.038380336
156	0x3ec89387	0.39175054
157	0x3f221004	0.6330569
158	0x3f8cc657	1.0998029
159	0x3ebe16d2	0.37126786
160	0x3f0836f2	0.5320884
161	0xbebe00b5	-0.37109914
162	0x3eb41cb6	0.35178155
163	0x3d6e4232	0.058168598
164	0x3f11db6a	0.56975424
165	0xbede80dd	-0.4345769
166	0xbee96fa6	-0.45592993
167	0x3e25b0e2	0.16180757
168	0x3e71df14	0.23620254
169	0xbd192820	-0.03739178
170	0xbddbcbfb	-0.107322656
171	0xbc3d80d2	-0.011566358
172	0x3ec208c7	0.37897322
173	0x3d38b666	0.045095824
174	0x3b5c4177	0.0033608356
175	0xbd6c7700	-0.057730675
176	0xbff9b5ab	-1.9508566
177	0x3ddf36e1	0.10899139
178	0x3e03419c	0.12817997
179	0xbf0d55ad	-0.55208856
180	0x3f1fd75f	0.62438005
181	0x3d44d516	0.048054777
182	0x3e7b7d01	0.24559404
183	0x3da8720c	0.08224878
184	0x3e439dc7	0.19103156
185	0x3e209da9	0.15685143
186	0xbdac9880	-0.084275246
187	0xbd8cd74d	-0.06877003
188	0xbd1f42f8	-0.038882226
189	0x3ca30b35	0.019902805
190	0x3c50f40a	0.012753496
191	0x3d688971	0.0567717
192	0x3f614246	0.8799175
193	0x3d8d7fcd	0.06909142
194	0x3f57b88c	0.8426597
195	0x3ea42b0c	0.32064092
196	0x3f18bd42	0.59663785
197	0xbebc7917	-0.36811134
198	0xbe1b149a	-0.15144578
199	0x3e2797b7	0.16366468
200	0x3db107ef	0.08644091
201	0x3e21d5b6	0.1580418
202	0x3d44c576	0.048039876
203	0xbdf72c91	-0.12069047
204	0xbe31c958	-0.17361963
205	0x3d61c5da	0.055120327
206	0x3d46cecc	0.04853706
207	0xbee38683	-0.44438562
208	0x3ec9f3ae	0.39443725
209	0x3ed2edba	0.41196996
210	0x3ecd5492	0.40103585
211	0x3daa7f3e	0.08325051
212	0xbc784b34	-0.015154649
213	0xbf1507fa	-0.58215296
214	0xbe91e149	-0.2849219
215	0x3eb5e19c	0.3552369
216	0x3e91cfde	0.28478903
217	0x3dca40d9	0.0987565
218	0x3dd2de63	0.10296323
219	0xbce1af29	-0.027549343
220	0x3e43b60f	0.19112419
221	0x3f11e357	0.5698752
222	0x3e0a252e	0.13490745
223	0x3d604f24	0.054762974
224	0x3f4ffb0d	0.8124245
225	0x3fb14bfe	1.3851316
226	0xbe9409ef	-0.2891383
227	0x3ca67f2f	0.020324318
228	0x4012ac7d	2.2917778
229	0x3e7f3ece	0.24926302
230	0xbe892a4e	-0.26790088
231	0x3f5e5622	0.8685018
232	0x3f077931	0.529193
233	0x3cbfee52	0.02342907
234	0xbe589de8	-0.21153986
235	0xbeb1c782	-0.34722525
236	0xbed88971	-0.4229236
237	0xbf860ddb	-1.0472978
238	0xbf19701f	-0.5993671
239	0xbe1b3fb5	-0.15161021
240	0x3f60fdc7	0.87887233
241	0xbf27f44f	-0.6560716
242	0x3ed375d2	0.41300827
243	0xbf5356b4	-0.82554173
244	0x3eb770e1	0.35828307
245	0xbdb6f64f	-0.089336984
246	0xbebacdb5	-0.36485067
247	0x3e39628e	0.18104002
248	0x3e48e156	0.19617209
249	0x3e9bf904	0.3046342
250	0x3d2419f2	0.040063806
251	0xbbcd3396	-0.006262253
252	0x3e386614	0.1800769
253	0x3d192159	0.03738532
254	0xbd80922a	-0.062778786
255	0xbebbe763	-0.36699972

linear1.bias f4 [256]
0	0xbf45f35d	-0.7732447
1	0xbe613af7	-0.2199515
2	0x3f1dbe17	0.6161818
3	0x3f1ff16a	0.62477744
4	0x3f9bc7f3	1.2170395
5	0x3d61db77	0.05514094
6	0xbec5d5bc	-0.3863963
7	0x3deaed24	0.11471012
8	0x3f013803	0.5047609
9	0x3e617b83	0.22019772
10	0xbf18ef20	-0.59739876
11	0xbea15100	-0.3150711
12	0xbe9cdad3	-0.306357
13	0xbf05b152	-0.52223694
14	0x3ec2fcbc	0.38083446
15	0x3ea63214	0.32460082
16	0xbeeae714	-0.45879424
17	0x3e7df961	0.24802162
18	0xbd344488	-0.04401067
19	0x3cfb02c9	0.030640977
20	0x3f09ab23	0.5377676
21	0xbe80a17e	-0.2512321
22	0xbe868f7d	-0.26281348
23	0xbedc263f	-0.4299793
24	0xbcc071a1	-0.023491682
25	0xbe5330de	-0.2062411
26	0xbed2f3fb	-0.41201767
27	0x3edae08e	0.42749447
28	0xbe5cbcc0	-0.21556377
29	0x3f8036af	1.0016688
30	0xbf09614e	-0.536641
31	0x3f8c612f	1.0967158
32	0x3f884c4e	1.0648286
33	0xbe9e4f8b	-0.3092006
34	0xbf2b7c2a	-0.66986334
35	0xbeeab4af	-0.45840976
36	0xbe5957e2	-0.21224931
37	0xbe3bcd66	-0.18340072
38	0xbebcdf21	-0.36888984
39	0xbe2337d1	-0.15939261
40	0x3f9f3186	1.2436988
41	0x3e0e301c	0.1388554
42	0xbe0d698d	-0.13809796
43	0xbe8b88d1	-0.2725282
44	0xbed68c03	-0.41903695
45	0xbf447703	-0.767441
46	0x3f189bf3	0.5961296
47	0xbe1c8ecb	-0.15288846
48	0xbe9c4e19	-0.30528334
49	0x3f9b1547	1.2115868
50	0xbe30035b	-0.1718878
51	0xbd4c0be1	-0.049816016
52	0xbe277256	-0.1635221
53	0xbedf74ca	-0.4364379
54	0x3fafe840	1.3742752
55	0x3f880ae2	1.0628321
56	0x3f820cca	1.0160153
57	0xbf0b94fa	-0.54524195
58	0x3f310705	0.69151336
59	0xbecfa8e8	-0.40558553
60	0xbf0742eb	-0.52836484
61	0x3f82d857	1.0222272
62	0x3d1e295c	0.038613662
63	0xbda27275	-0.07931987
64	0xbe757a11	-0.23972346
65	0xbea455ad	-0.32096615
66	0xbe761ff7	-0.24035631
67	0xbf03d7cc	-0.51501155
68	0x3ddf663e	0.10908173
69	0x3beb91c7	0.007189009
70	0xbd2dcd4e	-0.042432122
71	0xbea17875	-0.31537214
72	0x3ef8c9bc	0.4859141
73	0xbebe8cf6	-0.3721692
74	0xbe357234	-0.17719346
75	0xbf11a62a	-0.5689417
76	0xbf0e0279	-0.5547252
77	0xbeab6034	-0.33471835
78	0xbf091e1d	-0.53561574
79	0x3f99ff93	1.203112
80	0xbf12361b	-0.5711381
81	0x3fa6e68c	1.3039107
82	0xbec608f9	-0.3867872
83	0x3d4166d9	0.047217224
84	0xbe670a5b	-0.22562544
85	0x3d6081ad	0.05481117
86	0xbec1c423	-0.37844953
87	0xbe5919ec	-0.21201295
88	0xbe7140a5	-0.23559816
89	0x3fb39790	1.4030628
90	0x3f9ff7ba	1.2497475
91	0xbf052898	-0.52015066
92	0x3faa5773	1.3307937
93	0xbece5ff7	-0.4030759
94	0x3fbc4cd2	1.4710944
95	0xbe5abfe2	-0.2136226
96	0x3e860798	0.2617767
97	0xbe9185c0	-0.28422356
98	0xbce2c942	-0.027683858
99	0x3dd61508	0.1045323
100	0xbe9d0cbb	-0.30673775
101	0xbedf1ea5	-0.43578067
102	0xbec7af65	-0.39001003
103	0xbf1b796c	-0.6073215
104	0xbeeda1da	-0.46412545
105	0xbe3cf94c	-0.18454474
106	0x3f831442	1.0240557
107	0xbf261d93	-0.64888877
108	0xbf0e0ae8	-0.5548539
109	0xbe8b279f	-0.27178666
110	0xbf349905	-0.7054599
111	0x3cde1b6a	0.027112681
112	0xbe5e3af1	-0.21702172
113	0x3f178596	0.5918821
114	0xbe76be6a	-0.24096075
115	0x3f7fa8e0	0.9986706
116	0x3f9fe251	1.2490941
117	0x3f1b4633	0.6065399
118	0x3f5658f7	0.837295
119	0xbe6412ee	-0.22272846
120	0x3d8a20a8	0.0674451
121	0xbf1abfab	-0.6044871
122	0x3ef1de62	0.47239977
123	0x3f170355	0.5898946
124	0xbf39d745	-0.725941
125	0xbe442e4a	-0.19158283
126	0xbedb0556	-0.42777508
127	0x3fe6b739	1.8024665
128	0xbf19d071	-0.6008368
129	0xbf19dfe1	-0.6010724
130	0x3f0b3441	0.5437661
131	0xbe84adbd	-0.25913802
132	0xbd15f43e	-0.03660988
133	0xbf09e074	-0.53858113
134	0xbd3a1149	-0.04542664
135	0xbebe0c2f	-0.3711867
136	0x3e089fd9	0.13342227
137	0x3f91d742	1.1393816
138	0xbe763f48	-0.24047577
139	0xbe5763d6	-0.21034178
140	0xbe821578	-0.25407004
141	0x3f9ea445	1.2393881
142	0xbe6cb3d7	-0.23115478
143	0xbe523a65	-0.20530088
144	0xbd57f391	-0.052722517
145	0x3e491799	0.19637908
146	0xbee05112	-0.43811852
147	0x3f9b2982	1.2122042
148	0xbe12787f	-0.14303778
149	0x3e0ebb25	0.13938577
150	0x3d196db7	0.037458148
151	0xbed782b1	-0.42091897
152	0x3e26fcc5	0.16307361
153	0xbee5c080	-0.44873428
154	0x3af5d311	0.0018754919
155	0xbdbfdc47	-0.093681864
156	0x3edbf49c	0.4296006
157	0x3f35d5bc	0.7102926
158	0xbebfd91e	-0.37470335
159	0xbf288702	-0.65831006
160	0xbdcd9f65	-0.10040168
161	0x3fb10276	1.3828876
162	0xbeb450f4	-0.35218012
163	0x3d02e303	0.031954776
164	0xbe92891e	-0.28620237
165	0x3f01e5f1	0.5074149
166	0xbee17080	-0.44031143
167	0x3fafae6d	1.3725106
168	0xbf0a5d87	-0.5404896
169	0x3d6971b3	0.056993198
170	0xbed56251	-0.41676572
171	0xbeeffbb9	-0.46871737
172	0xbe9d3dab	-0.3071111
173	0x3dff8e5d	0.124783255
174	0xbe3ee503	-0.18642049
175	0xbe8a9720	-0.27068424
176	0xbf23263a	-0.63730204
177	0x3f6c0ba1	0.92205244
178	0x3f90b4d7	1.1305188
179	0x3f8386c1	1.0275499
180	0x3ddd6e98	0.1081211
181	0xbef07874	-0.46966898
182	0x3facea42	1.350899
183	0xbe0c8b54	-0.13725024
184	0x3fa6715c	1.3003345
185	0xbe60a436	-0.21937642
186	0xbe148867	-0.14505158
187	0xbed8902b	-0.4229749
188	0x3f97e973	1.1868118
189	0x3f8834d6	1.0641124
190	0x3f0a920b	0.54129094
191	0xbe7b8104	-0.24560934
192	0xbe90f361	-0.28310683
193	0xbd0fd0cc	-0.035111234
194	0x3e93adec	0.2884363
195	0x3db8430e	0.08997165
196	0xbeb4a255	-0.352801
197	0xbeb0df05	-0.3454515
198	0xbf02cf99	-0.5109802
199	0xbf1c3a97	-0.610269
200	0x3bdcc853	0.0067377477
201	0xbed65d5b	-0.418681
202	0xbf295cee	-0.66157424
203	0xbf1867fe	-0.5953368
204	0x3d3a131f	0.04542839
205	0x3f02acd4	0.51044965
206	0xbdc1ffb9	-0.09472603
207	0xbbf2a2cc	-0.007404661
208	0xbee17b15	-0.44039217
209	0x3fabc0fd	1.341827
210	0x3f22d650	0.63608265
211	0xbf0c8bea	-0.5490099
212	0x3fa493b6	1.2857578
213	0xbf2b10cd	-0.6682251
214	0x3e9df7e0	0.30853176
215	0xbe75e0a8	-0.24011481
216	0x3f9cab65	1.2239805
217	0xbdda6c16	-0.10665147
218	0xbee2b3b0	-0.44277716
219	0xbcf10183	-0.029419666
220	0x3f87dce6	1.0614288
221	0x3d0fdeb5	0.0351245
222	0x3e33e711	0.17568614
223	0xbf29b1ad	-0.66286737
224	0xbe14799a	-0.14499512
225	0x3fd4178b	1.6569685
226	0x3f220f00	0.6330414
227	0x3eec3064	0.4613067
228	0x3fa89958	1.3171797
229	0x3f024bbe	0.50896823
230	0x3f931067	1.1489381
231	0xbea82bfc	-0.32846057
232	0x3f9d599c	1.2292972
233	0x3bd0c084	0.006370606
234	0x3c8f5c90	0.017500192
235	0x3f7e9cae	0.99457824
236	0xbea3e231	-0.32008508
237	0x3fc8d837	1.5690984
238	0xbf2c245e	-0.6724299
239	0x3f867a25	1.0506026
240	0xbe8893c9	-0.2667525
241	0xbebd7627	-0.37004206
242	0xbe9cde9e	-0.30638593
243	0x3f8f9804	1.1218266
244	0x3fabc943	1.3420795
245	0x3e251842	0.16122535
246	0xbe1b2b2c	-0.15153188
247	0xbed99251	-0.42494443
248	0x3f416a00	0.7555237
249	0xbd2eccd7	-0.04267582
250	0x3e8dc87c	0.2769202
251	0x3eaa7c9a	0.33298188
252	0x3f2db61b	0.67855996
253	0x3f2026d5	0.6255925
254	0xbee93e61	-0.45555404
255	0xbe76c71a	-0.24099389

linear2.weight f4 [3, 256]
0	0xc04251e3	-3.036248
1	0xc00db134	-2.2139406
2	0x3ec1a6a4	0.3782245
3	0x3ef25b7a	0.47335416
4	0x3f1d64a4	0.6148169
5	0xc00118ae	-2.0171313
6	0xbf67c110	-0.90528965
7	0xbd2611a4	-0.040544167
8	0x3ef96a7e	0.4871406
9	0x4021d4c7	2.528612
10	0xbf91658f	-1.1359118
11	0xc09596a1	-4.6746373
12	0x3e625dc4	0.22106081
13	0xbf9464c7	-1.1593255
14	0x3f1026d0	0.56309223
15	0x3d7cd9d0	0.06173116
16	0xc0116d01	-2.272278
17	0x3f16866f	0.5879888
18	0xbd1682e6	-0.03674593
19	0xc0c5012d	-6.1563935
20	0x3f06cfaa	0.5266062
21	0xbfd70b2a	-1.6800282
22	0xbf8411ca	-1.0317929
23	0xbf01f056	-0.5075735
24	0xbfe9bdbe	-1.826103
25	0xbfed2b6f	-1.852888
26	0xbf949d78	-1.1610556
27	0xbf36f2b6	-0.714641
28	0xbf0b282e	-0.54358184
29	0x3f3e4992	0.7433101
30	0xbff6d64d	-1.928415
31	0x3f3e6d83	0.7438585
32	0x3f483896	0.78211343
33	0xc0464138	-3.0977306
34	0xc03ab65f	-2.917381
35	0xc06ad01e	-3.6689525
36	0xc00f8539	-2.2425063
37	0xbfd8fff3	-1.695311
38	0xc107dfda	-8.492151
39	0xbf1c9c54	-0.6117604
40	0x3f1a1d12	0.6020061
41	0x3fd9bd59	1.7010909
42	0x3f4a5694	0.7903836
43	0xc02ccba5	-2.6999295
44	0xbfa72298	-1.3057432
45	0xbf96bd2a	-1.1776478
46	0x3f0e6933	0.5562927
47	0xbf437fb3	-0.7636673
48	0xc04e9329	-3.227732
49	0x3f36f566	0.714682
50	0xbebc9b17	-0.36837074
51	0x3f6fa590	0.93612003
52	0xbd27bb5a	-0.040950157
53	0xbf8c6cab	-1.0970663
54	0x3f3600c3	0.7109491
55	0x3f4ff180	0.81227875
56	0x3f4cdbae	0.80022705
57	0x3ecfe0a9	0.4060109
58	0x3f1d6557	0.6148276
59	0xbff4eec0	-1.9135361
60	0xc023c2ec	-2.558772
61	0x3f48cb12	0.7843486
62	0x3c7698dc	0.015051093
63	0xbf9c769c	-1.2223697
64	0xbf881caf	-1.0633754
65	0xc06d0437	-3.7033823
66	0xbf77b072	-0.9675361
67	0xbfb12b90	-1.3841419
68	0x3e6d0cfa	0.23149481
69	0xbf87e5b9	-1.0616981
70	0xc09c2f10	-4.880745
71	0x3f1bcdea	0.60861075
72	0x400840a9	2.1289465
73	0xbfc263e9	-1.518674
74	0xc00b5c1d	-2.1774971
75	0xc00b9702	-2.1810918
76	0xbf91e598	-1.1398191
77	0xc0590c22	-3.3913655
78	0xc02c37f1	-2.6909144
79	0x3f283d79	0.657188
80	0xc0757f0a	-3.8358788
81	0x3ef94882	0.48688132
82	0xbf9b856d	-1.2150093
83	0xc099546e	-4.7915564
84	0xbfddf4a4	-1.7340283
85	0xc040872f	-3.008251
86	0xc0454b73	-3.08273
87	0x3d57c8ee	0.052681856
88	0xc0181125	-2.3760464
89	0x3f142e9b	0.57883614
90	0x3f14543b	0.57941025
91	0xc0b3fcd1	-5.6246114
92	0x400ca56d	2.1975968
93	0xc07770bd	-3.866256
94	0x3f25def2	0.6479331
95	0xbf9566e4	-1.1672025
96	0xbe7dbc65	-0.24778898
97	0xbfd53626	-1.665715
98	0xbd63b38d	-0.055591155
99	0xc091ad86	-4.552432
100	0xc02c65ca	-2.6937127
101	0xbef56697	-0.47929832
102	0xc00f1094	-2.2353868
103	0xbfa32e1a	-1.2748444
104	0xc02ede1e	-2.732307
105	0xbf94b9be	-1.1619184
106	0x3f2f2a47	0.68423885
107	0xbf722795	-0.9459165
108	0xc00cdac6	-2.2008529
109	0xbfc7bbad	-1.5604149
110	0xc005e965	-2.0923703
111	0xc09a5caa	-4.8238115
112	0xbd143ccd	-0.036190797
113	0x3f2746cd	0.6534241
114	0xbe534578	-0.20631969
115	0x3f20e0b9	0.628429
116	0x3ed72509	0.42020443
117	0x3fe66af0	1.8001385
118	0x3f02127f	0.5080947
119	0xbfb88983	-1.4416965
120	0xc0b6d544	-5.7135334
121	0xc00d49c2	-2.2076268
122	0xbe42653c	-0.1898393
123	0x40348162	2.820397
124	0xbfe43df9	-1.7831413
125	0xbd7747e2	-0.060371287
126	0xc02b787d	-2.679229
127	0x3fda41ca	1.7051327
128	0xc0330319	-2.797064
129	0xbfdafb15	-1.7107874
130	0xbfdf811d	-1.7461277
131	0xbf3f9171	-0.748313
132	0xc0830df9	-4.0954556
133	0xc11eb778	-9.919792
134	0xc067b789	-3.620577
135	0xbf067b0c	-0.52531505
136	0x3f81c6bc	1.0138774
137	0x3f316f82	0.6931077
138	0xc0142a27	-2.3150728
139	0xbfc60a07	-1.547181
140	0x3f081d9f	0.531702
141	0x3f25b4e4	0.6472914
142	0xbf4ee044	-0.8081095
143	0xbd3c5188	-0.04597619
144	0xbf98c0f9	-1.193389
145	0x3ed6cc31	0.4195266
146	0xbf7fc2fd	-0.99906904
147	0x3f4e1e0c	0.805146
148	0xbf4fe1b8	-0.81203794
149	0x3f0b5287	0.544228
150	0xbfe59ea0	-1.7939034
151	0xbfa91b2d	-1.3211418
152	0x3f5d3a4e	0.8641709
153	0xbffcf201	-1.9761354
154	0xbffbd910	-1.9675617
155	0xbf96a67f	-1.176956
156	0x3f1206fd	0.57041913
157	0x3f9d8faa	1.2309468
158	0x3ee542be	0.44777483
159	0xbfd6a8e2	-1.6770289
160	0xbf4a182b	-0.7894313
161	0x3f2f2ede	0.6843089
162	0xbfae1c83	-1.3602451
163	0xbfa224e0	-1.2667503
164	0xbf916ef7	-1.1361989
165	0x3f306e04	0.6891787
166	0xbfa087e3	-1.2541469
167	0x3f2f7bc9	0.68548256
168	0x3efa155b	0.48844418
169	0xc05a820d	-3.4141877
170	0xbfeebcef	-1.8651408
171	0xbf9ee76f	-1.2414378
172	0x3f10661b	0.564058
173	0xbf1c8fd3	-0.6115696
174	0xbf8e7cc8	-1.113183
175	0xbfb73d9f	-1.431568
176	0xc0e34e71	-7.1033254
177	0x3f3a50ea	0.72779715
178	0x3f1f84b9	0.62311894
179	0x3f4d2d3d	0.80147153
180	0xbf69ad1c	-0.9127977
181	0xbfa5363c	-1.2907176
182	0x3f166f56	0.58763635
183	0xc1318b69	-11.096536
184	0x3f2c6ec8	0.6735654
185	0xbd2b7194	-0.041856363
186	0xbf18441d	-0.5947893
187	0xbfe88f84	-1.8168797
188	0x3f093783	0.5360033
189	0x3f3b6c69	0.73212296
190	0x3f57c652	0.8428699
191	0xc0353c17	-2.8317926
192	0xc01dd44d	-2.4660828
193	0xbfd1581e	-1.6355016
194	0x3fef3143	1.8686908
195	0xc00603aa	-2.0939736
196	0xc01b159a	-2.4231935
197	0xc0302e1e	-2.7528148
198	0xc0744dd6	-3.8172507
199	0xc0043022	-2.0654378
200	0x3e4d29c7	0.20035468
201	0xc00ef177	-2.2334878
202	0xc00e782c	-2.2260847
203	0xbf9a2377	-1.2042073
204	0xc04858e1	-3.1304247
205	0x3ef210a4	0.4727832
206	0xbf27da84	-0.65567803
207	0x3f17a14d	0.592305
208	0xbf8708bf	-1.0549544
209	0x3f29fe49	0.66403633
210	0x3f0fc570	0.5616064
211	0x3e5f5260	0.21808767
212	0x3f3acb7c	0.7296674
213	0xbfda263d	-1.7042919
214	0xbf113046	-0.56714284
215	0xc0486783	-3.1313179
216	0x3f114a96	0.56754434
217	0xc08c0753	-4.375894
218	0xc060819a	-3.5079103
219	0xc05b1a48	-3.423479
220	0x3f2289f4	0.6349175
221	0xbf107782	-0.56432354
222	0xbef84e1e	-0.484971
223	0xc0103007	-2.2529314
224	0xc061af7d	-3.526336
225	0x3efb1641	0.49040416
226	0x3f24cc03	0.643738
227	0x3f47def9	0.78074604
228	0x405ccc2d	3.449962
229	0xc074db77	-3.825895
230	0x3f330400	0.6992798
231	0xc0920ffe	-4.564452
232	0x3f3089cf	0.6896028
233	0xc1149cd7	-9.288291
234	0x3ed57ce8	0.41696858
235	0x3f389a6d	0.72110635
236	0x3f1955ec	0.5989673
237	0x3fbb0841	1.4611894
238	0xc01803d4	-2.3752337
239	0x3f4b3437	0.7937655
240	0xbfbe556c	-1.4869819
241	0xbf1db6cb	-0.61607045
242	0xc08606a9	-4.188313
243	0x3f34e577	0.70662636
244	0x3f2b5fe8	0.66943216
245	0xbfe5acbd	-1.794334
246	0xc082d8f3	-4.088983
247	0x3f15fd3c	0.5858953
248	0x3fbcd40f	1.4752215
249	0xc0c91732	-6.2840815
250	0xc02aa805	-2.666505
251	0xbf1132fd	-0.56718427
252	0xbfdbac7c	-1.7162013
253	0x40344d5b	2.8172214
254	0xc05a0f4f	-3.4071844
255	0xc0a878eb	-5.2647605

linear2.bias f4 [3]
0	0x3f773c6a	0.9657656
1	0x3f793112	0.973405
2	0x3f71a95e	0.9439906
