checkpoints_dqn/model_final_model_aelcwc3t.pth (torch, 23259 bytes, 4 tensors)

linear1.weight f4 [256, 16]
00000000: a1e8 853e 35af 383e 83c6 0ebe 74e5 173e
00000010: f226 b13f 73c7 3a3f 627c a0be 03cb ebbc
00000020: 7f28 2f3e 9f22 533e 72d7 da3d 0636 b73e
00000030: 37f3 2e3e 21f1 7c3e 420f dc3e 4d69 893e
00000040: a9ac a1bf 15d5 43bf 092f d2bc ff37 36be
00000050: 6cd0 8f3f 6986 ffbc f885 a5bc 7dea ba3e
00000060: e57c c6bc 55d9 2f3e b55a 1f3b 48de 753d
00000070: 30db 113e 87cd b5be 9657 773e e54c 2a3e
00000080: afbd e13d 36c2 953f 4038 093f d733 583b
00000090: 1613 14bf 5e40 3abe b7b6 b9be d917 233d
000000a0: afd3 ca3d 708e 57bd d345 f23c a875 243e
000000b0: 781e 3b3e 7bae 1c3e 8ee1 e03d 5b7e b83c
000000c0: 4d34 cc3e 8918 073e d1ec 943e d3c3 203f
000000d0: a136 5a3f 833b c2be d10e 96be 74b8 8bbe
000000e0: e9aa babd 398d 603e 026b 4fbd dae3 dbbd
000000f0: 56d5 2f3e eff2 923e 7e3c 29be ba8c 7f3d
00000100: b156 b73e 96ae d2bd 890e 8abe ff6b 223e
00000110: 8704 023e d7a1 b33f a295 883f 7ebd 523f
00000120: edd8 933e ffb5 3a3e b7c0 ef3e 7af3 8d3e
00000130: c346 ec3e bfe1 203e 6bbf f33e 57ed 643f
00000140: cd1c 0e3f bc98 f2bd 4b5e 4abe 4218 2c3e
00000150: bae3 653e 2fb9 933f cc92 2e3f 1dda 533f
00000160: 2afb 023f 8ebf db3e 8b22 2f3e 993b e83e
00000170: b893 d93e aca9 103f d4a8 cc3e f33b 4a3f
00000180: 15ad 4f3f caf2 e2be 3241 d43e e5a0 393f
00000190: cc24 1a3f 2b6e 04bf 0f4f 26bc 46e6 203d
000001a0: 95bb ac3e eb8d e73d 8e94 e9bc c0d6 7e3e
000001b0: bc8e 463e b364 8cbd 6414 e13c 5c21 1dbe
000001c0: d300 313f f64e 923e 468d 2dbe 3858 ac3d
000001d0: 762c f93f e12d a33f 4007 d33d 83f5 c33e
000001e0: b797 9b3e 98ec e03e 959c 353f cea2 2f3e
000001f0: 3df7 f83e 2449 523e e9c0 0b3f 08d4 563e
00000200: cbba e33e 2d11 94bb 57d7 9bbe 566e 683e
00000210: 7c34 a43e d5cd 603f 5551 3f3f ef6b dd3e
00000220: ea0f da3e 1ad2 8f3e ffab 863e 1db6 cf3d
00000230: 7120 803e bb2e 3e3e 6179 d63e cb0f 613f
00000240: 4563 223f 3d15 973f f640 05be fb60 c33d
00000250: aa0c 92bf 7fea d6be 24a8 53be 3d5b 84bd
00000260: 4d61 a43c 2966 c13d 5fc6 8a3c 4337 a23d
00000270: 1342 013e 9f9b b53e ec48 4bbc 66d7 ea3d
00000280: bdad 56bf df95 bebf 7e15 313c 990c 76be
00000290: d877 9d3f f538 97bd d657 bcbd d2ca a43d
000002a0: c645 afbd 3509 1abe c091 41be 1aa9 0abd
000002b0: 5d2c 063f eeb2 a53e d891 b43d e287 95bd
000002c0: ff88 3a3e 35b7 863e 1a9a eabc 7a28 8d3e
000002d0: 6fa8 e63f 381a 423f a509 ed3e 08e2 fabd
000002e0: 4a69 fabc 67ce 073e 3d7a 273e 1edb ec3e
000002f0: c490 2e3f f8d3 8a3e a845 153e a202 533e
00000300: 6ca5 da3e 5555 f2bc f33a c2be 03eb b73d
00000310: d76b fe3e c9a0 563f 0b45 7d3f 722b 153f
00000320: 3553 3d3e 6f61 723e 619d 8a3e 0dfc 753d
00000330: 6a7d 353d 91a7 833e 42a3 a33e 665e 203f
00000340: d3de eebe 1669 5c3e 85fe ebbd b735 93be
00000350: 0ab9 0b3f c378 02bf 2665 28bd 04ea 4b3e
00000360: 7abe b53e 1127 a93d 3205 953d ad66 9e3d
00000370: bd29 05be 9388 40be c9ce fb3c b6b2 41be
00000380: 16a2 863f 11b7 87be 3d41 32bf 1c33 c1bd
00000390: fed3 043e a0cc e1be 428c 103d a97a a83a
000003a0: 0bea 3e3e 5fb2 e73e 4800 8d3e 11ef 20bc
000003b0: a9cc 91bc 226f 1cbe 1300 863c 2004 b03e
000003c0: 0433 0b3f beb5 37bf dee0 4dbd 3c37 d23e
000003d0: 668c 643f b086 fabd 4de8 03bf dd28 7e3d
000003e0: 3336 ce3e dbc6 903e 153a 2a3e 62d9 86be
000003f0: f8b2 a13e 0c12 57be efcd 26be 44b2 0d3e
0.26154044 0.18035586 -0.13942914 0.14833623 1.384001 0.72960585 -0.31344897 -0.028783327
0.17105292 0.20618676 0.10685624 0.35783404 0.17084967 0.24701358 0.4298039 0.2683815
-1.2630817 -0.7649701 -0.025657194 -0.17794798 1.123548 -0.031192021 -0.020205483 0.36507025
-0.024229476 0.1717275 0.002431554 0.060026437 0.1424377 -0.35508367 0.24154505 0.16630895
0.110225074 1.1699893 0.53601456 0.0032989883 -0.5784162 -0.18188617 -0.36272213 0.039817665
0.09903657 -0.052626073 0.02957431 0.16060507 0.18273342 0.15300934 0.10980521 0.022521188
0.39883652 0.13192953 0.29086927 0.62798804 0.8523961 -0.3793603 -0.2930818 -0.27289164
-0.0911463 0.21928872 -0.05063916 -0.107368186 0.17171225 0.2870097 -0.16526982 0.062390067
0.35808328 -0.10287206 -0.26964214 0.1586151 0.1269704 1.4033765 1.0670664 0.8232039
0.2887644 0.18233489 0.46826717 0.2772482 0.46147737 0.15711115 0.47606978 0.8942465
0.55512697 -0.11845538 -0.19762532 0.16806129 0.22450152 1.1540889 0.68192744 0.8275469
0.51164496 0.42919582 0.17103021 0.4535797 0.42495513 0.565089 0.39972556 0.78997725
0.8112348 -0.44325858 0.4145599 0.7251113 0.602124 -0.517306 -0.010150685 0.039282106
0.33736864 0.113063656 -0.02851322 0.24886608 0.19390386 -0.06855144 0.027475543 -0.15344757
0.6914188 0.28575867 -0.16948423 0.08415264 1.9466693 1.2748376 0.10304117 0.38273248
0.30389187 0.43930507 0.7094205 0.17151949 0.48626128 0.20535713 0.5459123 0.20979321
0.4447845 -0.004518649 -0.3043773 0.2269834 0.32071292 0.87814075 0.7473348 0.4324641
0.42590266 0.28089982 0.26303098 0.10142157 0.2502475 0.18572514 0.4188948 0.87914723
0.63432723 1.1803356 -0.13013062 0.09539982 -1.1410115 -0.4197578 -0.2066961 -0.06462715
0.020065928 0.09443314 0.016940294 0.079206966 0.12622862 0.35470292 -0.012407523 0.11466865
-0.83858854 -1.4889487 0.010808347 -0.24028243 1.2302198 -0.073839106 -0.09196441 0.080464974
-0.0855823 -0.15042575 -0.18903255 -0.033852674 0.52411443 0.32363075 0.0881688 -0.07301308
0.18216322 0.2631165 -0.028637934 0.27569944 1.8020152 0.75821257 0.4629642 -0.12250143
-0.030567784 0.1326233 0.16355224 0.46260923 0.68189645 0.27114844 0.14577353 0.20606473
0.42704332 -0.029581705 -0.379356 0.08980372 0.4969165 0.8383909 0.98933476 0.5826942
0.18488772 0.2366998 0.27073196 0.060054827 0.044309057 0.2571378 0.31960493 0.6264404
-0.46654376 0.21524462 -0.11523155 -0.2875192 0.5457922 -0.5096552 -0.041112088 0.19913489
0.35496885 0.082594045 0.072763816 0.077344276 -0.13004203 -0.18802099 0.030738251 -0.18915829
1.0518215 -0.26506856 -0.69630796 -0.094335765 0.12971494 -0.4410143 0.03529001 0.0012853938
0.18643968 0.45253274 0.27539277 -0.009822623 -0.017797785 -0.15276769 0.016357457 0.34378147
0.5437472 -0.7176169 -0.05026328 0.41057765 0.8927673 -0.12232721 -0.5152634 0.06205069
0.40275726 0.28276715 0.16623719 -0.26337725 0.31581855 -0.21002978 -0.16289495 0.13837534

linear1.bias f4 [256]
00000000: 87de 333f e5b0 69be 18e9 82be d8ac 11bf
00000010: 975d 9f3f e992 983f 5bf8 08bf 4fce bc3f
00000020: 6807 913f 4fdf 83be cf92 c3be 1c75 573f
00000030: 8da5 9f3f 4e94 5bbe acf8 2bbf 76f9 f4be
00000040: 7a15 39bf abe7 07be c3e1 e6bc 40b0 e7be
00000050: 85d9 29bf 6cca c13e 9f3b c83e b64b 22bf
00000060: cba4 173d 4fde 763f 8a3a 94be b926 aa3e
00000070: 9e91 54be 02c0 29bf 2709 b8be 0403 ac3f
00000080: d41a 933f 5a09 853f 153d 853f 22d0 883f
00000090: 0938 8b3f 9ef6 503f ab95 2f3e db7f 623f
000000a0: 5385 98be a9d5 3f3f 2f0e 283f 0f05 653d
000000b0: 3700 5ebd 8f9d 46be 688d 54be 524e e8be
000000c0: 2116 803f 7100 b7be d5df 2ebf 8c4e ddbe
000000d0: 78f7 d7be 2ef8 c93e 343d a53f d2cc dbbe
000000e0: fd9b 85be 5163 18be e53b ccbe 6c17 a13e
000000f0: 5a5c 26bf dfdb 553f 2b60 923f 6fb3 7a3f
00000100: c3c8 5dbc 9ee5 81be f080 ea3c 7709 843f
00000110: 88f1 633f dd53 5a3f d76b 863f bfd1 853e
00000120: 0779 d5be cbba 5b3f 90e0 86b9 6d02 943f
00000130: 9254 05bf 44eb 3abe ed0e 223e 3315 0ebf
00000140: 4f27 debd 675a 483f a369 f3be 63cc fabe
00000150: d774 01bf aae9 ce3f 2b61 c43e c1a7 d6be
00000160: 9128 0ebf b160 c23f 6251 c23f 1a74 14be
00000170: 7ac3 8e3f c4d5 39be 0317 fbbe 520f a8be
00000180: d519 b63e 9867 35be 4203 1abe 9036 8bbe
00000190: 4e8b 84be 3ccc b0bd 4b6c 793e 55e9 9dbe
000001a0: 31c4 8bbd 3239 4abe 2355 873f a531 923f
000001b0: 75a4 5abe b4c1 683d b0c4 eabd 0d05 b9be
000001c0: 5c79 a23f 8a52 bfbe d34e 893f 26b9 f7be
000001d0: b207 0ebf 7961 10bf 9caa 50bc 0726 eabe
000001e0: a0b3 56be b330 75be 00f4 a83f e93a 84bd
000001f0: 21ed 83be 41a6 663f 4a21 19be 5bac 903f
00000200: 20cc 10bd a25f 8fbe 3d15 daba f83a 123e
00000210: 1f17 b2be d2e4 abbe da3d b1be a194 213f
00000220: d1cf fdbe f8c7 39be 15da b03f 871b 50be
00000230: 848b 143a cd36 afbe 8835 c7bd 89c3 6a3f
00000240: c7fe 90be 838f d2be ac26 ba3e 190b 94bd
00000250: 4cac 883f 9354 b23f 590d 6e3f 58c0 4abe
00000260: 5ef1 553f 7757 753f 2367 843e 0843 03bf
00000270: b0f4 80bd 6bfb 07bf d7de dbbe cc75 39be
00000280: 2457 94be 142f 9b3f 1203 253f 09b6 6b3c
00000290: d80b 25bf 0cfe fdbe 5da0 fe3e 14b1 f5be
000002a0: 591c 2bbe d6a7 3a3f e0e9 a2bd 853b cabd
000002b0: b78e 0fbe 794c 0e3e 669d bbbd 9323 6a3f
000002c0: 76aa 3ebe 6547 82be ad4f b73e fadb efbd
000002d0: 0d13 cabe 1182 753e 81a1 963f 95db c13d
000002e0: 77e9 723f 997b 93be 9f77 823f 569d 30be
000002f0: 90ce 353f b484 99be 3bee 43be ce87 9a3f
00000300: 8390 c2be c3d1 95be 9aa2 563f a2b4 d2be
00000310: b6bb 8b3f 0773 12bf e556 d0bd a967 dabe
00000320: 1c9e 8c3f 097d 3ebd a47c 9b3f 86d8 993f
00000330: 6a30 9c3f 6ca3 8d3f 41ba 2dbe 9060 8a3f
00000340: 54d2 6cbe b82d 86be a81c 2cbf a00a c73d
00000350: 5668 94bc dbed d53d 6f5d 443e 1793 ad3f
00000360: 99af 853e d7ba 5a3f c158 e2bd 1672 93bd
00000370: 259f 8e3d bdf3 f9be 60e8 ddbe a3f8 693f
00000380: 5485 b3be b0b9 78be 042c 0cbf 3740 8abd
00000390: f69b dabe f8f3 9b3f bf12 903f 3f02 c8be
000003a0: 0c5a 36bf f4eb eabe f08e 213d 31c1 943f
000003b0: d50b cbbe 6f0b 243e 0eda 8d3e f840 783f
000003c0: 9d95 523f 9d5a 8abe 54ec c0be 2b3e 26be
000003d0: ed80 0dbf c737 01bf 8f99 893f 764d 6dbe
000003e0: b260 68bb f1d7 bfbe ec48 b33e e1fa da3f
000003f0: cab8 613f 066c 1b3f 55f0 97bd d490 8b3f
0.70261425 -0.22821386 -0.2556846 -0.56904364 1.2450436 1.1919833 -0.5350396 1.475046
1.1330385 -0.25756308 -0.38197944 0.8416307 1.2472397 -0.21443292 -0.6717632 -0.47846574
-0.72298396 -0.13271968 -0.028183823 -0.45251656 -0.66347533 0.37849748 0.39107987 -0.63396776
0.037022393 0.96432966 -0.28950912 0.33232668 -0.20758674 -0.66308606 -0.35944483 1.343842
1.1492562 1.0393479 1.0409266 1.0688517 1.0876476 0.8162631 0.17146938 0.8847634
-0.29789218 0.74935395 0.6564664 0.055913027 -0.054199424 -0.19396041 -0.20757067 -0.45372254
1.0006753 -0.35742524 -0.6831029 -0.4322399 -0.4218099 0.3944716 1.2909303 -0.42929703
-0.26095572 -0.14881636 -0.39889446 0.31463182 -0.6498467 0.8353862 1.1435598 0.97930044
-0.013536635 -0.25370497 0.028625935 1.0315388 0.8904042 0.85284215 1.050166 0.26136586
-0.416939 0.858319 -0.00025725784 1.156324 -0.5208217 -0.18253809 0.15826006 -0.555011
-0.10847341 0.78262943 -0.47541532 -0.4898406 -0.5056891 1.6165059 0.38355383 -0.4192486
-0.5553065 1.5185758 1.5181086 -0.14497414 1.1153405 -0.18147951 -0.49040994 -0.32824188
0.35566583 -0.17715299 -0.15040305 -0.27190065 -0.2588753 -0.086327046 0.24357717 -0.3084208
-0.0682453 -0.19748381 1.0572857 1.14214 -0.21351798 0.056825355 -0.114632964 -0.36136666
1.2693286 -0.3736766 1.072718 -0.48383445 -0.5548049 -0.5639873 -0.012735989 -0.45732138
-0.20966959 -0.23944359 1.3199463 -0.06456549 -0.25766852 0.90097433 -0.14954105 1.1302599
-0.03535092 -0.2800265 -0.001663841 0.14280307 -0.34783265 -0.33573014 -0.34617501 0.63117415
-0.49572614 -0.18142688 1.3816553 -0.20323001 0.00056665414 -0.34221497 -0.09727007 0.9170461
-0.2831938 -0.41125116 0.3635763 -0.07228679 1.0677581 1.393206 0.92989117 -0.19799936
0.8357142 0.95836586 0.25859937 -0.51274157 -0.062966704 -0.5311801 -0.4294345 -0.18111342
-0.28972733 1.2123742 0.6445781 0.014386662 -0.644712 -0.49607885 0.49731722 -0.47986662
-0.16710033 0.7291235 -0.07954764 -0.09874634 -0.14019285 0.1389636 -0.09160881 0.9146053
-0.18619713 -0.25445095 0.35802975 -0.11711879 -0.3946766 0.23975398 1.1768037 0.0946571
0.9488749 -0.28805235 1.0192755 -0.17247519 0.71018314 -0.29984057 -0.19133846 1.2072694
-0.3800088 -0.29261598 0.8384186 -0.41153437 1.091666 -0.5720677 -0.10172824 -0.4265721
1.0985751 -0.04650596 1.2147412 1.2019203 1.2202275 1.1065497 -0.16965581 1.0810719
-0.23127109 -0.26206756 -0.67231226 0.097188234 -0.018116158 0.10445758 0.19176267 1.3560513
0.26110533 0.85441345 -0.11052085 -0.071994945 0.06963948 -0.4881877 -0.4334135 0.91395015
-0.3506266 -0.24289584 -0.5475466 -0.06750529 -0.42697114 1.2183828 1.1255721 -0.39064214
-0.7123115 -0.45883143 0.039442956 1.1621457 -0.39657465 0.16019987 0.27705425 0.96974134
0.8225954 -0.27022257 -0.37680304 -0.16234653 -0.5527485 -0.50475734 1.0749987 -0.2317408
-0.0035458026 -0.37469438 0.35016572 1.7107812 0.8817259 0.60711706 -0.074188866 1.0903573

linear2.weight f4 [3, 256]
00000000: 407d ac3e bbbd 0fc0 7bb8 8ebf 2d75 e5bf
00000010: c6d9 053f 7be7 0e3f aae5 61bf 45e1 1c3f
00000020: d2ba 293f 911a 0fc0 9699 81bf e33c 183f
00000030: e1fc 403f f6d5 e3bf 6b5c 96bf f40e 0fc0
00000040: 8573 07c0 fa79 943b 60fa aec0 0fa5 99c0
00000050: cce8 bcbf 22c6 0a3f 2386 a7bf 9580 94bf
00000060: 1620 c7c0 538e 053f d236 14c0 6149 803f
00000070: e59b d3c0 0d77 dcbf 9331 e5bf b1c5 f63e
00000080: 5e4f 2c3f d914 343f 2974 173f 8845 0640
00000090: 76df 0a3f a7e6 293f 852d 003f a053 4f3f
000000a0: e34c 48c0 505a 293f c504 333f afd2 b6bf
000000b0: 0fd8 9cc0 4c70 5d3f 5a4d 383d 0f74 9cbe
000000c0: ca99 183f 939b 03bf cfb6 b9bf 4df5 9fbf
000000d0: 5f82 51bf 361d 7e3f ce72 233f 0bce 59c0
000000e0: 859d 47bf ecbb 77c0 aaec 2abf 9f2d fd3f
000000f0: 3376 c9bf ff31 3d3f 2468 2c3f 39f4 cc3e
00000100: af01 94c0 7538 ecc0 03f7 e0bf 11ef 023f
00000110: 33d4 453f 68af 313f 467d 383f 8291 a3be
00000120: f961 ffbf d1a8 293f 23a3 00c0 c369 373f
00000130: 5f7d 32c0 1239 1fc0 961b ecbe 1629 e8c0
00000140: 16ee 5cc0 6043 f43e 08b2 f7bf 6870 2dc0
00000150: e8fc 97c0 d5c8 e23f 2599 76bf 6bfc 8cc0
00000160: 144f 07bf b682 113f 0049 cb3e c04b c7bf
00000170: aa8b 0a3f d8c5 623c ba57 46c0 9135 603e
00000180: be33 c63f aa07 4bc0 fb51 413f dec5 9dbf
00000190: 609c 8ec0 a92c 90c0 2105 4f3e 905b 15c0
000001a0: e73a e3bf 8931 73c0 ec2f 563f 075f 213f
000001b0: c4cd 59bd ba9c 6ebf 9cd4 4fc0 bc9d 8abf
000001c0: d0c6 343f c316 37c0 11b8 423f be10 bbbf
000001d0: 11e0 fbbf 11f9 0cc0 e4f7 81c0 3412 1cc0
000001e0: 4854 3cc0 63cd 1dc0 ad70 2740 f1d0 aabf
000001f0: fdf7 15c0 1e7d 2e3f 78c4 fb3e 340e 3a3f
00000200: 4999 6ec0 4086 32c0 7a8c 98bf 410b 65c0
00000210: 815a ccbf 8f12 c1bf bab7 2ec0 292c dd3e
00000220: 0cd0 08c0 7ef3 dd3e cf0e 903f 5a69 b0c0
00000230: b8c8 0b40 c596 18bf 9455 4cc0 7205 42bf
00000240: 837d b6be 4bab c0c0 c4f8 ec3f fbb8 c2bf
00000250: 23c8 0b3f a1fe 0f3f e4c7 e53e 8d06 7fc0
00000260: 9b5b fe3f 09d5 433f f052 2340 76f8 90bf
00000270: 0ab0 30c0 9081 09c0 69b0 c5bf a467 0f3f
00000280: 6473 28c0 daa8 ef3f c5e9 2a40 aa5a 583f
00000290: fce2 09c0 03d1 0bc0 f1a9 0240 a91b 98bf
000002a0: c099 8ebf 8463 373f 805e 833f 1cc6 003f
000002b0: 7da0 42c0 bfb2 673f 9820 7cbf 1853 1e3f
000002c0: bd50 15c1 2a0b 01be acb7 2d40 3078 263f
000002d0: 1722 99be 1226 4140 8a5d 2f3f b954 3fc0
000002e0: 33b3 3a3f 744c a3c0 2273 af3e f88a 8abf
000002f0: c13a 303f a76a d1bf 7cda 93bf 8ae9 203f
00000300: 9e7f b9bf 6fd7 37c0 bc00 fd3e 38f0 4ebf
00000310: f268 353f 4474 0ec0 110d 33c0 58c3 b5bf
00000320: af6f 373f fe9d 0bbf 8011 1d3f 1dc9 213f
00000330: 973d 2a3f c0b9 363f bc4a 72be b3ba 473f
00000340: f2ad 51bd c4f6 93bf e85b 48c0 3bde 56c0
00000350: 8747 dcbf 2c23 57c0 31ab acbe 7f24 273f
00000360: f960 ba3e faf3 313f 907b 76bf 998a 72c0
00000370: 1c62 313f fb0a 62bf e5eb 00c0 82e9 1a3f
00000380: ff94 c3bf 6a3a 06c0 baf3 8abf 64d6 2fbf
00000390: 88fc 4ec0 559e 243f 16ce 0f3f bed5 dfbf
000003a0: 326f 1dc0 ba0b 05c0 7bf1 5c3f 9b60 fc3e
000003b0: 7b94 21c0 856d b3c0 e208 cd3e fafd 8f3f
000003c0: 986d 163f aa30 8cbf 74fe 8ac0 37a5 83bf
000003d0: b793 60bf 6c00 e4bf f79b d63e 0071 bebc
000003e0: 13f7 b23e a9f6 49bf 8c4d acbe 9003 bc3f
000003f0: 13c8 3b3f f732 0d40 1484 89bf cb9c 2e3f
0.33689308 -2.2459552 -1.1150049 -1.7926384 0.5228542 0.5582196 -0.88241065 0.61281234
0.6630069 -2.2359965 -1.0124996 0.59467906 0.7538586 -1.7799671 -1.1746954 -2.2352877
-2.1164258 0.0045311423 -5.4680634 -4.8013988 -1.4758544 0.54208577 -1.308781 -1.160174
-6.2226667 0.52170295 -2.315846 1.0022393 -6.61278 -1.7223831 -1.7905754 0.48197702
0.67308605 0.7034431 0.5916162 2.0979939 0.54247224 0.6636757 0.5006946 0.80986977
-3.1296928 0.6615343 0.6992915 -1.4283046 -4.9013743 0.86499476 0.044995643 -0.30557296
0.59609663 -0.5140926 -1.4508914 -1.2496735 -0.81839556 0.9926332 0.63847053 -3.4032009
-0.7797473 -3.8708448 -0.6676737 1.9779547 -1.5739197 0.73904413 0.67346406 0.40030077
-4.6252055 -7.3818917 -1.7575382 0.51146036 0.77276915 0.69408274 0.7206615 -0.3194695
-1.9951774 0.6627322 -2.009957 0.71645755 -2.788902 -2.4878583 -0.46114796 -7.2550154
-3.4520316 0.47707653 -1.9351206 -2.7099857 -4.7496223 1.7717539 -0.9632743 -4.4058127
-0.5285504 0.56840074 0.39704132 -1.5569992 0.5411936 0.013841115 -3.0991044 0.21895434
1.548454 -3.1723428 0.7551572 -1.2326009 -4.4565887 -4.5054517 0.202168 -2.3337135
-1.775235 -3.7998984 0.8366687 0.63035625 -0.05317475 -0.93207896 -3.2473516 -1.0829387
0.70615864 -2.8607643 0.76062113 -1.4614484 -1.9677755 -2.2027018 -4.06151 -2.438611
-2.9426441 -2.4656608 2.6162522 -1.3345014 -2.343261 0.68159664 0.4917333 0.7267792
-3.7281058 -2.789444 -1.191787 -3.578812 -1.596512 -1.5083789 -2.7299638 0.43197754
-2.1376982 0.43349832 1.1254519 -5.5128603 2.184126 -0.59605056 -3.1927233 -0.7578956
-0.35642633 -6.02091 1.8513417 -1.5212702 0.5460226 0.5624791 0.44879067 -3.9847748
1.9871706 0.7649694 2.551937 -1.1325824 -2.7607446 -2.1485329 -1.5444461 0.5601752
-2.632043 1.8723404 2.6705182 0.8451334 -2.154479 -2.184632 2.0416224 -1.1883441
-1.1140671 0.71636224 1.0263214 0.5030229 -3.0410454 0.9050712 -0.98487234 0.6184554
-9.3322115 -0.12601915 2.7143354 0.6502714 -0.2990882 3.0179486 0.68502104 -2.989546
0.72929686 -5.1030827 0.34267527 -1.082366 0.6883965 -1.6360673 -1.1551051 0.6285635
-1.4492071 -2.872524 0.49414623 -0.80835295 0.7086326 -2.2258463 -2.7976725 -1.4200239
0.7165479 -0.5453795 0.6135483 0.631975 0.6650023 0.7137718 -0.23661321 0.78019255
-0.051191278 -1.1559682 -3.1306095 -3.3573139 -1.7209328 -3.3615217 -0.3372436 0.65290064
0.3640211 0.69512904 -0.9628229 -3.7897093 0.6929033 -0.88298005 -2.0143979 0.60512555
-1.5279845 -2.0973153 -1.085563 -0.6868651 -3.2341633 0.64304096 0.5617384 -1.7487104
-2.4599118 -2.0788407 0.8630597 0.49292454 -2.5246875 -5.607119 0.4004584 1.1249382
0.58760977 -1.0952351 -4.343561 -1.0284795 -0.87725395 -1.7812629 0.41915867 -0.023247242
0.34954128 -0.78892 -0.33652914 1.4688587 0.73352164 2.2062356 -1.0743432 0.68208

linear2.bias f4 [3]
00000000: c68c 733f a546 813f 11ac 843f
0.9513668 1.0099684 1.036501
