checkpoints_dqn/model_final_model_9cv9rke5.pth (torch, 22824 bytes, 4 tensors)

linear1.weight f4 [256, 16]
00000000: 8625 10bd 3104 783f d1e3 0c3f 594f 03bd
00000010: 6029 49bf 50db 483e 4665 41be 426b 20be
00000020: 173d 2b3d 7a12 313e b1f7 d23c 4e13 573e
00000030: abe4 61bd 3ea4 ed3c eff2 0b3e 3c17 6a3d
00000040: 6054 bcbf 0c00 d4be 60ed 32be 7bbc 77be
00000050: e254 963f 4a92 88bd 73bb 07be a88e 7e3e
00000060: 365a a4bc 2e6f b93d 8ef1 b8bd a6c0 4b3d
00000070: b9c5 6e3e 9d92 00be 8d82 803e cf63 563e
00000080: 9f1c 1c3f c2b1 343e 45bc 163e 0e9f 3d3e
00000090: e33b bd3d f1cd 43bd 458b 8abe fa7f 413d
000000a0: 78b6 f9bc 8aae 1ebe 4483 153e b273 093f
000000b0: 3d14 e83d 538a 133e bb08 1dbd 30ae 36be
000000c0: a712 0b3f 7b68 27be ff62 593e db2a 123f
000000d0: 8d54 f23e c4d4 cdbd 4907 99bd ccc8 e8bd
000000e0: b09b e53d 58d5 b33e 54a2 0e3e 0849 00be
000000f0: ca73 033d a3ae 4e3c 13d7 06be d1fd afbd
00000100: 74cb 863e 1733 cc3d fee5 c1be e093 2a3e
00000110: 3b6e c73d c874 743f d978 6a3f 20e0 563f
00000120: 00a5 8d3e dcce 623e e37a f03e c2da b53e
00000130: eeef 083f e8ab 873e 8a13 023f ff7e 4f3f
00000140: 1658 df3e 1dff 453c 1d23 95be 826d 283e
00000150: 94b1 df3d 8180 353f 5db9 0d3f cd29 5e3f
00000160: 1a7a 093f 2ae7 ea3e b89a 173e 2755 023f
00000170: 6ffe f43e be6e 283f ae5c e43e 7559 373f
00000180: b35d 173f 30e4 05bd 23e2 e53e 04b4 df3e
00000190: 0506 e83e 268e b6be d065 09be ed4d e8bd
000001a0: d2c5 4e3e b2a6 cf3d ad10 3c3e 9735 383e
000001b0: bf83 7d3d d551 3dbd cd28 803e 60bb cbbd
000001c0: 35ea 503f 540e 5f3f cdfa d53d 4df3 893e
000001d0: 65b2 a0bf c2bf 58be 4db3 babd 6136 8c3e
000001e0: 7c76 ad3b fa2e 06bd 7617 113e 9ad9 f4bd
000001f0: 51b3 3a3e 5b17 68be 6feb ab3d f702 473d
00000200: 88e6 c43e b8df 5e3e 7bdb c0be 2979 8f3e
00000210: d600 803e 5005 113f fcc3 1c3f 0e4f f73e
00000220: 6e1f f03e e0bc bb3e 313e a83e 3102 753e
00000230: 0ebd cb3e 457f c43e 0a87 0e3f 4efb 553f
00000240: 284a c23e 7f79 e43c bc1e 94bd d8af 44bf
00000250: 532a a23e 2529 c6be ca1c 3abe 4798 b7bd
00000260: 713e ad3d cf49 413e b5eb 273e f87b 9e3e
00000270: cf73 29be 8990 4dbc 811a 50be d1e2 2a3e
00000280: afd3 fe3e 298f 033e 27d8 80bf 94d3 b23f
00000290: 0682 053f 2cf3 1cbe ca68 eabd 0d80 083e
000002a0: 927a 773e 76a6 c73e 2f27 563e caf5 10be
000002b0: 2000 d73e e764 c33e e96f d0bc 87dc cfbd
000002c0: aa64 c93e 17b9 5d3f 06c2 debd ee94 b23e
000002d0: c034 d13f 32d3 463f b932 43bf be3b 80bf
000002e0: 76e8 853d 4dc6 cb3e 44f5 a53d 8784 483e
000002f0: 55f7 113f 4e2c dc3e 43ed 553f 0161 093e
00000300: 7c72 c33e 4faa 4e3e 1bb2 e9be 18d1 153e
00000310: e5b2 a63e 8824 0c3f db26 5c3f 9dd4 263f
00000320: beec 803e 3d98 a43e b81b ae3e 6f88 393e
00000330: 48e0 3b3e 318e e43e 7af0 ef3e cff1 163f
00000340: 8a07 d3be 0c4c cb3e b6a4 693e eeb9 2abf
00000350: 854a f33e 08b4 a1be fd58 b7bd 5a29 3e3d
00000360: 37d0 843e 673e 003d 6265 0f3e f275 223d
00000370: ee62 1ebe b154 f0bd 1d35 af3d 11ac efbd
00000380: 7dc2 b13e ac67 0fbf 17ae 17bf 551d 94be
00000390: 19e6 873f 90ce a6be 7b51 acbe c0ed aebd
000003a0: 7f74 26be c5db f43c 78b8 113e 77ba 8d3d
000003b0: 457e 3c3e ed65 623e c0cf cc3d 337a 2a3e
000003c0: ff05 993e 0b41 4bbf 275f 33bd d539 663e
000003d0: 4064 803f af9e 19bd 3dfb aebe 4ffd 0abd
000003e0: 03f1 613e b2b4 dbbc f507 173d 0bae 05be
000003f0: 8f14 da3e 9063 03be 599b ba3d fcaf df3d
-0.035192035 0.96881396 0.5503512 -0.032058094 -0.7857876 0.19614911 -0.18886289 -0.15665916
0.041806307 0.17292204 0.025752874 0.21003458 -0.055149715 0.02900898 0.1366689 0.057151064
-1.4713249 -0.41406286 -0.17473364 -0.24192993 1.1744654 -0.066685274 -0.132551 0.24859107
-0.020062547 0.09054409 -0.09030448 0.04974427 0.23317613 -0.12555929 0.25099602 0.20936511
0.6098117 0.17645934 0.14720257 0.18517706 0.09239938 -0.047803823 -0.2705938 0.04724119
-0.030482516 -0.15496269 0.14600855 0.5369216 0.11331985 0.14408235 -0.038338404 -0.17839885
0.54325336 -0.1634845 0.2122917 0.5709664 0.47330132 -0.100503474 -0.07472093 -0.11366424
0.11211336 0.35123706 0.13929111 -0.12527859 0.032092847 0.012614879 -0.13167982 -0.085933335
0.26327097 0.09970682 -0.37870783 0.16657972 0.09737822 0.95490694 0.9159065 0.8393574
0.27664948 0.22149223 0.46968755 0.3551846 0.53491104 0.26498342 0.50811064 0.81053156
0.43621892 0.0120847495 -0.29128352 0.16448024 0.10922542 0.70899206 0.55360967 0.8678253
0.5370194 0.4587949 0.14805114 0.5091118 0.47850367 0.6579398 0.4460196 0.71620876
0.5912735 -0.03268832 0.4489909 0.4369203 0.45317093 -0.35655326 -0.13417745 -0.11342988
0.2019265 0.101392165 0.18365736 0.17989193 0.06189322 -0.04622062 0.2503113 -0.09947848
0.8160737 0.8713124 0.10448227 0.26943436 -1.2554442 -0.211669 -0.0911623 0.27385238
0.0052936655 -0.032759644 0.14169106 -0.11955567 0.18232466 -0.2266516 0.08394515 0.048586812
0.3845713 0.2176503 -0.3766745 0.28022125 0.25000638 0.5664873 0.6123655 0.483025
0.4689898 0.36667538 0.32859948 0.23926617 0.39792675 0.3837835 0.55674803 0.83586586
0.37947202 0.027889965 -0.072324246 -0.76830816 0.31672916 -0.38703266 -0.18175045 -0.089645915
0.084591754 0.18875812 0.16398509 0.30953956 -0.16548084 -0.012546667 -0.2032261 0.16688086
0.49770877 0.1284758 -1.0065964 1.3970819 0.52151525 -0.15327138 -0.11445768 0.13330097
0.2416785 0.38994187 0.20913385 -0.14156261 0.41992283 0.3816292 -0.025443988 -0.10149484
0.39334613 0.8661055 -0.10876851 0.3487925 1.6344223 0.7766601 -0.7624927 -1.0018232
0.06538479 0.3979973 0.08103421 0.19581805 0.57018024 0.43002552 0.8356516 0.1341591
0.38173282 0.20182155 -0.45643696 0.14630544 0.3255836 0.5474324 0.8599679 0.6516817
0.2518062 0.321474 0.34005523 0.18118452 0.18347275 0.44639733 0.46863157 0.5896272
-0.4121669 0.39706457 0.22816738 -0.66689956 0.4751779 -0.31582665 -0.0895252 0.046426155
0.25940105 0.03130951 0.14003518 0.039663263 -0.15467426 -0.117349036 0.085550524 -0.11702741
0.34718695 -0.56017566 -0.59250015 -0.2892863 1.0617095 -0.3257947 -0.33655915 -0.08541441
-0.16255377 0.02988995 0.14230525 0.06920331 0.18407543 0.22109194 0.10000563 0.16648178
0.29887387 -0.7939612 -0.043791916 0.22482999 1.0030594 -0.037504848 -0.34176055 -0.03393298
0.22064595 -0.02681956 0.036872823 -0.13054673 0.4259381 -0.12830949 0.091116615 0.10922238

linear1.bias f4 [256]
00000000: 9e3a 2d3e a21d 87be c517 f9bd 4ba0 94be
00000010: e8e8 4b3f 1134 3f3f cea0 bfbe 27cc 3bbc
00000020: a247 523f 9238 66be ed4a ecbe fc2c 5c3f
00000030: 62d8 743f 594a a6bc 3977 0ebf 5190 c9be
00000040: d62e 01bf d9e0 e83e 58ba 0fbe 11f1 61be
00000050: f929 09bf d938 983d 3eba 173e 2612 f6be
00000060: 3821 883d 0638 dbbe 77ba 303f 91a3 07bf
00000070: 051d 37be e258 d8be c7af 24be 1dc9 8c3f
00000080: 437d 8ebe 3c24 3c3f fdd7 2f3f 1f0b 643f
00000090: c169 6c3e 0c88 013f 9fb2 d2bd d8b6 193f
000000a0: 904d 8c3d d3c7 97be 4f3c e73e f0af 503e
000000b0: 05fc 923d cf1d 49bd 688d 54be f910 16bf
000000c0: bc58 1f3f 749b 8bbe 5f71 0ebf f9ac 96be
000000d0: 36c4 6ebe 333d 3ebe 18d1 213e 275b 8dbe
000000e0: 982d 483e e5a6 81be 2800 febe f8cb 8e3e
000000f0: 020b f9be d742 053f a57a 4d3f 1232 073f
00000100: 40f6 393d ca90 91be ca8c f03d 862b 263f
00000110: 4ace 1d3f ad5c 2bbe 51b1 433f 2c3a a5bc
00000120: afa8 73be 375f 0abe 5048 5abd 411b 353f
00000130: 3fca c8be dd75 0fbc b2a5 cbbe e743 b2be
00000140: e14e 33be fa0c f93e 504f 53be 25f0 d5be
00000150: 62ad a4be a940 623f 878e 4c3e 6535 903f
00000160: afd8 cfbe 1015 8c3f 32f5 7b3f 258a 3b3c
00000170: 8183 4a3f c4d5 39be 29ff adbe 0f91 673f
00000180: 0fd5 38bd dc44 0e3d 9183 853e 6746 46bd
00000190: 4847 97be 0e07 61be 76aa 60bd 7e2e 84be
000001a0: a533 173f a30e 973d 319a 443f b4e5 8d3d
000001b0: a0ea 5bbe 4b7c be3d ba00 0fbe 2064 e7be
000001c0: 53fe d8bb f8ab 31be c9e8 4d3f 0ea1 2abe
000001d0: 2ecf e7bd a981 adbe edd7 2a3d 62bf d8be
000001e0: 0b34 3c3f 098a 393e 1991 8b3f 2421 4cbb
000001f0: fb59 6d3f 7dcb 0c3f 0cca 17be e61b 4f3f
00000200: 4684 bebd 6f37 aebe abbb 573d a8e8 863d
00000210: 560b 93be 46a8 89be 3371 a9be dcd6 a03d
00000220: 52ba 7bbe bade 13bf 8977 523f 7ce2 05be
00000230: 50f8 ebbe 8097 02bf 9ddd 33be 056d 963d
00000240: 1cdc f1be ab44 c8be 7dbf a63e b59a 8abd
00000250: 78e2 383f 90c7 753f 59c1 0c3f 6480 52be
00000260: 7911 543f eb89 2b3f b488 153e a9ac 98be
00000270: 7723 9e3b c947 e3be f494 67be 7859 63be
00000280: 7473 71be 80ca 673f dcf7 4b3f 7824 cfbc
00000290: 4866 a13f ae38 06bf be5e d43e 9cbc 79be
000002a0: ed1a 08be 7f4d 0c3f ca75 7d3e 9ffe febd
000002b0: 2585 d3bd 6c32 a7bd 5f5f 0b3d ca64 1e3f
000002c0: a5f4 f5bd bfce d63e 3179 b1be bed6 913e
000002d0: ac4b b8be 46c3 fdbe ae29 673f 9c8d 813f
000002e0: 2afa 98bd 1a30 95be c741 183f f5a0 c23e
000002f0: f374 cbbe 8e0f fdbd dba7 37bd 5e7c 5cbd
00000300: 5117 f3be 9b5e e8bd db42 18be e585 aebe
00000310: 3021 493f ff37 aabe e93e 6cbd 1e3b a9be
00000320: 1d41 0d3c 4aaa 9f3d 855c 5e3f 23ad bcbe
00000330: aab1 da3e fe1e 453f 8134 9abe f323 563f
00000340: 54d2 6cbe d0e3 f5bd 4111 febe c8c1 41bc
00000350: ec51 25be 4bab 243e 2fbd 1d3f c827 9abe
00000360: 6627 3fbe 0698 0a3f b5cd 7c3f 00b7 dfbd
00000370: dfb9 66bd f77d a0be 2926 2a3e 9964 cf3d
00000380: bf9c aa3e 6277 0fbe 326c a7be 0521 37be
00000390: 4e06 63be 528b 5b3f 6b26 413f dbc0 d73e
000003a0: b392 e1be 406c 05be a3f6 1c3f fa83 353f
000003b0: 4a22 94be 3cac 023e e42c 19bd 033c db3e
000003c0: 84f1 813d 03c8 6d3d 43b5 55be fe4d 7f3f
000003d0: 02b3 0ebf 5f06 04bf a241 263f 764d 6dbe
000003e0: 8666 b73d ffb8 9ebe 1fa5 6a3e 25c7 743f
000003f0: 6d9f 0a3f 42fb 8ebd f980 463e 5694 debe
0.16916892 -0.26389796 -0.12162737 -0.29028544 0.7965226 0.7468882 -0.37427372 -0.011462248
0.82140553 -0.22482517 -0.46150914 0.8600614 0.95642674 -0.020299124 -0.5565067 -0.39367917
-0.5046209 0.45484045 -0.14035928 -0.22064616 -0.5357967 0.07432718 0.1481714 -0.4806072
0.06646961 -0.4281618 0.6903452 -0.5298396 -0.17882164 -0.42255312 -0.16082679 1.0998875
-0.27829942 0.7349279 0.68688947 0.8907947 0.23087217 0.50598216 -0.102879755 0.6004462
0.068507314 -0.2964464 0.451632 0.20379615 0.07176975 -0.049100693 -0.20757067 -0.5861965
0.6224477 -0.2726704 -0.5564174 -0.29428843 -0.23317036 -0.18578033 0.15802419 -0.27608606
0.19548643 -0.25322643 -0.49609494 0.2788999 -0.4864121 0.52055115 0.80265266 0.52810776
0.045400858 -0.28430778 0.117456034 0.6491016 0.616429 -0.16734572 0.7644244 -0.02016934
-0.23794816 -0.13512884 -0.05329162 0.7074471 -0.39216802 -0.008756128 -0.39774853 -0.3481743
-0.17510559 0.48642713 -0.20635724 -0.41784778 -0.3216353 0.88379914 0.19976245 1.1266295
-0.40595004 1.0943928 0.98421013 0.01144651 0.7910691 -0.18147951 -0.33983734 0.90455717
-0.045125064 0.03473364 0.2607694 -0.048406985 -0.2954657 -0.21975347 -0.054850064 -0.2581672
0.5906318 0.073758386 0.7679778 0.06928578 -0.21476221 0.09301051 -0.13965121 -0.45193577
-0.0066221147 -0.17350757 0.80433327 -0.16663 -0.11318813 -0.33887985 0.04170983 -0.42333513
0.7351691 0.18119062 1.0903655 -0.0031147683 0.92715424 0.54998 -0.14823169 0.80901945
-0.09302573 -0.34026667 0.05266921 0.065873444 -0.28719586 -0.26886195 -0.33094177 0.07853481
-0.24582794 -0.5776173 0.82213646 -0.13074678 -0.46087885 -0.5101242 -0.17565008 0.073450126
-0.47238243 -0.3911489 0.3256797 -0.06767789 0.72220564 0.96007633 0.54982525 -0.2055679
0.8283916 0.6700732 0.1460293 -0.2981923 0.004826005 -0.44390705 -0.22615415 -0.22202098
-0.23579198 0.90543365 0.7967508 -0.025285944 1.2609339 -0.52430236 0.41478533 -0.24388355
-0.13291521 0.5480575 0.24751964 -0.12450909 -0.1032813 -0.08163914 0.0340265 0.6187254
-0.12009553 0.4195461 -0.34662774 0.28484148 -0.35995233 -0.49563044 0.90297973 1.0121341
-0.0746959 -0.2913826 0.5947537 0.38013425 -0.39737663 -0.123564824 -0.044837814 -0.053829543
-0.47478727 -0.113461696 -0.14869253 -0.34086528 0.78566265 -0.33245847 -0.057677183 -0.33052915
0.008621481 0.07796152 0.86859924 -0.36850843 0.42713672 0.77000415 -0.30118182 0.83648604
-0.23127109 -0.120063424 -0.4962254 -0.011825986 -0.16144532 0.16080968 0.61616796 -0.30108476
-0.18667373 0.5413822 0.98751384 -0.10923576 -0.056329604 -0.31346104 0.1661612 0.10126609
0.33322713 -0.14010385 -0.32699734 -0.1788369 -0.22170374 0.8575946 0.75449246 0.42139325
-0.44057235 -0.13029575 0.6131384 0.70904505 -0.2893241 0.12761015 -0.037396327 0.42819223
0.063448936 0.058052074 -0.20869927 0.9972838 -0.55741894 -0.5157222 0.649439 -0.2317408
0.08955102 -0.31000516 0.22914551 0.9561637 0.54149514 -0.069815174 0.19385137 -0.43472546

linear2.weight f4 [3, 256]
00000000: baa4 5fc0 234f f1c0 4e74 05be 1210 29bf
00000010: 7ab9 163f cee2 153f 1cc2 fdbe 387b 02c1
00000020: 4c11 2c3f 7943 3abf 9706 cbbf 1f61 1240
00000030: 1b19 313f dd14 f0bf c6fb 2abf d5e3 2ac0
00000040: 317b 28bf c8b3 4740 6631 2dc0 4bcd 61bf
00000050: 2ded 0ec0 adf2 f6bf b533 1fc0 c360 f5bf
00000060: 8441 0fc0 e3d8 4cc0 f066 333f bd3e c9bf
00000070: c803 5fc0 4510 76bf 2dea f4bf 19d4 fe3e
00000080: f7a4 a6bf b4b0 303f 86b3 1c3f bb3d 223f
00000090: 267d d4c0 cf03 273f d257 5cbf 9c58 323f
000000a0: fd01 983f 17dd 66bf 7851 ad3f b64b 46c1
000000b0: 3ff4 3dc1 6fb6 7d3e 5a4d 383d d64b 66c0
000000c0: 89ac 203f 809e 41bf 26eb 3ec0 5d84 f5bf
000000d0: 166b 8cc0 96f6 11c0 e567 80bf 5a17 cec0
000000e0: 57da ad3e 6656 53c0 e98f d7bd baac 1b3f
000000f0: 80db d2bf 931f 323f 8c18 203f 2b3a e13e
00000100: 679a 5dc0 24f6 febf 3d5d 53bf d689 0c3f
00000110: fca7 393f 7b53 01bf b148 263f ba21 e1be
00000120: a0f8 d9bf 21c9 81be e7d5 91bf cf88 7a3f
00000130: ac64 6dc0 29d6 50c0 5cdb a13e 4eed cac0
00000140: 5522 fac0 7a3e 1a3f eade b3bf 4493 7cbf
00000150: e487 c5c0 a937 113f 0cb5 0cbf 0256 003f
00000160: 686d a7c0 9ed2 073f 06dc fc3e 315b 0cc0
00000170: d204 043f d8c5 623c a88e dabf f645 213f
00000180: a683 2abf cbbb 78c0 50a2 0c3f b322 d9c0
00000190: b308 afc0 b9d6 a2c0 aaf9 fac0 5774 40c0
000001a0: e58a b43f 078b ddbf 133a 383f c609 5f3e
000001b0: cd01 31bd 2150 fcc0 aa81 62c0 8c61 1ac0
000001c0: 4217 0fc0 d5f5 ebbf 9a33 313f 9a3d 58bf
000001d0: 40e5 dcbf e2fd adc0 2b66 e3c0 d14f 15bf
000001e0: 9d35 353f 531b 13c0 1782 1e3f 72e0 cfbe
000001f0: 9db3 003f 7788 373f d59a 80be 5f05 263f
00000200: cd2b bac0 8f9a c3c0 e875 0fc0 46dd fdc0
00000210: 48f1 b0c0 ab92 0bc0 39d2 7cc0 bc81 61bf
00000220: fbd0 d5be 442b 4bc0 0790 163f 76f7 31c1
00000230: 609c bdc0 513a 3f3e a500 65c0 b1ba e6be
00000240: e06c 793e 3374 88c0 0a60 023f d147 90bf
00000250: 7895 1f3f 6855 233f 5ccd 063f 9e3f 97c0
00000260: 2d79 003f f123 363f c11b d03f 27fe 15c0
00000270: 4f5b 81c0 72c1 2cc0 e250 afbf 9734 c83e
00000280: 9f18 27c0 b6bf 233f 7cb4 1a40 cd1a cdbf
00000290: fd4b 8cbf 5703 043e 4a8c df3f 94a1 433d
000002a0: aa27 e5bf 7ca9 413f 927c 6f40 338b 9abe
000002b0: 1a7b 00c0 795e 89c0 4772 b2be 7161 103f
000002c0: 885a 3dc1 58d2 e33f 87b1 5dbf 805b dc3e
000002d0: b328 6ebf bb2f e83e 9d29 2c3f 4afa a13f
000002e0: 1b29 1ebf 961b bdc0 2005 143f 3b60 d1be
000002f0: aaf6 c4c0 c99a 19c0 dcba bcbf dcba 8fc0
00000300: c826 fd3d fca8 7a3b 0c12 2dc0 fe15 dcbf
00000310: 4734 353f 1302 73bf 154e c2c0 d7a1 97c0
00000320: 9514 83c0 4a5f 7cbf 2794 1f3f 1037 63c0
00000330: ab8e a63f 7c65 343f 6393 82bf 0bf6 443f
00000340: f2ad 51bd c01c 6ebb eea7 8cc0 0768 00c1
00000350: c13c 44c0 19e5 b1c0 a605 293f 766d 74c0
00000360: f778 50be 3761 353f c5c4 153f dce7 19c0
00000370: b37c 643e dcb8 24bf caa7 ff3e ea2f afbf
00000380: 3966 d13f e48d 87c0 6143 b5bf 2eab 1bbf
00000390: ced3 4fc0 0232 1e3f b8fe 153f 3360 bb3f
000003a0: 8c35 94bf 310d afbf 4df8 7c3f f0f1 153f
000003b0: e73c fbbf 4ebe bf3e 3dc9 1cbf 752a 9f3f
000003c0: 9ead 913e e353 77bf 8777 3fc0 5c1b 0e3f
000003d0: 5c4a 56c0 19a4 a3bf 45bd 0e3f 0071 bebc
000003e0: 2213 27bf 920d 09bf 6d5c a5bf 000a 163f
000003f0: f2c4 343f c28a 6bc0 12f4 f0bf d999 40c0
-3.494429 -7.5409102 -0.13032648 -0.66040146 0.58876765 0.585492 -0.49562156 -8.155083
0.6721389 -0.72759205 -1.5861386 2.2871778 0.6917893 -1.8756367 -0.66790426 -2.6701558
-0.65812975 3.120348 -2.70614 -0.8820388 -2.233226 -1.9292809 -2.487531 -1.9170154
-2.2383738 -3.2007377 0.70078945 -1.5722271 -3.4846058 -0.96118575 -1.9133965 0.49771193
-1.3019093 0.6901963 0.6121143 0.63375443 -6.640277 0.65240186 -0.86071503 0.6966646
1.1875607 -0.90181106 1.3540487 -12.393484 -11.87213 0.24776624 0.044995643 -3.5983787
0.6276327 -0.75632477 -2.9831023 -1.9181019 -4.388072 -2.2806754 -1.0031706 -6.4403505
0.33955643 -3.3021483 -0.105254956 0.60810435 -1.6473236 0.6957943 0.62537456 0.4398969
-3.462549 -1.9918866 -0.82564145 0.5489782 0.7252195 -0.50518006 0.6495467 -0.43971044
-1.7028999 -0.25348762 -1.1393403 0.97865003 -3.7092695 -3.2630713 0.3161267 -6.341468
-7.816691 0.6025158 -1.4052403 -0.9866221 -6.172838 0.56725556 -0.54963756 0.5013124
-5.2321053 0.5305575 0.49386615 -2.193066 0.51569855 0.013841115 -1.7074785 0.62997377
-0.6660713 -3.886462 0.5493517 -6.7854857 -5.469812 -5.0887113 -7.8429766 -3.0071008
1.4104887 -1.7308053 0.71963614 0.21781072 -0.043214608 -7.8847814 -3.539164 -2.4122038
-2.2357945 -1.8434397 0.6921936 -0.84468997 -1.7257462 -5.4372416 -7.1062217 -0.58324915
0.7078493 -2.2985427 0.6191725 -0.40600926 0.5027407 0.71692604 -0.25118127 0.64851946
-5.817847 -6.112617 -2.2415714 -7.933261 -5.5294533 -2.180827 -3.950331 -0.88088584
-0.41761002 -3.1745157 0.5881352 -11.122915 -5.9253387 0.1867459 -3.5781643 -0.4506431
0.24357939 -4.2641845 0.50927794 -1.1271917 0.62337446 0.63802195 0.52657104 -4.726516
0.501849 0.7114859 1.625847 -2.3436372 -4.042396 -2.699307 -1.3696558 0.39102623
-2.6108778 0.639644 2.417266 -1.6023804 -1.096069 0.12891899 1.7464688 0.047761515
-1.790273 0.7564924 3.7419782 -0.30184326 -2.0075135 -4.2927823 -0.34852812 0.56398684
-11.834602 1.7798567 -0.8659901 0.4303856 -0.9303085 0.45348915 0.67250997 1.2654507
-0.6178147 -5.9096174 0.5782032 -0.4089373 -6.1551104 -2.4000723 -1.4744525 -4.49156
0.123609126 0.0038247695 -2.7042265 -1.7194211 0.70782894 -0.9492504 -6.0720315 -4.738506
-4.0962625 -0.985829 0.6233544 -3.5502357 1.3012289 0.7046735 -1.0201229 0.7693793
-0.051191278 -0.0036333054 -4.395499 -8.025397 -3.0662081 -5.559216 0.66024244 -3.819181
-0.20358644 0.70851463 0.5850337 -2.4047766 0.22313194 -0.64344573 0.499327 -1.3686497
1.6359321 -4.2360706 -1.4161187 -0.60808074 -3.2473025 0.61795056 0.58591795 1.4638733
-1.1578841 -1.3675901 0.98816377 0.5857229 -1.9627961 0.37449878 -0.61244565 1.2434832
0.28452772 -0.96612376 -2.9916704 0.555105 -3.3482885 -1.2784454 0.5575755 -0.023247242
-0.6526357 -0.5353633 -1.2918831 0.5860901 0.70613015 -3.680344 -1.8824484 -3.00939

linear2.bias f4 [3]
00000000: 776a 2c3f 650e dd3e 96fd bc3e
0.6734995 0.43175045 0.3691222
