checkpoints_dqn/model_final_model_eoqxvs6w.pth (torch, 23259 bytes, 4 tensors)

linear1.weight f4 [256, 16]
-0.22945842 0.051479097 0.057018507 -0.050411344 -0.07650821 -0.04168569 -0.027835684 -0.1604694
-0.26263297 0.02857547 -0.085806906 -0.23806979 -0.6130333 -0.35211813 -0.14063652 0.09996245
-0.28434277 0.05707387 -0.028427884 0.015499913 0.1435562 -0.06814284 -0.17958096 0.095778786
-0.2603927 -0.11548358 -0.25001144 -0.011184722 0.022724034 -0.34859154 0.14166296 0.003567654
-1.2308782 0.74274963 -1.3999637 -0.029325603 -0.036039528 -1.4117197 -0.24868667 0.3836268
0.34689215 0.06694999 0.08692161 -0.19637847 0.014735884 0.3360964 0.1894649 -0.23702025
0.1958803 0.04772802 -0.2546709 -0.25378534 -0.24086839 -0.09257206 -0.62919015 -0.20488967
-0.007671556 -0.044379465 -0.4851629 -0.8295495 -1.0689453 -0.3088604 -0.34146863 -0.2267404
-5.72211 -5.5577583 1.2483907 -1.6748265 -6.0153646 2.279244 0.56460214 0.32105926
1.0193012 0.52573884 0.6481432 -0.017054426 -0.34119555 -0.16536362 -0.34554258 -0.58602375
0.023563579 -0.07334398 0.045057517 -0.046736084 -0.13745838 -0.1786027 -0.16967121 0.12726432
0.055264533 0.00654927 -0.25008923 0.1136601 0.006368167 0.11691926 -0.1307158 0.022077493
0.08162787 0.06410919 -0.008994693 -0.19355606 0.30838293 -0.31573594 -0.45794836 -0.28492635
-0.2450493 -0.24125049 -0.10067894 0.015610583 -0.052326057 -0.18862571 0.1481615 -0.23057401
5.419168 -0.313591 -3.0961185 -1.4972684 -0.67131937 -0.20901588 -2.1111758 0.10210115
1.0822788 0.5927976 -0.6418201 -0.93071 -0.47128648 0.11752116 -1.6343337 -3.5621655
-0.1923851 0.0009827268 -0.06727707 0.06594017 -0.39752758 -0.38115016 0.13824673 -0.28542852
-0.07073679 -0.16515703 -0.13736251 -0.101716466 -0.22229102 -0.23101923 -0.009604856 0.23806378
3.702533 2.472921 -0.7618264 1.5315247 -1.9547908 -2.1462967 -3.1925464 0.8955236
1.389445 1.0679959 1.2603346 -0.8231857 0.0075993417 0.6136131 0.16886188 0.95659345
-0.16029826 -0.5055242 -0.19829954 0.18046473 0.070933625 -0.40730274 0.3799964 0.11216431
-0.09305447 -0.035967704 -0.49310076 -0.7785353 -0.49587196 -0.2008049 0.054690763 0.24003063
3.2215078 -4.394123 2.2029228 -0.85473144 4.2913513 -0.6658593 1.764126 -1.9560182
-1.0503405 -1.1500834 -1.6059959 -0.062478006 -0.6832355 -0.24606504 -0.061525732 0.10393121
-0.56550515 -0.95549035 0.08338787 -0.3042616 -1.6555237 -0.54858047 0.5445994 0.16562636
-0.31446263 -0.3080754 -0.37280795 -0.2828414 -0.36932504 -0.16687047 -0.13237567 0.065185145
0.05024588 0.019479677 -0.09177806 -0.17885411 0.025490621 -0.29467553 -0.02562797 -0.029903645
0.061255913 -0.22107229 -0.103683434 -0.0334784 -0.33187994 -0.25974193 0.021249484 -0.029680738
0.10341065 -0.3052818 -0.081587255 -0.16063644 0.08389199 -0.052324776 -0.105152644 -0.09986277
-0.24988241 0.016896933 -0.04573273 -0.22555758 0.050860908 -0.050101694 -0.29927656 0.07700725
-0.1762321 -0.19240175 -0.057290185 -0.11302936 0.07559757 0.049409956 -0.84043705 -0.02987968
0.11822115 -0.07133164 -0.10130272 -0.6459429 -0.22793038 -0.66928196 -0.19252262 -0.20416169
00000000: 26f7 6abe bfdb 523d 3d8c 693d 207c 4ebd
00000010: 56b0 9cbd 9dbe 2abd a907 e4bc 1752 24be
00000020: d477 86be 1b17 ea3c 88bb afbd 91c8 73be
00000030: c0ef 1cbf d448 b4be 0503 10be 1db9 cc3d
00000040: 6095 91be 4ac6 693d 98e1 e8bc 59f3 7d3c
00000050: 6600 133e 798e 8bbd 12e4 37be ab27 c43d
00000060: 3152 85be a882 ecbd 8001 80be 2040 37bc
00000070: c127 ba3c 977a b2be 1810 113e 4dcf 693b
00000080: 6b8d 9dbf d724 3e3f 0332 b3bf 3f3c f0bc
00000090: 2f9e 13bd 3bb3 b4bf b8a7 7ebe bb6a c43e
000000a0: d99b b13e 141d 893d f503 b23d 7017 49be
000000b0: c76e 713c d414 ac3e 1603 423e 70b5 72be
000000c0: d894 483e 757e 433d 3964 82be 27f0 81be
000000d0: 34a6 76be 6c96 bdbd 9b12 21bf 99ce 51be
000000e0: ad61 fbbb 3ec7 35bd 4667 f8be 5b5d 54bf
000000f0: 33d3 88bf f322 9ebe fad4 aebe a32e 68be
00000100: 861b b7c0 28d9 b1c0 44cb 9f3f b760 d6bf
00000110: de7d c0c0 22df 1140 c489 103f e161 a43e
00000120: 7678 823f d296 063f b6ec 253f b9b5 8bbc
00000130: 2fb1 aebe 1555 29be f5ea b0be a705 16bf
00000140: 6808 c13c 5e35 96bd 3b8e 383d 566e 3fbd
00000150: e4c1 0cbe a0e3 36be 4abe 2dbe 9451 023e
00000160: 105d 623d 429b d63b b20b 80be a0c6 e83d
00000170: 0fac d03b 5d73 ef3d 5dda 05be dcdb b43c
00000180: 832c a73d ae4b 833d 7a5e 13bc 8f33 46be
00000190: 5ee4 9d3e 24a8 a1be 3578 eabe dee1 91be
000001a0: 34ee 7abe 5e0a 77be c330 cebd 88c3 7f3c
000001b0: d953 56bd 1927 41be a6b7 173e 981b 6cbe
000001c0: d369 ad40 008f a0be ce26 46c0 7ea6 bfbf
000001d0: 96db 2bbf 4208 56be 811d 07c0 681a d13d
000001e0: 1d88 8a3f 95c1 173f 524e 24bf 0343 6ebf
000001f0: 764c f1be efae f03d d931 d1bf 85fa 63c0
00000200: 9a00 45be d7ce 803a 8fc8 89bd a40b 873d
00000210: bc88 cbbe 1d26 c3be 8d90 0d3e b023 92be
00000220: 73de 90bd ed1e 29be c2a8 0cbe b950 d0bd
00000230: 42a0 63be 4e90 6cbe b05d 1dbc fec6 733e
00000240: 4df6 6c40 5644 1e40 0e07 43bf 0009 c43f
00000250: 9636 fabf ed5c 09c0 ae52 4cc0 0941 653f
00000260: 55d9 b13f 17b4 883f a552 a13f 4cbc 52bf
00000270: e603 f93b c015 1d3f 21ea 2c3e 4fe3 743f
00000280: 3a25 24be 096a 01bf 090f 4bbe bfcb 383e
00000290: a645 913d fc89 d0be e38e c23e 67b6 e53d
000002a0: 5893 bebd df52 13bd b477 fcbe 174e 47bf
000002b0: eee2 fdbe cd9f 4dbe 6c03 603d 97ca 753e
000002c0: 2f2d 4e40 a89c 8cc0 b0fc 0c40 aecf 5abf
000002d0: c052 8940 c175 2abf e1ce e13f ce5e fabf
000002e0: 8f71 86bf ef35 93bf 4691 cdbf f0e8 7fbd
000002f0: 86e8 2ebf 79f8 7bbe 6802 7cbd e3d9 d43d
00000300: f2c4 10bf 049b 74bf 42c7 aa3d 2dc8 9bbe
00000310: 33e8 d3bf c56f 0cbf de6a 0b3f f599 293e
00000320: 3f01 a1be 0fbc 9dbe afe0 bebe 97d0 90be
00000330: 2c18 bdbe 18e0 2abe 7d8d 07be ca7f 853d
00000340: a0ce 4d3d d893 9f3c 23f6 bbbd 8825 37be
00000350: b5d1 d03c b6df 96be c0f1 d1bc 7df8 f4bc
00000360: 7be7 7a3d c660 62be fb57 d4bd a620 09bd
00000370: 2bec a9be e5fc 84be 6613 ae3c 0525 f3bc
00000380: f6c8 d33d e54d 9cbe 3817 a7bd e17d 24be
00000390: 90cf ab3d 8152 56bd 455a d7bd da84 ccbd
000003a0: 2de1 7fbe 706b 8a3c 3e52 3bbd 91f8 66be
000003b0: 8753 503d 6f37 4dbd c73a 99be fab5 9d3d
000003c0: 3076 34be f704 45be 1da9 6abd f07b e7bd
000003d0: e6d2 9a3d 1862 4a3d e226 57bf 3bc6 f4bc
000003e0: ee1d f23d 5316 92bd cd77 cfbd 845c 25bf
000003f0: 9566 69be 1056 2bbf a624 45be c30f 51be

linear1.bias f4 [256]
-0.06866917 -0.2653049 -1.485525 -0.28243917 2.1207824 -0.14070176 -0.33346468 -0.008889025
-0.12622777 -1.9841285 -0.7154887 -0.5824526 -0.13959554 0.0008152138 -0.2830425 -0.30682528
-1.5420275 -0.14066467 -0.3196889 -0.3301558 -0.24829645 2.2150629 -0.037515875 -0.37353057
-0.15942167 2.217299 -0.20863815 -0.3179067 -0.20680329 1.4325788 -0.11209833 0.02740304
-0.21266945 -0.22847977 -0.23334986 0.24238174 4.674119 -0.36420807 -2.4910533 -3.8915498
-0.8529196 -0.30813166 6.967405 0.06834463 -0.07826467 -0.007830597 -0.20757067 -0.3421126
-0.41949043 -0.2330666 -0.33484298 -1.9352033 -0.1121736 -0.19429846 -1.1189209 -0.24783526
-2.0691285 0.88490325 -0.20773074 -1.4982212 -0.33031765 -2.6057253 -0.28651243 -0.29404238
-0.34474555 -0.11835513 0.12809779 1.1370478 -1.7870324 3.275159 -0.2065093 -0.0561088
-0.038012855 -0.30626076 0.009436982 -0.056626897 -0.25004783 -1.5378262 -0.79175687 -1.2137349
0.004072764 -0.54354966 -0.33522025 -0.093391344 -0.86438453 0.016203558 -0.95936674 -1.9416336
-0.5916873 -0.15727356 -0.30323005 -2.8922997 -0.2122225 -0.18147951 -0.22578955 -0.24737997
-0.06072065 -0.16105181 -0.25193793 -0.14695193 -0.25502756 -0.18489362 -0.0033672962 -0.26725546
-0.00266372 -0.064079545 -0.22370537 7.002386 -0.23573987 -0.40579602 -0.009153539 -2.0349686
-1.4711646 -0.18925782 -3.0947764 -0.17418666 -0.17222255 -0.42769793 -1.2731553 -0.3927897
0.3273284 2.7830842 0.11809584 0.00901196 -0.16419536 -0.29439893 -0.25672895 -0.2394516
-0.037383992 -0.44901472 0.03276815 0.052690163 -0.109640285 -1.6673613 -1.7387133 1.6279845
-0.20364837 -1.9092711 4.4882417 -0.22583699 -0.3074816 -0.28200045 -0.22760153 -0.28548148
-0.3110443 -0.16685975 -1.7889899 0.051972866 -0.34984156 -0.084416665 -0.4048926 -0.20615345
0.020510228 -0.50039047 -0.31106666 -1.524026 -0.12090741 -0.37272525 -0.13551876 -0.23173264
-1.9515686 -1.5139377 0.17560792 -1.7913257 -0.2513245 -0.9962598 0.028638776 -0.26271972
2.1684036 5.4311223 2.0742927 -0.2451401 -0.25708967 0.9610856 -0.016774515 -0.36286354
1.1785786 -0.11350589 -0.253401 -1.7454858 -0.243717 -0.5854951 -0.16291393 0.049754575
-0.071386084 -2.7717674 -0.27196622 0.02008383 -0.28868484 -0.11417037 0.0011995634 -0.045263126
-0.38056266 -0.16302463 0.7030356 -0.27470857 3.560698 -0.21644278 0.044311162 -0.26563403
0.012500174 -0.013970553 0.39392164 -0.36823124 -0.096100315 -1.2551599 -0.27916834 5.739935
-0.23127109 -0.14211218 -0.23911148 -0.112222895 -0.19406217 -0.05670546 0.012050054 -0.095625386
-0.11709125 -0.40935126 -1.9412082 -0.19634092 -2.1206226 -0.23275173 -0.21358281 -0.034614358
-0.13627888 -2.95357 -0.31429213 -0.89816934 -0.6891583 -0.103092946 -0.42439896 -0.16870913
-0.4117241 1.4875978 -0.04586759 -0.2901772 -0.18534356 -0.060755957 -0.37356338 0.11760552
-1.5303926 -0.38412178 -0.5101057 0.023906853 -0.32258904 -0.34065256 -0.38190725 -0.2317408
-0.143244 -0.2468297 -0.2968959 -0.2976717 -2.3351161 -0.5541348 0.08786717 5.0714717
00000000: 6ca2 8cbd 0bd6 87be af25 bebf de9b 90be
00000010: e6ba 0740 1f14 10be e2bb aabe 46a3 11bc
00000020: da41 01be ecf7 fdbf 442a 37bf 9d1b 15bf
00000030: 22f2 0ebe 12b4 553a f2ea 90be 3418 9dbe
00000040: 2861 c5bf 660a 10be 43ae a3be 2e0a a9be
00000050: 6d41 7ebe 97c3 0d40 3faa 19bd 663f bfbe
00000060: 6f3f 23be 3ae8 0d40 3da5 55be abc4 a2be
00000070: 3ec4 53be be5e b73f cf93 e5bd 577c e03c
00000080: 05c6 59be 9af6 69be 44f3 6ebe eb32 783e
00000090: 6292 9540 7b79 babe 6b6d 1fc0 270f 79c0
000000a0: f058 5abf 6fc3 9dbe fbf4 de40 45f8 8b3d
000000b0: 3a49 a0bd e84b 00bc 688d 54be 6229 afbe
000000c0: 73c7 d6be 03a9 6ebe 8a70 abbe beb4 f7bf
000000d0: 46bb e5bd 2df6 46be cd38 8fbf 87c8 7dbe
000000e0: 9a6c 04c0 0589 623f 5eb7 54be b6c5 bfbf
000000f0: 651f a9be 34c4 26c0 c2b1 92be b98c 96be
00000100: 7d82 b0be 2d64 f2bd 112c 033e c88a 913f
00000110: 7abd e4bf 349c 5140 2d77 53be 57d2 65bd
00000120: 5eb3 1bbd 36ce 9cbe 929d 1a3c 9bf1 67bd
00000130: 4506 80be 7dd7 c4bf 94b0 4abf aa5b 9bbf
00000140: d274 853b 1226 0bbf fda1 abbe f643 bfbd
00000150: 4e48 5dbf 53bd 843c 0f99 75bf 7387 f8bf
00000160: d278 17bf 520c 21be f840 9bbe 701b 39c0
00000170: db50 59be c4d5 39be 6035 67be 2d51 7dbe
00000180: 37b6 78bd c4ea 24be 02fe 80be 917a 16be
00000190: f992 82be c154 3dbe dbad 5cbb b5d5 88be
000001a0: ce91 2ebb 233c 83bd 0513 65be 8c13 e040
000001b0: cb65 71be 7fc4 cfbe baf8 15bc ed3c 02c0
000001c0: 1f4f bcbf cdcc 41be d110 46c0 fd5d 32be
000001d0: 1c5b 30be 39fb dabe c1f6 a2bf bb1b c9be
000001e0: 9797 a73e 0d1e 3240 3bdc f13d e6a6 133c
000001f0: d422 28be 75bb 96be fa71 83be cd32 75be
00000200: f51f 19bd 42e5 e5be e537 063d a4d1 573d
00000210: 168b e0bd 186c d5bf 288e debf cc61 d03f
00000220: 3389 50be ff62 f4bf ad9f 8f40 d041 67be
00000230: 3a6e 9dbe 5d62 90be 6010 69be a12a 92be
00000240: 3341 9fbe 48dd 2abe 9ffd e4bf 80e1 543d
00000250: 6f1e b3be a5e2 acbd 154e cfbe e419 53be
00000260: 1105 a83c 9719 00bf 2144 9fbe 4913 c3bf
00000270: 4e9e f7bd d8d5 bebe 6ec5 0abe 524b 6dbe
00000280: 00cd f9bf b6c8 c1bf 90d2 333e 294a e5bf
00000290: 9bad 80be e20a 7fbf de9b ea3c 3383 86be
000002a0: 20c7 0a40 c1cb ad40 36c1 0440 0206 7bbe
000002b0: 42a1 83be b509 763f b56a 89bc 40c9 b9be
000002c0: aadb 963f c775 e8bd c7bd 81be 146c dfbf
000002d0: f390 79be 02e3 15bf e9d2 26be 74cb 4b3d
000002e0: de32 92bd a364 31c0 283f 8bbe d886 a43c
000002f0: 80ce 93be 28d2 e9bd ab3a 9d3a d465 39bd
00000300: 1cd9 c2be eeef 26be 24fa 333f 9aa6 8cbe
00000310: 7ae2 6340 2da3 5dbe 9f7f 353d 2f01 88be
00000320: 88cd 4c3c bfe4 64bc 19b0 c93e ce88 bcbe
00000330: 3ed0 c4bd 14a9 a0bf 27ef 8ebe 8cad b740
00000340: 54d2 6cbe db85 11be a4d9 74be 1ed5 e5bd
00000350: 3cb8 46be fc43 68bd 976d 453c 3ed7 c3bd
00000360: 8acd efbd 7d96 d1be 8379 f8bf 980d 49be
00000370: 48b8 07c0 7856 6ebe 74b5 5abe c9c7 0dbd
00000380: b18c 0bbe 4a07 3dc0 e6ea a0be 6dee 65bf
00000390: ae6c 30bf 6522 d3bd d24a d9be 16c2 2cbe
000003a0: 80cd d2be 9b69 be3f a7df 3bbd 1b92 94be
000003b0: b4ca 3dbe 3ddb 78bd b343 bfbe 2adb f03d
000003c0: e8e3 c3bf 9cab c4be 4a96 02bf 4ed8 c33c
000003d0: 642a a5be 036a aebe 5989 c3be 764d 6dbe
000003e0: 8eae 12be edc0 7cbe bd02 98be 6d68 98be
000003f0: 8b72 15c0 c7db 0dbf b4f3 b33d 7f49 a240

linear2.weight f4 [3, 256]
0.0004603511 0.05875154 -0.027478326 -0.15126932 0.6743915 0.031158749 -0.045897264 0.8396087
-0.010444157 -1.991271 0.013489934 4.6907263 -0.2515503 -0.021078324 0.03065649 -0.15818389
-0.30245674 0.033548303 -0.011301262 -0.009562815 0.030452475 2.247183 0.010160292 0.0088143535
-0.18439947 2.5328977 -0.01740504 0.045238003 -0.042347323 -7.8064528 -0.03579673 -0.03401988
0.011159825 0.016527949 -0.029209148 -0.078137584 -2.4861772 0.02839859 0.07399042 0.61914384
0.11223239 0.22447865 3.4488485 0.013865808 0.0151833445 6.997222 0.044995643 -0.030344877
0.013646731 0.07831539 0.015885377 -0.7966476 -0.0010171313 0.048456725 -3.5920708 -0.0487514
-3.2342312 1.8099643 -0.012360708 -0.3568537 -0.042802323 0.9294572 0.07022502 -0.017070383
-9.031707 -0.06939284 -0.0031511937 1.6231251 -1.8532345 0.79708016 0.027255699 -0.8900343
-0.03160171 0.1254901 0.0031311128 0.039643005 -0.015561868 -9.228728 -0.008923011 -7.2795916
-5.509509 0.0020056432 0.14151242 0.04605196 -0.19834952 0.01110564 -10.796456 -0.079312325
-0.17179462 -0.007903244 -0.05794595 0.08023663 -0.0002730423 0.013841115 0.29840857 0.015880557
0.09551354 5.1928077 -0.035879616 0.04569628 -0.009983372 -0.059243593 -0.067901395 0.014451295
0.09402923 -0.05711757 -0.04709443 3.4825404 -0.05317475 0.012568599 -0.07981134 -0.20648062
-1.9986464 0.1270643 -0.4005268 -0.041808855 0.01703494 0.002167119 -5.067986 -0.09270203
3.2468643 1.9887545 0.001030247 -0.06749848 0.044788644 0.011552414 0.005151687 0.023237092
0.029380504 -0.03729834 -0.029580364 -0.01857855 0.015189357 -4.4922733 -1.0951859 1.4335618
-0.07579737 -3.7270002 4.46923 -0.020433754 0.057893842 0.052511856 -0.015608152 -0.052327547
0.023871314 0.016278347 -0.32226345 0.08957212 0.40183818 0.015511032 0.02181807 -0.0040921792
-0.08668945 -0.069233075 0.031047393 -0.23857859 -0.29209197 0.10743134 -0.026476512 -0.0044815266
-3.0305488 -0.20161109 0.21315686 -0.8851339 -0.031948 -0.12367991 0.021422474 0.06167134
-2.2473943 2.7563214 -2.5881543 -4.9063544 0.023466606 -2.0043385 -0.00840345 0.024281258
3.5991647 0.08651308 -0.010165675 -0.16795498 -0.12857036 -0.006515638 0.057690114 0.0035409515
-0.059419744 -1.604761 0.00066215335 -0.017453358 -0.11411403 0.028011844 0.026662989 0.050118007
0.12343337 -0.0914902 0.031151349 -0.020658208 -0.9820946 0.016443739 0.0025543733 0.034316957
0.12170631 -0.11544264 3.145488 -0.0058566406 0.0039341706 -7.3424745 -0.02871459 2.7681143
-0.051191278 0.028131321 0.013523766 -0.02684124 -0.036949698 0.0022869417 -0.07650263 0.01302177
0.006864973 0.051458217 -1.2914511 -0.08904246 0.62852204 -0.03919266 -0.019002184 -0.020266432
-0.016278451 2.032293 0.17255868 -0.80231905 -0.0067150025 -2.362355 1.3461251 -0.017596183
0.018337397 1.8604946 -0.05281212 -0.0073366724 -0.02291803 -0.1712014 0.16981085 0.021705767
-0.120854475 -0.017290104 -0.34657735 0.018592065 -0.00996669 -0.0021859158 0.070279144 -0.023247242
0.022282675 0.017249653 -0.011795871 -0.0063024457 -3.0375283 0.17383856 -0.031089352 1.6900965
00000000: 475b f139 74a5 703d 3a1a e1bc 58e6 1abe
00000010: eca4 2c3f a240 ff3c c5fe 3bbd 99f0 563f
00000020: f81d 2bbc f8e1 febf e204 5d3c 6e1a 9640
00000030: 33cb 80be 73ac acbc 5223 fb3c f5fa 21be
00000040: 9cdb 9abe f269 093d ee28 39bc 5aad 1cbc
00000050: 7877 f93c d9d1 0f40 5a77 263c 146a 103c
00000060: 37d3 3cbe ff1a 2240 0495 8ebc 7c4b 393d
00000070: 6374 2dbd 76ce f9c0 989f 12bd 6e58 0bbd
00000080: b3d7 363c 9f65 873c 0648 efbc 9906 a0bd
00000090: 871d 1fc0 29a4 e83c 4a88 973d 3680 1e3f
000000a0: 18da e53d bbdd 653e efb9 5c40 6a2d 633c
000000b0: 90c3 783c 3ee9 df40 5a4d 383d d295 f8bc
000000c0: 8a96 5f3c d263 a03d 0d22 823c 19f1 4bbf
000000d0: 4351 85ba 8f7a 463d 7de4 65c0 8caf 47bd
000000e0: a5fd 4ec0 e9ac e73f 9184 4abc 87b5 b6be
000000f0: 7d51 2fbd e8f0 6d3f 23d2 8f3d 30d7 8bbc
00000100: df81 10c1 d51d 8ebd 4284 4ebb 90c2 cf3f
00000110: ca36 edbf 720d 4c3f 5847 df3c 4ad9 63bf
00000120: cb70 01bd 7a80 003e 5b33 4d3b b460 223d
00000130: 35f7 7ebc dfa8 13c1 d231 12bc 6af2 e8c0
00000140: e64d b0c0 1c71 033b a2e8 103e fba0 3c3d
00000150: 231c 4bbe 6ef4 353c 49be 2cc1 806e a2bd
00000160: eeea 2fbe 9c7c 01bc bc58 6dbd 1a53 a43d
00000170: 1e27 8fb9 d8c5 623c 02c9 983e f117 823c
00000180: 9a9c c33d 7b2b a640 81f6 12bd 062c 3b3d
00000190: 4c91 23bc 69a9 72bd e30f 8bbd 20c5 6c3c
000001a0: 6692 c03d 1df4 69bd 17e6 40bd f1e1 5e40
000001b0: c4cd 59bd 86ec 4d3c 2174 a3bd a86f 53be
000001c0: a5d3 ffbf 251d 023e d911 cdbe c33f 2bbd
000001d0: dc8c 8b3c 3906 0e3b f12c a2c0 90da bdbd
000001e0: a0cc 4f40 828f fe3f 5a09 873a a53c 8abd
000001f0: 4c74 373d 5646 3d3c 7ccf a83b b75b be3c
00000200: 62af f03c 25c6 18bd 8552 f2bc 0b32 98bc
00000210: c8dc 783c b4c0 8fc0 0d2f 8cbf f47e b73f
00000220: a73b 9bbd 2c87 6ec0 ef03 8f40 b064 a7bc
00000230: 1822 6d3d ac16 573d 56b9 7fbc 6955 56bd
00000240: c68d c33c 2b5a 853c b7ff a4be 9671 b73d
00000250: bcbd cd3e fc21 7e3c cfbb b23c b017 86bb
00000260: 3d8a b1bd 12ca 8dbd 1a57 fe3c f24d 74be
00000270: 148d 95be f604 dc3d 45e5 d8bc c5d9 92bb
00000280: 83f4 41c0 2373 4ebe cb45 5a3e 2398 62bf
00000290: e8db 02bd e54b fdbd 2f7e af3c 169b 7c3d
000002a0: 4fd5 0fc0 9267 3040 52a4 25c0 db00 9dc0
000002b0: 0a3d c03c 1547 00c0 a0ae 09bc 7de9 c63c
000002c0: b758 6640 c52d b13d ee8d 26bc 64fc 2bbe
000002d0: f3a7 03be 2281 d5bb 784c 6c3d 4f0f 683b
000002e0: 1e62 73bd cf68 cdbf 5c94 2d3a 58fa 8ebc
000002f0: 9eb4 e9bd 1879 e53c 576c da3c 8a48 4d3d
00000300: a2ca fc3d 375f bbbd 1d31 ff3c 673b a9bc
00000310: 8d6a 7bbf 05b5 863c 4667 273b f08f 0c3d
00000320: 2841 f93d 316d ecbd ad4f 4940 10e9 bfbb
00000330: 37ea 803b 8df5 eac0 dc3a ebbc c928 3140
00000340: f2ad 51bd a873 e63c c992 5d3c 29e2 dbbc
00000350: 9158 17bd 84e0 153b 69ad 9cbd 4359 553c
00000360: 91f3 e03b dac5 523d 454e a5bf e55b b6bd
00000370: d2e6 203f 7c88 20bd 78aa 9bbc ca05 a6bc
00000380: 635a 85bc 1711 0240 39b3 303e c864 4dbf
00000390: 8609 dcbb d330 17c0 d44d ac3f df25 90bc
000003a0: 4f38 963c b024 ee3f 8651 58bd 7868 f0bb
000003b0: 98be bbbc 6b4f 2fbe e5e2 2d3e 4bd0 b13c
000003c0: 8d82 f7bd faa3 8dbc 9672 b1be 634e 983c
000003d0: 544b 23bc 9541 0fbb 83ee 8f3d 0071 bebc
000003e0: 288a b63c 254f 8d3c 7843 41bc bf84 cebb
000003f0: dd66 42c0 bc02 323e 19af febc 1555 d83f

linear2.bias f4 [3]
6.4474344 5.1075873 4.5383325
00000000: 6251 ce40 5b71 a340 053a 9140
