checkpoints_dqn/model_final_model_zfxdmko2.pth (torch, 23259 bytes, 4 tensors)

linear1.weight f4 [256, 16]
0	0x3edde5d6	0.43339413
1	0x3f146062	0.5795957
2	0xbda5105b	-0.0805976
3	0x3e6e8b8a	0.23295417
4	0x3f9daa86	1.2317665
5	0x3fd7ae35	1.6850039
6	0x3ec8523a	0.39125234
7	0x3ee0fe5e	0.43944067
8	0x3e91c998	0.28474116
9	0x3ecc41d9	0.39893988
10	0x3e847800	0.25872803
11	0x3e89cedd	0.26915637
12	0x3e6632e2	0.22480348
13	0x3e910884	0.2832681
14	0x3ebaa6b7	0.36455318
15	0x3f198a7f	0.59976953
16	0xc02a8cef	-2.664852
17	0x3f42b2f4	0.7605431
18	0x3e2ab5c3	0.16670899
19	0xbf06291b	-0.5240647
20	0x3e43f394	0.19135886
21	0xbf2ccafd	-0.67497236
22	0x3f598ce3	0.849806
23	0x3f23c8b6	0.63978136
24	0x3eaf34c3	0.34219941
25	0x3db67b06	0.089101836
26	0xbe3189fd	-0.17337795
27	0x3d5be378	0.053683728
28	0x3d9e0eeb	0.07717689
29	0xbe41fef4	-0.18944913
30	0x3e057b12	0.13035229
31	0x3f15f463	0.5857603
32	0x3cca7929	0.024715977
33	0x3e33bcf1	0.17552544
34	0x3c734d1f	0.01484993
35	0xbd40fba1	-0.047114972
36	0x3db96ed9	0.09054346
37	0xbeb158dc	-0.34638107
38	0xbe80958f	-0.25114104
39	0x3e0003aa	0.12501398
40	0x3ddfac0f	0.109214894
41	0xbe36f751	-0.17867781
42	0xbd637545	-0.05553176
43	0x3e040c34	0.1289528
44	0x3d633e6d	0.055479456
45	0x3b8cbdd9	0.0042950925
46	0x3dd7e469	0.10541613
47	0x3e3bc939	0.18338479
48	0x40346ebd	2.819259
49	0xbfe1c549	-1.7638332
50	0xbf685225	-0.9075034
51	0x3e28c8f3	0.16482906
52	0x3f4dcad1	0.803876
53	0x3d31fa37	0.043451514
54	0xbf877d45	-1.0585104
55	0x3eb15427	0.34634516
56	0x3f3111e6	0.69167936
57	0xbc1bc5d0	-0.009507611
58	0xbeb68d26	-0.35654563
59	0xbd64287a	-0.055702664
60	0xbe1a6f3c	-0.15081495
61	0x3d39fb42	0.045405634
62	0xbdb98c16	-0.090599224
63	0xbf92e408	-1.147584
64	0x3e98f7c0	0.29876518
65	0xbf2b3bf3	-0.6688835
66	0xbeb13a9b	-0.34615025
67	0xbd35233a	-0.044223048
68	0xbf0ae63d	-0.54257566
69	0x3ff24619	1.8927642
70	0x3fc6d612	1.5534079
71	0x3f9ca977	1.2239217
72	0x3ee0256e	0.43778557
73	0x3de1cb01	0.11025048
74	0x3ed0572c	0.40691507
75	0x3e9e77be	0.3095073
76	0x3ee423f1	0.4455867
77	0x3e1c2fd2	0.15252617
78	0x3f05ea2d	0.5231045
79	0x3f92f4a5	1.148091
80	0xc01f7d1c	-2.492011
81	0xc05478ee	-3.319881
82	0xbe665565	-0.22493513
83	0xbf8d78e6	-1.105252
84	0xbf479159	-0.7795616
85	0x3f98565b	1.1901354
86	0x3e921e57	0.28538772
87	0x3f37a155	0.7173055
88	0x3ed78270	0.42091703
89	0xbd8afd3a	-0.067865804
90	0xbe504cb0	-0.20341754
91	0xbd91253b	-0.07087179
92	0xbe1407d2	-0.14456108
93	0xbe8095ff	-0.25114438
94	0xbed805ac	-0.42191827
95	0xbea14cad	-0.3150381
96	0x3f227f4a	0.6347548
97	0x3f59c6a6	0.8506874
98	0x3f55c71a	0.8350693
99	0x3f08a16e	0.5337132
100	0x3d9018e8	0.070360005
101	0xbf198acd	-0.5997742
102	0xbe83601b	-0.2565926
103	0x3eff74bd	0.49893752
104	0xbd9d0472	-0.076668635
105	0xbfc130f7	-1.5093068
106	0xbd7ced22	-0.061749585
107	0x3df333b9	0.118751
108	0x3de7513a	0.112947896
109	0x3e89b613	0.26896724
110	0x3f663e62	0.8993894
111	0x3f0c3d2a	0.5478083
112	0x3f9d88c9	1.2307369
113	0x3f6c3bcb	0.92278737
114	0xbe706fad	-0.23480101
115	0x3e1c25d5	0.15248807
116	0x3fe41f70	1.7822094
117	0x3fa97e84	1.3241735
118	0x3e86363a	0.26213247
119	0x3ec07b01	0.37593845
120	0x3e10853d	0.14113326
121	0x3e8a539e	0.2701692
122	0x3ee88686	0.45415133
123	0x3c0602ac	0.008179348
124	0x3f2800b3	0.65626067
125	0x3e07de75	0.13268454
126	0x3eaa340c	0.33242834
127	0x3eb1f0d4	0.3475405
128	0xba650880	-0.00087369233
129	0xbf7034d1	-0.9383059
130	0xbed1ec58	-0.41000628
131	0xbd900303	-0.070318244
132	0xbf5c49c3	-0.8605005
133	0x3f7f65f1	0.99764925
134	0x3f7ebb17	0.99504226
135	0x3f031863	0.51209086
136	0x3e870e26	0.26377982
137	0xbdd59815	-0.10429398
138	0xbdd12adf	-0.10213255
139	0xbe30f32b	-0.17280261
140	0xbdd5ca35	-0.104389586
141	0xbda6f607	-0.08152395
142	0x3eacbde1	0.33738616
143	0x3f6f0053	0.9335987
144	0xbf7457c8	-0.95446444
145	0x3fa27755	1.2692667
146	0xbeca010e	-0.3945393
147	0x3ec2da5c	0.3805722
148	0x4005004c	2.0781431
149	0xbf269864	-0.6507628
150	0xbf2a98fd	-0.6663969
151	0xbec407a1	-0.3828707
152	0xbc8ffdc8	-0.017577067
153	0x3e49cfc8	0.19708169
154	0x3cfbb4cd	0.030725861
155	0x3e08fa36	0.13376698
156	0x3e25a54a	0.16176334
157	0xbe70f24b	-0.23529927
158	0xbf0d8dec	-0.5529468
159	0xbea57df8	-0.3232267
160	0xbf3115cb	-0.6917388
161	0xbf8829de	-1.0637777
162	0x3efaea11	0.49006703
163	0xbf82f47c	-1.0230861
164	0x3f9eb76e	1.2399728
165	0xbed372db	-0.41298565
166	0xbe18fa62	-0.14939263
167	0x3f12e15b	0.57375115
168	0x3f2290d8	0.63502264
169	0x3eaf7ba0	0.34274006
170	0x3e92b523	0.2865382
171	0x3db2fd99	0.08739776
172	0xbd1ec010	-0.038757384
173	0xbd65a873	-0.05606885
174	0xbf176e4d	-0.5915268
175	0xbf429b34	-0.7601807
176	0xbff5f56e	-1.9215524
177	0xbf2642ab	-0.6494548
178	0x3fbcc8a3	1.474873
179	0x3f54fc49	0.83197457
180	0xc020d51a	-2.5130067
181	0x3f98345d	1.189098
182	0xbecfa711	-0.4055715
183	0xbf4235da	-0.7586342
184	0xbe82a8b1	-0.25519326
185	0x3eb91d9f	0.36155412
186	0x3da15f38	0.0787949
187	0xbf00349c	-0.50080276
188	0x3e119a6d	0.14219065
189	0x3e75b345	0.23994167
190	0xbd89b409	-0.06723792
191	0xbf9ec5ca	-1.240411
192	0x3dc1dc4b	0.09465846
193	0xbf5cfaf3	-0.8632042
194	0xbf00a96a	-0.50258505
195	0xbe490a72	-0.19632891
196	0xbf212e24	-0.6296103
197	0x3f92e835	1.1477114
198	0x3fb23663	1.3922848
199	0x3f4ec859	0.80774456
200	0x3e301076	0.1719378
201	0x3c5d885b	0.013521279
202	0x3d7b0724	0.061286107
203	0xbcef0d8c	-0.029181264
204	0xbe0de568	-0.13857043
205	0x3e3cf7d9	0.18453921
206	0x3ed8c7a9	0.4233983
207	0x3f538d26	0.8263725
208	0x3c4f823e	0.0126653295
209	0xbd5e6507	-0.054295566
210	0x3dbab14f	0.0911585
211	0xbdbcd30d	-0.09219942
212	0x3f7378c8	0.9510617
213	0xbf49fad4	-0.7889836
214	0x3f012e4b	0.5046126
215	0xbf096dbd	-0.5368307
216	0x39d64440	0.0004086811
217	0xbde29c30	-0.11064947
218	0xbe4abed1	-0.19799353
219	0x3e933fd7	0.28759643
220	0xbe8cca37	-0.27498028
221	0xbe34afe1	-0.17645217
222	0x3c9f3d6b	0.019438466
223	0xbea0d676	-0.3141362
224	0x3fa81bce	1.3133485
225	0xbfdf663f	-1.7453078
226	0xbe80f75b	-0.25188717
227	0x3ede574a	0.4342597
228	0x3fad7448	1.3551111
229	0xbf4b90fc	-0.79518104
230	0x3e973ae6	0.29537123
231	0x3f028848	0.509892
232	0x3e6b9161	0.23004676
233	0x3ecb485b	0.3970364
234	0x3e0d9649	0.1382686
235	0xbe72e364	-0.23719555
236	0xbca02070	-0.019546717
237	0x3dc3b157	0.09555309
238	0xbdd19c11	-0.102348454
239	0x3dc1b510	0.09458363
240	0x3f640b87	0.8908009
241	0xbd5bb542	-0.053639658
242	0x3f28b63d	0.65903074
243	0x3e29ed03	0.16594319
244	0x3f8986be	1.0744245
245	0xbe9d4f0b	-0.30724367
246	0xbf6dc8fa	-0.9288479
247	0x3d581f9e	0.052764527
248	0x3f31fda6	0.6952766
249	0x3e955758	0.291682
250	0x3db0698c	0.086138815
251	0xbeace994	-0.33771956
252	0x3cb2725b	0.021783045
253	0xbf107d7a	-0.5644146
254	0xbf330c1b	-0.69940346
255	0xbdae31d9	-0.085056014

linear1.bias f4 [256]
0	0x3fd43a13	1.6580223
1	0xbf5f461b	-0.8721635
2	0xbed72490	-0.42020082
3	0xbe15e912	-0.1463969
4	0x3fde01b1	1.7344266
5	0x3f9d306b	1.2280401
6	0xbf1e1521	-0.6175099
7	0x3fc31fd0	1.5244083
8	0x3fa0581d	1.252689
9	0xbefa0cec	-0.48837984
10	0xbf389aa4	-0.7211096
11	0x3fa2e30f	1.2725543
12	0x3fc740cd	1.5566651
13	0xbefca507	-0.49344656
14	0xbf834f7e	-1.0258634
15	0xbf29cade	-0.66325176
16	0xbf8f03a6	-1.1172988
17	0xbc2c5f4c	-0.010520767
18	0xbe65b82e	-0.2243354
19	0xbf8e7931	-1.1130735
20	0xbf8289ef	-1.0198344
21	0xbbbf41fb	-0.005836723
22	0x3f3e1aa4	0.742594
23	0xbf58fb90	-0.84758854
24	0xbf0a20b4	-0.5395615
25	0xbf2da288	-0.6782613
26	0xbf14d950	-0.5814409
27	0xbe98a095	-0.29810014
28	0x3c5b8831	0.01339917
29	0xbf171910	-0.5902262
30	0xbeffe341	-0.49978068
31	0xbebded62	-0.3709517
32	0xbefa3cb1	-0.4887443
33	0x3fa87007	1.3159188
34	0xbed22239	-0.41041735
35	0x3f807fb1	1.0038968
36	0x3fa02cd8	1.2513685
37	0x3f79fdcd	0.97652894
38	0xbea80808	-0.32818627
39	0xbe81bdc7	-0.253401
40	0xbf65d595	-0.89779025
41	0x3e21394b	0.15744512
42	0x3f5f7eff	0.87303156
43	0xbea53252	-0.32264954
44	0xbea653be	-0.32485765
45	0xbf6dd599	-0.9290405
46	0xbe548d68	-0.20757067
47	0xbf555a3d	-0.8334082
48	0x3fa19014	1.2622094
49	0x3ea5fc89	0.32419232
50	0xbe30b9c0	-0.17258358
51	0xbf0b866f	-0.54502004
52	0xbf2c1d87	-0.67232555
53	0xbeb1a0a6	-0.34692878
54	0xbd5366e5	-0.0516118
55	0x3e13f332	0.1444824
56	0xbee165c7	-0.44022962
57	0x3feca311	1.8487264
58	0xbe422d7c	-0.18962663
59	0x3f6176c6	0.8807186
60	0xbf8388b2	-1.0276091
61	0x3fab8962	1.3401301
62	0x3ee110c4	0.43958104
63	0xbf22190e	-0.6331948
64	0x3dcc14fe	0.099649414
65	0xbf4954a5	-0.7864478
66	0x3c37fe17	0.011230013
67	0x3eeff4d6	0.46866482
68	0x3fa88a0e	1.3167131
69	0x3f802c22	1.0013468
70	0xbf1934b9	-0.59846073
71	0x3e944512	0.28958946
72	0xbf68329a	-0.9070221
73	0xbf12c1bb	-0.5732686
74	0xbe812510	-0.2522359
75	0xbdf362a2	-0.11884047
76	0xbf570d3c	-0.8400457
77	0x400231bc	2.0342855
78	0xbea9ca96	-0.33162373
79	0xbf091235	-0.53543407
80	0xbe853822	-0.26019388
81	0x3f552625	0.8326133
82	0xbfbf6e5e	-1.4955556
83	0xbdb6c635	-0.08924524
84	0x3fa5325c	1.2905993
85	0x3ca12921	0.019672932
86	0x3f11f233	0.5701019
87	0xbf858004	-1.0429692
88	0xbf1a2145	-0.60207015
89	0x3fabe9dc	1.3430743
90	0x400a999f	2.1656263
91	0xbee09708	-0.43865228
92	0x3e5bf4c1	0.21480085
93	0xbe39d5c4	-0.18147951
94	0xbe9492bc	-0.290182
95	0x3fe4363d	1.7829052
96	0x3dfd0661	0.12354732
97	0xbe7ea0df	-0.24866055
98	0x3f4912ed	0.78544503
99	0x3dff5a5e	0.12468408
100	0xbe6a5985	-0.22885711
101	0xbf183dd7	-0.5946936
102	0x3fbdd618	1.4830961
103	0xbed79245	-0.42103782
104	0x40145174	2.3174715
105	0xbe8ddad2	-0.2770601
106	0x3877896d	5.9017377e-05
107	0x3fb8483f	1.4397048
108	0xbe5e6fd0	-0.2172234
109	0xbf141834	-0.5784943
110	0xbec348b8	-0.38141418
111	0xbebe14ab	-0.37125143
112	0x3ee55cd9	0.447974
113	0xbf059f76	-0.52196443
114	0x3f84897a	1.0354455
115	0xbee0c0e1	-0.43897155
116	0x3ed0cf27	0.40783045
117	0xbc613b20	-0.013747007
118	0xbed6dab2	-0.41963726
119	0xbf5beed2	-0.85911286
120	0x3f348e8d	0.70530015
121	0x40057d58	2.0857754
122	0x3ff6d2a2	1.928303
123	0xbf45034f	-0.76958174
124	0xbe6b3922	-0.22971013
125	0x3eca3186	0.39490908
126	0xbec1d5ca	-0.3785842
127	0xbf0cf222	-0.55056965
128	0x3f2bf933	0.6717712
129	0xbeb53831	-0.35394433
130	0xbdce3340	-0.10068369
131	0x3f4a686e	0.790656
132	0xbf397be2	-0.72454655
133	0xbf1a0f41	-0.60179526
134	0xbf2617fa	-0.64880335
135	0xbeca1ee9	-0.39476708
136	0xbf7426bc	-0.95371604
137	0xbfb60fa1	-1.422352
138	0x3fd77060	1.6831169
139	0xbdc4cb05	-0.096090354
140	0xbf085ecf	-0.53269666
141	0xbec9eabb	-0.39436898
142	0xbed5a4f0	-0.417274
143	0x3ec362bd	0.3816127
144	0xbf4bd98e	-0.7962884
145	0xbf3e9b5b	-0.74455804
146	0xbf863d7e	-1.0487516
147	0xbf3a944b	-0.7288253
148	0x3fc38080	1.527359
149	0x3fcdbf56	1.6074016
150	0xbec89eb5	-0.39183584
151	0xbe74e991	-0.23917224
152	0x3fffc77d	1.9982754
153	0x3f7e5eb9	0.99363285
154	0xbe6321cf	-0.22180866
155	0xbf72d6f8	-0.94859266
156	0x3daa65ed	0.08320222
157	0xbfa323b2	-1.2745268
158	0xbf1dd52f	-0.6165342
159	0x3e9f831b	0.31154713
160	0xbf14382b	-0.57898206
161	0x3f027123	0.5095388
162	0x3fa12d4a	1.2591946
163	0x3fb606a8	1.4220781
164	0xbfc9fc8e	-1.5780199
165	0x3f411e66	0.7543701
166	0x3f1bc763	0.60851115
167	0xbe7c8734	-0.24660951
168	0xbf523eeb	-0.82127255
169	0x3faa73f0	1.3316631
170	0xbf310d74	-0.6916115
171	0x3eccb319	0.3998039
172	0xbf5b62f7	-0.85697883
173	0xbf0e4dc5	-0.55587417
174	0xbee09a70	-0.43867826
175	0xbe731eec	-0.23742265
176	0x3fddbff2	1.7324202
177	0xbf271cf4	-0.65278554
178	0x3f8e2a95	1.1106745
179	0xbf4b9fed	-0.795409
180	0xbf5e630b	-0.8686988
181	0xbe8b9bb1	-0.2726722
182	0x3fc828da	1.5637467
183	0xbd0f3398	-0.034961313
184	0x3fe5c943	1.7952045
185	0xbed685a4	-0.41898835
186	0x3f7ebb3c	0.99504447
187	0x3e121244	0.1426478
188	0xbd8100da	-0.062989905
189	0xbeed10ce	-0.46301883
190	0x3e0b8c5b	0.1362776
191	0x3f5c290a	0.8600012
192	0xbe1760c9	-0.14783014
193	0xbdf7991e	-0.12089752
194	0xbf9d9128	-1.2309923
195	0xbf2eed7a	-0.6833111
196	0x3fc80adb	1.5628313
197	0xbf4d553d	-0.8020819
198	0xbdc9c3bb	-0.09851786
199	0xbf41cbf2	-0.7570182
200	0x3fa3900a	1.2778332
201	0xbe18ba9f	-0.1491494
202	0x3fc2b456	1.5211284
203	0x3fd9110a	1.6958325
204	0xbcb45ea1	-0.022017779
205	0x3fc05f8b	1.5029157
206	0x3e9a9aae	0.30196136
207	0x3fd14299	1.6348449
208	0xbe6cd254	-0.23127109
209	0xbe029de5	-0.12755544
210	0xbf7a1454	-0.9768727
211	0xbbf58cec	-0.007493606
212	0xbdc75892	-0.0973369
213	0xbe943343	-0.2894536
214	0xbe0200e7	-0.12695657
215	0x3f212053	0.6293995
216	0xbf2031fe	-0.6257628
217	0x3f83b7ee	1.0290506
218	0x3f07872a	0.5294062
219	0xbf0dcdfd	-0.5539244
220	0xbf3fb25e	-0.7488154
221	0xbf26df35	-0.65184337
222	0xbf94dea6	-1.1630447
223	0x4001db76	2.0290198
224	0xbf1532ce	-0.58280647
225	0xbf392ca4	-0.7233374
226	0xbf861de1	-1.0477868
227	0xbeaa2420	-0.33230686
228	0xbf119c67	-0.56879276
229	0x3fc1aa67	1.5130128
230	0x3ee38d89	0.4444392
231	0xbe97f339	-0.29677752
232	0xbf76c560	-0.9639492
233	0x3cc6451e	0.02420288
234	0x3f87651b	1.057773
235	0x3fc1abfb	1.5130609
236	0xbf191257	-0.5979361
237	0x3faa9330	1.3326168
238	0xbec52d3e	-0.3851108
239	0x3e9c510e	0.3053059
240	0x3f94ef72	1.1635573
241	0xbe002bb0	-0.12516665
242	0xbeed170a	-0.4630664
243	0xbea7a715	-0.3274466
244	0xbf60ae6b	-0.8776614
245	0xbfa2b07c	-1.2710109
246	0xbe1b0a19	-0.1514057
247	0xbe6d4d76	-0.2317408
248	0xbf8c6d8a	-1.0970929
249	0x3f5abf3a	0.8544804
250	0x3fcdf495	1.6090266
251	0x3ff8e988	1.9446268
252	0xbf7ebed7	-0.9950995
253	0xbf31ec30	-0.6950102
254	0xbf0593d0	-0.5217867
255	0x3fcac8e6	1.5842559

linear2.weight f4 [3, 256]
0	0x3f6bab71	0.92058474
1	0xc09db622	-4.928483
2	0xbd75153a	-0.059834696
3	0x404ec95a	3.2310395
4	0x3f43f2c9	0.76542336
5	0x401954d3	2.3958023
6	0xbfc20299	-1.5157043
7	0x3f2ded50	0.67940235
8	0x3efa7b51	0.48922208
9	0x3f026c20	0.50946236
10	0xc01d1f26	-2.4550261
11	0xbf019913	-0.506242
12	0x3f438b9c	0.763849
13	0xbf1b266e	-0.60605514
14	0xc0a20238	-5.062771
15	0xbfae9f0f	-1.3642291
16	0xbf9c5975	-1.22148
17	0x4035a4d0	2.8381844
18	0xc087fd55	-4.2496743
19	0xbf89b7a5	-1.0759169
20	0xbe4bf490	-0.19917512
21	0x3e1fe3f8	0.15614307
22	0x3ea0cc6b	0.3140596
23	0xbfc4fbe8	-1.5389376
24	0xbf3b99f5	-0.73281795
25	0x3e159ab1	0.14609791
26	0xbd46d872	-0.048546262
27	0x3d3cfa1c	0.04613696
28	0xc0abc9c6	-5.3683805
29	0x3ed001b9	0.40626314
30	0xbfa5d4f4	-1.2955613
31	0xbffcfd77	-1.9764851
32	0xc0a4d267	-5.150684
33	0x3f38913e	0.7209662
34	0xc0903150	-4.5060196
35	0x3fda929e	1.7075994
36	0x3f89787d	1.0739895
37	0x3f1a04a4	0.6016333
38	0x403a7780	2.9135437
39	0x3e49c85e	0.1970534
40	0xbf519e6d	-0.81882364
41	0x40531756	3.2982993
42	0x3f45efeb	0.7731921
43	0xc0d6c64c	-6.711706
44	0xbfc71aab	-1.5555013
45	0x3eab316b	0.3343614
46	0x3d384d5a	0.044995643
47	0xc01fd0a2	-2.497109
48	0x3f28d9ba	0.65957224
49	0x404b866c	3.1800795
50	0x3f515580	0.8177109
51	0xc0d6d0e8	-6.7130013
52	0xc0d11615	-6.5339456
53	0xbb8f4117	-0.004371773
54	0xbf685ee1	-0.90769774
55	0x3ef25992	0.47333962
56	0xbd90a264	-0.070622236
57	0x408f9fd4	4.4882603
58	0x3bb3f8c6	0.0054923026
59	0x40976fa6	4.732379
60	0xbeb342d5	-0.35011926
61	0x3f749d67	0.95552677
62	0xc0766a25	-3.8502285
63	0xbd8e4426	-0.06946592
64	0xc0980afc	-4.751341
65	0xbf2a38c3	-0.6649286
66	0xbe989001	-0.29797366
67	0x3f51daa4	0.81974244
68	0x3f73e6a6	0.95273817
69	0x3f8563cc	1.042108
70	0xc0339232	-2.805798
71	0x4016d73f	2.3568876
72	0xbee9a657	-0.4563472
73	0x3fd4c834	1.6623597
74	0xc01aeca7	-2.420694
75	0xc02e92a4	-2.7277002
76	0xc08cbc64	-4.397997
77	0x3f91ed37	1.1400517
78	0xc009d2bc	-2.1534872
79	0xc0fcbd1b	-7.898084
80	0xc06f398b	-3.7378871
81	0x3f991bee	1.1961648
82	0x3f1fbc64	0.62396836
83	0x3c893734	0.016749956
84	0xc0625171	-3.5362208
85	0x3b575057	0.0032854283
86	0x3eb8a938	0.36066604
87	0xc0b9cfdb	-5.806623
88	0xc04e80a6	-3.226602
89	0x3f80d9ad	1.0066429
90	0xbf612878	-0.87952375
91	0xbf0ba418	-0.5454726
92	0x3fe666f2	1.8000166
93	0x3c62c5d8	0.013841115
94	0x3e733823	0.23751883
95	0x3f622713	0.8834087
96	0x3e85048b	0.2598003
97	0x3f7d5883	0.98963183
98	0x3e80dbaf	0.25167605
99	0xbf04a638	-0.5181613
100	0xc0954af7	-4.665401
101	0xc01e7a7f	-2.4762266
102	0x3f8015a2	1.0006602
103	0xc03ac92f	-2.9185293
104	0x3f96e836	1.1789615
105	0xc0406cb6	-3.0066352
106	0x400be786	2.186006
107	0x3f417dc1	0.7558251
108	0xbd27e1bf	-0.040986773
109	0xc087a732	-4.2391596
110	0xbfa1ec81	-1.26503
111	0x3e16895b	0.14700834
112	0xbf616942	-0.88051236
113	0xbfa747ef	-1.3068827
114	0x3e6387ab	0.22219722
115	0x3fe6648b	1.7999433
116	0x3fd2944a	1.6451504
117	0xbffaebfa	-1.9603264
118	0xbf685d4f	-0.9076738
119	0xbfd10fce	-1.6332948
120	0x4020486a	2.5044198
121	0x3f941de2	1.157162
122	0x3f69218a	0.910668
123	0xbbae65c1	-0.0053221886
124	0xbe5c72bc	-0.21528143
125	0xbcec5bb5	-0.028852323
126	0xbf1ef02c	-0.62085223
127	0xbf0dd337	-0.55400413
128	0x3fa588ce	1.2932374
129	0xbfb4c3b7	-1.4122227
130	0xc01d1428	-2.4543552
131	0x3ee1251a	0.4397362
132	0xc0c7707a	-6.23248
133	0xbfff176b	-1.9929022
134	0xbfaeda0d	-1.3660294
135	0xc087a74a	-4.239171
136	0xbf544a17	-0.8292555
137	0x3f00f068	0.5036683
138	0x3f645970	0.8919897
139	0xbea44c95	-0.32089677
140	0x3ff729d4	1.930964
141	0xba7efcf6	-0.0009727025
142	0xc064e5ac	-3.576518
143	0x3ea78872	0.32721287
144	0x3efd1d97	0.49436638
145	0x3cd742f4	0.026277043
146	0xbf75a25c	-0.95950866
147	0xc0515a4a	-3.2711358
148	0x3f604ea2	0.87619984
149	0x3f0b8b4c	0.54509425
150	0x3c6e5fd8	0.014549218
151	0xc0a62f01	-5.193238
152	0x3f8dfbe6	1.1092498
153	0x3fb504fe	1.4142148
154	0x3bda6bd2	0.006665685
155	0xbecbd8c2	-0.3981381
156	0xc0ccedec	-6.404043
157	0xc0ee5b71	-7.4486623
158	0xbf30e302	-0.69096386
159	0x3f0e4c99	0.5558563
160	0xbfdee947	-1.741494
161	0xc01de5e1	-2.4671557
162	0x4016d429	2.3566992
163	0x3f2ef46f	0.68341726
164	0x3d9c24cc	0.07624206
165	0x4015a3d6	2.3381248
166	0x3f05bce2	0.5224134
167	0x3d429b45	0.047511358
168	0xc000596b	-2.0054576
169	0x3f89e565	1.0773131
170	0x3d8e3387	0.06943422
171	0xbecd7118	-0.40125346
172	0xbefae9b4	-0.49006426
173	0xbff56a9e	-1.9173162
174	0xc01594c4	-2.337205
175	0xc03602bf	-2.8439176
176	0x3f7de801	0.99182135
177	0xbff1760d	-1.8864151
178	0xc01ee79b	-2.482886
179	0x3f5e26bd	0.8677786
180	0x3f3c0e86	0.7345966
181	0xbf8f72ca	-1.1206906
182	0x3f455b40	0.7709236
183	0xbfd19a52	-1.637522
184	0x3f5b35cb	0.85628957
185	0xc0c5ea40	-6.184845
186	0x3eb9699b	0.36213383
187	0x3e5b9038	0.21441734
188	0x405be530	3.4358635
189	0x3f04d91c	0.5189378
190	0xc0be61f2	-5.949456
191	0x404185ef	3.0237997
192	0x3fc80090	1.5625172
193	0x3c363ae6	0.011122441
194	0x3fc1dabb	1.5144876
195	0xc03b248d	-2.924106
196	0x3f82c772	1.0217116
197	0xbf8023de	-1.0010946
198	0xc09b528a	-4.8538256
199	0xc055ba29	-3.3394873
200	0x3f9f25ea	1.2433445
201	0xc0148d55	-2.3211262
202	0x3f3b5137	0.731708
203	0x3f85a93b	1.044227
204	0x3d3964b3	0.04526205
205	0x3f7126b4	0.9419968
206	0x3e32da18	0.17466009
207	0x3f8e85e1	1.1134607
208	0xbd51adf2	-0.051191278
209	0x3c663b20	0.014052182
210	0xbf67450c	-0.9033973
211	0xc0e77751	-7.233315
212	0xbf66abd8	-0.9010596
213	0xc05d4002	-3.4570317
214	0xbb08e4ab	-0.002088825
215	0x3fa95182	1.3227999
216	0xc029fce4	-2.6560602
217	0x3f2b861c	0.6700151
218	0xc031fe0c	-2.7811308
219	0xc04c2fda	-3.1904206
220	0xbeddef0e	-0.43346447
221	0xc004680a	-2.06885
222	0xbf607b00	-0.87687683
223	0x3f9888b9	1.1916724
224	0xbcd3bbc5	-0.025846371
225	0xbfbd022a	-1.4766285
226	0xbfe80130	-1.8125362
227	0x3c94415f	0.018097578
228	0xbff26d7b	-1.8939661
229	0x3fa5bdea	1.2948582
230	0x3fb57954	1.4177651
231	0xc04072f8	-3.0070171
232	0xbfcdb28e	-1.6070116
233	0x3e8c1055	0.2735621
234	0x3f050eba	0.51975596
235	0x3f1c5206	0.6106266
236	0xbf9c4336	-1.2208011
237	0x3f5d7df0	0.8652029
238	0xbf96d051	-1.1782323
239	0x407ac953	3.9185379
240	0x402eb214	2.729619
241	0xbfe761d9	-1.8076736
242	0xbfb5a1e2	-1.4190028
243	0xc07c4526	-3.9417205
244	0x3cb74055	0.022369543
245	0xbf843ab9	-1.0330421
246	0xbfaec41e	-1.36536
247	0xbcbe7100	-0.023247242
248	0x3f01535a	0.5051781
249	0x401971ee	2.3975787
250	0x3f8053fd	1.0025631
251	0x3f6c3614	0.92270017
252	0xbe20625c	-0.15662521
253	0x400e41e0	2.2227707
254	0xbf85c0f3	-1.0449508
255	0x3f7c681f	0.98596376

linear2.bias f4 [3]
0	0x3fe00c92	1.7503836
1	0x3fbb38d7	1.4626721
2	0x3faf8c9a	1.3714783
