checkpoints_dqn/model_final_model_jt1qf9h4.pth (torch, 13019 bytes, 4 tensors)

linear1.weight f4 [128, 16]
000000 4f 8d a6 bf 1b eb 82 c0 15 d7 d3 bf 50 bf 31 bf
       -1.3011874 -4.0911994 -1.6550013 -0.69432545
000010 9e 29 4e c0 df 6b b5 3f ba ef 84 3f 54 03 36 3f
       -3.22129 1.4173545 1.0385659 0.7109883
000020 1d cd f2 bd cf 7a 18 be 32 35 7d be 02 2c 14 be
       -0.118555285 -0.14890598 -0.24727324 -0.14469913
000030 17 07 e8 be af 12 1f bf 0f 24 0a bf c4 6d 2a 3e
       -0.4531791 -0.62137884 -0.5396127 0.16643435
000040 bd 44 10 bf 22 4f 9b bf 99 f4 36 3f e0 d5 3e 3d
       -0.56354886 -1.2133524 0.71466976 0.046590686
000050 2f df d8 3f 0a be a9 bd 50 fa c9 bf c9 9d b1 be
       1.694311 -0.082882 -1.5779514 -0.34690693
000060 8e ca 32 bd b8 f1 9d 3b 99 37 ca 3e 06 80 eb bd
       -0.043650202 0.004820075 0.39495543 -0.11499028
000070 8b 46 d1 3e 5f ae 0b 3f de 90 47 bd 5e e6 4f be
       0.40874133 0.54562944 -0.04872214 -0.20302722
000080 de b6 b0 3f 4a b5 5d bf 2e 6e 96 bc 4f 46 aa bf
       1.3805807 -0.8660475 -0.018363085 -1.3302706
000090 a0 f2 f3 be a8 bf 52 3f 26 91 5f be b1 50 33 be
       -0.47646046 0.82323694 -0.21832713 -0.1751125
0000a0 17 6e e0 be db 88 8e be 99 d4 18 be 05 43 b8 3b
       -0.43833992 -0.27838787 -0.1492485 0.0056232237
0000b0 ae 10 a0 3e 7f b4 1c 3f 7f fb d0 3d a2 7c 50 3d
       0.31262726 0.61212915 0.10204219 0.05090011
0000c0 ed 66 b9 bd ba f1 12 be 8a c3 a5 3f d9 94 eb 3f
       -0.09052835 -0.14350024 1.2950299 1.84048
0000d0 a6 60 eb 3f d9 2c be 3e 2d 78 1d 3f da 1a 62 bf
       1.838887 0.3714359 0.615115 -0.8832222
0000e0 7d 1d fd bd ff e3 42 3d a4 93 8d 3e 2a 60 3c be
       -0.1235914 0.047580715 0.27651703 -0.18396059
0000f0 83 95 84 3d 64 22 87 3d b0 7c 80 3f 48 bf 24 3f
       0.064738296 0.06598356 1.0038052 0.6435437
000100 58 81 91 3e 68 6d 3a bf 24 d1 5f bf dd 5b 92 3f
       0.28418994 -0.7282319 -0.874285 1.1434284
000110 0c 27 a7 3f d7 8c a2 3c 9b 37 c3 be 3c e0 d7 bd
       1.3058791 0.019842548 -0.3812836 -0.10540816
000120 98 ac 4f 3f 26 f8 37 3f 47 e5 b0 be c1 32 c0 3e
       0.8112273 0.7186302 -0.34549925 0.37538722
000130 83 99 42 bc 82 81 85 3d 67 1a 7b 3e 6d 38 b0 bf
       -0.01187742 0.06518842 0.2452179 -1.376722
000140 7d 3d 53 c0 8d 7e 21 3e 82 4e 88 3f 28 b4 b2 be
       -3.300628 0.15770932 1.0648959 -0.34903073
000150 42 64 bb 3e 95 e9 11 bf e9 fa 7e 3d f7 a1 17 3e
       0.36599928 -0.5699704 0.062251005 0.14807878
000160 21 d9 ab 3e 3a 00 56 3e d9 d5 a1 3e 63 6f f0 3b
       0.33564094 0.20898524 0.31608465 0.007337497
000170 31 e4 e1 3e 30 27 ce 3e 8e 57 b3 3d a2 57 f8 3e
       0.4411941 0.40264273 0.08756934 0.4850436
000180 ec e7 dd 3f 5e b6 29 3f bd 49 e7 be 40 4f f8 3e
       1.7336402 0.66293895 -0.45173445 0.48497963
000190 35 11 d8 3f 58 25 9c bf 56 a2 f8 3d 6e 5b 37 3d
       1.6880251 -1.2198896 0.12140338 0.04476493
0001a0 65 28 2d 3e 64 17 ae 3e a1 f6 57 3e 47 9a 03 3e
       0.1690994 0.3400222 0.21090175 0.12851821
0001b0 70 06 02 3d 29 d7 66 be aa 83 40 3e 32 65 95 3e
       0.03174442 -0.22543015 0.18800226 0.29178768
0001c0 8d 82 9d bf 57 4e 19 40 fb 57 17 bf 4c c1 29 be
       -1.2305466 2.3954065 -0.5911862 -0.16577643
0001d0 f8 71 f3 3f ac 61 48 bf 62 21 72 be 3e b2 17 bf
       1.9019156 -0.78274035 -0.23645547 -0.5925635
0001e0 2e 8b b7 be 87 6e 23 be 96 f2 89 be a3 e5 12 3e
       -0.35848373 -0.15960132 -0.2694289 0.14345412
0001f0 d4 13 9d 3e ca 40 ce 3e 5e 96 a6 3e 54 4e 0c 3e
       0.3067919 0.40283805 0.32536596 0.13701755
000200 b3 43 4c bf 58 eb 1f 3f 6a cd b1 3f 5d aa 69 3e
       -0.797908 0.6246848 1.3890812 0.22818895
000210 57 39 95 3f 67 a9 04 be 3a 95 a4 bf b6 98 8f bf
       1.1658124 -0.12955247 -1.285804 -1.1218479
000220 96 7f 60 bf 9e 93 5a be 6d 31 bb 3d b1 46 fa be
       -0.8769468 -0.21345374 0.091402866 -0.48882058
000230 a8 43 0e 3f ab cd a3 3f 0d 21 2a 3f a7 c0 35 be
       0.55571985 1.279714 0.6645668 -0.17749272
000240 f7 eb 05 3f 3a 6a 77 3f 18 cb 3a bf b0 7f 0a bf
       0.5231318 0.96646464 -0.72966146 -0.54101086
000250 bc 9d 2c 3f 1f 3a f9 3e d2 36 fd c0 33 1b 2a bf
       0.67428184 0.48677155 -7.912942 -0.6644775
000260 0b 38 1d 3f 87 e2 5c 3e 2e 1f 1c 3e 25 ec 81 3c
       0.6141364 0.21570788 0.15246269 0.015859673
000270 13 1a e3 bd 05 6d 9f be 51 ee 3c be 28 a0 da be
       -0.11088958 -0.31137863 -0.18450285 -0.42700315
000280 f3 e0 17 c0 47 a9 ad bf 58 39 85 be 9a ac 8d be
       -2.3731048 -1.3567284 -0.26020312 -0.27670747
000290 b1 ea 02 40 8a 6c c6 3c e1 47 a4 be 4d a6 14 3f
       2.0455744 0.024221677 -0.3208609 0.58066255
0002a0 19 ac 2d 3e ac 81 1a 3d 0f 5b 31 3e 17 bf 48 be
       0.16960181 0.03772132 0.17319892 -0.19604145
0002b0 0a 94 8a 3e 13 a2 cc bd 69 d8 a1 bc 8c d3 13 3f
       0.2706607 -0.09991851 -0.019756513 0.5774467
0002c0 44 01 74 bf 42 4e 8a c0 f7 b4 0e c0 3c 57 08 3f
       -0.9531443 -4.322053 -2.2297952 0.5325811
0002d0 27 a2 5c c0 3a 2d 84 3f 2b a4 b5 3f 68 75 a8 be
       -3.447397 1.0326302 1.4190725 -0.32902074
0002e0 a2 0a 50 bf 33 c8 f3 be 85 66 60 be 8a c6 16 be
       -0.81266224 -0.47613677 -0.21914108 -0.14724174
0002f0 95 ba 2d bf 40 e7 1c bf c4 02 21 3f f9 e4 b1 3f
       -0.67862827 -0.6129036 0.62894845 1.3898002
000300 31 67 c8 c0 d6 75 9c 3f 08 e4 8b 3e cd 71 f5 bf
       -6.2625966 1.2223461 0.27322412 -1.9175354
000310 72 84 10 40 51 c5 7c 3f 26 24 d9 be d8 15 b8 bf
       2.2580838 0.9873858 -0.42410392 -1.4381666
000320 ad c0 c5 be d6 6c ae bd 2d e3 62 3d 57 38 a3 be
       -0.38623562 -0.085168526 0.055392433 -0.3187892
000330 bb f3 e1 be 4c a2 d9 be a0 02 0e bf 00 2f e1 3e
       -0.44131264 -0.42506635 -0.55472755 0.4398117
000340 82 4c 8f 3f 26 b4 12 3f 86 57 0f bf 69 c2 8e 3e
       1.1195223 0.57306135 -0.55992925 0.27882698
000350 cf 6e 22 40 25 ef 12 40 c1 2d 87 3e fa 81 82 3f
       2.5380132 2.2958462 0.26402095 1.0195916
000360 ce e5 57 3f 00 4e 8f 3f cf 11 8e 3f 9b ea 9a 3e
       0.8433503 1.1195679 1.1099185 0.30257115
000370 5c 76 2f 3f f6 83 6f 3f 4d a9 46 3f 7f e1 50 3f
       0.6853998 0.9356073 0.7760208 0.8159408
000380 5d 19 f8 be 11 ee a1 bc f2 7d 14 be 21 3b 51 bc
       -0.4845685 -0.01976684 -0.1450117 -0.012770445
000390 25 13 73 bd c9 11 cb bd 14 34 df be 47 9f 2e 3d
       -0.05934443 -0.099155016 -0.4359442 0.042632367
0003a0 74 17 43 be 46 32 64 3d 38 6e 23 bc c8 58 eb be
       -0.19051915 0.055712007 -0.009975009 -0.45966172
0003b0 16 8a e8 bd 84 e8 ed be 19 03 91 be ab 0e 35 be
       -0.11354463 -0.46466458 -0.28322676 -0.17681377
0003c0 e4 91 30 3f 6d 59 23 bf 38 ab b6 be d2 61 92 3e
       0.6897261 -0.6380833 -0.35677505 0.28590256
0003d0 89 ac f7 3e 61 dd 06 40 c7 4b e6 3f 64 4a 86 3f
       0.4837382 2.107262 1.7991875 1.0491452
0003e0 c7 1d 4e 3f b5 84 04 3f 7a 81 ed 3e fa a9 c1 3e
       0.80514187 0.51764995 0.46387845 0.37824994
0003f0 54 d1 38 3f 03 98 b9 3e 89 84 ee 3e 25 1a 80 3f
       0.7219441 0.36248788 0.4658549 1.0007979

linear1.bias f4 [128]
000000 4d 1f 9c 3f bd b1 b9 be 25 a4 e4 3e 5f eb e3 3e
       1.2197052 -0.36268416 0.44656482 0.4451551
000010 13 2b 49 be 03 09 1d bf 98 f3 b4 bf ec 89 4c bf
       -0.19645338 -0.61341876 -1.4136839 -0.7989795
000020 28 f5 c7 3d 8f ca 66 3f a5 9a 2f be 6c 98 96 3f
       0.09763557 0.9015283 -0.17148836 1.1765265
000030 43 9e 7f 3f 83 b3 1c 40 c7 0c c5 bd cd 57 1a 40
       0.99850863 2.4484565 -0.09621578 2.411609
000040 e3 cb c3 bb 63 e6 ac bc 12 62 a3 3f 95 04 39 3f
       -0.005975233 -0.02110595 1.2764304 0.72272617
000050 4b 37 25 bf d6 af 6e bf b4 81 04 bf 59 1c 9b be
       -0.64537495 -0.93237054 -0.5176041 -0.30295065
000060 a4 d9 11 40 9b 29 80 bf fa fb 09 40 1f 03 4d bf
       2.2789087 -1.0012697 2.1560044 -0.8008289
000070 04 32 12 bf ff c5 86 3f 56 42 2d 40 d1 91 7e 3f
       -0.5710757 1.0529174 2.7071738 0.9944125
000080 0b e1 40 bf e2 5e 2b be a7 15 32 3f 38 a3 49 be
       -0.7534339 -0.16735414 0.6956429 -0.1969117
000090 6c 4f 09 3f c2 4c bc 3f 68 72 18 40 22 b6 fd 3f
       0.53636813 1.4710925 2.3819828 1.9821208
0000a0 f6 2c 70 be e6 bc bc 3e 5e 57 98 bf ea ad ba bf
       -0.23454651 0.36862868 -1.1901662 -1.4584324
0000b0 32 c6 b3 3f 38 1f 44 bd 89 a6 02 be 0d 6e 1d 40
       1.404486 -0.047881335 -0.1275884 2.459842
0000c0 dd a2 35 3e f2 9e f1 be 7d af cc 3e 4b f1 2e bf
       0.17737909 -0.47191578 0.39977637 -0.68336934
0000d0 76 c3 16 40 ca 3e 7d bf 72 a0 14 40 a4 68 8a be
       2.35568 -0.98923934 2.3222928 -0.2703296
0000e0 a0 2b 3a 40 17 8f 2b be 20 43 bc 3e be 67 7b bf
       2.9089127 -0.16753803 0.36769962 -0.98205173
0000f0 2c 6d 11 40 d5 72 da 3f 65 7c 9e bb 68 12 57 bf
       2.2722883 1.7066294 -0.0048366063 -0.8401246
000100 d6 cd 0f 40 01 7f 6d bf 46 cd 64 bf d2 8a df be
       2.2469382 -0.9277192 -0.8937572 -0.436606
000110 de a4 be bf 4b 99 2d be 4c c9 13 40 2a 2d e3 3f
       -1.4894063 -0.16953008 2.3091612 1.7748158
000120 97 7b 0d bf d7 75 11 bf 3a 94 26 bf 48 8c 96 3d
       -0.5526671 -0.56820434 -0.65069926 0.07350975
000130 ef 3f 1c 40 56 d0 09 3e d2 ee 5a bf 0d 2a 1c bf
       2.4414022 0.1345838 -0.8552066 -0.61001664
000140 01 2e 32 3f 63 74 e1 3f 94 61 00 be c2 18 70 bf
       0.69601446 1.7613643 -0.12537223 -0.9378778
000150 76 3e 6e 3f 2c 29 fd be 7e 63 19 40 14 7d 44 bf
       0.9306406 -0.49445474 2.3966975 -0.76753354
000160 59 94 ee be b6 fe 5a be 21 d5 20 40 d2 f5 f3 bd
       -0.46597555 -0.21386227 2.5130084 -0.11912121
000170 6c 4b 69 3f 91 5d 42 bf 2e e5 f4 be d2 2e 08 bf
       0.9113071 -0.7592402 -0.478311 -0.5319644
000180 c1 23 3f 3e 6a 0e 07 bd 51 ea 05 bf 4e 01 a8 3f
       0.18665983 -0.03297273 -0.52310663 1.3125398
000190 41 ab 81 be 59 34 56 bf dd 9e c2 3f f5 91 94 3f
       -0.2532597 -0.83673626 1.5204731 1.1607043
0001a0 6f 45 34 bf c5 d8 e2 be 1a c9 44 bf cd a2 56 bf
       -0.7041845 -0.44306007 -0.76869357 -0.83842164
0001b0 c5 9b 90 be ce f1 81 be f3 cd b9 3f 85 70 20 40
       -0.28243843 -0.25379795 1.4515976 2.5068676
0001c0 02 3c fb be 6b ec 28 bf 97 94 98 bf 75 3e 18 40
       -0.4906922 -0.65985745 -1.1920346 2.378812
0001d0 02 f0 0e 40 78 12 9b bd 7a fd ad bd a3 31 6d bf
       2.233399 -0.07571882 -0.084956124 -0.92653865
0001e0 d6 66 0b bf 6d 86 01 40 ab 88 95 be 5c e8 26 bf
       -0.5445379 2.0238297 -0.29205832 -0.651983
0001f0 92 6a 0e 3f 9f 21 7a bf 8b da 78 bf 8b 87 52 bf
       0.55631363 -0.9770755 -0.9720847 -0.8223807

linear2.weight f4 [3, 128]
000000 77 8f 31 40 03 d1 7d c0 00 27 b6 3d 36 02 04 3f
       2.7743814 -3.965882 0.088941574 0.51565874
000010 2e 1b ea bf 05 15 13 c0 50 bf 9e 3e 2b c6 e7 3f
       -1.8289545 -2.298158 0.31005335 1.8107351
000020 b4 43 86 3f 76 40 e3 3f 84 3f e9 c0 87 03 83 3f
       1.0489411 1.7754047 -7.2890034 1.0235451
000030 09 9a aa 40 6e e4 ae 3f 71 61 91 be 4c 5e d0 3f
       5.331303 1.3663461 -0.28394654 1.6278777
000040 a9 c0 b1 bf dd d9 22 c1 7f 67 b0 be b3 85 4b 40
       -1.388692 -10.178189 -0.3445396 3.1800354
000050 60 d7 89 c0 06 4d 59 3f d7 95 cf bf ce 06 01 c0
       -4.307541 0.84883153 -1.6217602 -2.0160403
000060 53 44 a9 3f 0d 57 9e 3e 01 49 2a 40 54 bf d1 bf
       1.3223976 0.3092579 2.6607058 -1.6386514
000070 8a 50 d3 bf da 9a 6a 40 0c 61 04 40 bd ff 2a bf
       -1.6508954 3.6657014 2.0684233 -0.66796476
000080 11 f6 67 c0 f9 b9 9b bd 11 6d 7e c0 3f 6c bf bf
       -3.6243937 -0.07603831 -3.975407 -1.4954909
000090 ad 1d 85 40 4b 26 eb 3f ba 38 d5 3f 39 71 ac be
       4.1598725 1.8371061 1.6657937 -0.33680132
0000a0 79 ac 81 bc 19 0d 43 40 41 bd 9c 3e 48 b1 82 3e
       -0.015829312 3.0476744 0.3061314 0.2552588
0000b0 67 cb f4 3f fb 47 70 bf f0 74 5d 3f 36 09 fa bc
       1.9124573 -0.93859833 0.8650656 -0.03052197
0000c0 f4 20 32 c1 53 2a 95 c0 f0 e3 10 c0 78 2f 02 3f
       -11.133045 -4.6614165 -2.2639122 0.5085368
0000d0 3f 25 b6 3f dd 20 ff 3e e1 32 ae 3f 1c 9d db c0
       1.4230117 0.4982976 1.3609277 -6.8629284
0000e0 62 a0 bb 3f 61 c4 fb bf e3 31 2e 40 76 70 56 bf
       1.465832 -1.9669305 2.7217948 -0.8376535
0000f0 21 76 76 40 8c 87 7a 3f c4 13 2d 3d 6c cf fd bf
       3.85096 0.9786308 0.042255178 -1.9828925
000100 d5 aa 7b 3f cd fb c7 bf ee 4a 76 3f dd b9 89 be
       0.98307544 -1.5623719 0.96208084 -0.26899615
000110 d6 06 d7 3f b6 5c 1a 3b e2 ce b5 3f e6 7f 45 40
       1.6798961 0.0023553795 1.4203761 3.0859313
000120 4d bf aa bf 3c b7 c9 bf f2 14 85 c0 3c 63 6d 40
       -1.333963 -1.5759044 -4.158807 3.7091818
000130 f8 85 c6 3f 30 44 5c c0 ed 1f de bf 5e 83 48 c0
       1.5509634 -3.4416618 -1.7353493 -3.133018
000140 24 65 69 3f c4 f5 c7 c0 f7 08 e6 bc 59 a3 76 c0
       0.91169953 -6.2487507 -0.028080447 -3.85372
000150 f3 9a da 3f 87 15 8b 3f 87 06 d7 3f 70 b1 9f 3f
       1.7078537 1.0865945 1.6798867 1.2476025
000160 a7 3a bd c0 95 37 9d bd cc ae c2 3f 2e 59 3c c0
       -5.9134097 -0.07676617 1.5209594 -2.942943
000170 41 0f 00 c0 28 5c 08 3f 37 dd 24 bf 22 94 f4 bf
       -2.000931 0.5326562 -0.6440005 -1.9107707
000180 cf 70 e7 3f 87 68 1d bf b8 ec 18 c0 88 9f 4f 40
       1.8081301 -0.6148762 -2.3894482 3.244112
000190 56 55 3d bb 35 7b b8 c0 54 e0 9c 3f d3 75 12 40
       -0.0028889976 -5.76504 1.225596 2.2884414
0001a0 9e fb b2 be 0f ab 9e bf 22 e7 20 c0 ac 3c 43 c0
       -0.34957594 -1.2395953 -2.5141072 -3.050578
0001b0 14 17 29 c1 7c 13 74 bd dd 2d 87 3f db e9 b6 3f
       -10.568134 -0.059588894 1.0560871 1.4290117
0001c0 15 cf 87 3f 01 72 7b 3f 3d db 01 c0 e6 2d b1 3f
       1.0610071 0.9822083 -2.0290062 1.3842132
0001d0 82 4e ac 3f 5d e2 06 3b e0 98 e9 c0 06 43 62 c1
       1.3461459 0.00205817 -7.2999115 -14.141363
0001e0 47 b9 87 c0 a8 81 9b 40 61 9a ab 39 94 eb 89 c0
       -4.241367 4.859577 0.00032730683 -4.310007
0001f0 df 33 79 c0 8b 66 97 3e a8 54 93 c0 98 7a e2 c0
       -3.893791 0.29570422 -4.604084 -7.077465
000200 3d 9b a0 3f ad a3 72 c0 28 b2 b0 3f 28 45 b2 3f
       1.2547375 -3.79124 1.3804369 1.3927355
000210 bb 6f 91 bf 06 af 73 c0 d3 16 27 40 97 6d 0b 40
       -1.1362222 -3.8075576 2.610768 2.1785638
000220 53 27 32 be 54 cb 89 bf b8 74 9b c0 b5 cc a6 3e
       -0.17397813 -1.0765176 -4.857998 0.32578054
000230 5c 61 50 40 9b c5 9e 3f 41 20 3a bd d5 8b 05 3f
       3.2559423 1.2404054 -0.045440916 0.5216649
000240 cc 93 b8 be 74 6f b9 c0 e8 06 91 3f 2f 2e 03 40
       -0.3605026 -5.794855 1.1330233 2.0496938
000250 df 72 77 c0 ff 7b 14 40 de 8f 93 3d 05 8b 38 c0
       -3.8663862 2.3200681 0.07205175 -2.883485
000260 a2 77 d5 3e 02 bb f7 3f 36 7c 54 40 94 86 ce 3d
       0.41692835 1.9353945 3.3200812 0.100842625
000270 ef 75 ee be 8e 74 21 40 9f 25 66 40 20 ab b4 3e
       -0.4657435 2.522739 3.5960462 0.35286808
000280 95 87 51 c0 97 b5 af 3d 57 b3 a3 be fd 94 b8 3f
       -3.2739003 0.085795574 -0.31972763 1.4420468
000290 9d ec f4 3f e0 05 65 40 31 3c 12 3f f9 43 c4 3f
       1.9134709 3.5784836 0.57123095 1.5333244
0002a0 6a 89 81 bd f8 66 ca 3f a6 a0 ed 3f 53 eb 4b 40
       -0.06325038 1.5812674 1.8564651 3.186238
0002b0 c4 e4 a8 3f ef 1d d4 3f 25 42 f4 3f f7 cf 7a 40
       1.3194814 1.6571635 1.9082686 3.9189432
0002c0 31 56 db c0 90 b9 77 c0 53 98 1a bf 2f 5a 6e c0
       -6.8542714 -3.8707008 -0.6038868 -3.7242544
0002d0 47 d9 12 3f 35 e7 0c 40 d1 f9 93 3f f9 0b 83 c0
       0.5736279 2.2016118 1.1560613 -4.0952115
0002e0 2a 93 45 3f b1 20 94 bf 81 d9 17 40 6d fd 2f c0
       0.7717768 -1.1572477 2.3726504 -2.749843
0002f0 4a ee 3c 40 ca 96 aa 3f d5 34 83 39 2f be 0f bf
       2.952044 1.3327267 0.0002502563 -0.5614957
000300 02 f5 03 40 6e a7 bd 3e 40 a4 25 40 e7 5f f0 3f
       2.061829 0.370418 2.58815 1.8779267
000310 2d 20 f9 3f 7d a0 5e 3d 8d 14 96 3f 17 24 f1 3f
       1.9462944 0.054352272 1.1725022 1.8839139
000320 23 ea f6 bd 6c ee f5 3d bd 4d 61 c0 72 16 45 3e
       -0.12056377 0.12008366 -3.5203698 0.19246843
000330 a5 a6 1d 3f 9b f9 b7 c0 d9 e5 1f bb c2 35 8a c0
       0.61582404 -5.7492194 -0.0024398474 -4.319062
000340 f2 3b de 3f f7 4f 90 bf 6e a0 e3 3b 86 90 b8 bf
       1.7362044 -1.1274403 0.006946615 -1.4419105
000350 ba 98 62 3e 65 b0 09 40 94 99 0e 3f 9d a7 fe 3f
       0.22128573 2.1513913 0.5570309 1.9894902
000360 67 72 10 c0 e6 18 66 3d 21 c7 8a 3f 60 17 c0 bf
       -2.2569826 0.05617609 1.0842019 -1.5007133
000370 b6 04 51 3e 82 fb 04 40 1f 9f 0b 40 bc 73 57 be
       0.20411953 2.0778508 2.181587 -0.21040243
000380 3f e0 c3 be 35 bd da 3f 33 b8 36 bf d0 11 97 bf
       -0.38257024 1.7088991 -0.71374816 -1.1802311
000390 a3 fc e1 bc 34 de 26 c0 35 b1 b8 3f a9 47 97 3f
       -0.027586287 -2.6073122 1.4429079 1.1818744
0003a0 8b d9 c8 3e a9 c4 3b 3f 60 03 a4 bf 38 81 60 c0
       0.39228472 0.73346955 -1.281353 -3.507887
0003b0 85 0e c0 c0 94 99 0a bd 63 c3 a0 3f cc 35 03 3f
       -6.0017724 -0.03383787 1.2559627 0.5125396
0003c0 4c 7e 02 40 85 24 07 40 90 9f 1d 3e c8 fb 3c 40
       2.0389585 2.111604 0.153929 2.9528675
0003d0 3c 88 da 3e 6b ef 96 bd 5c d8 9c c0 35 a2 0c c1
       0.42682064 -0.07369884 -4.901411 -8.789601
0003e0 10 c3 2e c0 8a 77 8e 3f c8 dd aa bc 0d 8c 3a c0
       -2.7306557 1.113023 -0.020857707 -2.914798
0003f0 04 38 d3 bc 47 6e 03 40 97 e5 74 c0 8a 6e 71 c0
       -0.025783546 2.0536058 -3.826513 -3.7723718

linear2.bias f4 [3]
000000 a6 09 14 40 b0 6c c7 3f 94 c1 d9 3f
       2.313089 1.5580044 1.70122
