checkpoints_dqn/model_final_model_c1pbyv7m.pth (torch, 23259 bytes, 4 tensors)

linear1.weight f4 [256, 16]
-0.6133999 1.0543611 0.18400496 -0.22302662 -0.70417035 0.22135091 -0.0242411 0.0038138302
-0.05080911 0.11710562 -0.037206255 0.09619361 -0.16220574 -0.026356151 0.005894168 -0.06109441
-1.4555166 -0.22601005 -0.15409864 -0.20726463 1.0561589 -0.037125643 -0.00919309 0.2195525
-0.11378471 0.095599234 -0.048218347 0.036083955 0.22221723 -0.18676123 0.2157331 0.169172
0.32603475 0.5867025 0.42145666 0.4735601 -0.30129018 -0.048371367 -0.25077188 0.0895365
0.12927794 0.014869834 0.15807119 0.38582885 0.13735577 0.09554108 -0.04454146 0.0018971175
0.51162434 -0.30405438 0.5609397 0.5528782 0.17641315 -0.001210024 0.08268852 0.1186079
0.16500834 0.3359335 0.06318157 -0.14167362 -0.012813659 0.22785869 -0.2200437 -0.06730738
0.41473627 0.12806085 -0.30171844 0.15615521 0.041365184 0.9234219 0.930048 0.8536978
0.369458 0.27959836 0.49783522 0.35115114 0.5029181 0.22211464 0.49368182 0.8446875
0.55551857 0.10455421 -0.2741561 0.17104138 0.14710887 0.6456686 0.52707464 0.8256121
0.58655435 0.49863347 0.16095114 0.47439325 0.4126209 0.5819036 0.37981227 0.70087206
0.7337079 -0.17755532 1.0824941 -0.5274605 0.41424364 -0.5191069 0.07824242 0.1246268
0.19079672 -0.030226748 0.060744487 0.1563539 -0.26884636 -0.4593839 0.049332157 -0.2621067
0.7691859 1.111386 0.22977561 0.14088862 -1.3608974 -0.15145802 -0.08414182 0.22112639
-0.04791631 -0.07784148 0.084460214 -0.09437921 0.13239367 -0.22052519 0.07714649 0.015179052
0.49447653 0.28309554 -0.41221884 0.23960572 0.23216927 0.5177794 0.60829 0.47393999
0.5504074 0.42684895 0.33826452 0.17894831 0.32198986 0.30334085 0.5024773 0.84244156
0.2692381 0.032707434 -0.32361212 -0.2656861 1.0127537 -0.2486618 -0.14811668 0.12660117
0.1763637 0.23233283 0.14685175 0.33182663 -0.0015184818 0.2020967 0.08645116 0.39502034
0.5299883 0.8488034 -0.17300439 -0.033173945 1.5668719 -0.015167605 0.26780328 0.40403768
0.16835679 0.13210796 -0.062461793 -0.06413391 0.07732572 0.18568884 0.11974526 0.22478515
0.8571141 1.6453142 0.4860109 0.43251702 1.6158518 0.36694273 -1.0254822 -1.1459473
-0.10379909 0.029254623 -0.16990983 -0.054877963 0.101802655 -0.120869555 0.09843299 -0.35843915
0.49400645 0.2765447 -0.49412477 0.115194894 0.3208017 0.5180772 0.86970055 0.6566479
0.35062495 0.39798737 0.36486185 0.13941143 0.11068237 0.36507314 0.4176908 0.6027142
-0.22989586 0.34135246 0.05268045 -0.9501014 0.31239608 -0.5322091 0.14560662 0.01948859
0.124482065 -0.09856469 0.06818666 0.15777859 -0.17258182 -0.14756618 0.3273886 0.13164048
0.80147636 -0.14548932 -0.471142 -0.5016688 0.43185362 -0.28654575 0.11154428 -0.056654643
-0.13121349 0.19309622 0.25225422 0.08210713 0.052455563 -0.082847424 -0.20066182 0.28087583
-0.09172353 -0.93825793 0.010139316 0.026273536 0.8403941 -0.024786435 -0.5274125 -0.29226828
-0.07117026 -0.05805625 -0.023488853 -0.25614262 0.17342925 -0.14528748 0.06913393 0.05581727
00000000: c707 1dbf 4ef5 863f cc6b 3c3e 1761 64be
00000010: 8244 34bf d0a9 623e 4595 c6bc 74f1 793b
00000020: 371d 50bd 12d5 ef3d 9665 18bd 2801 c53d
00000030: 4319 26be dbe8 d7bc dd23 c13b 223e 7abd
00000040: 5e4e babf 2e6f 67be 09cc 1dbe 2e3d 54be
00000050: 3730 873f 0f11 18bd 9d9e 16bc 5fd2 603e
00000060: f507 e9bd 88c9 c33d 9a80 45bd c5cc 133d
00000070: ea8c 633e 563e 3fbe 23e9 5c3e 6d3b 2d3e
00000080: 07ee a63e 2332 163f 2bc9 d73e 7876 f23e
00000090: b542 9abe 0e21 46bd 2c65 80be ea5e b73d
000000a0: 7061 043e 9ba0 733c 6add 213e 5c8b c53e
000000b0: fea6 0c3e 0bab c33d 1b71 36bd b3a8 f83a
000000c0: d0f9 023f 04ad 9bbe bf99 0f3f 6d89 0d3f
000000d0: a6a5 343e ab99 9eba 9958 a93d b3e8 f23d
000000e0: f2f7 283e 7aff ab3e 5765 813d e412 11be
000000f0: 62f0 51bc ca53 693e 2353 61be 74d8 89bd
00000100: 5058 d43e 6222 033e d77a 9abe 27e7 1f3e
00000110: 8a6e 293d 6165 6c3f a017 6e3f f08b 5a3f
00000120: 9929 bd3e 8427 8f3e 42e4 fe3e 15ca b33e
00000130: 3ebf 003f 0572 633e ddc3 fc3e 713d 583f
00000140: 7736 0e3f 8520 d63d 305e 8cbe 7925 2f3e
00000150: b5a3 163e 8a4a 253f 5dee 063f 515b 533f
00000160: 6d28 163f e34c ff3e 60d0 243e ace3 f23e
00000170: 0c43 d33e a2f7 143f c176 c23e 5a6c 333f
00000180: 48d4 3b3f 10d1 35be 2b8f 8a3f a707 07bf
00000190: be17 d43e 31e4 04bf 903d a03d 563c ff3d
000001a0: 3760 433e 169e f7bc 36cf 783d 3d1b 203e
000001b0: 3ba6 89be 5e34 ebbe 8410 4a3d d932 86be
000001c0: 5ee9 443f e541 8e3f 4c4a 6b3e 1b45 103e
000001d0: e331 aebf d017 1bbe 8c52 acbd f56e 623e
000001e0: e543 44bd 5b6b 9fbd 7af9 ac3d e349 c1bd
000001f0: 3592 073e 5bd1 61be fbfe 9d3d 8fb1 783c
00000200: 072c fd3e e6f1 903e 590e d3be 345b 753e
00000210: c8bd 6d3e 318d 043f e5b8 1b3f 43a8 f23e
00000220: 80e7 0c3f f28b da3e 0231 ad3e 3a3e 373e
00000230: dbdb a43e 7e4f 9b3e 5aa2 003f 40aa 573f
00000240: 94d9 893e 3bf8 053d 7db0 a5be 0208 88be
00000250: eaa1 813f 33a1 7ebe e6ab 17be bda3 013e
00000260: b098 343e a8e8 6d3e 4e60 163e 2ee5 a93e
00000270: cb07 c7ba 70f2 4e3e 4e0d b13d 1b40 ca3e
00000280: 50ad 073f 2e4b 593f 1028 31be 67e1 07bd
00000290: 428f c83f 8c81 78bc 831d 893e 07de ce3e
000002a0: b965 2c3e 4f47 073e f0d7 7fbd a458 83bd
000002b0: f25c 9e3d 3725 3e3e 013d f53d 142e 663e
000002c0: d46b 5b3f a899 d23f 6cd6 f83e df72 dd3e
000002d0: 3bd4 ce3f ebdf bb3e 0043 83bf 67ae 92bf
000002e0: 9e94 d4bd 64a7 ef3c d8fc 2dbe b7c7 60bd
000002f0: e97d d03d 758a f7bd 3c97 c93d 5685 b7be
00000300: 6aee fc3e 4497 8d3e ecfd fcbe 4deb eb3d
00000310: 1f40 a43e b5a0 043f b2a4 5e3f 141a 283f
00000320: 1d85 b33e 00c5 cb3e 2ccf ba3e dfc1 0e3e
00000330: 70ad e23d deea ba3e 92db d53e 7a4b 1a3f
00000340: d269 6bbe c0c5 ae3e 75c7 573d d839 73bf
00000350: 61f2 9f3e db3e 08bf e719 153e 89a6 9f3c
00000360: 74f0 fe3d 49dc c9bd 73a5 8b3d b690 213e
00000370: 4ab9 30be 971b 17be 7b9f a73e c3cc 063e
00000380: 8e2d 4d3f 27fb 14be 8639 f1be 5e6d 00bf
00000390: eb1b dd3e 20b6 92be 5471 e43d b30e 68bd
000003a0: d45c 06be 04bb 453e 7727 813e c827 a83d
000003b0: a5db 563d e9ab a9bd 4b7a 4dbe f5ce 8f3e
000003c0: 8cd9 bbbd ac31 70bf 601f 263c 993b d73c
000003d0: 1124 573f ec0c cbbc 8104 07bf 30a4 95be
000003e0: b7c1 91bd 64cc 6dbd b26b c0bc 2025 83be
000003f0: 7097 313e 3ec6 14be 1796 8d3d a6a0 643d

linear1.bias f4 [256]
0.19436005 -0.23430987 -0.122191414 -0.19111079 0.7650191 0.68357503 -0.5368231 0.04874556
0.77275246 -0.08645013 -0.32335693 0.45036682 0.9270596 -0.23652792 -0.51730597 -0.3809977
-0.5201215 -0.35119334 -0.15300122 -0.40607685 -0.54815537 0.093480065 1.0287598 -0.2812561
0.022130523 -0.34337646 0.6884027 -0.43877998 -0.18576986 -0.38717127 -0.21240893 0.95971435
-0.2582565 0.70999336 0.67602456 0.84685755 0.19838594 0.48434055 -0.12868728 0.5831353
-0.1549616 -0.13664827 -0.20515351 0.18170421 0.08984008 -0.25173524 -0.20757067 -0.61132437
0.56819004 -0.18229437 -0.53870684 -0.37953418 -0.18499038 -0.09764775 0.060043592 -0.4190868
0.21221446 -0.19661056 -0.43329623 0.06492213 -0.50943184 0.5166589 0.7311176 -0.51415783
0.12151701 -0.28478014 0.13589235 0.51662064 0.6131317 -0.08775722 0.7168819 -0.02470131
-0.21856125 -0.18793368 0.49677578 -0.04856472 -0.3235967 0.02525543 0.44895157 -0.2625035
-0.13813294 0.45937058 -0.24232101 -0.59842396 -0.35141808 -0.07825483 0.07451136 -0.11158576
-0.5435282 1.006338 -0.29704624 0.104659505 0.85173506 -0.18147951 -0.29804224 0.8317161
1.0620865 0.087747104 0.093265615 -0.14134458 -0.23366773 -0.14067133 -0.022442872 -0.24910572
0.020291962 0.581574 0.7477156 -0.12948841 -0.57448626 0.14255722 0.006045652 -0.38280493
0.34124252 -0.06542364 0.75844514 -0.121653035 0.3487538 -0.57344943 0.1690394 -0.360739
0.18649411 0.30224097 1.0037467 -0.19745122 0.8316168 0.561341 0.010209509 0.7916988
0.02381326 -0.336278 0.1276185 0.16267817 -0.18039428 -0.1718384 -0.18689598 0.19328605
-0.29619804 -0.52614284 -0.08805951 -0.12907067 -0.4592199 -0.2238981 -0.15128142 -0.16212283
-0.52325237 -0.3869612 0.54166204 -0.0778186 0.6648147 0.9135607 0.5276705 -0.06241539
0.16800499 0.632301 -0.0003027187 -0.3243848 0.119713806 -0.48257393 -0.12377901 -0.10022204
-0.21002518 0.8584246 0.44950294 0.032516103 -0.6873898 -0.40270385 0.3832592 -0.24164815
-0.00806631 0.514737 0.32897156 -0.0849812 -0.31925347 -0.15379648 -0.10550175 0.55658895
-0.07045544 0.8521726 1.1382253 0.095219985 -0.26138774 -0.39643198 0.87269855 0.09034894
-0.074923255 -0.2336995 0.56217843 -0.14765239 -0.30715853 0.15756314 0.1470937 -0.010335944
-0.3884664 -0.1115297 -0.173276 -0.3746845 0.71696323 -0.36627185 -0.11764828 -0.3554581
0.0055859103 0.04569435 0.7882413 0.7516269 0.6488637 0.7302474 -0.57196546 0.80720943
-0.23127109 -0.11620568 -0.49785358 0.06447253 -0.2047913 0.21121274 -0.21725748 -0.19823475
-0.08046792 0.54148775 0.87746495 -0.05496786 -0.008268779 -0.18449122 -0.58849293 0.19975972
0.22792257 -0.038304735 -0.38139507 -0.018670952 -0.25076094 0.7936058 1.2220974 0.1658238
-0.5273168 0.21049693 -0.06891538 0.66177595 -0.32275838 -0.10663154 -0.25910494 0.7156123
0.5802836 0.037892245 -0.107146844 0.115358956 -0.52186155 -0.4856501 0.59398115 -0.2317408
-0.107395954 -0.4603586 0.6673274 0.8632538 0.49785283 -0.101593554 0.11685061 0.11382303
00000000: 5206 473e edee 6fbe 7e3f fabd 8cb2 43be
00000010: 4bd8 433f c6fe 2e3f 3d6d 09bf 6da9 473d
00000020: 1bd3 453f c40c b1bd 0a8f a5be 7b96 e63e
00000030: c753 6d3f 6034 72be 2a6e 04bf 2112 c3be
00000040: af26 05bf 9dcf b3be 5aac 1cbe 4ee9 cfbe
00000050: e953 0cbf 7a72 bf3d 67ae 833f cd00 90be
00000060: 124b b53c 0acf afbe 293b 303f c5a7 e0be
00000070: 743a 3ebe 503b c6be ba81 59be d7af 753f
00000080: 323a 84be 20c2 353f f20f 2d3f a8cb 583f
00000090: af25 4b3e 7cfb f73e 99c6 03be 5b48 153f
000000a0: 41ae 1ebe 86ed 0bbe c313 52be ab10 3a3e
000000b0: 13fe b73d 71e3 80be 688d 54be c17f 1cbf
000000c0: e774 113f 60ab 3abe b1e8 09bf 4e52 c2be
000000d0: 1e6e 3dbe 8bfb c7bd 45f0 753d 8c92 d6be
000000e0: bf4e 593e 4754 49be 01d9 ddbe e5f5 843d
000000f0: 206a 02bf c243 043f 862a 3b3f d99f 03bf
00000100: e9dd f83d b4ce 91be 5d27 0b3e 4041 043f
00000110: 33f6 1c3f 0fba b3bd 9285 373f 675a cabc
00000120: 85ce 5fbe b071 40be 6559 fe3e cdeb 46bd
00000130: 77ae a5be 7ae4 ce3c fbdc e53e dc66 86be
00000140: b972 0dbe 9f32 eb3e 0023 78be 5032 19bf
00000150: 12ed b3be 1144 a0bd 6999 983d 1387 e4bd
00000160: aa24 0bbf afcf 803f 7216 98be b957 d63d
00000170: 4f0b 5a3f c4d5 39be fe98 98be 59eb 543f
00000180: 73f2 873f c1b4 b33d 0b02 bf3d a2bc 10be
00000190: 9846 6fbe 250c 10be 1dda b7bc 9215 7fbe
000001a0: 543b a63c 09e2 143f 4a6a 3f3f 9c98 04be
000001b0: 8811 13bf 85fa 113e 9b1a c63b 02ff c3be
000001c0: 57b7 ae3e d4fc 85bd 7629 423f 3a25 f9bd
000001d0: dc8f b23e 95cd 12bf aa18 2d3e c8b2 b8be
000001e0: 50f8 3e3e 54bf 9a3e c67a 803f a730 4abe
000001f0: d7e4 543f 0bb4 0f3f c945 273c c6ac 4a3f
00000200: 0714 c33c a12c acbe 6dae 023e 1b95 263e
00000210: 47b9 38be 68f6 2fbe a961 3fbe c7ec 453e
00000220: 45a7 97be 4cb1 06bf 8b58 b4bd 1a2b 04be
00000230: df1e ebbe 8b45 65be 84e9 1abe 8703 26be
00000240: def3 05bf c71f c6be 5daa 0a3f 5c5f 9fbd
00000250: 4c31 2a3f 1ddf 693f 6a15 073f 48a7 7fbd
00000260: 8009 2c3e 7ade 213f 37b6 9eb9 c415 a6be
00000270: 832c f53d ee13 f7be d97f fdbd 3741 cdbd
00000280: d710 57be b7c1 5b3f 4025 e63e 9b2f 053d
00000290: c7f8 2fbf 332f cebe 8d3a c43e 9d72 77be
000002a0: 8e28 04bc cec5 033f f66e a83e a00a aebd
000002b0: 3175 a3be d37c 1dbe 4d11 d8bd 9d7c 0e3f
000002c0: f14a 90bd fc27 5a3f 5eb1 913f b202 c33d
000002d0: 9dd4 85be 22f9 cabe 2c69 5f3f dd08 b93d
000002e0: 5d71 99bd ec4e 6fbe edea 0f3f 3032 17be
000002f0: e243 9dbe 3b58 213e bb9f 163e 1758 29bc
00000300: 11e5 c6be af69 e4bd 446f 31be a6d6 bfbe
00000310: e78a 373f fc87 bbbe 95f1 f0bd 9bfe b5be
00000320: 030a b73b 002a 3b3d 2fca 493f 9f6a 403f
00000330: ee1b 263f 7ef1 3a3f 546c 12bf 47a5 4e3f
00000340: 54d2 6cbe 3efd edbd aae6 febe 2c0a 843d
00000350: d0b4 51be 2748 583e bf78 5ebe 0dfe 4abe
00000360: 5dcc a4bd f19e 0a3f 8ba1 603f fb25 61bd
00000370: c679 07bc 44eb 3cbe 79a7 16bf d08d 4c3e
00000380: 8964 693e 6de5 1cbd 3746 c3be d3f3 98bc
00000390: bd63 80be c029 4b3f b06d 9c3f b7cd 293e
000003a0: 3cfe 06bf 828c 573e 8223 8dbd 266a 293f
000003b0: 9640 a5be a361 dabd 67a9 84be 5e32 373f
000003c0: 778d 143f e634 1b3d ce6f dbbd 5141 ec3d
000003d0: b898 05bf 21a7 f8be 260f 183f 764d 6dbe
000003e0: 69f2 dbbd 1fb4 ebbe f8d5 2a3f 33fe 5c3f
000003f0: 91e6 fe3e 4810 d0bd 5f4f ef3d 0c1c e93d

linear2.weight f4 [3, 256]
-6.628423 -6.29621 -1.0171083 -0.70904744 0.4248446 0.5786011 -1.1389005 -10.4430275
0.6559453 0.23208933 0.4430475 2.8219686 0.69197553 -0.8931385 -1.1784513 -3.632211
-0.39545888 -2.270132 -7.6734853 -0.196298 -0.42494905 -0.645769 0.5545835 -0.8339333
-2.3343375 -0.031372737 0.66527003 -2.2762206 -6.0952554 -1.4470305 -2.8330011 0.50038475
-0.52363855 0.72965455 0.6222042 0.62210584 -10.19112 0.64882994 -0.439761 0.6854699
-1.2582904 -0.71089834 -1.7604953 -9.833868 -12.103424 -0.3045716 0.044995643 -1.7735597
0.59718513 -0.38986877 -2.5940616 -2.088744 -2.1192627 -0.7657144 0.4396675 -4.666553
0.44987252 -2.448562 0.1841846 1.751178 -2.4519398 0.7215279 0.5712498 -4.9879036
-3.738241 -2.285817 -0.01143312 0.37484595 0.7536087 -0.63584256 0.6749138 -0.60496235
-3.214043 0.03676031 0.6924836 0.5818835 -3.3067305 -3.0680454 0.44837898 -10.514198
-8.348914 0.57331544 -0.5122423 0.5220597 -2.0649252 -3.5470665 0.2433053 -1.0729496
-1.4426652 0.41206193 -3.7007558 -2.6575034 0.44406798 0.013841115 -1.5532274 0.71408457
-1.1959275 -4.5590234 0.6112742 -1.4973798 -4.548026 -7.321209 -3.9239013 -3.262159
-2.1763864 -1.8672484 0.7090907 -0.113160275 -3.7459123 -4.2133145 -2.745139 -2.1709569
0.509882 -3.1358426 0.71166384 -1.1584818 1.3101101 -1.704969 -5.7398615 -0.33081982
-1.1312487 -1.6573933 0.5785696 -0.42156193 0.5209574 0.7545909 -0.8333609 0.66905874
-6.7768297 -5.7472987 -1.1520417 -4.8128896 -1.9539444 -6.0145187 -3.8193636 -2.133781
-0.54365265 -2.0880177 0.006124899 -3.2176883 -8.38233 0.2572603 -2.946737 -0.080757156
0.04401662 -6.418084 0.61600924 -1.3305974 0.60962236 0.5995288 0.5325086 0.31353745
-2.2727292 0.71742433 0.9813217 -1.6389979 -4.070585 -3.6065001 -0.64943326 0.31594118
-3.9475272 0.60237503 3.1714156 -1.463141 0.4556188 0.296087 2.1757703 0.052558687
-1.5714655 0.7952222 1.678897 -0.39547262 -1.0995003 -3.7665222 0.4315249 0.5652857
-13.612817 0.65800244 0.11939077 -1.1144708 -0.7632492 0.26856285 0.6898101 -1.0413623
-0.3049409 -5.6344967 0.61262745 0.43142968 -1.581318 -1.9456488 -1.1280273 -2.2622964
-1.1314855 -0.0017635152 -1.20163 -0.958249 0.71767485 -1.1758667 -8.022596 -6.0998683
-2.1129446 -0.67322534 0.56509984 0.66524655 1.9363447 0.7182858 0.14468096 0.7842864
-0.051191278 -0.009985068 -7.002458 -9.513805 -1.4624501 -7.7733736 0.16658057 -4.5007834
-0.5584131 0.72887135 0.6073875 -2.4759555 0.5168993 -0.9377865 -2.6097023 -2.3578904
1.6556219 -2.6558454 -1.9603475 -0.37223777 -3.5897157 0.5697421 0.5308952 1.4775548
-2.0414584 1.6868159 0.41782933 0.48753643 -1.712224 -1.3378382 0.10852795 2.1261497
0.50434154 -1.3583473 -2.5749793 -1.2712961 -0.07008329 -1.5796425 0.55324465 -0.023247242
0.31615874 -0.8110213 0.5390014 0.6311333 0.69668686 -1.0001932 -1.9031115 0.23643577
00000000: 0b1c d4c0 8d7a c9c0 9b30 82bf 2284 35bf
00000010: 3b85 d93e 341f 143f 7ec7 91bf a416 27c1
00000020: 08ec 273f d3a8 6d3e 1fd7 e23e 229b 3440
00000030: 4f25 313f baa4 64bf 7ed7 96bf 2576 68c0
00000040: 9679 cabe d849 11c0 318d f5c0 5802 49be
00000050: ec92 d9be 1e51 25bf 2ff9 0d3f a77c 55bf
00000060: c965 15c0 b380 00bd 234f 2a3f 99ad 11c0
00000070: 550c c3c0 4c38 b9bf e44f 35c0 3719 003f
00000080: 2d0d 06bf a4ca 3a3f c648 1f3f 5442 1f3f
00000090: d40e 23c1 b819 263f 5b28 e1be f57a 2f3f
000000a0: a90f a1bf 6ffd 35bf e957 e1bf 8657 1dc1
000000b0: a0a7 41c1 cff0 9bbe 5a4d 383d 0104 e3bf
000000c0: 20e1 183f e19c c7be 1b05 26c0 fbad 05c0
000000d0: 00a2 07c0 dc05 44bf 191c e13e 6754 95c0
000000e0: b155 e63e 3db5 1cc0 e39a 3c3e 9a26 e03f
000000f0: 95ec 1cc0 0db6 383f 6d3d 123f e89c 9fc0
00000100: 573f 6fc0 d34a 12c0 fb51 3bbc cfeb bf3e
00000110: 80ec 403f 94c6 22bf 27c7 2c3f d0de 1abf
00000120: e1b2 4dc0 fb91 163d 9b46 313f 51f6 143f
00000130: 79a1 53c0 db5a 44c0 ee91 e53e 283a 28c1
00000140: 2795 05c1 cdc4 123f 5022 03bf b4a5 053f
00000150: bc27 04c0 2303 63c0 0625 793e 6a56 89bf
00000160: 41a9 b8bf c8f9 d23e 2fd9 6cc0 8914 2ac0
00000170: e15c e33e d8c5 623c 28d0 c6bf 3fce 363f
00000180: 2714 99bf 85e3 91c0 777c 1c3f 24aa bfbf
00000190: 6e89 91c0 5847 eac0 3321 7bc0 37c7 50c0
000001a0: ea49 0bc0 ff01 efbf f886 353f 93c0 e7bd
000001b0: 07bd 6fc0 79d3 86c0 5bb0 2fc0 f5f0 0ac0
000001c0: a087 023f a5b1 48c0 9a2f 363f 2249 94bf
000001d0: b0b1 a73f 6d3c dabf f2ac b7c0 3761 a9be
000001e0: c2cc 90bf 7725 d4bf 231d 143f f7d6 d7be
000001f0: 775d 053f df2c 413f 2457 55bf 6f47 2b3f
00000200: cadb d8c0 dfe9 b7c0 1a76 93bf 3103 9ac0
00000210: da1a fabf f076 c0c0 7470 74c0 de8f 08c0
00000220: d22c 0bbf 15a2 05c0 60b3 c83b 9bee 4dc0
00000230: 061e 06c1 9fb7 833e 5797 3cc0 0264 a5bd
00000240: c54a 343d f260 cdc0 c8b2 1d3f 0451 aabf
00000250: 3610 1c3f b87a 193f 7c52 083f fb87 a03e
00000260: 6574 11c0 1fa9 373f e637 7b3f afca d1bf
00000270: 3b42 82c0 e6d0 66c0 4241 26bf 0bc3 a13e
00000280: 49a4 7cc0 4035 1a3f 79f8 4a40 3448 bbbf
00000290: de46 e93e b798 973e d23f 0b40 c747 573d
000002a0: c825 c9bf af93 4b3f 19e6 d63f 637b cabe
000002b0: 6dbc 8cbf b30e 71c0 d5f0 dc3e 90b6 103f
000002c0: 19ce 59c1 d972 283f 2683 f43d fba6 8ebf
000002d0: 4d64 43bf 1281 893e 6597 303f 5c4b 85bf
000002e0: 3721 9cbe cc4d b4c0 27d5 1c3f 5ae4 dc3e
000002f0: a168 cabf 050b f9bf 3363 90bf 77c9 10c0
00000300: 84d4 90bf c025 e7ba 03cf 99bf ce4f 75bf
00000310: 8ab9 373f cd82 96bf 8e5c 00c1 1f32 c3c0
00000320: 7c3a 07c0 7f58 2cbf 62aa 103f 994d 2a3f
00000330: 25da f73f 94e1 373f 3f27 143e fec6 483f
00000340: f2ad 51bd 6998 23bc 2314 e0c0 8c38 18c1
00000350: 9131 bbbf 7abf f8c0 1994 2a3e 6b06 90c0
00000360: 29f4 0ebf 5097 3a3f bf7d 1b3f 0e76 1ec0
00000370: 8353 043f c712 70bf 5d05 27c0 ade7 16c0
00000380: 6beb d33f 5ff9 29c0 abec fabf f395 bebe
00000390: e7bd 65c0 9eda 113f bfe8 073f 8420 bd3f
000003a0: 41a7 02c0 95e9 d73f baed d53e 609e f93e
000003b0: 282a dbbf 483e abbf e743 de3d d612 0840
000003c0: 871c 013f 53de adbf 76cc 24c0 d5b9 a2bf
000003d0: d487 8fbd ba31 cabf 71a1 0d3f 0071 bebc
000003e0: 8fdf a13e 189f 4fbf fffb 093f f491 213f
000003f0: 125a 323f 5506 80bf 2899 f3bf 381c 723e

linear2.bias f4 [3]
0.68931323 0.27427486 0.29466045
00000000: d576 303f c16d 8c3e bcdd 963e
