checkpoints_dqn/model_final_model_bo28we2t.pth (torch, 23259 bytes, 4 tensors)

linear1.weight f4 [256, 16]
000000 77 48 71 3f a6 04 ae be da 44 c8 3e c7 6d 74 3e
       0.942512 -0.3398792 0.3911503 0.23870002
000010 7e 14 ba bd 6c 99 fd be e3 71 14 be 41 f0 40 3e
       -0.0908594 -0.49531114 -0.1449657 0.1884165
000020 25 d1 8f 3e 49 bc 0b be 8c 7c 82 3e 5d 16 a4 bd
       0.28089252 -0.13646044 0.25485647 -0.08012078
000030 9c 6f 6d 3e 22 52 77 3e 39 81 bf 3e 6b 12 6b 3e
       0.23187107 0.24152425 0.37403277 0.22956245
000040 84 5b 47 3f 08 a8 79 3f 77 78 a5 be f1 61 9a 3e
       0.77874017 0.9752202 -0.3231847 0.30152848
000050 ce 7c fc 3f 42 94 44 be 71 17 12 be 26 11 7a 3e
       1.9725587 -0.19197181 -0.14266755 0.24420604
000060 49 6d a0 be 3b ee 7c be f4 60 99 bd e6 4e eb bd
       -0.31333378 -0.24700253 -0.074891955 -0.11489658
000070 6e 86 b8 3c 17 e4 87 be f5 eb 4a 3e 5d 74 21 be
       0.022525039 -0.26541206 0.19816573 -0.15767045
000080 e4 2b 42 3d ad 4f 89 bf 51 cc 3d be 02 e2 cf bd
       0.04740514 -1.072744 -0.18534972 -0.101505294
000090 24 e6 4a 3f 93 90 07 be 11 4f 8b 3d f3 65 ec be
       0.79257417 -0.13238744 0.0680219 -0.4617153
0000a0 26 c1 00 be 2a e0 4e be e8 81 df 3b c2 61 38 3e
       -0.1257368 -0.202027 0.006820906 0.18006042
0000b0 4a 0b db 3d ab 3d 69 3d 88 54 43 3e bf da d3 3c
       0.106955126 0.056943577 0.19075215 0.025861142
0000c0 74 8e fa 3e b3 3b 11 3d a1 1b 09 bf d4 f3 7c be
       0.48936808 0.035457324 -0.53557783 -0.24702388
0000d0 23 b4 81 3e 94 7e cb bd 1d de 85 bd 76 ea f5 3b
       0.25332746 -0.09936252 -0.06536505 0.0075047566
0000e0 fb aa 95 3e 16 46 88 3e af bc 92 3e bb 23 2d be
       0.2923201 0.2661597 0.2865958 -0.16908161
0000f0 cf fa c2 bd 26 0d 8c be 5c 43 d3 3d 99 63 bc bd
       -0.09520494 -0.2735378 0.10315582 -0.09198684
000100 99 51 28 3f de 3f 90 bd 8c 24 05 be 28 dd cd 3c
       0.6574951 -0.07043432 -0.13002223 0.02512987
000110 1d d2 8b 3e 47 d1 88 3f c3 bf 9a 3f 30 c6 86 3f
       0.2730874 1.0688866 1.2089771 1.0529232
000120 61 90 60 3f e5 3a 97 3e 8b ba a6 3e 36 4d 94 3e
       0.87720305 0.2953712 0.32564196 0.28965157
000130 68 d9 b9 3e 3e f3 13 3f 41 ad 39 3f 4b 5b 94 3f
       0.3629868 0.57793033 0.7252999 1.159036
000140 a2 df d1 bf 99 99 25 bf cc c9 92 3b 0b d4 27 be
       -1.6396372 -0.64687496 0.0044796225 -0.16389482
000150 71 09 93 3f 8b bc d3 bd cd 75 8e 3e 27 5c 11 3d
       1.1487256 -0.10338696 0.2782425 0.035488274
000160 31 85 98 3d 7a 0f 02 3e 82 a7 df bb 86 62 1b bd
       0.07447279 0.12701216 -0.0068253884 -0.037935756
000170 02 b1 c7 3c d7 cb 06 3e ab fd 2c bd 22 1a 98 3c
       0.024376396 0.13163696 -0.042234104 0.018567149
000180 77 5d c7 3f 07 11 15 be 12 5c a8 3e 1d a6 a7 bf
       1.5575398 -0.14557277 0.32882744 -1.3097569
000190 fc 47 eb 3e 54 6a 55 3e a0 4e 5f be 96 fc 57 3e
       0.45953357 0.20841342 -0.21807337 0.21092448
0001a0 9a 32 f3 3e b2 61 41 bc 64 f8 30 be 16 7f 1c 3c
       0.47499543 -0.0118030775 -0.17282254 0.009551784
0001b0 5e 94 8d bc d0 a8 83 be 7b 38 fe bd 1a b0 22 be
       -0.017282661 -0.2571473 -0.124131165 -0.1588749
0001c0 1c c7 9d 3d 66 c4 6e be 54 22 28 be 14 6c aa bd
       0.07703993 -0.23317108 -0.16419345 -0.083213955
0001d0 c0 1f 20 3d 86 42 61 be 64 9b dc bd 58 42 19 be
       0.03909278 -0.21998033 -0.10771826 -0.14966714
0001e0 00 9e 35 3a 50 84 be bd f0 ea 8d bc 24 79 2d be
       0.0006928146 -0.0930258 -0.017323941 -0.16940743
0001f0 98 b7 2f be d2 59 15 be 9c 41 af bd 50 0e 4a be
       -0.17159879 -0.14585045 -0.08557436 -0.19732022
000200 3e 56 0c 3f 35 96 53 3e b1 c6 3e 3f 32 e3 00 3f
       0.54819095 0.20662768 0.7452193 0.5034667
000210 3f 27 da 3e 56 1b 47 3d af 11 95 be e1 a9 1d be
       0.42608067 0.048610054 -0.29115054 -0.15396835
000220 db d8 3c bd 1f 9a a2 3d f2 17 9b 3e 31 3a db 3c
       -0.046105247 0.079395525 0.30291706 0.026761146
000230 84 78 32 3e 73 2c 61 3d ce 1a f8 3e 3e 0c c8 be
       0.17428786 0.05497403 0.4845795 -0.3907184
000240 1d 41 08 3f 79 0e 32 bf e4 65 d1 3e c2 b6 ab 3e
       0.53224355 -0.69553334 0.4089805 0.3353787
000250 46 3b 49 3f 9c dc 24 bf 50 03 d6 bd bf dc 35 be
       0.7860607 -0.64399123 -0.104498506 -0.17759989
000260 03 19 8e 3d ff c9 9b bd db 95 29 3e 10 92 6f bd
       0.06938364 -0.07606887 0.16561072 -0.058488905
000270 0a e7 70 3e 82 c0 77 3e 0e c6 80 3e 8f e0 08 be
       0.23525634 0.2419453 0.25151104 -0.13366912
000280 e6 3e 56 3f 07 50 19 3c 04 0e 72 3d 05 58 8e 3e
       0.83689725 0.009357459 0.059095398 0.2780153
000290 71 ee e4 3e 15 07 e3 be bf 00 7b be 4d 46 73 3e
       0.44713166 -0.4434134 -0.24512003 0.23757286
0002a0 cd 1b 91 3e 61 87 64 3c 71 ea 6d be 0b 12 1d be
       0.28341523 0.0139482925 -0.23233964 -0.15338914
0002b0 0d 33 42 3e 89 5f 89 bd 2f b2 ab bc 35 df 0a 3d
       0.18964787 -0.06707675 -0.020958988 0.033904273
0002c0 e6 1f e8 bf 2f 56 af 3e 73 11 5c be 61 f7 ea be
       -1.8134735 0.3424544 -0.21491031 -0.4589186
0002d0 a4 8e 19 3f de 8f f3 bd 6c 5b 16 3e c7 12 53 3e
       0.5998328 -0.11892675 0.14683312 0.20612632
0002e0 d5 44 b8 3e 08 a2 39 3e 3e 5c 21 3d 61 c5 94 3d
       0.35990015 0.18128216 0.03939461 0.072642095
0002f0 81 1e 70 3c 2b 2d b9 3d d1 26 a3 3c 6f 69 c2 bd
       0.01465571 0.09041818 0.01991597 -0.09492766
000300 9e 4d 22 3f f7 58 07 3f d1 3e 1e 3f 56 78 b2 3e
       0.63399684 0.52870125 0.618146 0.34857434
000310 ff 65 ba 3f b7 0e 1a 3f 9f ac 54 bf 3f 58 8c 3e
       1.4562377 0.60178703 -0.830759 0.27411076
000320 c2 05 83 3c 5b b7 9a 3e e3 6a dc 3e 02 67 aa 3e
       0.015993956 0.30218014 0.43050298 0.33281714
000330 69 97 cb 3e 23 ad 8b 3e 4f 29 bb 3e 60 e6 cd bd
       0.39763954 0.2728053 0.36554953 -0.10053706
000340 a3 93 b8 3e 94 2b 64 3d 6b 90 8e 3d d4 8d 1f 3f
       0.36050138 0.05570562 0.06961139 0.6232579
000350 2b 3b a5 3e 40 a4 1a bf bf e4 e7 bd 9f a9 92 3e
       0.32271704 -0.60406876 -0.11322927 0.28645036
000360 06 d8 f3 3e 1e 1f 4e 3e a8 50 98 3c 3f 3a 3e be
       0.4762575 0.20129058 0.018593147 -0.18576907
000370 3b 7d 18 3c 43 7e 98 3e 41 c1 bb bd df 77 20 be
       0.009307201 0.2978383 -0.0916772 -0.15670727
000380 fd b7 bd 3e 78 b8 9f 3e 86 ee 34 3e 32 fc 97 3e
       0.37054434 0.31195426 0.17669114 0.29684597
000390 18 23 59 3f ec c6 0a bf 03 40 d6 bf 5c 7e 36 3f
       0.84819174 -0.5420978 -1.6738285 0.7128656
0003a0 b2 b5 d0 3e 09 be 60 bc cd bb 12 be 52 6e 96 be
       0.40763623 -0.013717183 -0.14329453 -0.29381043
0003b0 0a 23 29 3e 76 d2 99 bd 2d a8 17 be f9 ce 4a 3e
       0.16517273 -0.07510845 -0.14810248 0.19805516
0003c0 04 33 1d 3f 85 e5 29 be 1e 6c 05 be 3c df 03 3f
       0.6140597 -0.16591461 -0.13029525 0.51512504
0003d0 09 e4 d1 3e ac 1c e6 be 4a d5 37 be 32 83 82 3e
       0.4099429 -0.4494375 -0.17952457 0.2549072
0003e0 22 b0 7a 3e db 08 fc 3e 97 49 1f be 4b 60 bb bd
       0.24481252 0.49225506 -0.15555416 -0.09149226
0003f0 23 01 3a 3c a9 bf 13 be 27 99 0c be 5e 17 dd be
       0.01135281 -0.14428581 -0.13730298 -0.4318189

linear1.bias f4 [256]
000000 fe 1a 39 bf 79 7c 1e 3d f1 fd fc bd 68 81 dc bd
       -0.7230681 0.038692925 -0.12353123 -0.1076687
000010 c9 b5 90 3f af 66 e4 3d 50 d7 80 bd 24 ed ea 3d
       1.1305476 0.11152398 -0.062910676 0.11471012
000020 3f f9 1e be 58 25 27 bf 43 37 1b bf 49 d8 f6 be
       -0.15524767 -0.6529136 -0.606312 -0.48211887
000030 85 de 29 3f d8 4c 0b bf cf 3e d2 be 27 a2 11 bd
       0.6635516 -0.5441413 -0.41063544 -0.03555503
000040 26 86 01 bf 4a 0a 7d be 88 44 34 bd 95 71 25 bc
       -0.5059532 -0.24710956 -0.04401067 -0.010097881
000050 76 ac 2a 3e b9 5c 8d bd 2b b8 a4 be e2 3b 86 be
       0.16667351 -0.06902451 -0.3217176 -0.26217562
000060 54 a3 71 be 52 78 6c be 12 af e4 be 94 32 22 3e
       -0.23597461 -0.23092774 -0.44664818 0.15839607
000070 85 58 76 be 1e 05 80 3f 10 2f 3e bd 49 61 83 3f
       -0.24057205 1.0001562 -0.0464316 1.0264064
000080 14 b4 85 3f 74 e6 46 be f6 ed 17 bf f5 d7 cb 3e
       1.044558 -0.19423848 -0.59347475 0.398132
000090 dc 36 93 3f 0f 3f 75 be 28 e0 e2 be d7 22 85 be
       1.1501117 -0.23949836 -0.44311643 -0.26003143
0000a0 ae 3e 97 3f 70 fc 08 3f 65 a8 c0 3e 51 a9 99 be
       1.1816003 0.5351019 0.37628475 -0.3001199
0000b0 57 a0 93 be df 78 2b bf b7 49 27 3f a4 45 85 be
       -0.28833267 -0.6698131 0.65346855 -0.26029694
0000c0 ff 90 f8 bd 61 cc 22 bf 56 aa b1 be 8d 50 1d be
       -0.12137031 -0.6359311 -0.34700269 -0.15362759
0000d0 56 72 27 be 43 d9 76 be 09 12 a4 3f ac 2b 70 3f
       -0.1635221 -0.24106316 1.2818004 0.9381664
0000e0 34 8e 8b 3f 85 e0 0e bf 46 ee 6a be b9 cd 96 be
       1.0902772 -0.5581134 -0.22942457 -0.2945383
0000f0 16 33 d3 be db c7 6b 3f 02 1f 36 3f 95 e5 2f 3d
       -0.41249913 0.9210183 0.71141064 0.042943556
000100 15 da b6 3d 97 35 f4 be 41 c9 72 3e 22 e3 18 bf
       0.089283146 -0.47697136 0.23709585 -0.5972158
000110 71 b2 60 3e e0 19 b9 3c d8 3a 2e bd 61 65 27 bf
       0.2194307 0.022595346 -0.042536587 -0.65389067
000120 2f 40 88 bd b7 0f 67 be c0 ec bc bd 1b b2 14 bf
       -0.06652867 -0.22564588 -0.09224844 -0.5808427
000130 4a 45 e4 be ee 10 c2 be d6 ed a2 be e4 ef 8f 3f
       -0.44584113 -0.3790354 -0.3182208 1.1245084
000140 1a b7 7d be d9 f8 89 bc d0 b0 d2 3e 44 96 4b 3c
       -0.24776879 -0.016842293 0.41150522 0.012425963
000150 e3 08 b3 be ce fb e2 bc 44 a7 a3 be ec 19 59 be
       -0.34967718 -0.02770796 -0.3196355 -0.21201295
000160 48 bd 30 3f 80 fd b6 3f b7 a0 8a 3f e5 c1 01 bf
       0.6903882 1.4296112 1.0830296 -0.50686485
000170 8f ca 07 be 96 ad 7c be ef db b7 3f 61 a0 9c be
       -0.13260864 -0.24675593 1.4363993 -0.3059111
000180 d3 e9 1c bc e3 4c 4e be e6 8d f8 be 45 6e 24 3d
       -0.009577232 -0.20146517 -0.4854576 0.040144224
000190 f3 af a2 be 90 6e 9e be 18 88 85 be db 3e 17 bf
       -0.31774864 -0.30943727 -0.26080394 -0.59080285
0001a0 d4 e8 62 3f 54 71 ac bd 46 02 69 3f a6 3d fc bd
       0.8863652 -0.08420053 0.91019094 -0.12316446
0001b0 ac 7c c1 be ab 8d d4 be f6 2b 73 bc 8c 2f 66 3e
       -0.3779043 -0.41514334 -0.014842024 0.22479075
0001c0 6b 45 5e be ec 27 df bc 84 99 0c bf cb 43 6f 3f
       -0.21706168 -0.027240716 -0.54921746 0.9346282
0001d0 77 93 8b 3f a4 51 bd bd e5 15 0e be ad fa c9 bd
       1.0904378 -0.09244087 -0.1387554 -0.09862266
0001e0 ee ff af 3d 8d c7 07 bf d8 be 2e be 9d bb 1d 3f
       0.085937366 -0.53038865 -0.17064989 0.616144
0001f0 92 df 31 bf 4a 2e 44 be 66 81 b1 be 11 a7 b5 3f
       -0.69481766 -0.19158283 -0.34669036 1.419161
000200 53 e8 3d be 63 75 68 bd 58 80 17 3f 41 99 12 bf
       -0.18545656 -0.056752574 0.5918021 -0.57265097
000210 59 15 8c bd 48 e1 b7 be 91 9f ac 3e ef 5e 0e bf
       -0.06840009 -0.35914063 0.3371549 -0.5561361
000220 13 59 3a be ff 60 92 3f 73 79 ae be 0e ac b0 bd
       -0.18198042 1.1435851 -0.34077033 -0.08626567
000230 2b 65 b8 3e c1 71 97 3f 88 be 3f be 5a 14 d7 be
       0.36014685 1.183159 -0.18725026 -0.42007715
000240 0b 52 c3 bd 53 ef e9 3d b9 a0 b3 be 94 36 8d 3f
       -0.09537133 0.114226006 -0.3508356 1.1032281
000250 3f 90 ee bd 18 87 83 be 8e 9a 0d 40 06 d1 e3 be
       -0.116486065 -0.25689006 2.2125583 -0.4449541
000260 c0 d3 af 3f a2 aa 06 bf 3a 09 d6 3d c1 88 80 3d
       1.3736496 -0.52604115 0.104509786 0.06276084
000270 04 80 cf 3d 5f ce 65 be 52 56 d1 be ff 83 16 bf
       0.10131839 -0.22442006 -0.4088617 -0.5879516
000280 55 76 1f 3c ca 28 aa 3f df 3e cd be fb db 31 be
       0.009732802 1.3293698 -0.4008703 -0.17369072
000290 56 a3 5e 3f ac 0e 34 be ba 36 be be 61 5b 3f 3f
       0.8696798 -0.17583722 -0.37151128 0.7474881
0002a0 28 d7 6c be 3d 37 a5 3d b2 dc e0 be 53 16 01 bf
       -0.2312895 0.080671765 -0.43918377 -0.5042469
0002b0 3e d5 e1 be 84 c4 37 be a2 d8 58 bd a4 c0 3c be
       -0.44108003 -0.17946059 -0.052940972 -0.18432862
0002c0 7e 32 20 bf 8f b3 6a 3f 7d cf 8c 3f 9b 65 7b 3f
       -0.62577045 0.91680235 1.100082 0.9820191
0002d0 a7 cb 72 3d 86 81 05 bf 00 8d a7 3f e2 3b d2 bb
       0.05927625 -0.5215076 1.3089905 -0.00641583
0002e0 98 cc 9f 3f 36 a4 60 be 73 aa 93 be 2a 79 e8 be
       1.2484312 -0.21937642 -0.2884098 -0.4540494
0002f0 0e 2c 7d bd de 4a 79 3f 12 98 7f be a3 9b 3b be
       -0.061809592 0.97379863 -0.24960354 -0.1832109
000300 9a 96 99 bc 6b 78 78 3d ec 44 9f 3e 24 84 b3 3d
       -0.01874857 0.060661715 0.3110727 0.08765438
000310 f7 94 59 be 86 37 ef 3d 19 c0 00 3f 08 c7 15 bf
       -0.21248232 0.11680512 0.5029312 -0.5850682
000320 35 d0 cc be 75 0c 8b be c7 c9 04 bf 60 ff e7 be
       -0.400026 -0.2715794 -0.5187039 -0.45312023
000330 71 79 0a 3e cb dd a3 3d 64 f1 12 3f 77 1b c5 bc
       0.13522889 0.08001288 0.5739958 -0.024060948
000340 c2 40 df be 51 11 a4 3f fd 16 f9 be b8 db e9 be
       -0.43604094 1.2817785 -0.4865035 -0.45675445
000350 11 c2 96 3f db 5a 0e bf 05 70 c7 be 02 d6 04 be
       1.1777974 -0.55607384 -0.38952652 -0.12972263
000360 28 9d 91 3f 20 a2 83 3d 47 6b cd be c7 df 86 be
       1.1376085 0.06427407 -0.4012091 -0.26342604
000370 02 38 7d 3f 07 9e 79 3c 20 31 3b be 74 17 0f bf
       0.98913586 0.015235431 -0.18280458 -0.5589516
000380 39 d7 6f bb 2c 3a b9 3f 27 db 79 be 4a 50 de 3e
       -0.0036596789 1.4470878 -0.24400006 0.4342063
000390 48 23 88 3f 0c 5c 00 3f 69 e3 9a 3f b3 75 a2 be
       1.0635767 0.5014045 1.210065 -0.31730422
0003a0 cd 4e 95 3f 58 90 6e 3e e8 ee 7b 3d 58 91 38 bf
       1.1664673 0.2329725 0.061507136 -0.72096777
0003b0 0b 60 d2 3c b7 a6 ad be bd 57 35 bf e1 25 7a 3f
       0.025680562 -0.33916256 -0.70837003 0.9771405
0003c0 0b 6c 01 be 4f b0 fa be 12 a7 71 be c8 16 66 3b
       -0.12638871 -0.48962638 -0.23598889 0.0035108794
0003d0 17 6e c2 3f fb 41 dc 3e d3 72 d0 bd 31 76 cd 3d
       1.5189847 0.4301909 -0.10178151 0.10032309
0003e0 68 06 ee bd d3 cd 0d 3e e3 71 b1 3f f2 72 c9 bb
       -0.11622316 0.13848047 1.386288 -0.0061477358
0003f0 19 f9 87 be 4e d9 3c bd 1e b7 18 bf dd ef 94 be
       -0.26557234 -0.046105675 -0.59654415 -0.2908925

linear2.weight f4 [3, 256]
000000 47 b9 0b c0 d5 9f c9 3e b3 52 85 c0 58 84 2a bf
       -2.1831834 0.39379755 -4.166345 -0.6660819
000010 14 e9 34 3f 3b aa 7b c0 2e b4 2f be a4 11 26 bd
       0.7066815 -3.932265 -0.17158577 -0.040544167
000020 41 9f 98 bd f6 e9 b4 bf b4 b7 f0 bf ab 69 97 c0
       -0.0745225 -1.4133899 -1.8806062 -4.731649
000030 24 a0 8d 3e 33 e8 be bf e7 b5 31 c0 a2 37 25 c0
       0.2766124 -1.4914612 -2.7767274 -2.5815206
000040 3c 98 82 c0 a0 79 bb bf e6 82 16 bd df dc b5 c0
       -4.0810833 -1.4646492 -0.03674593 -5.683212
000050 1a fe 8a 3e 40 90 7e bf df 22 63 bf 1d ac e1 3e
       0.2714699 -0.9943886 -0.88725084 0.44076625
000060 14 c0 e4 bf 36 4c 94 bf 94 fb f4 bf 81 15 a5 3e
       -1.7871118 -1.1585758 -1.9139276 0.3224297
000070 74 4d e5 be d9 86 41 3f db cc 4b bf 9b bd 42 3f
       -0.44785655 0.75596386 -0.7960946 0.76070565
000080 2c 29 4c 3f ca e5 30 c0 29 a5 84 c0 6a c3 87 3f
       0.79750323 -2.7640252 -4.145161 1.0606511
000090 08 c8 2e 3f 78 7a 1f c0 b8 b4 41 bf 79 ce 2e bf
       0.68273973 -2.49185 -0.7566638 -0.682838
0000a0 50 66 1e 3f 33 b5 ec 3e 84 a8 d7 3e 9a c9 1e c0
       0.61874866 0.46231994 0.42120755 -2.4810548
0000b0 76 d8 cd bf 40 82 1b bf d3 6e c3 3e b1 ef a9 bf
       -1.6081684 -0.6074562 0.3817049 -1.3276273
0000c0 9f b4 cd c0 a4 99 7c c0 a9 24 d7 bf 6d b7 8f bf
       -6.4282985 -3.9468775 -1.6808063 -1.1227852
0000d0 5a bb 27 bd 2b 8e a3 c0 67 3a 3b 3f 9a cc 4f 3f
       -0.040950157 -5.1111045 0.7313599 0.8117157
0000e0 e7 0d 2f 3f 92 a8 4d bc 56 27 e9 be 15 0b e3 bf
       0.6838059 -0.012552397 -0.45537823 -1.7737757
0000f0 b0 a7 17 c0 46 f4 37 3f 01 bf 31 40 eb fe 80 bf
       -2.3696098 0.71857107 2.777283 -1.0077795
000100 04 fc 2e c0 28 69 cc 3c cf 03 ef bf 43 db 00 bf
       -2.7341318 0.024952486 -1.8673037 -0.50334567
000110 15 70 9f 3e 79 be fe be 98 26 87 c0 28 3e 27 3d
       0.311402 -0.49754694 -4.223461 0.04083076
000120 6c 38 53 c0 f8 d5 26 bf 84 f0 9b bf ac f1 fa bf
       -3.3003187 -0.6517024 -1.2182775 -1.9605002
000130 42 80 17 bf 29 33 55 bf 2c 0b c0 bf 98 eb 2c 3f
       -0.5918008 -0.8328119 -1.5003409 0.6754699
000140 0f 56 9b c0 6e 26 b5 c0 91 2a 0c 3f 3e d9 cc c0
       -4.854255 -5.660941 0.5475245 -6.401519
000150 1a 38 0a c0 bc a3 e2 bf e8 78 55 bf ee c8 57 3d
       -2.1596742 -1.7706218 -0.83387613 0.052681856
000160 ec a4 e9 3f e1 9d 08 3f 0b ec 66 3f e1 b3 6d bf
       1.8253455 0.53365904 0.90203923 -0.928526
000170 77 e8 39 c0 7d 38 d1 c0 b8 b3 22 3f 64 85 0b c0
       -2.9048135 -6.5381455 0.6355548 -2.1800165
000180 8a d9 4e bf 58 05 7d bf b0 c0 6a bf fc a5 b0 c0
       -0.8080069 -0.9883628 -0.9170027 -5.520262
000190 96 56 89 bf 3f a5 83 bf 80 0b ee bf 8f 8f 99 bf
       -1.0729549 -1.0284804 -1.859726 -1.1996936
0001a0 1f f0 0d 3f 54 c6 8e c0 77 2b 2d 3f 2b dc e3 3e
       0.5544452 -4.46171 0.6764445 0.44503912
0001b0 99 da fb bf d0 b9 fe bf 7d 70 7f 3e 3b c7 15 be
       -1.9676086 -1.9900455 0.24945255 -0.14626782
0001c0 bb 22 25 bd 4d ec 77 bf b0 3f 35 c0 8e ce 23 3f
       -0.040316325 -0.9684494 -2.8320122 0.6398705
0001d0 38 bf 39 3f a3 7f 93 c0 85 e1 3c bf 93 22 3e c0
       0.725574 -4.6093307 -0.73781615 -2.9708602
0001e0 d8 00 c7 c0 a4 d3 f1 bf 13 c8 60 3e 63 ad 32 40
       -6.218853 -1.8892713 0.21951322 2.7918327
0001f0 6d 6b e6 bf e2 47 77 bd ba 6d 4e c0 37 01 21 3f
       -1.8001534 -0.060371287 -3.2254472 0.6289248
000200 2a 4a 92 3b 36 a8 80 be cf 0e 4b c0 22 4a 05 c0
       0.0044644075 -0.25128335 -3.1727788 -2.0826497
000210 05 14 84 c0 0d ba 2e c1 87 b4 b3 3e f2 47 03 c0
       -4.127444 -10.920423 0.3509867 -2.0512662
000220 f8 2a 96 bf 35 4b 3e 3f 58 74 1a c0 0b 6e fd bf
       -1.1731863 0.74333507 -2.413351 -1.9799207
000230 57 bc b8 3e 6e cc 28 3f a9 1b c0 be a6 26 8a bf
       0.36081192 0.65936935 -0.37521103 -1.0793045
000240 8a b8 b9 bf d2 10 15 3f c8 53 19 c0 da ac 4f 3f
       -1.4509442 0.5822879 -2.3957386 0.81123126
000250 90 4a cc c0 d0 ee 99 bd 78 2c d6 bf d6 ea 8f c0
       -6.384102 -0.07516253 -1.6732321 -4.4974165
000260 36 17 db 3e 6a b7 13 c0 78 5f b6 be 17 44 ca be
       0.42791146 -2.3080697 -0.35619712 -0.39505073
000270 f2 5a ee 3e 6a ce e0 bf 4d a6 1a bf de 1f ef bf
       0.4655376 -1.7562993 -0.60410005 -1.86816
000280 82 74 ff c0 cb 7e 0d 3f 57 cd d9 bf ae 5b 9c bf
       -7.982972 0.55271596 -1.701579 -1.2215478
000290 f1 c1 34 40 99 9d e4 bf a7 ad df bf 11 48 4d 40
       2.8243372 -1.7860595 -1.747487 3.2075236
0002a0 e5 14 d6 3e 7d 0e 28 bf 2e 52 ff bf 1f 85 3f c0
       0.41812816 -0.6564711 -1.9946954 -2.9925
0002b0 88 ab 6c 3e f2 87 3c bf 81 41 6d bf ff 28 f7 bf
       0.23112309 -0.73644936 -0.92678076 -1.9309386
0002c0 a7 88 68 c0 4f ea 40 3f c3 51 31 3f 19 c1 5b 3f
       -3.6333406 0.75357527 0.69265383 0.8584152
0002d0 1e 7a 27 bf e6 15 44 bf 38 2f 0e 3f ff 38 35 c1
       -0.6542071 -0.76595914 0.555408 -11.326415
0002e0 58 57 19 3f 94 71 2b bd 1e 4a 87 bf f9 69 2c bf
       0.598989 -0.041856363 -1.0569494 -0.673492
0002f0 8f 29 38 c0 6f 34 32 3f 2a 67 b2 bf 7d e1 58 c0
       -2.8775365 0.6961126 -1.3937733 -3.3887627
000300 a4 df 8c bf bf 52 ce bf a5 57 e3 3f 37 1e 46 c0
       -1.100575 -1.6119002 1.7761122 -3.0955942
000310 ff 3b 44 bf a2 d3 18 40 11 1e 52 40 94 2b 30 c0
       -0.76654047 2.387917 3.283085 -2.7526598
000320 10 cc 5f be 96 1a f0 bf a7 01 b0 bf 6a fc b4 bf
       -0.21855187 -1.8758113 -1.3750504 -1.4139531
000330 8f 71 4a bf 84 f6 8d bf 86 a7 47 3f ae 3a 07 3f
       -0.79079527 -1.1090856 0.77989995 0.52823913
000340 59 9a 82 bf 57 1b 21 3f 7a 26 f0 bf 58 e1 10 c0
       -1.0203353 0.6293234 -1.8761742 -2.263754
000350 08 81 3d 3f 5f 16 88 bf 73 96 49 bf be a5 89 c0
       0.7402501 -1.0631827 -0.7874519 -4.301482
000360 c4 89 30 3f 57 d0 da bf ff d0 cc 3d b0 24 47 c0
       0.68960214 -1.709483 0.100008 -3.1116142
000370 09 2f 32 3f b0 0b 70 bf 43 19 35 bf 4a 59 6a bf
       0.6960302 -0.93767834 -0.7074167 -0.91542494
000380 9b 88 b7 c0 56 0e 19 3f 39 81 de bf 4d f5 83 3f
       -5.7354255 0.597875 -1.7383186 1.0309235
000390 3b 2e 64 40 7f 01 66 c0 f3 74 42 3f b5 ac 2f c0
       3.5653217 -3.5938413 0.759597 -2.7449162
0003a0 15 eb 33 3f ca 1c 71 c0 83 e9 00 3f 4b 59 0f c0
       0.7028058 -3.7673821 0.5035631 -2.239825
0003b0 08 46 0c 3f 41 96 8f bf ed 93 ee c0 da 7f 56 3f
       0.5479436 -1.1217729 -7.4555573 0.83788836
0003c0 bd 4c 0c c0 4f d8 ea bf c4 10 4f c0 a5 ca 53 c0
       -2.1921837 -1.8347262 -3.2353983 -3.3092434
0003d0 4f cc 04 3f e3 55 88 3f 32 f7 79 c0 12 0b e4 3e
       0.5187425 1.065121 -3.9057126 0.44539696
0003e0 93 b6 db bf 59 40 ef c0 93 6a 80 3f e9 de 68 c0
       -1.7165092 -7.476605 1.0032524 -3.6386054
0003f0 5f 69 c9 be d1 86 8f bf c1 ce 4e c0 84 bd ae c0
       -0.39338204 -1.1213018 -3.2313693 -5.460634

linear2.bias f4 [3]
000000 24 d6 6b 3f f5 49 0f 3f fe 51 43 3f
       0.9212363 0.55972224 0.76296985
