checkpoints_dqn/model_final_model_h9ijb9lj.pth (torch, 7899 bytes, 4 tensors)

linear1.weight f4 [64, 16]
000000 06 b3 89 c0 58 a4 94 bf b1 cc 04 3f d6 d4 33 3f
       -4.3031034 -1.1612654 0.51874834 0.70246637
000010 f7 86 00 c0 4b 0c 8a 3f fe ee 3d bf 83 93 33 be
       -2.0082376 1.0785002 -0.741928 -0.1753674
000020 d2 54 28 3e 52 52 6e 3d 06 58 84 3c 85 a7 20 3e
       0.16438606 0.058183976 0.016155254 0.15688904
000030 0f 32 b5 3c cd b7 20 3c 41 28 c1 bd a7 be c8 be
       0.022118596 0.0098094465 -0.09431506 -0.39207956
000040 96 8e 88 3f 49 50 8d 3f 71 2a 96 3d c8 e5 e4 3e
       1.0668514 1.1040126 0.07332314 0.4470656
000050 f4 5e e4 bf 62 20 7c bc ed 76 90 be af 7b 1b 3e
       -1.7841477 -0.01538858 -0.28215733 0.151839
000060 9f a0 b0 3e 3a 90 ef 3e 68 d1 25 3e 7f 4a 69 bd
       0.34497544 0.46789724 0.16193163 -0.05695581
000070 28 f1 0f bd 17 97 aa bd 6f c2 83 3e fa e1 d9 bd
       -0.035142094 -0.08329599 0.2573428 -0.10638805
000080 5b 0f b6 3f e5 f6 3e c0 6b 3e e0 be 69 a0 cb 3e
       1.4223436 -2.9838192 -0.4379762 0.3977082
000090 6a fa 1a 40 90 6c b8 be 1e 94 61 3e ec 0b 65 bd
       2.421534 -0.36020327 0.22029158 -0.055919573
0000a0 9e 57 1f 3e 7d 9f e5 bd 90 33 08 3d 51 0f d9 3d
       0.15560767 -0.112120606 0.0332523 0.105986245
0000b0 52 19 81 3d 43 82 4b 3d f4 2a 49 3e 7e ab 61 3e
       0.063036576 0.049684774 0.19645292 0.22038075
0000c0 3e 07 c1 3e 31 7a 87 be ae e6 97 bb 75 f5 f7 3d
       0.37700838 -0.26460412 -0.0046356535 0.12107364
0000d0 9f a4 d0 bf 92 99 ac 3f a2 8d 82 3f 01 10 80 3f
       -1.6300238 1.3484366 1.0199473 1.0004884
0000e0 cc c8 1f 3f c5 5a fb 3e df f3 4e 3f 90 33 b2 3e
       0.62415767 0.4909269 0.8084087 0.34804964
0000f0 5b e3 11 3f 7c a8 93 3e 99 f6 1a 3f 6d 50 26 3f
       0.5698754 0.2883948 0.6053253 0.6496647
000100 80 06 5c 3f 25 f3 01 3f 8c 95 9f 3f f5 d5 f2 be
       0.8594742 0.50761634 1.2467513 -0.4742886
000110 84 0b cf 3e 9a d1 92 be 59 11 f7 bc d0 b5 5f be
       0.40438473 -0.28675538 -0.03015964 -0.218467
000120 fe 09 d8 3e 8a 6f 49 be a9 62 25 be f5 47 e5 3d
       0.42195123 -0.19671455 -0.16150917 0.11195365
000130 ce 26 08 3e 56 3b 39 3e 2a 35 16 3d 23 0a 95 3e
       0.13296053 0.18089041 0.036671795 0.29109296
000140 7a f1 41 be f1 79 b8 bf bf 3d 4a 3c 2f 2b 82 3f
       -0.18939772 -1.4412214 0.012343823 1.0169429
000150 65 b5 aa bf d6 d1 19 3d 50 a1 c0 3e 6b ec f5 bd
       -1.3336607 0.03755363 0.37623072 -0.12007984
000160 a3 27 82 3e 26 60 69 3e af 65 77 3e a2 94 a6 be
       0.25420865 0.22790584 0.24159883 -0.32535273
000170 e4 87 04 3e 8b 4b 25 3f e0 d9 80 3e ea 22 08 be
       0.12942463 0.64568394 0.25166225 -0.13294569
000180 65 27 cc 3f 9a 04 67 3e 72 fb 4b bf 9e 70 a0 3e
       1.5949522 0.22560349 -0.7968055 0.3133592
000190 48 25 ba bf f2 46 8c be ee 16 19 3e 98 1e 09 bf
       -1.4542627 -0.27397877 0.14950153 -0.5356231
0001a0 aa cc 52 3e b8 da ec 3d 1f 17 98 bc a2 25 0d 3d
       0.20585886 0.11565155 -0.018565712 0.034459718
0001b0 08 24 1d be 6a 62 0d 3d 3c b5 8f 3e f1 6f 67 3e
       -0.15345776 0.034517683 0.28067958 0.22601296
0001c0 1c c7 9d 3d 66 c4 6e be 54 22 28 be 14 6c aa bd
       0.07703993 -0.23317108 -0.16419345 -0.083213955
0001d0 c0 1f 20 3d 86 42 61 be 64 9b dc bd 58 42 19 be
       0.03909278 -0.21998033 -0.10771826 -0.14966714
0001e0 00 9e 35 3a 50 84 be bd f0 ea 8d bc 24 79 2d be
       0.0006928146 -0.0930258 -0.017323941 -0.16940743
0001f0 98 b7 2f be d2 59 15 be 9c 41 af bd 50 0e 4a be
       -0.17159879 -0.14585045 -0.08557436 -0.19732022
000200 a0 40 d9 3f 19 3b 8d 3f e7 ca 9a 3e 49 19 37 3f
       1.6972847 1.103366 0.30232927 0.7152296
000210 36 64 35 3f b7 8b 3e bc 80 6d 29 be c4 ab 11 be
       0.70856035 -0.01162999 -0.16545677 -0.1422568
000220 0b e7 5a bd 2a 12 a6 bd ca c4 ca 3e a2 11 81 3d
       -0.053442996 -0.08108933 0.39603263 0.06302191
000230 6a 91 25 3e cb 92 43 bd f7 31 8a 3e 23 ae 03 be
       0.16168752 -0.047747415 0.26991245 -0.12859397
000240 41 95 de 3e c1 b6 d2 3f f7 4e 22 bf f0 0f 8e 3e
       0.43473247 1.6462022 -0.6340174 0.27746534
000250 ed f7 f3 3f 2e 42 d0 3e b6 ec 1d bf 50 f7 90 bf
       1.9060036 0.4067549 -0.6168932 -1.1325474
000260 64 22 c2 bd 84 a6 8d 3e 00 29 8a be ae 9b 05 bf
       -0.09479216 0.27666104 -0.26984406 -0.52190673
000270 84 92 fc bd a6 2b ae 3e 78 68 01 3f 6d e5 81 3d
       -0.12332633 0.34017676 0.5055003 0.063425876
000280 bb 65 1f bf c5 c1 b7 bf 9f 6d a8 3d 6c 6c 9e bf
       -0.62264603 -1.4356009 0.082240336 -1.2376838
000290 02 b8 db bf 65 b8 3f 3e 72 d4 c0 bd 6e 98 b4 3e
       -1.716553 0.18722685 -0.09415521 0.35272545
0002a0 aa 0c 2a 3f 38 24 c6 3e 1a 48 ba bc bc 49 83 bc
       0.66425574 0.38699508 -0.022739459 -0.01602637
0002b0 12 91 9e 3b bd 0f 0f bd 6a 3e 21 be 53 18 2c be
       0.004839071 -0.03492712 -0.15746465 -0.16806154
0002c0 69 ea e5 bf c3 4d 8b 3e 71 f9 7b 3f 6d 5e 0a bf
       -1.7962161 0.27207765 0.9842749 -0.5405033
0002d0 ac f6 c6 3f f4 c0 ab bc 90 bb bd 3e 62 1f 81 3e
       1.5544028 -0.02096603 0.3705716 0.25219256
0002e0 61 54 98 bd ad 4a 5a be 2f da 7d be 39 e2 e6 3d
       -0.07437969 -0.21317549 -0.24790262 0.11273617
0002f0 73 be c5 3e 80 6b e5 3e 22 5a d1 3e ee e9 a2 3e
       0.38621864 0.44808578 0.40889078 0.318191
000300 de 25 bc 3f 90 94 88 3f 1f ac c8 3e 8f c8 2a 3f
       1.4699056 1.0670338 0.39193818 0.6671228
000310 5f 3f bc 3f 19 c4 f4 be 0e 19 0d 3f e4 55 0b 3f
       1.4706839 -0.4780586 0.55116355 0.54427934
000320 d0 21 7b 3e 70 49 cf 3d e7 98 98 3e 04 af 89 3d
       0.24524617 0.10121429 0.29804155 0.06722835
000330 51 84 e1 bb fe f9 34 bd 0d f8 05 be 44 81 03 be
       -0.0068822284 -0.044183724 -0.13082905 -0.1284228
000340 af d2 b4 3e c2 c7 a6 be aa 89 48 3e 44 3a 91 3e
       0.3531699 -0.32574278 0.19583765 0.28364766
000350 ec 57 04 c0 a6 54 a5 3f 79 79 6e 3f 88 9d a5 3f
       -2.0678663 1.2916458 0.931541 1.29387
000360 c0 01 51 3f 88 6d 2b 3f 0b 5f 72 3f 79 ce 2e 3f
       0.81643295 0.66964006 0.94676274 0.682838
000370 b2 de 1c 3f ee 89 53 3f cd 19 14 3f 89 dd 58 3f
       0.61277306 0.8263234 0.5785187 0.84713036
000380 1a fa d5 bf 23 3b 1a 40 9e 32 1a 3f 98 36 54 bf
       -1.671695 2.4098594 0.60233486 -0.82895803
000390 cb 5d 26 3f cb 5f bb be 79 62 e2 bc ea df 42 3f
       0.64986867 -0.36596522 -0.027634846 0.76122916
0003a0 1d 6a c1 3e 6e 99 40 3e 94 b3 2e be 41 d3 b8 3d
       0.3777627 0.18808529 -0.17060691 0.090246685
0003b0 6a 04 69 3e e3 6b ad bd ef 75 95 bd 3d 4a b5 bd
       0.2275559 -0.084678434 -0.07297885 -0.088520505
0003c0 75 d8 b8 3d 3c 10 0a be 85 4d 5b bd bf f3 06 be
       0.09025661 -0.13482755 -0.053540725 -0.1317892
0003d0 d0 98 3a bd 2a 8f 40 be e9 51 33 be b7 14 91 3d
       -0.04555589 -0.18804613 -0.17511715 0.07084029
0003e0 69 eb b0 bd 90 a9 11 3e 7f e1 bd bd 14 90 48 be
       -0.08638651 0.14224839 -0.092715256 -0.19586211
0003f0 5f af 67 bd e8 cc 08 be df e9 b5 bd de ba 7f be
       -0.05656373 -0.13359416 -0.08882498 -0.24973628

linear1.bias f4 [64]
000000 0d 6b 95 3f 0b 9e bf bc b8 79 e9 be 43 1a 7f 3f
       1.1673294 -0.02339079 -0.45600677 0.9964945
000010 70 1d cc bd 22 81 5e bd a5 a0 58 be 24 f0 df bd
       -0.09966552 -0.05432237 -0.21155031 -0.10934475
000020 73 34 7d be 88 b0 c6 3e 33 fd 66 3e 90 a6 b2 3d
       -0.24727039 0.38806558 0.22557525 0.087231755
000030 6b 01 af be 18 80 a7 3f 90 45 ed bd 53 ca 21 bd
       -0.3418077 1.3085966 -0.115855336 -0.039499592
000040 5f 01 81 3f de e7 25 be 80 0f 84 3b 3b 0f 21 3f
       1.0078543 -0.16201732 0.004030168 0.62913865
000050 ac c2 ce bd d1 9f c1 be b2 bf ad be fb 68 ad bc
       -0.100957245 -0.37817243 -0.33935314 -0.021168223
000060 af 3f 5d 3f e7 12 83 3f 20 f5 11 3f 78 6d 88 be
       0.864253 1.0240144 0.57014656 -0.26646018
000070 06 57 ba be 52 dd 82 3f ef 24 98 3f 29 ad 76 3f
       -0.3639452 1.0223792 1.1886271 0.9635797
000080 fc 43 82 3f b2 6c 1c bf af c9 20 bf 8e 8c a0 be
       1.0176997 -0.61103356 -0.62807745 -0.31357235
000090 ec 2a 65 3f eb 23 09 be 95 f5 d6 3e 58 3a fe 3d
       0.8951862 -0.13392608 0.4198424 0.12413472
0000a0 8c 3a 92 3f 46 77 f4 3d fb bd 87 be 2a 37 1f bd
       1.1424117 0.11936812 -0.2651213 -0.038870968
0000b0 9a 92 16 3f 4b 1f 5f 3b 78 fa a1 3f c2 23 4c 3c
       0.58817446 0.0034045752 1.2654562 0.012459697
0000c0 f8 4e 12 3e 60 34 40 bd 14 9e f3 be 37 89 6b bd
       0.14287937 -0.04692495 -0.47581542 -0.057503905
0000d0 9d ce a7 bd 32 f6 e5 bd e9 fd 80 3f 36 86 23 bf
       -0.08193705 -0.11228599 1.0077487 -0.63876665
0000e0 5e 4a 7c 3f 95 7a 1e bf 68 7a 23 be aa fa 33 be
       0.98550975 -0.61905795 -0.15964663 -0.1757609
0000f0 90 b8 64 bd 25 51 67 3e cb 22 af 3e fe 68 14 3d
       -0.055840075 0.22589548 0.34206232 0.03623294

linear2.weight f4 [3, 64]
000000 9d 6a 10 3d 15 94 eb c0 73 76 0e c0 de 8d 74 3f
       0.035257924 -7.3618264 -2.2259796 0.9552897
000010 15 51 d0 bf 26 a3 c0 bf c5 0e 37 c0 20 1f f8 3b
       -1.6274744 -1.5049789 -2.8602765 0.0075720698
000020 61 68 0d c0 29 0d 58 40 43 d9 a9 bf 26 70 b9 bf
       -2.2094958 3.3758032 -1.3269428 -1.448735
000030 75 22 07 c0 73 52 73 3f e9 10 72 c0 ee f7 f3 3d
       -2.111478 0.9504768 -3.782282 0.11912523
000040 ba 0a ed 3e 1e 94 ca bf 20 0c cd 3c 93 c0 f6 3e
       0.46297246 -1.5826452 0.025030196 0.48193797
000050 18 09 9d bc 07 0a 1a c0 3b 63 80 bf 5f d1 ca bf
       -0.019169375 -2.406862 -1.0030283 -1.5845145
000060 43 28 38 3f ea 2d a3 3f 4e e9 d1 bf 02 6a 57 bf
       0.71936435 1.2748387 -1.6399324 -0.8414613
000070 9a fc fd bf 74 0e 89 3f 10 d0 6d 3f 59 eb 80 3f
       -1.9842713 1.0707536 0.92895603 1.0071822
000080 99 41 bf 3e 4f 81 2f c0 76 4c 04 c0 0b c8 3a be
       0.37354735 -2.7422674 -2.0671668 -0.18240373
000090 5e 93 94 3f 97 41 09 c0 46 c2 4a c0 dc a1 f8 bf
       1.1607473 -2.1446283 -3.1681075 -1.9424396
0000a0 3f e3 7a 3f 7f e1 00 c0 13 53 58 c0 8c d2 80 c0
       0.98003 -2.0137632 -3.3800704 -4.0257015
0000b0 a1 e8 56 bf 51 73 a8 bf 3b 27 85 3f d7 a4 bd bf
       -0.83948714 -1.3160192 1.0402597 -1.481593
0000c0 99 c6 a2 c0 e9 e7 09 3d 2a 7c 9c bf ff 8e db bf
       -5.086743 0.033668432 -1.2225392 -1.7153014
0000d0 28 85 a6 3c d8 31 d3 bf df 51 83 3f 30 64 ba bf
       0.020327166 -1.6499586 1.025936 -1.4561825
0000e0 c1 6b 88 3f 92 c5 83 bf 28 b4 7b bd 98 d6 18 c0
       1.0657884 -1.0294669 -0.061451107 -2.3880978
0000f0 cf 17 1b c0 09 10 1b c0 dc f0 0b c0 ec 71 6c 3c
       -2.4233282 -2.4228537 -2.186576 0.014431458
000100 0c f3 23 40 74 f4 1a c0 04 a0 a7 bf f5 d6 19 3f
       2.5617094 -2.4211702 -1.3095708 0.60093623
000110 50 00 44 3f b9 b5 72 3f fa 66 fa bf a6 ae e9 3d
       0.76562977 0.94808537 -1.9562676 0.11410265
000120 92 fb 99 bf e8 6d 13 40 24 3d 0e 40 a1 30 d2 bf
       -1.2029898 2.3035831 2.2224817 -1.642109
000130 c8 94 9c bf 64 ff 59 3f 62 f0 1b bf 0c fe ca 3b
       -1.2232904 0.8515532 -0.6091367 0.0061948355
000140 70 3a c5 3f e4 b6 68 bf 20 22 ba bb 44 7f b1 bf
       1.5408459 -0.9090407 -0.0056803375 -1.3866963
000150 70 c4 a1 bc eb 2d 3b c0 d4 59 d1 be d8 8f 4e bf
       -0.019746989 -2.9246776 -0.40888846 -0.8068824
000160 31 cc 07 3f 2c 3f 65 3f bc f5 ad 3e e2 6a 99 be
       0.53045946 0.8954952 0.33976543 -0.29964358
000170 9f 34 c8 bd 0d ea 24 3f 35 5a ee 3e d0 56 b7 3e
       -0.09775662 0.64419633 0.46553198 0.3580842
000180 cb ed 04 3f 9f 0f f5 be 33 e7 aa bf 94 31 bd bf
       0.51925343 -0.4786348 -1.3351806 -1.4780755
000190 b0 d3 e7 3e fb d3 c7 bf 60 1e 94 bf c7 bc 22 bf
       0.45278692 -1.5611566 -1.157177 -0.635693
0001a0 fb 53 1e 3f 3d 40 9e 3d bf fa 9b 3e 9f 5e d4 bf
       0.61846894 0.07727096 0.30464742 -1.6591376
0001b0 45 9f 2b 40 7c 48 49 bf 97 2c 04 3f 35 7d 1f bf
       2.681596 -0.7862623 0.5163054 -0.62300426
0001c0 38 4a 47 c0 15 e8 84 bd 80 94 76 bf 4e 6a 80 3f
       -3.113905 -0.06489579 -0.96320343 1.0032442
0001d0 69 4a 37 bd 07 e8 39 bf a9 a1 03 3f af 74 15 bf
       -0.044748697 -0.7261967 0.5141855 -0.5838117
0001e0 08 48 22 3f 85 eb b8 bf d0 31 eb 3d e7 14 42 bf
       0.6339116 -1.4446875 0.1148411 -0.75813144
0001f0 63 ed 89 bf a9 cf d2 3e c1 46 00 bf 9a 72 99 3d
       -1.077557 0.41174057 -0.5010796 0.07492562
000200 62 6e 36 40 0f 04 35 c0 0c c3 96 bf 76 bb 03 3f
       2.8504872 -2.8283727 -1.1778274 0.5145792
000210 23 6a c8 be 97 76 0c 3f ef 6f 8f 3e a4 4f a7 bd
       -0.39143476 0.54868454 0.28015086 -0.08169487
000220 ae 6c 9c be c2 8a 70 3f 6e 83 be 3f ef 17 58 bd
       -0.30551666 0.9396173 1.4883859 -0.0527572
000230 0c 16 8d bf d3 da 34 3f 28 56 98 bf 6b 24 9b 3c
       -1.1022353 0.706464 -1.1901293 0.018938264
000240 5c 56 dd 3f c8 3a a2 bf 32 e8 c2 3d 50 0f b4 bf
       1.729198 -1.2674189 0.09516944 -1.4067173
000250 00 58 e6 bc f6 c8 f9 bf b0 2d 01 bf 5b 07 c7 bd
       -0.028118134 -1.9514453 -0.5046034 -0.097182
000260 81 51 43 be 47 da b8 3f a9 d9 85 3e 29 bd a6 be
       -0.1907406 1.4441613 0.26142624 -0.32566193
000270 48 28 2e bf b6 f0 3c 3f f7 83 c5 3e 01 c0 b2 3e
       -0.68030214 0.73804796 0.38577244 0.34912112
000280 fb 7b 35 3f c2 11 c9 bf 32 ca c8 bf 44 ed f4 3c
       0.70892304 -1.5708544 -1.5686705 0.029898293
000290 91 ab 2a 3f fe 46 0f c0 af cc ef bf 8a 33 bf 3f
       0.6666804 -2.238708 -1.873434 1.4937603
0002a0 57 95 4c 3f 78 04 0a bd 97 7c 03 bf 84 20 ca bf
       0.79915375 -0.033695668 -0.51361984 -1.5791173
0002b0 77 da d2 3f 59 fb 77 be a0 85 33 3f a0 a5 f4 be
       1.647292 -0.24216975 0.7012577 -0.47782612
0002c0 06 97 00 c0 b5 94 11 bc 3c 63 58 bf 23 7d 21 bf
       -2.0092177 -0.008885552 -0.8452642 -0.6308157
0002d0 a0 00 83 bc c6 af 5a c0 d9 cb 34 3f 0a 5b 71 bf
       -0.015991509 -3.4169784 0.70623547 -0.9427954
0002e0 85 d5 28 3f f1 be 95 bf e4 e7 da bd 7e 07 6b bf
       0.65950805 -1.1698896 -0.10688761 -0.9180831
0002f0 bd db d8 bf 55 cd 08 3f 5a 39 07 bf 8f 07 8b bd
       -1.6942059 0.5343831 -0.52821887 -0.06788551

linear2.bias f4 [3]
000000 a4 de 2b 3f f6 62 49 3f cc 1d 89 3f
       0.671366 0.7866663 1.0712218
