checkpoints_dqn/model_final_model_tzk1rf84.pth (torch, 23259 bytes, 4 tensors)

linear1.weight f4 [256, 16]
000000 84 8a 8d be e5 65 42 bd 56 37 ec bd 77 1a 30 3e
       -0.27644742 -0.047460455 -0.11533992 0.17197596
000010 35 f2 5a be 94 5d 53 bc 66 fd c0 be 35 be b2 be
       -0.21381457 -0.012900729 -0.37693328 -0.3491074
000020 77 b1 95 be 60 e8 2c 3c e1 43 36 be 83 2c 3d 3c
       -0.29236957 0.010553449 -0.17799331 0.011546257
000030 46 20 c7 be 11 92 99 be bd bb b7 be c9 11 8b be
       -0.3889181 -0.29994252 -0.3588542 -0.27162006
000040 bb 1e d5 be f0 15 d7 3d ac 0d 25 3b 52 50 c4 3d
       -0.41625008 0.10502231 0.002518515 0.095856324
000050 b9 69 f9 3d 49 f8 dc bd 9f 93 e7 bd b8 7d 60 3e
       0.12178368 -0.10789544 -0.11307453 0.21922958
000060 b5 d8 03 be 76 eb da bd 1d d7 8f be 6b 62 79 3d
       -0.12875636 -0.10689442 -0.28093806 0.060884874
000070 37 28 9f 3d 1b 83 f7 be 6e 33 cd bd d2 14 9c 3c
       0.07771342 -0.48342213 -0.10019575 0.019052897
000080 9e ee 2b 3d b5 14 a9 3d 14 00 74 3e 90 cc 73 bd
       0.04197561 0.08255903 0.23828155 -0.059521258
000090 d1 dc 8d be 07 c3 16 be c0 dd 2f bf 9f dc 67 bc
       -0.27707532 -0.14722835 -0.6869774 -0.014151721
0000a0 42 9f 1c bc bb 04 06 be e3 9a 34 bd 15 40 dc 3b
       -0.009559454 -0.13087742 -0.044093024 0.0067215064
0000b0 07 4f 9c be 27 21 ae be 3e 06 ae be f3 1f 02 be
       -0.30529043 -0.34009668 -0.33989137 -0.127075
0000c0 0d f7 9e 40 5e 44 cb 40 6f 7b 8f 40 cd 6b a9 3f
       4.9676576 6.3520956 4.4838176 1.3236023
0000d0 6f b0 c5 c0 d9 23 a5 3e 5a a3 80 c0 9b 56 41 c0
       -6.1777873 0.32253912 -4.0199404 -3.020911
0000e0 e9 2f e0 3e 22 65 71 3f d7 79 8c 3e 0d ca 49 3f
       0.43786553 0.9429494 0.27436706 0.7882393
0000f0 f3 d6 de 3d 07 4f 99 3e 67 ef 23 3f 9d 68 02 c0
       0.10880842 0.29943106 0.64037174 -2.037635
000100 6c cd fc c0 f4 4c 19 c1 de b4 7a bf 35 dd a7 be
       -7.900076 -9.581287 -0.9793223 -0.32785955
000110 c7 a3 03 c1 9d 37 9e 40 de 01 3a 3f 72 82 4d bf
       -8.227485 4.9442887 0.726591 -0.8027717
000120 3f 75 ba bf 1b e7 a5 bf ec 54 73 bf 12 d3 03 bf
       -1.4567031 -1.2961153 -0.95051455 -0.5149394
000130 d9 9c 80 be be c9 1e bd 4c b3 24 3e a5 e6 9c bb
       -0.25119665 -0.038766615 0.16084021 -0.004788237
000140 07 22 02 3c c7 e6 e6 bd 44 60 51 3d 28 c4 49 bc
       0.007942683 -0.11274486 0.051117197 -0.012314834
000150 e4 c1 0c be eb a5 3c be 5c a2 46 be 6e 07 c2 3d
       -0.13745838 -0.18422668 -0.19397873 0.09474073
000160 d0 75 a8 3c 28 1f e3 bc 44 68 90 be fc 4c dd 3d
       0.02056399 -0.027724817 -0.28204548 0.10805699
000170 55 16 54 3a f4 27 e4 3d f4 fa 1b be 55 19 39 3b
       0.0008090486 0.11140433 -0.1523245 0.0028243859
000180 e1 56 0e 3e bf fa 02 ba 5f d0 bd 3d 2d 30 8e bd
       0.13900329 -0.00049964705 0.09268259 -0.069427826
000190 a8 77 ad 3e 6c ca 94 be a0 b1 e6 be ee 08 b6 be
       0.33880353 -0.29060686 -0.45057392 -0.35553688
0001a0 2e 80 3a be 43 a9 7c be cc e2 f0 bd d9 b3 32 3d
       -0.18212959 -0.24673943 -0.11762008 0.043628547
0001b0 9e e6 c6 bb ca c5 1d be 6e 50 3e bc 21 20 92 be
       -0.006069972 -0.15407482 -0.011615856 -0.28540137
0001c0 37 a8 c3 bc 7e af 8a be 07 87 89 3d 0c 83 ff bc
       -0.023883922 -0.27087015 0.067152075 -0.031190418
0001d0 38 09 2f be 97 02 f8 bd dd 9d c0 be 42 a5 26 3e
       -0.1709336 -0.12109869 -0.3762044 0.16273978
0001e0 ca a6 3a be 6a 57 0a be 58 31 cf bd 3e 34 f4 be
       -0.18227687 -0.13509908 -0.101168334 -0.47696108
0001f0 94 2a d6 bc 58 97 db be f1 07 2e be b9 a8 62 be
       -0.02614335 -0.42888904 -0.16995217 -0.22134675
000200 b8 44 d4 bc ee 3c 80 3d 33 51 5c bd 31 a1 07 bd
       -0.025911674 0.062616214 -0.053788375 -0.03311271
000210 ee 8d 8e bd 26 bd aa be 25 9d 16 bd 81 12 49 be
       -0.06960665 -0.33347434 -0.03677096 -0.19635965
000220 70 75 b5 3c d8 20 c7 bd c7 4c 94 bd 30 48 1f be
       0.022150725 -0.09723061 -0.072412066 -0.15554881
000230 cc c2 d3 bd c1 c4 50 be dc 4a 99 3b 4d 82 60 3e
       -0.10339889 -0.20387556 0.0046781134 0.21924706
000240 69 04 f7 bd e6 90 87 bd e1 cd 81 be df e1 bf 3c
       -0.12061388 -0.06619434 -0.25352386 0.023423133
000250 96 63 9a 3e 9a e9 8a be c8 b4 9e c0 f1 ca 2d 3d
       0.30154103 -0.2713135 -4.959568 0.042429868
000260 1e 54 96 3d 44 06 43 be d0 71 5d be 97 1e 51 be
       0.07340263 -0.19045359 -0.21625447 -0.20421825
000270 a9 0b c5 be 95 1a 17 bf a2 86 25 c0 25 9f 59 c0
       -0.38485458 -0.59024936 -2.5863423 -3.4003384
000280 39 d6 85 be 0a e7 41 bf d0 bc 98 bc 05 76 0a be
       -0.2614 -0.7574316 -0.01864472 -0.13521583
000290 6f 24 27 be b1 91 ca be 7e 54 d4 3e 37 04 17 3f
       -0.16322492 -0.3956428 0.41470712 0.58990806
0002a0 45 5c f4 bc d4 4b 6b be 1e e6 11 be 29 e9 e4 be
       -0.029829154 -0.22978145 -0.14247939 -0.44709137
0002b0 89 92 1a bf 9b 1e df bd 03 c7 24 bd 6a b1 a1 3c
       -0.60379845 -0.108945094 -0.040228855 0.019737918
0002c0 45 f9 a3 be bb 48 35 be 78 1b 20 3e 9a 6b 16 3e
       -0.32026115 -0.17703526 0.15635478 0.14689484
0002d0 3d 18 ee bc 69 86 8a bd cb 65 c6 3d 58 33 93 be
       -0.029064292 -0.06763918 0.09687384 -0.2875011
0002e0 57 2d 8a be 82 71 28 be ab 1e a8 be 85 b5 7b 3c
       -0.26987717 -0.1644955 -0.32835898 0.015363102
0002f0 67 c4 ca 3d 26 7f 88 be 8c 7b 83 be ec f8 96 be
       0.09900742 -0.26659507 -0.25680196 -0.29486787
000300 1f 41 66 bf 49 43 ce be 48 2d d1 be d0 29 bc 3e
       -0.89943117 -0.4028571 -0.4085486 0.3675065
000310 8b 8c ce bf 90 e7 4c bf 65 8c 02 3f 22 ad d1 3e
       -1.613664 -0.80040836 0.50995475 0.40952402
000320 8f 8b 73 be 32 57 5a be 37 e7 3d be 5d c9 94 bc
       -0.23783706 -0.21322325 -0.18545233 -0.018162424
000330 75 f0 7f 3b 1d 22 99 3d 9c 63 14 be e7 fe 1b be
       0.0039053236 0.0747721 -0.14491123 -0.15233956
000340 93 87 a3 be 34 9e a5 3e f7 b7 9a 3e 6c bf 58 bf
       -0.31939372 0.32347262 0.3021848 -0.84667087
000350 50 c2 20 3f 94 dc cb bf 65 63 26 3f 8a 2c 8b 3d
       0.627965 -1.592669 0.64995414 0.067956045
000360 02 fa 63 be 22 f0 b5 be 69 14 10 be cf 10 cb 3e
       -0.22263339 -0.3553477 -0.14070286 0.3966126
000370 20 c9 9c 3d cf e6 14 be c8 7e de 3d 47 38 13 be
       0.07655549 -0.14541171 0.10864025 -0.14376937
000380 ba 6a b3 3d f5 df 9c be 07 c4 86 bd 8a 59 14 be
       0.08760591 -0.30639616 -0.06580358 -0.14487281
000390 49 7c 8b 3d 83 7c 8b bd 9d 4d dd bd 83 6b d3 bd
       0.06810815 -0.06810858 -0.10805819 -0.103232406
0003a0 ab 9f 83 be 57 9f 1d 3c 7a 41 59 bd ab 86 6e be
       -0.25707754 0.009620509 -0.05304096 -0.23293559
0003b0 00 ad 0f 3d fb ee 86 bd f4 ee 9a be 5d 74 97 3d
       0.035077095 -0.06588551 -0.30260432 0.073952414
0003c0 c8 d8 75 bc 65 8d c7 be 9f 3c de bd 74 09 22 be
       -0.015005298 -0.38975063 -0.10851406 -0.15823919
0003d0 a5 90 30 3e 62 35 f3 bb 27 09 e4 be 85 7e b3 3d
       0.17242678 -0.007422135 -0.44538233 0.08764366
0003e0 e0 7f d5 3d c5 b6 35 be ed 38 ee bd cd 7e 0e bf
       0.10424781 -0.17745502 -0.116319515 -0.5566223
0003f0 62 d6 58 bd d0 ce f9 be fd 44 1d bd 96 52 d5 3d
       -0.052938826 -0.48790598 -0.03839587 0.10416143

linear1.bias f4 [256]
000000 59 5d 23 bd 79 30 9c be 9b 5a 62 be 5f da 07 3e
       -0.039883945 -0.30505732 -0.22104876 0.13266896
000010 e5 26 99 40 68 d6 15 be 3d de 9d be 2a 04 a2 3d
       4.785998 -0.1463257 -0.30833617 0.079109505
000020 ab df a0 bd ad 6f df bd a0 2d 34 bf 20 3b 81 3c
       -0.07855161 -0.10909972 -0.7038212 0.015775263
000030 cc 68 c8 be ae 08 a6 bf c4 ff 98 be 2b 31 ba be
       -0.39142454 -1.2971399 -0.29882634 -0.36365637
000040 31 ca b5 be 66 0a 10 be 1f bd 5b be 1d 5c 80 be
       -0.35505822 -0.14066467 -0.21458863 -0.25070277
000050 94 58 7e be 71 17 1a c0 a2 01 ae bc 1b e4 04 c0
       -0.24838477 -2.4076807 -0.021241013 -2.0764225
000060 e2 44 b7 bf 78 de 70 be 7c a1 36 be e7 94 a0 be
       -1.4317896 -0.23522365 -0.17835039 -0.31363603
000070 63 02 6e be f5 6c a7 be 6d d9 ba bd 2b 73 32 3c
       -0.23243098 -0.32700315 -0.09123502 0.010891716
000080 04 8b 73 be 87 cf 7f be fc ba 30 be 99 8e bb be
       -0.23783499 -0.24981509 -0.17258829 -0.3663223
000090 fb 9d b2 3d 7b 79 ba be 81 8e 2d be ae 42 af be
       0.08721539 -0.36420807 -0.16948892 -0.3423056
0000a0 5d aa 16 be 35 c8 2b be 57 72 f7 3f 13 5f 9c 3c
       -0.14713426 -0.16775592 1.9331769 0.019088304
0000b0 80 a6 58 bf 78 84 8d be 68 8d 54 be 4a b0 09 bf
       -0.8462906 -0.27640128 -0.20757067 -0.5378462
0000c0 9f 54 05 bf ff 2a 56 be c9 c7 b4 be d9 7d 12 c0
       -0.52082247 -0.20914839 -0.35308674 -2.2889311
0000d0 ce bb f7 bd b3 26 29 be 00 6d 0d 3e 3c 12 74 be
       -0.12096368 -0.16518669 0.13811111 -0.23835081
0000e0 ed af 3f be db e3 0c c0 2f b5 54 be 17 05 41 bc
       -0.18719454 -2.2014072 -0.20772241 -0.011780999
0000f0 bc 69 b4 bf a5 5d 4f c0 3e 60 d6 be 53 d2 97 be
       -1.4094768 -3.2400906 -0.41870302 -0.29652652
000100 8c 17 9d bd 79 02 0f be d3 58 11 3e 16 ff 3f 3f
       -0.07670507 -0.13965787 0.1419404 0.74998605
000110 0e 4b a3 bf 22 9c f1 bf e1 e5 0b c0 0c b6 57 bd
       -1.275728 -1.8875773 -2.1859057 -0.052663848
000120 9d e9 f6 bc 7a b2 40 c0 17 3b 76 3c 10 54 4b bd
       -0.030140692 -3.0108933 0.015028737 -0.049640715
000130 7e 42 86 be 75 05 4c bd 00 d2 21 bf d0 1f 0f be
       -0.26222605 -0.04980989 -0.6321106 -0.1397698
000140 76 08 47 c0 48 59 ce be 27 72 7b 40 be 68 b4 bd
       -3.1098914 -0.4030249 3.9288423 -0.088090405
000150 dc 45 9f be ce 6d 8a 3c 43 99 cd ba f5 88 bc be
       -0.31107986 0.016898062 -0.0015685934 -0.3682324
000160 83 eb ee be 55 30 30 be 19 c6 6a be 77 c5 25 3c
       -0.46664056 -0.17205937 -0.22927131 0.01011788
000170 0a ab 71 be c4 d5 39 be 49 1b 1d be 6a 1e 0a c0
       -0.23600402 -0.18147951 -0.1534244 -2.1581063
000180 0f 78 02 be e1 f0 40 40 0f 6d 0a be 45 25 7b bd
       -0.12741111 3.014702 -0.13518165 -0.06131484
000190 b1 3b 1f bf f2 7e 3e be c2 a9 8a 3b 47 1c d3 be
       -0.62200457 -0.18603113 0.0042316625 -0.4123251
0001a0 34 38 98 bd 9c 17 d7 bc 2d 20 03 c0 f6 07 c1 40
       -0.07432595 -0.026256375 -2.0488389 6.032222
0001b0 cb 65 71 be 59 90 80 bf 7c 99 1d be 51 2c 01 bf
       -0.23573987 -1.0044051 -0.15390581 -0.50458246
0001c0 7d ef 4e 3c ce 7f 4c be 8b 0a 0a bf b8 de 1f be
       0.012630341 -0.19970629 -0.5392234 -0.15612304
0001d0 3d a2 f0 3f 18 e7 1e 3b 7d 70 8b bd dc 37 a3 be
       1.8799511 0.002424663 -0.06808565 -0.31878555
0001e0 1e 33 2d 3d ee 71 38 3d 1f c1 d1 3d 72 20 bb bd
       0.042285077 0.045030527 0.10241913 -0.09137048
0001f0 9e f3 d7 be 50 3a c9 be 6d 16 3b be a6 ac 92 c0
       -0.42178053 -0.393023 -0.18270274 -4.5835752
000200 a5 ad cb bc e1 2c 08 bf ec ad f0 3c 0e 31 72 3d
       -0.024863074 -0.5319348 0.029379807 0.059128813
000210 6c 29 f8 bd 04 23 92 be 26 94 85 be fa b9 9f bf
       -0.121172756 -0.2854234 -0.2608959 -1.247863
000220 2a 4e 8f be 5b f5 d1 be 11 29 52 40 7d ba 36 bf
       -0.27989322 -0.41007504 3.2837565 -0.7137831
000230 41 22 9e be d4 78 8c be 76 d6 bc bd 03 d4 34 be
       -0.3088551 -0.27435935 -0.09220593 -0.17659001
000240 4a 76 9d be 90 dd 2a be cf 20 0d be af 7b 0a c0
       -0.3075431 -0.16686082 -0.13782047 -2.163799
000250 1a dd 9f be 48 41 e1 bd 65 82 a1 be 33 d9 9a be
       -0.31223375 -0.109987795 -0.31544796 -0.30243835
000260 9d d9 75 3d 99 1b 32 c0 c6 9f 74 be 8d cd 34 3d
       0.060021985 -2.7829344 -0.23889074 0.04414134
000270 f3 76 f2 be 65 95 a1 be ac 25 42 be 1b 33 b8 be
       -0.47356376 -0.3155929 -0.18959683 -0.3597649
000280 a9 23 8f bf 17 5c 22 be 93 3f 1b 3e 43 b6 36 bd
       -1.1182758 -0.15855442 0.1516097 -0.044607412
000290 3b 24 6c be f8 c9 cc bd 8e 11 a0 bd ad 96 84 be
       -0.23060696 -0.0999946 -0.07815848 -0.25896206
0002a0 6f 36 27 c0 46 c8 e3 40 b9 d7 2c bf f4 0d 3e be
       -2.6126974 7.1181974 -0.67516667 -0.1856001
0002b0 a4 25 89 bf c0 24 95 3d b5 6a 89 bc b8 50 aa be
       -1.0714612 0.072824 -0.016774515 -0.3326471
0002c0 5f a7 bf bd c9 95 89 3e 51 b9 81 be 60 cc 34 c0
       -0.093580954 0.2687209 -0.25336698 -2.824974
0002d0 c6 af 8b be 7d 5e 32 be 89 3d d5 be dc e2 6a 3d
       -0.27282542 -0.17418857 -0.4164851 0.057345256
0002e0 f8 79 9f bd 09 32 06 be 28 3f 8b be b7 ff f1 bc
       -0.077869356 -0.13105024 -0.27196622 -0.02954088
0002f0 ef 81 a8 be 1f ea 9c bf b6 f8 0b 40 ed cf 37 be
       -0.3291163 -1.2258948 2.187055 -0.17950411
000300 6a 2b df be 85 06 5a be fe c0 01 be 39 af b5 be
       -0.4358781 -0.2129155 -0.12671277 -0.35485247
000310 33 f8 fa be 07 33 1e be 53 52 27 3d 8a f5 b3 be
       -0.49017486 -0.15449153 0.040849995 -0.3514827
000320 00 b4 df bf 20 6e c2 bc dc a6 96 3f 15 94 dc be
       -1.7476807 -0.023734152 1.1769671 -0.43081728
000330 30 e3 c4 bd 49 c8 5b 3e 64 8f c9 be f2 42 11 bf
       -0.09613645 0.21463121 -0.3936721 -0.56742775
000340 54 d2 6c be 56 29 18 be ae 18 79 be 45 2b 9d be
       -0.23127109 -0.14859518 -0.24325821 -0.30697075
000350 b4 9f c3 bf 95 81 15 be a9 49 bc 3b 1b cb 82 bd
       -1.5283113 -0.14600213 0.0057460857 -0.063863955
000360 8a 4f 2c be da 1f 05 bf 02 05 20 be 51 d8 62 3c
       -0.16827217 -0.52001727 -0.1562691 0.013845519
000370 b1 fa 94 bd 75 49 1a be 74 b5 5a be 31 0a 83 3d
       -0.07274378 -0.15067084 -0.21358281 0.06398428
000380 d6 93 49 be e6 7e 13 be 48 41 10 c0 03 e2 4e bd
       -0.19685301 -0.14403877 -2.2539845 -0.05050851
000390 6e 23 a6 bd a4 59 e8 3f 69 95 e3 be 55 d2 2d be
       -0.081122264 1.8152356 -0.44449928 -0.16974767
0003a0 30 1e a8 be 35 7f 90 3f 63 bd 27 c0 e0 aa 88 be
       -0.3283553 1.128882 -2.6209342 -0.26692867
0003b0 b4 ca 3d be fa 25 bc bf 61 d0 84 3f 6a 98 b1 3d
       -0.18534356 -1.469909 1.0376092 0.08671649
0003c0 b1 0c bc be cd 6e 1f be ff e2 7d be 21 3f e1 3c
       -0.36728433 -0.15569611 -0.24793623 0.027495923
0003d0 19 3b ad be 8f 90 de be c3 f1 ee be 76 4d 6d be
       -0.3383415 -0.43469664 -0.46668825 -0.2317408
0003e0 7e ce 25 be 11 56 74 be a2 92 92 be e5 2e 46 40
       -0.16192052 -0.23860957 -0.28627497 3.0966122
0003f0 e5 6f c0 be 6d 6a 0d be 6d 26 ba 3e c9 73 22 bf
       -0.3758537 -0.1381013 0.36357442 -0.63457924

linear2.weight f4 [3, 256]
000000 76 3d 97 3d 06 f4 86 bc 72 7a 1e be a3 79 11 40
       0.073847696 -0.016473781 -0.15476397 2.273049
000010 43 7d 40 40 32 66 80 3d a5 3b 2c 3c 15 19 33 bd
       3.0076454 0.06269492 0.010512267 -0.043725092
000020 8a ab 04 3d a1 f1 bb 3e c3 5f eb 3d 0e c3 48 bd
       0.032390155 0.36707786 0.114928745 -0.049014144
000030 ce 8b c7 bc 3d 6f 57 be 68 a0 31 bc e2 9c d0 bc
       -0.024358656 -0.21038528 -0.0108414665 -0.025465433
000040 b1 c8 98 3d f2 69 09 3d ee 84 30 bc ad d2 03 bd
       0.07460154 0.033548303 -0.01077388 -0.032183338
000050 69 9d 8b ba fe fe a7 c0 51 f6 39 3d 52 63 8b 3f
       -0.001065177 -5.249877 0.04540092 1.0889685
000060 68 e1 a6 3f ee 35 e8 bc 89 40 e2 bb 7c 4b 39 3d
       1.3037539 -0.028346028 -0.006904666 0.045238003
000070 89 5e a0 3b b1 f6 b0 3b db 55 c4 bc 81 f1 cc 3c
       0.004894082 0.0054005017 -0.02396672 0.025017502
000080 1d 35 a6 3c b0 73 e2 3c b7 d7 40 bc 71 23 b4 3e
       0.020288998 0.027643055 -0.01177018 0.3518329
000090 b7 d9 f0 c0 29 a4 e8 3c 62 70 f9 3c f9 b5 86 3e
       -7.5265765 0.02839859 0.030449096 0.2631071
0000a0 13 96 98 3c 46 32 b6 3c 66 97 6f 3f 6d fa f9 bc
       0.018626248 0.02224077 0.9359039 -0.03051492
0000b0 fe d0 2d c0 57 29 b8 bc 5a 4d 38 3d b8 a1 14 3d
       -2.7158809 -0.02248065 0.044995643 0.03628704
0000c0 18 2e 2a be b0 bb 0b 3c b5 0f a6 3b 2d 4d 73 bf
       -0.16619146 0.008528635 0.0050677904 -0.95039636
0000d0 4f 7d d5 3c d6 b9 99 3c e4 e3 28 bd 38 87 0d bd
       0.026060728 0.018765371 -0.04123296 -0.034552783
0000e0 d3 ff dd 3c 6c 3a 2d c0 2e 44 9e 3c 94 58 46 bb
       0.027099526 -2.7066908 0.01931962 -0.00302652
0000f0 5f d8 36 40 8d a4 5a bf a9 5b 16 3e 55 6e 8b bb
       2.8569562 -0.85407335 0.14683403 -0.004255096
000100 27 a0 7b bd db 5e 07 bd eb c2 8c 3d 31 58 f3 3f
       -0.06143203 -0.033049446 0.06873115 1.9011289
000110 ac 1a ad bd 9e 1b f8 c0 f8 2e dd 3e a7 f5 2e bc
       -0.08452353 -7.7533712 0.43199897 -0.010678685
000120 a1 16 60 bc 7e 51 10 3f 75 b7 38 3c c8 0c 9e bc
       -0.01367727 0.5637435 0.011274208 -0.019293204
000130 68 7c df 3d 39 06 aa 3c fb 7c 5e 3d d3 0b 35 3c
       0.109124005 0.02075492 0.05431841 0.011050182
000140 89 7f ea bf 02 60 ce 3c ef b8 b3 3f 79 20 6a 3c
       -1.8320171 0.025192264 1.4040812 0.014289969
000150 09 1b da bc 4e 8a 83 3c 3b a5 15 bd 6f 05 c7 3d
       -0.02662422 0.01605716 -0.03653453 0.09717833
000160 28 a7 60 3d 76 fe a8 bc f7 1a e3 3c 86 ab 1f 3b
       0.054846913 -0.020629149 0.027722819 0.002436371
000170 56 c9 9f bc d8 c5 62 3c 1d e3 e4 bd 71 21 5c bf
       -0.019505184 0.013841115 -0.11176131 -0.8598853
000180 97 52 8f 3b 88 16 be 40 ab c3 5e be 90 f8 dc bc
       0.004373859 5.9402504 -0.21754329 -0.026973993
000190 16 03 62 c1 c3 f2 00 bd 81 ef 3c 3c 34 60 b4 3c
       -14.125753 -0.031481516 0.011531712 0.02201853
0001a0 a8 ae 08 bc 5d 24 cd 3c 0d 7c 61 bf 41 4d 1b 40
       -0.008342423 0.025041753 -0.8807991 2.4265902
0001b0 c4 cd 59 bd 08 ab 30 bf 80 d6 c0 3d 52 bc cd 3d
       -0.05317475 -0.6901097 0.09415913 0.10045685
0001c0 78 eb 5c 3a ea ee 2f 3e 37 a9 03 3d ca bb 2c bd
       0.00084274216 0.17180982 0.032143798 -0.042171277
0001d0 00 cb fa 3e 8e 53 e9 bf 5a e2 58 bd da 9e 94 bd
       0.48983002 -1.8228624 -0.05295024 -0.07256861
0001e0 2c 4c c8 bc 87 cb f8 bc c2 10 87 3a 25 d6 dd bc
       -0.024450384 -0.030370487 0.0010304677 -0.027079651
0001f0 75 69 d8 3d aa 9d 54 3c 17 12 34 3c fe f1 c9 3f
       0.10566989 0.012977043 0.010990641 1.5776975
000200 ac 8b 25 3d 33 08 de 3d ae 57 b5 3d b2 df 87 3d
       0.040416405 0.108414076 0.08854614 0.06634463
000210 3e 63 db bc 13 d6 0d bd a1 3a b2 bc 00 34 3f c0
       -0.02678072 -0.034627985 -0.021756472 -2.9875488
000220 45 b5 4d bd 37 58 01 3d 38 9a 50 40 87 76 6a 3d
       -0.0502217 0.03157827 3.2594128 0.057241943
000230 67 ac 8e 3d 62 1d 49 3d 31 12 2e 3b c3 c7 74 3d
       0.06966477 0.049100287 0.0026561136 0.05976082
000240 3a 03 f1 bc 2b 5a 85 3c c8 a6 c5 bc bf f6 81 c0
       -0.029420484 0.016278347 -0.024127379 -4.0613704
000250 77 76 0a 3e 49 09 fb 3b dd bf d0 3d 0a 98 8a bc
       0.13521753 0.007661019 0.10192845 -0.016918201
000260 7a 66 fb bc ca 19 82 bf ee 74 81 3c d0 08 82 40
       -0.030688513 -1.016412 0.015802827 4.0635757
000270 c8 41 f6 3d 23 fa d2 3c b8 9d 18 3d 4a f5 45 3d
       0.120242655 0.02575404 0.037259787 0.04832963
000280 68 b1 ef c0 12 fb d3 bc a1 ef 18 bd 51 66 0f b9
       -7.490406 -0.025876556 -0.037337903 -0.00013675659
000290 08 50 e3 bc c1 3f 88 3c 96 bb 6a bd 4e fd 8e 3c
       -0.027748123 0.016631963 -0.057307802 0.01745477
0002a0 ab 70 e2 bf d7 bd 94 40 01 9d a4 be 0f 3a 79 3c
       -1.7690634 4.648174 -0.32151034 0.015211596
0002b0 ea 8e 8f be d1 ab 9d bb a0 ae 09 bc 23 fe 3f 3c
       -0.28038722 -0.004811742 -0.00840345 0.011718306
0002c0 19 1b 48 3d 80 f4 75 3d ee 8d 26 bc f4 6a ba 3e
       0.048853967 0.060047626 -0.010165675 0.36409724
0002d0 c2 5c 66 bd 03 4d 8d 3c d1 07 bd 3e 44 4b ff 3b
       -0.056240804 0.017248636 0.36920026 0.007790955
0002e0 c9 ef f4 3c f4 06 5b bc 5c 94 2d 3a 30 d7 5d 3d
       0.029899495 -0.013368357 0.00066215335 0.054160297
0002f0 0f 09 e6 3c 27 8e ea bd e5 26 8c 40 e9 c7 13 3c
       0.028080491 -0.11452895 4.379748 0.00901983
000300 4f 30 e9 bc ed fb f3 3c 28 d9 a7 3c 56 92 53 3d
       -0.028465418 0.029783214 0.02048929 0.05165323
000310 72 19 3b 3e 50 f6 5b bd ea ca 29 bd 6f 7b a0 bc
       0.18271425 -0.0537017 -0.04145328 -0.019590108
000320 6e 84 02 c1 22 a6 e6 bd d0 3a af 3e 9b 55 8d 3c
       -8.157331 -0.11262156 0.34224558 0.017252734
000330 44 d6 05 3d 5d 7a af 40 64 73 69 3d 95 da c1 bb
       0.032675043 5.483687 0.05699481 -0.0059159496
000340 f2 ad 51 bd 74 62 e5 3c 85 49 1b bd ad 2a a2 bd
       -0.051191278 0.028001048 -0.03791191 -0.07918296
000350 5f 54 ba bf 12 39 cb 3c e3 c9 46 3c 76 d9 95 bc
       -1.4556998 0.024807487 0.0121330945 -0.01829217
000360 34 21 a8 b9 a7 0d bb 3e c0 23 32 3b 75 ef ff 3c
       -0.00032068195 0.36533853 0.0027181953 0.031242112
000370 e8 bc 02 bd 68 ae 1a bd 78 aa 9b bc 32 71 c5 3b
       -0.031918436 -0.037763983 -0.019002184 0.006025457
000380 1b 9c 22 be 12 a4 26 3b 3c d6 ec be 2e 25 bd 3c
       -0.15879862 0.0025427383 -0.46257198 0.023089018
000390 e9 a6 3f bc 56 f6 d3 c0 0e 1c 85 3d 04 3b 78 b9
       -0.011697509 -6.6238203 0.06499492 -0.00023673108
0003a0 c6 15 02 bd e8 bc 99 3e 70 3a 36 c1 67 f9 c1 3c
       -0.031759046 0.30026937 -11.389267 0.023678495
0003b0 98 be bb bc 20 da 50 c1 5c b0 9e bf 4b d0 b1 3c
       -0.02291803 -13.053253 -1.2397571 0.021705767
0003c0 e2 34 00 3e 4f df ba 3d 70 db 05 3d 20 31 8b bc
       0.12520173 0.09124624 0.032679975 -0.016991198
0003d0 cf 74 b5 bc a9 d1 dd bb e3 71 cc ba 00 71 be bc
       -0.022150425 -0.006769378 -0.0015597906 -0.023247242
0003e0 ca 52 0c bd 23 d5 d1 bc 75 e1 2e bd d9 d9 28 40
       -0.03425864 -0.025614327 -0.04269548 2.6382964
0003f0 a2 02 58 3b ae 06 15 3d 3d e5 17 3e 7e ef 0e 3e
       0.0032960554 0.036383323 0.14833541 0.13958547

linear2.bias f4 [3]
000000 e4 25 c7 40 c0 a4 7d 40 20 44 a8 40
       6.2233753 3.9631805 5.258316
