demo_videos/checkpoints_dqn/default/model_final_model.pth (torch, 23105 bytes, 4 tensors)

linear1.weight f4 [256, 16]
0	0x3e6b7e7b	0.22997467
1	0x3e322751	0.1739781
2	0xbd5cf1f5	-0.053941686
3	0x3e3cc5a0	0.18434763
4	0xbddc65f7	-0.10761636
5	0xbc4aedb2	-0.012385773
6	0xbe4f7714	-0.20260268
7	0x3dfbdd31	0.12298048
8	0x3e493a7e	0.19651219
9	0xbe3a753a	-0.18208781
10	0x3e35b382	0.17744258
11	0x3b44b698	0.003001606
12	0x3e495d47	0.19664489
13	0x3d88f4c0	0.06687307
14	0x3e17b323	0.14814429
15	0xbd740a0a	-0.059579886
16	0x3e308639	0.17238702
17	0x3d6a1ce3	0.057156455
18	0xbea3258e	-0.3186459
19	0x3db08f21	0.0862105
20	0x3e6896d4	0.22713786
21	0x39939a71	0.00028153093
22	0xbe64feb3	-0.22362785
23	0x3e7a196e	0.24423763
24	0xbdeee168	-0.116640866
25	0xbce0a349	-0.02742161
26	0xbc7b0eb4	-0.01532333
27	0xbdee2c6c	-0.116295666
28	0x3dba9764	0.09110907
29	0xbe4977c1	-0.19674589
30	0x3e8fdabb	0.28096566
31	0xbe2b29ca	-0.1671516
32	0x3d50cb6d	0.050975252
33	0xbe4fda81	-0.20298196
34	0xbd7985d7	-0.060918655
35	0xbd1e3f55	-0.038634617
36	0x3de69193	0.11258235
37	0x3e4fb06b	0.20282142
38	0xbe8c947a	-0.2745703
39	0xbe964d43	-0.2935582
40	0xbe614235	-0.21997912
41	0xbe9b7877	-0.30365345
42	0xbe1cd690	-0.15316224
43	0x3e0bfec3	0.13671403
44	0x3e928604	0.2861787
45	0x3dcb01eb	0.09912475
46	0x3e8c0918	0.27350688
47	0xbb273b7b	-0.002551763
48	0x3df737d5	0.12071196
49	0x3ce9323d	0.028466338
50	0xbec30370	-0.3808856
51	0xbd3bf33f	-0.045886274
52	0x3e4732fb	0.19453041
53	0x3e3f9dee	0.18712589
54	0xbda392a4	-0.07986954
55	0x3cea3d2a	0.028593618
56	0x3d0046d9	0.031317566
57	0xbbee8bcc	-0.0072798487
58	0x3e3ce72c	0.1844756
59	0xbe440900	-0.19144058
60	0x3d5a288f	0.053261336
61	0xbe05a8f3	-0.1305273
62	0x3da05215	0.07828156
63	0xbe22219f	-0.15833138
64	0x3eaa0755	0.3320872
65	0xbdbdae55	-0.09261767
66	0x3e2f1330	0.17097163
67	0xbe167650	-0.1469357
68	0xbf3dcfe3	-0.74145335
69	0x3e5fa43b	0.21839993
70	0x3f19dec8	0.6010556
71	0x3ec04c67	0.3755829
72	0x3ef3925b	0.47572598
73	0xbb957675	-0.0045612403
74	0x3ba289a9	0.004960258
75	0x3d9123f6	0.07086937
76	0x3d980e4b	0.07424601
77	0x3ea11a1f	0.3146524
78	0x3eb092dc	0.34487045
79	0x3f04188f	0.51599973
80	0xbea89a7d	-0.32930365
81	0xbede8ba8	-0.43465924
82	0x3dcbef4a	0.0995775
83	0xbc1be39c	-0.0095147155
84	0x3f6a954a	0.9163405
85	0xbd542816	-0.05179604
86	0x3dd1b092	0.10238756
87	0xbe444b18	-0.19169271
88	0xbd9c4f81	-0.07632352
89	0x3e1ae09b	0.15124743
90	0x3d95c20d	0.07312403
91	0xbbd2e6d7	-0.0064362097
92	0x3e278f64	0.16363293
93	0x3e3aecb0	0.18254352
94	0xbe390984	-0.18070036
95	0xbe42b37e	-0.19013783
96	0x3eabc8b9	0.33551577
97	0x3d449f88	0.048003703
98	0xbe37d1d2	-0.17951134
99	0xbec0a199	-0.3762329
100	0xbc0a6620	-0.0084472
101	0x3e154093	0.14575414
102	0x3ce69b26	0.028150152
103	0x3cb63ae5	0.02224488
104	0x3e340842	0.17581275
105	0xbcc8cc07	-0.02451135
106	0xbdacbdcb	-0.08434638
107	0xbc060c43	-0.008181634
108	0xbe003582	-0.12520412
109	0xbd7578e3	-0.05992974
110	0x3eb19b47	0.3468878
111	0x3e0257de	0.12728831
112	0x3d9dc71c	0.07703993
113	0xbe6ec466	-0.23317108
114	0xbe282254	-0.16419345
115	0xbdaa6c14	-0.083213955
116	0x3d201fc0	0.03909278
117	0xbe614286	-0.21998033
118	0xbddc9b64	-0.10771826
119	0xbe194258	-0.14966714
120	0x3a359e00	0.0006928146
121	0xbdbe8450	-0.0930258
122	0xbc8deaf0	-0.017323941
123	0xbe2d7924	-0.16940743
124	0xbe2fb798	-0.17159879
125	0xbe1559d2	-0.14585045
126	0xbdaf419c	-0.08557436
127	0xbe4a0e50	-0.19732022
128	0x3e90fba9	0.28317
129	0x3e81e56b	0.25370345
130	0x3deae0bb	0.11468645
131	0x3e114808	0.14187634
132	0x3ec16887	0.3777506
133	0x3e43520d	0.19074269
134	0xbe65b641	-0.22432806
135	0xbda4500d	-0.08023081
136	0xbdf75921	-0.12077547
137	0xbdc5832f	-0.09644162
138	0x3e5110d9	0.20416583
139	0x3d81097d	0.06300638
140	0x3e400823	0.18753104
141	0xbdf76a06	-0.12080769
142	0x3e6b23db	0.22962897
143	0xbe6501b9	-0.22363938
144	0x3e210b36	0.15726933
145	0x3dfd2c7d	0.12362001
146	0x3d6b0957	0.057381954
147	0x3e5b8f76	0.21441445
148	0x3f688f63	0.9084379
149	0xbe96f765	-0.29485622
150	0x3e11809c	0.14209217
151	0x3b309403	0.002694369
152	0x3dcdfbc0	0.10057783
153	0xbd5c6560	-0.053807616
154	0x3e82ac1d	0.25521937
155	0xbde3d2fa	-0.11124225
156	0x3e490c86	0.19633684
157	0x3e24a39a	0.16078034
158	0x3e3dfafb	0.18552773
159	0xbd0c3936	-0.034234248
160	0x3e629914	0.22128707
161	0x3e31644f	0.17323421
162	0x3d770a02	0.06031228
163	0xbd957575	-0.07297794
164	0x3f0f96b3	0.56089324
165	0xbd8119df	-0.06303763
166	0xbe47d3ad	-0.19514342
167	0x3e9b6095	0.30347124
168	0x3e3863f2	0.18006876
169	0xbc0d3595	-0.008618732
170	0xbd0aee3b	-0.0339186
171	0x3d110e0c	0.035413787
172	0x3e6bfa42	0.23044685
173	0xbca19bfc	-0.0197277
174	0xbe0599ff	-0.13047026
175	0xbcffbb3d	-0.031217212
176	0xbf33685d	-0.7008112
177	0x3e88e2d9	0.2673557
178	0x3e6a02df	0.22852658
179	0xbe6c7b29	-0.23093857
180	0x3f568e92	0.83811295
181	0x3dd21416	0.10257737
182	0x3d81edc8	0.06344181
183	0xbd0a24a8	-0.033726364
184	0x3e3d51e7	0.18488275
185	0x3e0a0fd4	0.134826
186	0x3da6313c	0.081148595
187	0x3c3460fe	0.011009453
188	0xbc557632	-0.013028668
189	0x3db492bd	0.088170506
190	0x3d0ac8f1	0.03388304
191	0xbc031e96	-0.008002898
192	0x3e2bfd72	0.167959
193	0x3ea899d3	0.3292986
194	0x3d38a2f5	0.045077283
195	0xbd5ae850	-0.053444207
196	0x3ee4fd9b	0.44724736
197	0xbc30a5ec	-0.010781746
198	0xbd0c4ab8	-0.034250945
199	0x3e23313d	0.15936752
200	0xbe086755	-0.13320668
201	0xbc80e3cd	-0.015733624
202	0x3e79f975	0.24411567
203	0x3e177daa	0.14794031
204	0x3dbd8c8f	0.09255325
205	0xbde777f7	-0.11302178
206	0xbe19ca90	-0.15018678
207	0xbe5061d6	-0.20349821
208	0x3d82005e	0.06347726
209	0x3e5acbdd	0.2136683
210	0x3d9c2521	0.07624269
211	0x3d548a14	0.051889494
212	0x3ee8fe4e	0.4550652
213	0xbe84f584	-0.25968564
214	0xbdb45f45	-0.08807234
215	0x3e912c5d	0.2835416
216	0x3dae3987	0.08507066
217	0xbd5e0c9b	-0.05421124
218	0x3d85ed7b	0.065394364
219	0xbdafa553	-0.08576455
220	0xbcdd9fad	-0.027053678
221	0x3e9206bb	0.2852076
222	0xbbc14961	-0.00589864
223	0x3d0a1beb	0.03371803
224	0xbe87f8d2	-0.26557022
225	0x3d753838	0.059868068
226	0x3db2b35f	0.087256186
227	0x3e234a62	0.15946344
228	0x3d8d43de	0.0689771
229	0xbdbb7b4c	-0.091543764
230	0xbf5e3fa4	-0.8681586
231	0x3ee49028	0.44641232
232	0x3ea0df84	0.3142053
233	0x3e4c46ee	0.19948933
234	0x3d3ee582	0.046605594
235	0x3b91629b	0.0044368035
236	0xbe793821	-0.24337818
237	0xbf0a4fb5	-0.54027873
238	0xbe106c9f	-0.14103936
239	0xbe129fa7	-0.14318715
240	0x3dc55fdc	0.09637424
241	0x3d05185d	0.032493938
242	0xbdd900f7	-0.10595887
243	0xbdcf9133	-0.101351164
244	0x3e540a42	0.20707038
245	0xbd73fad6	-0.059565388
246	0xbebc70cd	-0.3680481
247	0x3d818aba	0.06325288
248	0xbcba3aa1	-0.022733035
249	0x3e8f7a21	0.28022864
250	0x3d0690a3	0.03285278
251	0xbd9d0be0	-0.076682806
252	0x3dae1bf3	0.08501425
253	0xbc94d8a0	-0.018169701
254	0xbbbb8a01	-0.0057232385
255	0xbe2ba721	-0.16762973

linear1.bias f4 [256]
0	0xbe75b2bf	-0.23993967
1	0x3e6c5cb0	0.23082232
2	0x3e58c0eb	0.21167342
3	0x3e371b20	0.17881441
4	0x3e8f5b74	0.2799946
5	0x3e270bc1	0.16313078
6	0xbe009707	-0.12557612
7	0x3deaed24	0.11471012
8	0xbc570df4	-0.013125885
9	0xbe9b8b51	-0.30379727
10	0xbe67987e	-0.22616765
11	0xbe8562c4	-0.26051915
12	0x3d50db9d	0.05099069
13	0xbe4c9098	-0.19977033
14	0x3d24056c	0.040044233
15	0x3eb571de	0.35438436
16	0xbe457be0	-0.19285536
17	0x3d785492	0.060627528
18	0xbd344488	-0.04401067
19	0x3dd50318	0.10400981
20	0x3e05a7f8	0.13052356
21	0x3e1f49da	0.15555516
22	0x3d89665c	0.067089766
23	0xbdda0fbd	-0.10647533
24	0x3e130497	0.1435722
25	0xbbe457bb	-0.006968466
26	0xbe47d24b	-0.19513814
27	0x3c6d9553	0.014500934
28	0x3c586964	0.013208721
29	0x3d2fddf9	0.0429363
30	0x3da52bda	0.08065005
31	0x3e7e82ee	0.24854633
32	0x3e401a1a	0.18759957
33	0xbdffdfc2	-0.1249385
34	0xbe7efb3c	-0.24900526
35	0xbc9f2942	-0.019428853
36	0x3ea97c9f	0.3310289
37	0x3e836276	0.25661057
38	0xbe4284ae	-0.18995926
39	0xbd8626b2	-0.06550349
40	0x3e402be0	0.18766737
41	0xbd09424c	-0.03351049
42	0x3d4edbf6	0.05050274
43	0xbe866a95	-0.2625319
44	0x3d632700	0.055457115
45	0xbec2a54d	-0.3801674
46	0x3ec3f2ad	0.38271084
47	0x3d0e7eed	0.034789015
48	0xbd2a48da	-0.041573383
49	0xbdfb06eb	-0.12257179
50	0x3cd12784	0.025531538
51	0x3db125fa	0.086498216
52	0xbe277256	-0.1635221
53	0xbe2a4940	-0.16629505
54	0x3eea89ef	0.4580836
55	0x3e2c787e	0.16842839
56	0x3cec376a	0.028835017
57	0xbe1b0098	-0.15136945
58	0xbbea39ca	-0.0071480023
59	0xbd1f0e11	-0.038831774
60	0xbe4b1cc2	-0.19835189
61	0x3e18ba10	0.14914727
62	0x3dc8bd47	0.09801727
63	0x3e4b59e5	0.19858511
64	0x3e70b173	0.23505192
65	0xbd72dab8	-0.059290618
66	0x3d98f7a8	0.07469112
67	0xbe5ace01	-0.21367647
68	0x3dd9f7c5	0.106429614
69	0x3e396b2a	0.18107286
70	0x3cac4cea	0.02103277
71	0xbcf36891	-0.029712947
72	0x3de4a602	0.11164476
73	0xbe68fcfe	-0.22752759
74	0xbcee24f3	-0.029070353
75	0xbe40dd66	-0.18834457
76	0xbe98018f	-0.2968869
77	0xbe60d14e	-0.21954843
78	0xbe2f24c3	-0.17103867
79	0x3ea83afb	0.328575
80	0xbde9a819	-0.11409015
81	0x3ec6fbb2	0.38863903
82	0xbd62592c	-0.055260822
83	0x3e3d4a48	0.18485367
84	0x3d0af303	0.03392316
85	0x3e55a165	0.20862348
86	0x3c598d7c	0.013278361
87	0xbe5919ec	-0.21201295
88	0xbdf20bd2	-0.11818661
89	0x3eba1290	0.36342287
90	0x3eb78566	0.35843962
91	0xbe842502	-0.25809485
92	0x3ea28968	0.31745458
93	0xbcbaa6e3	-0.022784656
94	0x3ee95606	0.45573443
95	0x3ce63a27	0.028103901
96	0x3e80a036	0.2512223
97	0x3dee7eb1	0.11645258
98	0xbe085bf6	-0.1331633
99	0x3ee492dc	0.44643295
100	0xbe0a56de	-0.135097
101	0xbda38f63	-0.07986333
102	0xbdcd5d42	-0.10027553
103	0xbe83c0b4	-0.25732958
104	0xbde6db80	-0.11272335
105	0x3d831490	0.06400406
106	0x3e35eef5	0.17766936
107	0xbe843036	-0.25818032
108	0xbdc61896	-0.09672658
109	0x3e9affed	0.3027338
110	0xbe81cb9a	-0.25350648
111	0x3e6d1de1	0.23155929
112	0xbe6026ef	-0.21889852
113	0x3cdfd813	0.027324712
114	0xbe8a24c3	-0.26981172
115	0x3dd60d3c	0.10451743
116	0x3e6b8131	0.22998501
117	0x3e6ddd24	0.2322889
118	0x3e0476bd	0.1293592
119	0x3de5d650	0.112225175
120	0x3e310eb2	0.17290762
121	0xbe8acdf1	-0.27110246
122	0x3e2d9a86	0.16953477
123	0x3d9f9872	0.077927485
124	0xbeb2eda9	-0.34946945
125	0xbe442e4a	-0.19158283
126	0xbd8d64b1	-0.06903971
127	0x3ebef3a9	0.37295273
128	0xbea3cd86	-0.3199274
129	0xbe8d0d42	-0.27549177
130	0x3e322cbf	0.17399882
131	0xbdae04d7	-0.08497017
132	0xbdfb0f15	-0.12258736
133	0xbe86a0f5	-0.26294675
134	0x3dd84f7e	0.10562037
135	0xbe51a810	-0.20474267
136	0x3e1f392a	0.1554915
137	0x3e5ecf8f	0.21758865
138	0xbcce668d	-0.025195384
139	0x3e00067e	0.12502477
140	0xbd2f1cae	-0.04275196
141	0x3e8aeb7d	0.27132788
142	0x3dfbf2d7	0.123021774
143	0xbe3ed59f	-0.18636177
144	0x3dea0fee	0.114288196
145	0xbda4d633	-0.08048668
146	0xbd958042	-0.07299854
147	0x3eb0bc56	0.3451869
148	0x3d6eb0d3	0.0582741
149	0xbe262ca2	-0.16227964
150	0x3e8287c7	0.25494215
151	0xbe2116f2	-0.15731409
152	0x3e6cdac6	0.2313033
153	0xbe5a55b9	-0.21321763
154	0x3e91408f	0.28369567
155	0x3d74e47b	0.05978821
156	0xbd06d68a	-0.032919444
157	0xbd19a75c	-0.037513122
158	0xbdffbb65	-0.124869145
159	0xbe181cff	-0.14854811
160	0x3dd38322	0.10327746
161	0x3ecd2381	0.4006615
162	0xbe0b1e75	-0.13585837
163	0x3e40f718	0.18844259
164	0xbcd23771	-0.025661202
165	0xbd83f6e5	-0.06443576
166	0x3d53b8db	0.051689964
167	0x3e150edb	0.14556448
168	0xbe7bf781	-0.24606134
169	0x3d1cf85e	0.0383228
170	0xbe9fe454	-0.31228888
171	0xbd520e4b	-0.051283162
172	0xbe569b4c	-0.20957679
173	0x3d008435	0.031376082
174	0x3e1470fa	0.14496222
175	0x3cb1575e	0.021648105
176	0xbe5a03af	-0.21290468
177	0x3d895de9	0.06707365
178	0x3c84102d	0.016120994
179	0x3e1bf4b6	0.15230069
180	0x3e89e475	0.2693211
181	0xbe6d29f8	-0.23160541
182	0x3eb490c0	0.35266685
183	0x3e3b61cf	0.1829903
184	0x3e9d9546	0.3077795
185	0xbe60a436	-0.21937642
186	0xbdc078c5	-0.09398035
187	0xbdfed64e	-0.12443219
188	0x3e672ab4	0.22574884
189	0x3e78b944	0.24289423
190	0x3ba232d7	0.0049499082
191	0x3e1b8e0e	0.15190908
192	0x3e5cb248	0.21552384
193	0x3d4e2212	0.05032546
194	0xbe0e1c17	-0.13877903
195	0x3df225ef	0.118236415
196	0x3d29d16e	0.041459493
197	0xbdc1c651	-0.09461654
198	0xbc0fc734	-0.008775521
199	0xbe57d828	-0.21078551
200	0xbd4b8d2a	-0.04969517
201	0x3d147a9a	0.036249734
202	0xbe474b7b	-0.19462387
203	0xbe3e0665	-0.18557127
204	0x3e5cce81	0.2156315
205	0x3c2ff49f	0.010739475
206	0x3b715c9b	0.0036828879
207	0x3d5392e1	0.051653747
208	0xbdbf3571	-0.09336365
209	0x3ee74fda	0.4517811
210	0xbdda088c	-0.106461614
211	0xbe2b2e08	-0.16716778
212	0x3ebdc846	0.3706686
213	0xbe55fd36	-0.20897374
214	0xbd093ac9	-0.033503328
215	0x3d85570c	0.065107435
216	0x3e62261b	0.22084849
217	0x3dd7e047	0.105408244
218	0xbe3ca24c	-0.18421286
219	0xbd96a6b0	-0.07356012
220	0x3e5c658f	0.21523117
221	0x3e240045	0.16015728
222	0x3ded7b02	0.115957275
223	0xbe543176	-0.20721993
224	0x3e47e140	0.1951952
225	0x3e7194f2	0.23591974
226	0x3e2cd77b	0.16879074
227	0x3c3f1be5	0.011664365
228	0xbdbd124c	-0.092320055
229	0x3f2aeabf	0.66764444
230	0x3e3f1b88	0.18662846
231	0xbd4bc0b4	-0.049744323
232	0x3e9c7a46	0.30562037
233	0x3e5b0a45	0.21390636
234	0x3d3a97b3	0.045554828
235	0xbed0e52f	-0.40799853
236	0xbd8e2641	-0.0694089
237	0x3dee8570	0.11646545
238	0xbe6ccb36	-0.23124394
239	0x3e1554bc	0.14583105
240	0xbe2d5374	-0.16926366
241	0xbe689c57	-0.22715889
242	0xbdfc9a41	-0.12334109
243	0x3dccc8b4	0.099992186
244	0x3ea46c33	0.321138
245	0x3daab260	0.083348036
246	0x3e66e5c4	0.22548586
247	0xbd0140f9	-0.031556103
248	0x3c0af249	0.008480617
249	0x3e0becbc	0.13664526
250	0xbd0595c9	-0.03261355
251	0x3e150e3d	0.14556213
252	0xbe79027e	-0.24317357
253	0x3e6bba99	0.230204
254	0xbe3e96a8	-0.18612158
255	0xbc2a44a4	-0.010392342

linear2.weight f4 [3, 256]
0	0xbde300c5	-0.11084131
1	0xbe195259	-0.1497282
2	0x3df812c4	0.12112954
3	0xbbee6aed	-0.00727593
4	0x3e9b6741	0.30352214
5	0xbeeb246e	-0.4592623
6	0xbd629924	-0.055321828
7	0xbd2611a4	-0.040544167
8	0xbe83caf5	-0.2574078
9	0xbe8ad122	-0.2711268
10	0xbdfc2a14	-0.12312713
11	0xbea190fc	-0.31555927
12	0xbda9168d	-0.08256254
13	0xbdca4d0c	-0.09877977
14	0xbebcf96f	-0.36909053
15	0xbe80d032	-0.2515884
16	0xbed5dbdd	-0.41769305
17	0xbd86f999	-0.06590576
18	0xbd1682e6	-0.03674593
19	0x3ea7eb85	0.32796875
20	0xbeb95bc8	-0.36202836
21	0xbd74f2d3	-0.059801888
22	0xbe3c5af6	-0.18394074
23	0xbe2853ff	-0.16438292
24	0xbdfcde86	-0.123471305
25	0xbe346734	-0.17617494
26	0xbe55fe2b	-0.20897739
27	0xbdc472fb	-0.09592243
28	0xbd1e0ed2	-0.038588353
29	0x3e8229e4	0.25422585
30	0x3e516e81	0.2045231
31	0x3e85e891	0.26153997
32	0x3e94e2d6	0.29079312
33	0xbd03508d	-0.03205924
34	0xbe55626c	-0.20838326
35	0xbd897015	-0.06710831
36	0x3e373cf3	0.17894344
37	0xbe98b95b	-0.29828915
38	0xbdc6eeb1	-0.097134955
39	0xbdfe6c60	-0.12423015
40	0x3e7d63d2	0.2474511
41	0xbdd7d2f5	-0.10538284
42	0xbe0ee20d	-0.13953419
43	0xbe519f8a	-0.20471016
44	0xbe917de7	-0.28416368
45	0xbeb21d67	-0.34788057
46	0x3cc28031	0.023742767
47	0xbe4a30ec	-0.19745225
48	0xbe7d3ec4	-0.24730974
49	0xbd03e437	-0.032200065
50	0xbe4d2dd0	-0.20037007
51	0xbd6f15a8	-0.058370262
52	0xbd27bb5a	-0.040950157
53	0xbdd0ba6c	-0.10191807
54	0x3e69feba	0.22851077
55	0x3e8a1861	0.26971725
56	0x3e8b469a	0.27202302
57	0xbe2ff4a0	-0.17183161
58	0xbe5d0693	-0.21584539
59	0xbe6e3c2e	-0.23265144
60	0xbf1470fb	-0.57984895
61	0x3e82de50	0.25560236
62	0xbd99a639	-0.075024076
63	0xbe273124	-0.1632734
64	0xbcc225ac	-0.023699604
65	0xbe987af3	-0.29781303
66	0xbd354b65	-0.044261355
67	0xbe198032	-0.14990309
68	0xbe0ad834	-0.13559037
69	0xbd385775	-0.04500528
70	0xbe6d8769	-0.23196186
71	0x3e9651b0	0.29359198
72	0x3cf62a8f	0.03004959
73	0xbe45edee	-0.19329044
74	0x3dd1f0ec	0.1025103
75	0xbe0e2085	-0.13879593
76	0xbe1e47a4	-0.15457016
77	0xbd96325f	-0.07333826
78	0xbe139d35	-0.14415438
79	0x3e6c0db2	0.230521
80	0xbe7e985a	-0.24862805
81	0x3df95714	0.12174812
82	0xbde79586	-0.11307816
83	0xbe688c87	-0.22709857
84	0xbd811124	-0.063020974
85	0xbe05b590	-0.13057542
86	0xbe74901f	-0.23883103
87	0x3d57c8ee	0.052681856
88	0xbe03d411	-0.12873866
89	0x3e443246	0.19159803
90	0x3d2822d6	0.041048847
91	0xbd38d1f3	-0.0451221
92	0x3e1d1690	0.15340638
93	0xbdb73030	-0.08944738
94	0x3e30a043	0.17248635
95	0xbe2e102e	-0.1699836
96	0x3c6e05ea	0.014527777
97	0xbe088e11	-0.13335444
98	0xbe80f517	-0.2518699
99	0xbf873239	-1.0562202
100	0xbe400871	-0.1875322
101	0xbe676314	-0.22596389
102	0xbeb349b5	-0.35017172
103	0xbe43a8d5	-0.19107373
104	0xbe130787	-0.1435834
105	0xbe3b570d	-0.18294926
106	0x3e638640	0.22219181
107	0xbe842b87	-0.2581446
108	0xbe54cbd1	-0.20780875
109	0x3df4bb9d	0.11949847
110	0xbe99cf04	-0.30040753
111	0xbdeed0ba	-0.11660905
112	0xbd2af8eb	-0.041741293
113	0xbd92f1ff	-0.07175063
114	0xbd827777	-0.06370442
115	0x3e531b8f	0.20615982
116	0x3e8976a9	0.26848343
117	0xbe149468	-0.14509737
118	0xbde41e23	-0.111385606
119	0xbec724ff	-0.38895413
120	0xbe20a7d4	-0.15689021
121	0xbe9e9f74	-0.30981028
122	0xbd74db6d	-0.059779573
123	0xbd3fa40f	-0.046787318
124	0xbec86558	-0.3913982
125	0xbd7747e2	-0.060371287
126	0xbe895b55	-0.26827493
127	0x3e7dfd44	0.24803644
128	0xbefd6b7c	-0.49496067
129	0xbdc99500	-0.098428726
130	0xbe556215	-0.20838197
131	0xbe8ecb5b	-0.27889523
132	0xbd9c7ead	-0.07641349
133	0xbf4618fa	-0.7738186
134	0xbd678490	-0.056522906
135	0xbea5c75b	-0.3237866
136	0xbdca13f1	-0.09867085
137	0x3e8a112b	0.26966223
138	0xbde2dd10	-0.110773206
139	0xbe12a057	-0.14318977
140	0xbdb66e02	-0.08907701
141	0x3e5fac27	0.21843015
142	0xbe661298	-0.2246803
143	0xbe0eee58	-0.13958108
144	0xbd8f7091	-0.07003892
145	0xbe649541	-0.22322561
146	0xbe10b4ed	-0.14131518
147	0x3e679f26	0.22619304
148	0xbdef36c3	-0.11680367
149	0xbe26eca1	-0.16301204
150	0xbf888934	-1.0666871
151	0xbe1df97a	-0.15427199
152	0x3d71f340	0.059069872
153	0xbe1c3ea4	-0.1525827
154	0xbe408444	-0.18800455
155	0xbe220e9b	-0.15825884
156	0xbe4e1cff	-0.20128249
157	0xbeb16709	-0.34648922
158	0xbe664ff0	-0.22491431
159	0xbd82f848	-0.06395012
160	0xbd3dc5ab	-0.04633109
161	0x3e679e8f	0.22619079
162	0xbe1a4323	-0.15064673
163	0xbddf196a	-0.10893519
164	0xbe2adc42	-0.16685584
165	0xbe5778ab	-0.21042125
166	0xbf4cf8b6	-0.80067
167	0xbee531c6	-0.44764537
168	0xbe6295ba	-0.22127429
169	0xbec5e090	-0.3864789
170	0xbe9f5d07	-0.31125662
171	0xbddaa54a	-0.10676058
172	0xbdf20e69	-0.11819155
173	0xbdff4b23	-0.12465503
174	0xbce9412f	-0.028473465
175	0xbe212a17	-0.15738712
176	0xbee11073	-0.43957862
177	0x3e716858	0.2357496
178	0x3e6a96c2	0.22909072
179	0x3ea2edf7	0.31822178
180	0xbeafdd8e	-0.3434872
181	0xbe27ad3b	-0.16374676
182	0x3e3bbb2f	0.18333124
183	0xbf4c4550	-0.7979326
184	0x3e535f6b	0.20641868
185	0xbd2b7194	-0.041856363
186	0xbded61c5	-0.11590914
187	0xbe0df752	-0.13863876
188	0xbe53030c	-0.20606631
189	0x3e9e5d48	0.30930543
190	0xbd9678be	-0.073472485
191	0xbe4734b7	-0.19453703
192	0xbcf80e5e	-0.030280288
193	0xbdd95103	-0.10611155
194	0x3cba6c0e	0.022756603
195	0xbe803a43	-0.2504445
196	0xbe613fc7	-0.21996985
197	0xbd8a5836	-0.06755106
198	0x3cd1d2e2	0.025613252
199	0xbe06157b	-0.13094132
200	0xbdefd8b1	-0.117112525
201	0xbc8c7f79	-0.017150627
202	0xbe297967	-0.16550218
203	0xbdd48af2	-0.10378064
204	0xbeb82c1c	-0.35971153
205	0xbd3d1779	-0.046164963
206	0xbe081bf8	-0.13291919
207	0xbe697ad8	-0.22800767
208	0xbe811a74	-0.25215495
209	0x3e831003	0.25598153
210	0xbe2d19ab	-0.16904323
211	0xbea4fd56	-0.3222453
212	0x3e873ee9	0.26415184
213	0xbe2a89bf	-0.16654108
214	0x3d02d62b	0.031942528
215	0xbee55f9b	-0.44799504
216	0x3e92da6c	0.28682268
217	0xbe318b6e	-0.17338344
218	0xbcef9a83	-0.029248482
219	0xbe607008	-0.21917737
220	0x3e8a1cc7	0.2697508
221	0xbe83f86f	-0.25775477
222	0xbe329856	-0.17440924
223	0xbe40906e	-0.18805096
224	0xbe965418	-0.29361033
225	0x3e129b05	0.14316948
226	0xbe32f310	-0.17475533
227	0xbca5c7e5	-0.020236919
228	0x3f8c2857	1.0949811
229	0xc002ee77	-2.0458047
230	0x3e91d197	0.28480217
231	0xbec9827c	-0.39357364
232	0x3e656c09	0.22404493
233	0xbe096804	-0.13418585
234	0xbe0d2d17	-0.13786732
235	0xbf082906	-0.53187597
236	0xbc73c1a9	-0.014877715
237	0xbe97f860	-0.29681683
238	0xbe9b5049	-0.3033469
239	0x3e84706a	0.25867015
240	0xbe51eb68	-0.20499957
241	0xbe449ca1	-0.19200374
242	0xbf176424	-0.5913718
243	0xbe4e3028	-0.20135558
244	0x3e3ad9c7	0.18247138
245	0xbe33c16f	-0.17554258
246	0x3fdf230d	1.7432572
247	0xbe00d8f3	-0.1258276
248	0xbdd3a8f6	-0.10334961
249	0xbeb3b004	-0.35095227
250	0x3e423965	0.18967207
251	0xbf1c06e0	-0.6094799
252	0xbe1d7d80	-0.15379906
253	0xbd1fdd34	-0.039029315
254	0xbeaed34c	-0.34145582
255	0xbebc4a1d	-0.36775294

linear2.bias f4 [3]
0	0x3e34a290	0.17640138
1	0x3d979078	0.07400602
2	0x3da67da3	0.08129432
